{"class_name": "Model", "config": {"input_layers": [["input_4", 0, 0]], "name": "NASNet", "output_layers": [["predictions", 0, 0]], "layers": [{"class_name": "InputLayer", "config": {"batch_input_shape": [null, 32, 32, 3], "sparse": false, "dtype": "float32", "name": "input_4"}, "inbound_nodes": [], "name": "input_4"}, {"class_name": "Conv2D", "config": {"kernel_size": [3, 3], "dilation_rate": [1, 1], "filters": 32, "padding": "same", "bias_initializer": {"class_name": "Zeros", "config": {}}, "name": "stem_conv1", "strides": [1, 1], "kernel_initializer": {"class_name": "VarianceScaling", "config": {"scale": 2.0, "mode": "fan_in", "distribution": "normal", "seed": null}}, "trainable": true, "bias_constraint": null, "data_format": "channels_last", "activation": "linear", "use_bias": false, "kernel_regularizer": {"class_name": "L1L2", "config": {"l1": 0.0, "l2": 0.0005000000237487257}}, "kernel_constraint": null, "bias_regularizer": null, "activity_regularizer": null}, "inbound_nodes": [[["input_4", 0, 0, {}]]], "name": "stem_conv1"}, {"class_name": "BatchNormalization", "config": {"beta_regularizer": null, "center": true, "trainable": true, "gamma_constraint": null, "axis": -1, "gamma_initializer": {"class_name": "Ones", "config": {}}, "moving_variance_initializer": {"class_name": "Ones", "config": {}}, "moving_mean_initializer": {"class_name": "Zeros", "config": {}}, "epsilon": 1e-05, "gamma_regularizer": null, "scale": true, "beta_constraint": null, "beta_initializer": {"class_name": "Zeros", "config": {}}, "momentum": 0.9, "name": "stem_bn1"}, "inbound_nodes": [[["stem_conv1", 0, 0, {}]]], "name": "stem_bn1"}, {"class_name": "Activation", "config": {"activation": "relu", "trainable": true, "name": "activation_376"}, "inbound_nodes": [[["stem_bn1", 0, 0, {}]]], "name": "activation_376"}, {"class_name": "Conv2D", "config": {"kernel_size": [1, 1], "dilation_rate": [1, 1], "filters": 32, "padding": "same", "bias_initializer": {"class_name": "Zeros", "config": {}}, "name": "normal_conv_1_0", "strides": [1, 1], "kernel_initializer": {"class_name": "VarianceScaling", "config": {"scale": 2.0, "mode": "fan_in", "distribution": "normal", "seed": null}}, "trainable": true, "bias_constraint": null, "data_format": "channels_last", "activation": "linear", "use_bias": false, "kernel_regularizer": {"class_name": "L1L2", "config": {"l1": 0.0, "l2": 0.0005000000237487257}}, "kernel_constraint": null, "bias_regularizer": null, "activity_regularizer": null}, "inbound_nodes": [[["activation_376", 0, 0, {}]]], "name": "normal_conv_1_0"}, {"class_name": "BatchNormalization", "config": {"beta_regularizer": null, "center": true, "trainable": true, "gamma_constraint": null, "axis": -1, "gamma_initializer": {"class_name": "Ones", "config": {}}, "moving_variance_initializer": {"class_name": "Ones", "config": {}}, "moving_mean_initializer": {"class_name": "Zeros", "config": {}}, "epsilon": 1e-05, "gamma_regularizer": null, "scale": true, "beta_constraint": null, "beta_initializer": {"class_name": "Zeros", "config": {}}, "momentum": 0.9, "name": "normal_bn_1_0"}, "inbound_nodes": [[["normal_conv_1_0", 0, 0, {}]]], "name": "normal_bn_1_0"}, {"class_name": "Activation", "config": {"activation": "relu", "trainable": true, "name": "activation_377"}, "inbound_nodes": [[["normal_bn_1_0", 0, 0, {}]]], "name": "activation_377"}, {"class_name": "Activation", "config": {"activation": "relu", "trainable": true, "name": "activation_379"}, "inbound_nodes": [[["stem_bn1", 0, 0, {}]]], "name": "activation_379"}, {"class_name": "Activation", "config": {"activation": "relu", "trainable": true, "name": "activation_381"}, "inbound_nodes": [[["stem_bn1", 0, 0, {}]]], "name": "activation_381"}, {"class_name": "Activation", "config": {"activation": "relu", "trainable": true, "name": "activation_383"}, "inbound_nodes": [[["stem_bn1", 0, 0, {}]]], "name": "activation_383"}, {"class_name": "Activation", "config": {"activation": "relu", "trainable": true, "name": "activation_385"}, "inbound_nodes": [[["normal_bn_1_0", 0, 0, {}]]], "name": "activation_385"}, {"class_name": "SeparableConv2D", "config": {"kernel_size": [5, 5], "dilation_rate": [1, 1], "filters": 32, "bias_initializer": {"class_name": "Zeros", "config": {}}, "depthwise_regularizer": null, "strides": [1, 1], "data_format": "channels_last", "trainable": true, "bias_constraint": null, "name": "separable_conv_1_normal_left1_0", "depth_multiplier": 1, "pointwise_initializer": {"class_name": "VarianceScaling", "config": {"scale": 1.0, "mode": "fan_avg", "distribution": "uniform", "seed": null}}, "padding": "same", "pointwise_regularizer": null, "bias_regularizer": null, "depthwise_constraint": null, "activation": "linear", "use_bias": false, "pointwise_constraint": null, "depthwise_initializer": {"class_name": "VarianceScaling", "config": {"scale": 1.0, "mode": "fan_avg", "distribution": "uniform", "seed": null}}, "activity_regularizer": null}, "inbound_nodes": [[["activation_377", 0, 0, {}]]], "name": "separable_conv_1_normal_left1_0"}, {"class_name": "SeparableConv2D", "config": {"kernel_size": [3, 3], "dilation_rate": [1, 1], "filters": 32, "bias_initializer": {"class_name": "Zeros", "config": {}}, "depthwise_regularizer": null, "strides": [1, 1], "data_format": "channels_last", "trainable": true, "bias_constraint": null, "name": "separable_conv_1_normal_right1_0", "depth_multiplier": 1, "pointwise_initializer": {"class_name": "VarianceScaling", "config": {"scale": 1.0, "mode": "fan_avg", "distribution": "uniform", "seed": null}}, "padding": "same", "pointwise_regularizer": null, "bias_regularizer": null, "depthwise_constraint": null, "activation": "linear", "use_bias": false, "pointwise_constraint": null, "depthwise_initializer": {"class_name": "VarianceScaling", "config": {"scale": 1.0, "mode": "fan_avg", "distribution": "uniform", "seed": null}}, "activity_regularizer": null}, "inbound_nodes": [[["activation_379", 0, 0, {}]]], "name": "separable_conv_1_normal_right1_0"}, {"class_name": "SeparableConv2D", "config": {"kernel_size": [5, 5], "dilation_rate": [1, 1], "filters": 32, "bias_initializer": {"class_name": "Zeros", "config": {}}, "depthwise_regularizer": null, "strides": [1, 1], "data_format": "channels_last", "trainable": true, "bias_constraint": null, "name": "separable_conv_1_normal_left2_0", "depth_multiplier": 1, "pointwise_initializer": {"class_name": "VarianceScaling", "config": {"scale": 1.0, "mode": "fan_avg", "distribution": "uniform", "seed": null}}, "padding": "same", "pointwise_regularizer": null, "bias_regularizer": null, "depthwise_constraint": null, "activation": "linear", "use_bias": false, "pointwise_constraint": null, "depthwise_initializer": {"class_name": "VarianceScaling", "config": {"scale": 1.0, "mode": "fan_avg", "distribution": "uniform", "seed": null}}, "activity_regularizer": null}, "inbound_nodes": [[["activation_381", 0, 0, {}]]], "name": "separable_conv_1_normal_left2_0"}, {"class_name": "SeparableConv2D", "config": {"kernel_size": [3, 3], "dilation_rate": [1, 1], "filters": 32, "bias_initializer": {"class_name": "Zeros", "config": {}}, "depthwise_regularizer": null, "strides": [1, 1], "data_format": "channels_last", "trainable": true, "bias_constraint": null, "name": "separable_conv_1_normal_right2_0", "depth_multiplier": 1, "pointwise_initializer": {"class_name": "VarianceScaling", "config": {"scale": 1.0, "mode": "fan_avg", "distribution": "uniform", "seed": null}}, "padding": "same", "pointwise_regularizer": null, "bias_regularizer": null, "depthwise_constraint": null, "activation": "linear", "use_bias": false, "pointwise_constraint": null, "depthwise_initializer": {"class_name": "VarianceScaling", "config": {"scale": 1.0, "mode": "fan_avg", "distribution": "uniform", "seed": null}}, "activity_regularizer": null}, "inbound_nodes": [[["activation_383", 0, 0, {}]]], "name": "separable_conv_1_normal_right2_0"}, {"class_name": "SeparableConv2D", "config": {"kernel_size": [3, 3], "dilation_rate": [1, 1], "filters": 32, "bias_initializer": {"class_name": "Zeros", "config": {}}, "depthwise_regularizer": null, "strides": [1, 1], "data_format": "channels_last", "trainable": true, "bias_constraint": null, "name": "separable_conv_1_normal_left5_0", "depth_multiplier": 1, "pointwise_initializer": {"class_name": "VarianceScaling", "config": {"scale": 1.0, "mode": "fan_avg", "distribution": "uniform", "seed": null}}, "padding": "same", "pointwise_regularizer": null, "bias_regularizer": null, "depthwise_constraint": null, "activation": "linear", "use_bias": false, "pointwise_constraint": null, "depthwise_initializer": {"class_name": "VarianceScaling", "config": {"scale": 1.0, "mode": "fan_avg", "distribution": "uniform", "seed": null}}, "activity_regularizer": null}, "inbound_nodes": [[["activation_385", 0, 0, {}]]], "name": "separable_conv_1_normal_left5_0"}, {"class_name": "BatchNormalization", "config": {"beta_regularizer": null, "center": true, "trainable": true, "gamma_constraint": null, "axis": -1, "gamma_initializer": {"class_name": "Ones", "config": {}}, "moving_variance_initializer": {"class_name": "Ones", "config": {}}, "moving_mean_initializer": {"class_name": "Zeros", "config": {}}, "epsilon": 1e-05, "gamma_regularizer": null, "scale": true, "beta_constraint": null, "beta_initializer": {"class_name": "Zeros", "config": {}}, "momentum": 0.9, "name": "separable_conv_1_bn_normal_left1_0"}, "inbound_nodes": [[["separable_conv_1_normal_left1_0", 0, 0, {}]]], "name": "separable_conv_1_bn_normal_left1_0"}, {"class_name": "BatchNormalization", "config": {"beta_regularizer": null, "center": true, "trainable": true, "gamma_constraint": null, "axis": -1, "gamma_initializer": {"class_name": "Ones", "config": {}}, "moving_variance_initializer": {"class_name": "Ones", "config": {}}, "moving_mean_initializer": {"class_name": "Zeros", "config": {}}, "epsilon": 1e-05, "gamma_regularizer": null, "scale": true, "beta_constraint": null, "beta_initializer": {"class_name": "Zeros", "config": {}}, "momentum": 0.9, "name": "separable_conv_1_bn_normal_right1_0"}, "inbound_nodes": [[["separable_conv_1_normal_right1_0", 0, 0, {}]]], "name": "separable_conv_1_bn_normal_right1_0"}, {"class_name": "BatchNormalization", "config": {"beta_regularizer": null, "center": true, "trainable": true, "gamma_constraint": null, "axis": -1, "gamma_initializer": {"class_name": "Ones", "config": {}}, "moving_variance_initializer": {"class_name": "Ones", "config": {}}, "moving_mean_initializer": {"class_name": "Zeros", "config": {}}, "epsilon": 1e-05, "gamma_regularizer": null, "scale": true, "beta_constraint": null, "beta_initializer": {"class_name": "Zeros", "config": {}}, "momentum": 0.9, "name": "separable_conv_1_bn_normal_left2_0"}, "inbound_nodes": [[["separable_conv_1_normal_left2_0", 0, 0, {}]]], "name": "separable_conv_1_bn_normal_left2_0"}, {"class_name": "BatchNormalization", "config": {"beta_regularizer": null, "center": true, "trainable": true, "gamma_constraint": null, "axis": -1, "gamma_initializer": {"class_name": "Ones", "config": {}}, "moving_variance_initializer": {"class_name": "Ones", "config": {}}, "moving_mean_initializer": {"class_name": "Zeros", "config": {}}, "epsilon": 1e-05, "gamma_regularizer": null, "scale": true, "beta_constraint": null, "beta_initializer": {"class_name": "Zeros", "config": {}}, "momentum": 0.9, "name": "separable_conv_1_bn_normal_right2_0"}, "inbound_nodes": [[["separable_conv_1_normal_right2_0", 0, 0, {}]]], "name": "separable_conv_1_bn_normal_right2_0"}, {"class_name": "BatchNormalization", "config": {"beta_regularizer": null, "center": true, "trainable": true, "gamma_constraint": null, "axis": -1, "gamma_initializer": {"class_name": "Ones", "config": {}}, "moving_variance_initializer": {"class_name": "Ones", "config": {}}, "moving_mean_initializer": {"class_name": "Zeros", "config": {}}, "epsilon": 1e-05, "gamma_regularizer": null, "scale": true, "beta_constraint": null, "beta_initializer": {"class_name": "Zeros", "config": {}}, "momentum": 0.9, "name": "separable_conv_1_bn_normal_left5_0"}, "inbound_nodes": [[["separable_conv_1_normal_left5_0", 0, 0, {}]]], "name": "separable_conv_1_bn_normal_left5_0"}, {"class_name": "Activation", "config": {"activation": "relu", "trainable": true, "name": "activation_378"}, "inbound_nodes": [[["separable_conv_1_bn_normal_left1_0", 0, 0, {}]]], "name": "activation_378"}, {"class_name": "Activation", "config": {"activation": "relu", "trainable": true, "name": "activation_380"}, "inbound_nodes": [[["separable_conv_1_bn_normal_right1_0", 0, 0, {}]]], "name": "activation_380"}, {"class_name": "Activation", "config": {"activation": "relu", "trainable": true, "name": "activation_382"}, "inbound_nodes": [[["separable_conv_1_bn_normal_left2_0", 0, 0, {}]]], "name": "activation_382"}, {"class_name": "Activation", "config": {"activation": "relu", "trainable": true, "name": "activation_384"}, "inbound_nodes": [[["separable_conv_1_bn_normal_right2_0", 0, 0, {}]]], "name": "activation_384"}, {"class_name": "Activation", "config": {"activation": "relu", "trainable": true, "name": "activation_386"}, "inbound_nodes": [[["separable_conv_1_bn_normal_left5_0", 0, 0, {}]]], "name": "activation_386"}, {"class_name": "SeparableConv2D", "config": {"kernel_size": [5, 5], "dilation_rate": [1, 1], "filters": 32, "bias_initializer": {"class_name": "Zeros", "config": {}}, "depthwise_regularizer": null, "strides": [1, 1], "data_format": "channels_last", "trainable": true, "bias_constraint": null, "name": "separable_conv_2_normal_left1_0", "depth_multiplier": 1, "pointwise_initializer": {"class_name": "VarianceScaling", "config": {"scale": 1.0, "mode": "fan_avg", "distribution": "uniform", "seed": null}}, "padding": "same", "pointwise_regularizer": null, "bias_regularizer": null, "depthwise_constraint": null, "activation": "linear", "use_bias": false, "pointwise_constraint": null, "depthwise_initializer": {"class_name": "VarianceScaling", "config": {"scale": 1.0, "mode": "fan_avg", "distribution": "uniform", "seed": null}}, "activity_regularizer": null}, "inbound_nodes": [[["activation_378", 0, 0, {}]]], "name": "separable_conv_2_normal_left1_0"}, {"class_name": "SeparableConv2D", "config": {"kernel_size": [3, 3], "dilation_rate": [1, 1], "filters": 32, "bias_initializer": {"class_name": "Zeros", "config": {}}, "depthwise_regularizer": null, "strides": [1, 1], "data_format": "channels_last", "trainable": true, "bias_constraint": null, "name": "separable_conv_2_normal_right1_0", "depth_multiplier": 1, "pointwise_initializer": {"class_name": "VarianceScaling", "config": {"scale": 1.0, "mode": "fan_avg", "distribution": "uniform", "seed": null}}, "padding": "same", "pointwise_regularizer": null, "bias_regularizer": null, "depthwise_constraint": null, "activation": "linear", "use_bias": false, "pointwise_constraint": null, "depthwise_initializer": {"class_name": "VarianceScaling", "config": {"scale": 1.0, "mode": "fan_avg", "distribution": "uniform", "seed": null}}, "activity_regularizer": null}, "inbound_nodes": [[["activation_380", 0, 0, {}]]], "name": "separable_conv_2_normal_right1_0"}, {"class_name": "SeparableConv2D", "config": {"kernel_size": [5, 5], "dilation_rate": [1, 1], "filters": 32, "bias_initializer": {"class_name": "Zeros", "config": {}}, "depthwise_regularizer": null, "strides": [1, 1], "data_format": "channels_last", "trainable": true, "bias_constraint": null, "name": "separable_conv_2_normal_left2_0", "depth_multiplier": 1, "pointwise_initializer": {"class_name": "VarianceScaling", "config": {"scale": 1.0, "mode": "fan_avg", "distribution": "uniform", "seed": null}}, "padding": "same", "pointwise_regularizer": null, "bias_regularizer": null, "depthwise_constraint": null, "activation": "linear", "use_bias": false, "pointwise_constraint": null, "depthwise_initializer": {"class_name": "VarianceScaling", "config": {"scale": 1.0, "mode": "fan_avg", "distribution": "uniform", "seed": null}}, "activity_regularizer": null}, "inbound_nodes": [[["activation_382", 0, 0, {}]]], "name": "separable_conv_2_normal_left2_0"}, {"class_name": "SeparableConv2D", "config": {"kernel_size": [3, 3], "dilation_rate": [1, 1], "filters": 32, "bias_initializer": {"class_name": "Zeros", "config": {}}, "depthwise_regularizer": null, "strides": [1, 1], "data_format": "channels_last", "trainable": true, "bias_constraint": null, "name": "separable_conv_2_normal_right2_0", "depth_multiplier": 1, "pointwise_initializer": {"class_name": "VarianceScaling", "config": {"scale": 1.0, "mode": "fan_avg", "distribution": "uniform", "seed": null}}, "padding": "same", "pointwise_regularizer": null, "bias_regularizer": null, "depthwise_constraint": null, "activation": "linear", "use_bias": false, "pointwise_constraint": null, "depthwise_initializer": {"class_name": "VarianceScaling", "config": {"scale": 1.0, "mode": "fan_avg", "distribution": "uniform", "seed": null}}, "activity_regularizer": null}, "inbound_nodes": [[["activation_384", 0, 0, {}]]], "name": "separable_conv_2_normal_right2_0"}, {"class_name": "SeparableConv2D", "config": {"kernel_size": [3, 3], "dilation_rate": [1, 1], "filters": 32, "bias_initializer": {"class_name": "Zeros", "config": {}}, "depthwise_regularizer": null, "strides": [1, 1], "data_format": "channels_last", "trainable": true, "bias_constraint": null, "name": "separable_conv_2_normal_left5_0", "depth_multiplier": 1, "pointwise_initializer": {"class_name": "VarianceScaling", "config": {"scale": 1.0, "mode": "fan_avg", "distribution": "uniform", "seed": null}}, "padding": "same", "pointwise_regularizer": null, "bias_regularizer": null, "depthwise_constraint": null, "activation": "linear", "use_bias": false, "pointwise_constraint": null, "depthwise_initializer": {"class_name": "VarianceScaling", "config": {"scale": 1.0, "mode": "fan_avg", "distribution": "uniform", "seed": null}}, "activity_regularizer": null}, "inbound_nodes": [[["activation_386", 0, 0, {}]]], "name": "separable_conv_2_normal_left5_0"}, {"class_name": "BatchNormalization", "config": {"beta_regularizer": null, "center": true, "trainable": true, "gamma_constraint": null, "axis": -1, "gamma_initializer": {"class_name": "Ones", "config": {}}, "moving_variance_initializer": {"class_name": "Ones", "config": {}}, "moving_mean_initializer": {"class_name": "Zeros", "config": {}}, "epsilon": 1e-05, "gamma_regularizer": null, "scale": true, "beta_constraint": null, "beta_initializer": {"class_name": "Zeros", "config": {}}, "momentum": 0.9, "name": "separable_conv_2_bn_normal_left1_0"}, "inbound_nodes": [[["separable_conv_2_normal_left1_0", 0, 0, {}]]], "name": "separable_conv_2_bn_normal_left1_0"}, {"class_name": "BatchNormalization", "config": {"beta_regularizer": null, "center": true, "trainable": true, "gamma_constraint": null, "axis": -1, "gamma_initializer": {"class_name": "Ones", "config": {}}, "moving_variance_initializer": {"class_name": "Ones", "config": {}}, "moving_mean_initializer": {"class_name": "Zeros", "config": {}}, "epsilon": 1e-05, "gamma_regularizer": null, "scale": true, "beta_constraint": null, "beta_initializer": {"class_name": "Zeros", "config": {}}, "momentum": 0.9, "name": "separable_conv_2_bn_normal_right1_0"}, "inbound_nodes": [[["separable_conv_2_normal_right1_0", 0, 0, {}]]], "name": "separable_conv_2_bn_normal_right1_0"}, {"class_name": "BatchNormalization", "config": {"beta_regularizer": null, "center": true, "trainable": true, "gamma_constraint": null, "axis": -1, "gamma_initializer": {"class_name": "Ones", "config": {}}, "moving_variance_initializer": {"class_name": "Ones", "config": {}}, "moving_mean_initializer": {"class_name": "Zeros", "config": {}}, "epsilon": 1e-05, "gamma_regularizer": null, "scale": true, "beta_constraint": null, "beta_initializer": {"class_name": "Zeros", "config": {}}, "momentum": 0.9, "name": "separable_conv_2_bn_normal_left2_0"}, "inbound_nodes": [[["separable_conv_2_normal_left2_0", 0, 0, {}]]], "name": "separable_conv_2_bn_normal_left2_0"}, {"class_name": "BatchNormalization", "config": {"beta_regularizer": null, "center": true, "trainable": true, "gamma_constraint": null, "axis": -1, "gamma_initializer": {"class_name": "Ones", "config": {}}, "moving_variance_initializer": {"class_name": "Ones", "config": {}}, "moving_mean_initializer": {"class_name": "Zeros", "config": {}}, "epsilon": 1e-05, "gamma_regularizer": null, "scale": true, "beta_constraint": null, "beta_initializer": {"class_name": "Zeros", "config": {}}, "momentum": 0.9, "name": "separable_conv_2_bn_normal_right2_0"}, "inbound_nodes": [[["separable_conv_2_normal_right2_0", 0, 0, {}]]], "name": "separable_conv_2_bn_normal_right2_0"}, {"class_name": "AveragePooling2D", "config": {"padding": "same", "data_format": "channels_last", "pool_size": [3, 3], "trainable": true, "strides": [1, 1], "name": "normal_left3_0"}, "inbound_nodes": [[["normal_bn_1_0", 0, 0, {}]]], "name": "normal_left3_0"}, {"class_name": "AveragePooling2D", "config": {"padding": "same", "data_format": "channels_last", "pool_size": [3, 3], "trainable": true, "strides": [1, 1], "name": "normal_left4_0"}, "inbound_nodes": [[["stem_bn1", 0, 0, {}]]], "name": "normal_left4_0"}, {"class_name": "AveragePooling2D", "config": {"padding": "same", "data_format": "channels_last", "pool_size": [3, 3], "trainable": true, "strides": [1, 1], "name": "normal_right4_0"}, "inbound_nodes": [[["stem_bn1", 0, 0, {}]]], "name": "normal_right4_0"}, {"class_name": "BatchNormalization", "config": {"beta_regularizer": null, "center": true, "trainable": true, "gamma_constraint": null, "axis": -1, "gamma_initializer": {"class_name": "Ones", "config": {}}, "moving_variance_initializer": {"class_name": "Ones", "config": {}}, "moving_mean_initializer": {"class_name": "Zeros", "config": {}}, "epsilon": 1e-05, "gamma_regularizer": null, "scale": true, "beta_constraint": null, "beta_initializer": {"class_name": "Zeros", "config": {}}, "momentum": 0.9, "name": "separable_conv_2_bn_normal_left5_0"}, "inbound_nodes": [[["separable_conv_2_normal_left5_0", 0, 0, {}]]], "name": "separable_conv_2_bn_normal_left5_0"}, {"class_name": "Add", "config": {"trainable": true, "name": "normal_add_1_0"}, "inbound_nodes": [[["separable_conv_2_bn_normal_left1_0", 0, 0, {}], ["separable_conv_2_bn_normal_right1_0", 0, 0, {}]]], "name": "normal_add_1_0"}, {"class_name": "Add", "config": {"trainable": true, "name": "normal_add_2_0"}, "inbound_nodes": [[["separable_conv_2_bn_normal_left2_0", 0, 0, {}], ["separable_conv_2_bn_normal_right2_0", 0, 0, {}]]], "name": "normal_add_2_0"}, {"class_name": "Add", "config": {"trainable": true, "name": "normal_add_3_0"}, "inbound_nodes": [[["normal_left3_0", 0, 0, {}], ["stem_bn1", 0, 0, {}]]], "name": "normal_add_3_0"}, {"class_name": "Add", "config": {"trainable": true, "name": "normal_add_4_0"}, "inbound_nodes": [[["normal_left4_0", 0, 0, {}], ["normal_right4_0", 0, 0, {}]]], "name": "normal_add_4_0"}, {"class_name": "Add", "config": {"trainable": true, "name": "normal_add_5_0"}, "inbound_nodes": [[["separable_conv_2_bn_normal_left5_0", 0, 0, {}], ["normal_bn_1_0", 0, 0, {}]]], "name": "normal_add_5_0"}, {"class_name": "Concatenate", "config": {"axis": -1, "trainable": true, "name": "normal_concat_0"}, "inbound_nodes": [[["stem_bn1", 0, 0, {}], ["normal_add_1_0", 0, 0, {}], ["normal_add_2_0", 0, 0, {}], ["normal_add_3_0", 0, 0, {}], ["normal_add_4_0", 0, 0, {}], ["normal_add_5_0", 0, 0, {}]]], "name": "normal_concat_0"}, {"class_name": "Activation", "config": {"activation": "relu", "trainable": true, "name": "activation_387"}, "inbound_nodes": [[["normal_concat_0", 0, 0, {}]]], "name": "activation_387"}, {"class_name": "Conv2D", "config": {"kernel_size": [1, 1], "dilation_rate": [1, 1], "filters": 32, "padding": "same", "bias_initializer": {"class_name": "Zeros", "config": {}}, "name": "normal_conv_1_1", "strides": [1, 1], "kernel_initializer": {"class_name": "VarianceScaling", "config": {"scale": 2.0, "mode": "fan_in", "distribution": "normal", "seed": null}}, "trainable": true, "bias_constraint": null, "data_format": "channels_last", "activation": "linear", "use_bias": false, "kernel_regularizer": {"class_name": "L1L2", "config": {"l1": 0.0, "l2": 0.0005000000237487257}}, "kernel_constraint": null, "bias_regularizer": null, "activity_regularizer": null}, "inbound_nodes": [[["activation_387", 0, 0, {}]]], "name": "normal_conv_1_1"}, {"class_name": "BatchNormalization", "config": {"beta_regularizer": null, "center": true, "trainable": true, "gamma_constraint": null, "axis": -1, "gamma_initializer": {"class_name": "Ones", "config": {}}, "moving_variance_initializer": {"class_name": "Ones", "config": {}}, "moving_mean_initializer": {"class_name": "Zeros", "config": {}}, "epsilon": 1e-05, "gamma_regularizer": null, "scale": true, "beta_constraint": null, "beta_initializer": {"class_name": "Zeros", "config": {}}, "momentum": 0.9, "name": "normal_bn_1_1"}, "inbound_nodes": [[["normal_conv_1_1", 0, 0, {}]]], "name": "normal_bn_1_1"}, {"class_name": "Activation", "config": {"activation": "relu", "trainable": true, "name": "activation_388"}, "inbound_nodes": [[["normal_bn_1_1", 0, 0, {}]]], "name": "activation_388"}, {"class_name": "Activation", "config": {"activation": "relu", "trainable": true, "name": "activation_390"}, "inbound_nodes": [[["stem_bn1", 0, 0, {}]]], "name": "activation_390"}, {"class_name": "Activation", "config": {"activation": "relu", "trainable": true, "name": "activation_392"}, "inbound_nodes": [[["stem_bn1", 0, 0, {}]]], "name": "activation_392"}, {"class_name": "Activation", "config": {"activation": "relu", "trainable": true, "name": "activation_394"}, "inbound_nodes": [[["stem_bn1", 0, 0, {}]]], "name": "activation_394"}, {"class_name": "Activation", "config": {"activation": "relu", "trainable": true, "name": "activation_396"}, "inbound_nodes": [[["normal_bn_1_1", 0, 0, {}]]], "name": "activation_396"}, {"class_name": "SeparableConv2D", "config": {"kernel_size": [5, 5], "dilation_rate": [1, 1], "filters": 32, "bias_initializer": {"class_name": "Zeros", "config": {}}, "depthwise_regularizer": null, "strides": [1, 1], "data_format": "channels_last", "trainable": true, "bias_constraint": null, "name": "separable_conv_1_normal_left1_1", "depth_multiplier": 1, "pointwise_initializer": {"class_name": "VarianceScaling", "config": {"scale": 1.0, "mode": "fan_avg", "distribution": "uniform", "seed": null}}, "padding": "same", "pointwise_regularizer": null, "bias_regularizer": null, "depthwise_constraint": null, "activation": "linear", "use_bias": false, "pointwise_constraint": null, "depthwise_initializer": {"class_name": "VarianceScaling", "config": {"scale": 1.0, "mode": "fan_avg", "distribution": "uniform", "seed": null}}, "activity_regularizer": null}, "inbound_nodes": [[["activation_388", 0, 0, {}]]], "name": "separable_conv_1_normal_left1_1"}, {"class_name": "SeparableConv2D", "config": {"kernel_size": [3, 3], "dilation_rate": [1, 1], "filters": 32, "bias_initializer": {"class_name": "Zeros", "config": {}}, "depthwise_regularizer": null, "strides": [1, 1], "data_format": "channels_last", "trainable": true, "bias_constraint": null, "name": "separable_conv_1_normal_right1_1", "depth_multiplier": 1, "pointwise_initializer": {"class_name": "VarianceScaling", "config": {"scale": 1.0, "mode": "fan_avg", "distribution": "uniform", "seed": null}}, "padding": "same", "pointwise_regularizer": null, "bias_regularizer": null, "depthwise_constraint": null, "activation": "linear", "use_bias": false, "pointwise_constraint": null, "depthwise_initializer": {"class_name": "VarianceScaling", "config": {"scale": 1.0, "mode": "fan_avg", "distribution": "uniform", "seed": null}}, "activity_regularizer": null}, "inbound_nodes": [[["activation_390", 0, 0, {}]]], "name": "separable_conv_1_normal_right1_1"}, {"class_name": "SeparableConv2D", "config": {"kernel_size": [5, 5], "dilation_rate": [1, 1], "filters": 32, "bias_initializer": {"class_name": "Zeros", "config": {}}, "depthwise_regularizer": null, "strides": [1, 1], "data_format": "channels_last", "trainable": true, "bias_constraint": null, "name": "separable_conv_1_normal_left2_1", "depth_multiplier": 1, "pointwise_initializer": {"class_name": "VarianceScaling", "config": {"scale": 1.0, "mode": "fan_avg", "distribution": "uniform", "seed": null}}, "padding": "same", "pointwise_regularizer": null, "bias_regularizer": null, "depthwise_constraint": null, "activation": "linear", "use_bias": false, "pointwise_constraint": null, "depthwise_initializer": {"class_name": "VarianceScaling", "config": {"scale": 1.0, "mode": "fan_avg", "distribution": "uniform", "seed": null}}, "activity_regularizer": null}, "inbound_nodes": [[["activation_392", 0, 0, {}]]], "name": "separable_conv_1_normal_left2_1"}, {"class_name": "SeparableConv2D", "config": {"kernel_size": [3, 3], "dilation_rate": [1, 1], "filters": 32, "bias_initializer": {"class_name": "Zeros", "config": {}}, "depthwise_regularizer": null, "strides": [1, 1], "data_format": "channels_last", "trainable": true, "bias_constraint": null, "name": "separable_conv_1_normal_right2_1", "depth_multiplier": 1, "pointwise_initializer": {"class_name": "VarianceScaling", "config": {"scale": 1.0, "mode": "fan_avg", "distribution": "uniform", "seed": null}}, "padding": "same", "pointwise_regularizer": null, "bias_regularizer": null, "depthwise_constraint": null, "activation": "linear", "use_bias": false, "pointwise_constraint": null, "depthwise_initializer": {"class_name": "VarianceScaling", "config": {"scale": 1.0, "mode": "fan_avg", "distribution": "uniform", "seed": null}}, "activity_regularizer": null}, "inbound_nodes": [[["activation_394", 0, 0, {}]]], "name": "separable_conv_1_normal_right2_1"}, {"class_name": "SeparableConv2D", "config": {"kernel_size": [3, 3], "dilation_rate": [1, 1], "filters": 32, "bias_initializer": {"class_name": "Zeros", "config": {}}, "depthwise_regularizer": null, "strides": [1, 1], "data_format": "channels_last", "trainable": true, "bias_constraint": null, "name": "separable_conv_1_normal_left5_1", "depth_multiplier": 1, "pointwise_initializer": {"class_name": "VarianceScaling", "config": {"scale": 1.0, "mode": "fan_avg", "distribution": "uniform", "seed": null}}, "padding": "same", "pointwise_regularizer": null, "bias_regularizer": null, "depthwise_constraint": null, "activation": "linear", "use_bias": false, "pointwise_constraint": null, "depthwise_initializer": {"class_name": "VarianceScaling", "config": {"scale": 1.0, "mode": "fan_avg", "distribution": "uniform", "seed": null}}, "activity_regularizer": null}, "inbound_nodes": [[["activation_396", 0, 0, {}]]], "name": "separable_conv_1_normal_left5_1"}, {"class_name": "BatchNormalization", "config": {"beta_regularizer": null, "center": true, "trainable": true, "gamma_constraint": null, "axis": -1, "gamma_initializer": {"class_name": "Ones", "config": {}}, "moving_variance_initializer": {"class_name": "Ones", "config": {}}, "moving_mean_initializer": {"class_name": "Zeros", "config": {}}, "epsilon": 1e-05, "gamma_regularizer": null, "scale": true, "beta_constraint": null, "beta_initializer": {"class_name": "Zeros", "config": {}}, "momentum": 0.9, "name": "separable_conv_1_bn_normal_left1_1"}, "inbound_nodes": [[["separable_conv_1_normal_left1_1", 0, 0, {}]]], "name": "separable_conv_1_bn_normal_left1_1"}, {"class_name": "BatchNormalization", "config": {"beta_regularizer": null, "center": true, "trainable": true, "gamma_constraint": null, "axis": -1, "gamma_initializer": {"class_name": "Ones", "config": {}}, "moving_variance_initializer": {"class_name": "Ones", "config": {}}, "moving_mean_initializer": {"class_name": "Zeros", "config": {}}, "epsilon": 1e-05, "gamma_regularizer": null, "scale": true, "beta_constraint": null, "beta_initializer": {"class_name": "Zeros", "config": {}}, "momentum": 0.9, "name": "separable_conv_1_bn_normal_right1_1"}, "inbound_nodes": [[["separable_conv_1_normal_right1_1", 0, 0, {}]]], "name": "separable_conv_1_bn_normal_right1_1"}, {"class_name": "BatchNormalization", "config": {"beta_regularizer": null, "center": true, "trainable": true, "gamma_constraint": null, "axis": -1, "gamma_initializer": {"class_name": "Ones", "config": {}}, "moving_variance_initializer": {"class_name": "Ones", "config": {}}, "moving_mean_initializer": {"class_name": "Zeros", "config": {}}, "epsilon": 1e-05, "gamma_regularizer": null, "scale": true, "beta_constraint": null, "beta_initializer": {"class_name": "Zeros", "config": {}}, "momentum": 0.9, "name": "separable_conv_1_bn_normal_left2_1"}, "inbound_nodes": [[["separable_conv_1_normal_left2_1", 0, 0, {}]]], "name": "separable_conv_1_bn_normal_left2_1"}, {"class_name": "BatchNormalization", "config": {"beta_regularizer": null, "center": true, "trainable": true, "gamma_constraint": null, "axis": -1, "gamma_initializer": {"class_name": "Ones", "config": {}}, "moving_variance_initializer": {"class_name": "Ones", "config": {}}, "moving_mean_initializer": {"class_name": "Zeros", "config": {}}, "epsilon": 1e-05, "gamma_regularizer": null, "scale": true, "beta_constraint": null, "beta_initializer": {"class_name": "Zeros", "config": {}}, "momentum": 0.9, "name": "separable_conv_1_bn_normal_right2_1"}, "inbound_nodes": [[["separable_conv_1_normal_right2_1", 0, 0, {}]]], "name": "separable_conv_1_bn_normal_right2_1"}, {"class_name": "BatchNormalization", "config": {"beta_regularizer": null, "center": true, "trainable": true, "gamma_constraint": null, "axis": -1, "gamma_initializer": {"class_name": "Ones", "config": {}}, "moving_variance_initializer": {"class_name": "Ones", "config": {}}, "moving_mean_initializer": {"class_name": "Zeros", "config": {}}, "epsilon": 1e-05, "gamma_regularizer": null, "scale": true, "beta_constraint": null, "beta_initializer": {"class_name": "Zeros", "config": {}}, "momentum": 0.9, "name": "separable_conv_1_bn_normal_left5_1"}, "inbound_nodes": [[["separable_conv_1_normal_left5_1", 0, 0, {}]]], "name": "separable_conv_1_bn_normal_left5_1"}, {"class_name": "Activation", "config": {"activation": "relu", "trainable": true, "name": "activation_389"}, "inbound_nodes": [[["separable_conv_1_bn_normal_left1_1", 0, 0, {}]]], "name": "activation_389"}, {"class_name": "Activation", "config": {"activation": "relu", "trainable": true, "name": "activation_391"}, "inbound_nodes": [[["separable_conv_1_bn_normal_right1_1", 0, 0, {}]]], "name": "activation_391"}, {"class_name": "Activation", "config": {"activation": "relu", "trainable": true, "name": "activation_393"}, "inbound_nodes": [[["separable_conv_1_bn_normal_left2_1", 0, 0, {}]]], "name": "activation_393"}, {"class_name": "Activation", "config": {"activation": "relu", "trainable": true, "name": "activation_395"}, "inbound_nodes": [[["separable_conv_1_bn_normal_right2_1", 0, 0, {}]]], "name": "activation_395"}, {"class_name": "Activation", "config": {"activation": "relu", "trainable": true, "name": "activation_397"}, "inbound_nodes": [[["separable_conv_1_bn_normal_left5_1", 0, 0, {}]]], "name": "activation_397"}, {"class_name": "SeparableConv2D", "config": {"kernel_size": [5, 5], "dilation_rate": [1, 1], "filters": 32, "bias_initializer": {"class_name": "Zeros", "config": {}}, "depthwise_regularizer": null, "strides": [1, 1], "data_format": "channels_last", "trainable": true, "bias_constraint": null, "name": "separable_conv_2_normal_left1_1", "depth_multiplier": 1, "pointwise_initializer": {"class_name": "VarianceScaling", "config": {"scale": 1.0, "mode": "fan_avg", "distribution": "uniform", "seed": null}}, "padding": "same", "pointwise_regularizer": null, "bias_regularizer": null, "depthwise_constraint": null, "activation": "linear", "use_bias": false, "pointwise_constraint": null, "depthwise_initializer": {"class_name": "VarianceScaling", "config": {"scale": 1.0, "mode": "fan_avg", "distribution": "uniform", "seed": null}}, "activity_regularizer": null}, "inbound_nodes": [[["activation_389", 0, 0, {}]]], "name": "separable_conv_2_normal_left1_1"}, {"class_name": "SeparableConv2D", "config": {"kernel_size": [3, 3], "dilation_rate": [1, 1], "filters": 32, "bias_initializer": {"class_name": "Zeros", "config": {}}, "depthwise_regularizer": null, "strides": [1, 1], "data_format": "channels_last", "trainable": true, "bias_constraint": null, "name": "separable_conv_2_normal_right1_1", "depth_multiplier": 1, "pointwise_initializer": {"class_name": "VarianceScaling", "config": {"scale": 1.0, "mode": "fan_avg", "distribution": "uniform", "seed": null}}, "padding": "same", "pointwise_regularizer": null, "bias_regularizer": null, "depthwise_constraint": null, "activation": "linear", "use_bias": false, "pointwise_constraint": null, "depthwise_initializer": {"class_name": "VarianceScaling", "config": {"scale": 1.0, "mode": "fan_avg", "distribution": "uniform", "seed": null}}, "activity_regularizer": null}, "inbound_nodes": [[["activation_391", 0, 0, {}]]], "name": "separable_conv_2_normal_right1_1"}, {"class_name": "SeparableConv2D", "config": {"kernel_size": [5, 5], "dilation_rate": [1, 1], "filters": 32, "bias_initializer": {"class_name": "Zeros", "config": {}}, "depthwise_regularizer": null, "strides": [1, 1], "data_format": "channels_last", "trainable": true, "bias_constraint": null, "name": "separable_conv_2_normal_left2_1", "depth_multiplier": 1, "pointwise_initializer": {"class_name": "VarianceScaling", "config": {"scale": 1.0, "mode": "fan_avg", "distribution": "uniform", "seed": null}}, "padding": "same", "pointwise_regularizer": null, "bias_regularizer": null, "depthwise_constraint": null, "activation": "linear", "use_bias": false, "pointwise_constraint": null, "depthwise_initializer": {"class_name": "VarianceScaling", "config": {"scale": 1.0, "mode": "fan_avg", "distribution": "uniform", "seed": null}}, "activity_regularizer": null}, "inbound_nodes": [[["activation_393", 0, 0, {}]]], "name": "separable_conv_2_normal_left2_1"}, {"class_name": "SeparableConv2D", "config": {"kernel_size": [3, 3], "dilation_rate": [1, 1], "filters": 32, "bias_initializer": {"class_name": "Zeros", "config": {}}, "depthwise_regularizer": null, "strides": [1, 1], "data_format": "channels_last", "trainable": true, "bias_constraint": null, "name": "separable_conv_2_normal_right2_1", "depth_multiplier": 1, "pointwise_initializer": {"class_name": "VarianceScaling", "config": {"scale": 1.0, "mode": "fan_avg", "distribution": "uniform", "seed": null}}, "padding": "same", "pointwise_regularizer": null, "bias_regularizer": null, "depthwise_constraint": null, "activation": "linear", "use_bias": false, "pointwise_constraint": null, "depthwise_initializer": {"class_name": "VarianceScaling", "config": {"scale": 1.0, "mode": "fan_avg", "distribution": "uniform", "seed": null}}, "activity_regularizer": null}, "inbound_nodes": [[["activation_395", 0, 0, {}]]], "name": "separable_conv_2_normal_right2_1"}, {"class_name": "SeparableConv2D", "config": {"kernel_size": [3, 3], "dilation_rate": [1, 1], "filters": 32, "bias_initializer": {"class_name": "Zeros", "config": {}}, "depthwise_regularizer": null, "strides": [1, 1], "data_format": "channels_last", "trainable": true, "bias_constraint": null, "name": "separable_conv_2_normal_left5_1", "depth_multiplier": 1, "pointwise_initializer": {"class_name": "VarianceScaling", "config": {"scale": 1.0, "mode": "fan_avg", "distribution": "uniform", "seed": null}}, "padding": "same", "pointwise_regularizer": null, "bias_regularizer": null, "depthwise_constraint": null, "activation": "linear", "use_bias": false, "pointwise_constraint": null, "depthwise_initializer": {"class_name": "VarianceScaling", "config": {"scale": 1.0, "mode": "fan_avg", "distribution": "uniform", "seed": null}}, "activity_regularizer": null}, "inbound_nodes": [[["activation_397", 0, 0, {}]]], "name": "separable_conv_2_normal_left5_1"}, {"class_name": "BatchNormalization", "config": {"beta_regularizer": null, "center": true, "trainable": true, "gamma_constraint": null, "axis": -1, "gamma_initializer": {"class_name": "Ones", "config": {}}, "moving_variance_initializer": {"class_name": "Ones", "config": {}}, "moving_mean_initializer": {"class_name": "Zeros", "config": {}}, "epsilon": 1e-05, "gamma_regularizer": null, "scale": true, "beta_constraint": null, "beta_initializer": {"class_name": "Zeros", "config": {}}, "momentum": 0.9, "name": "separable_conv_2_bn_normal_left1_1"}, "inbound_nodes": [[["separable_conv_2_normal_left1_1", 0, 0, {}]]], "name": "separable_conv_2_bn_normal_left1_1"}, {"class_name": "BatchNormalization", "config": {"beta_regularizer": null, "center": true, "trainable": true, "gamma_constraint": null, "axis": -1, "gamma_initializer": {"class_name": "Ones", "config": {}}, "moving_variance_initializer": {"class_name": "Ones", "config": {}}, "moving_mean_initializer": {"class_name": "Zeros", "config": {}}, "epsilon": 1e-05, "gamma_regularizer": null, "scale": true, "beta_constraint": null, "beta_initializer": {"class_name": "Zeros", "config": {}}, "momentum": 0.9, "name": "separable_conv_2_bn_normal_right1_1"}, "inbound_nodes": [[["separable_conv_2_normal_right1_1", 0, 0, {}]]], "name": "separable_conv_2_bn_normal_right1_1"}, {"class_name": "BatchNormalization", "config": {"beta_regularizer": null, "center": true, "trainable": true, "gamma_constraint": null, "axis": -1, "gamma_initializer": {"class_name": "Ones", "config": {}}, "moving_variance_initializer": {"class_name": "Ones", "config": {}}, "moving_mean_initializer": {"class_name": "Zeros", "config": {}}, "epsilon": 1e-05, "gamma_regularizer": null, "scale": true, "beta_constraint": null, "beta_initializer": {"class_name": "Zeros", "config": {}}, "momentum": 0.9, "name": "separable_conv_2_bn_normal_left2_1"}, "inbound_nodes": [[["separable_conv_2_normal_left2_1", 0, 0, {}]]], "name": "separable_conv_2_bn_normal_left2_1"}, {"class_name": "BatchNormalization", "config": {"beta_regularizer": null, "center": true, "trainable": true, "gamma_constraint": null, "axis": -1, "gamma_initializer": {"class_name": "Ones", "config": {}}, "moving_variance_initializer": {"class_name": "Ones", "config": {}}, "moving_mean_initializer": {"class_name": "Zeros", "config": {}}, "epsilon": 1e-05, "gamma_regularizer": null, "scale": true, "beta_constraint": null, "beta_initializer": {"class_name": "Zeros", "config": {}}, "momentum": 0.9, "name": "separable_conv_2_bn_normal_right2_1"}, "inbound_nodes": [[["separable_conv_2_normal_right2_1", 0, 0, {}]]], "name": "separable_conv_2_bn_normal_right2_1"}, {"class_name": "AveragePooling2D", "config": {"padding": "same", "data_format": "channels_last", "pool_size": [3, 3], "trainable": true, "strides": [1, 1], "name": "normal_left3_1"}, "inbound_nodes": [[["normal_bn_1_1", 0, 0, {}]]], "name": "normal_left3_1"}, {"class_name": "AveragePooling2D", "config": {"padding": "same", "data_format": "channels_last", "pool_size": [3, 3], "trainable": true, "strides": [1, 1], "name": "normal_left4_1"}, "inbound_nodes": [[["stem_bn1", 0, 0, {}]]], "name": "normal_left4_1"}, {"class_name": "AveragePooling2D", "config": {"padding": "same", "data_format": "channels_last", "pool_size": [3, 3], "trainable": true, "strides": [1, 1], "name": "normal_right4_1"}, "inbound_nodes": [[["stem_bn1", 0, 0, {}]]], "name": "normal_right4_1"}, {"class_name": "BatchNormalization", "config": {"beta_regularizer": null, "center": true, "trainable": true, "gamma_constraint": null, "axis": -1, "gamma_initializer": {"class_name": "Ones", "config": {}}, "moving_variance_initializer": {"class_name": "Ones", "config": {}}, "moving_mean_initializer": {"class_name": "Zeros", "config": {}}, "epsilon": 1e-05, "gamma_regularizer": null, "scale": true, "beta_constraint": null, "beta_initializer": {"class_name": "Zeros", "config": {}}, "momentum": 0.9, "name": "separable_conv_2_bn_normal_left5_1"}, "inbound_nodes": [[["separable_conv_2_normal_left5_1", 0, 0, {}]]], "name": "separable_conv_2_bn_normal_left5_1"}, {"class_name": "Add", "config": {"trainable": true, "name": "normal_add_1_1"}, "inbound_nodes": [[["separable_conv_2_bn_normal_left1_1", 0, 0, {}], ["separable_conv_2_bn_normal_right1_1", 0, 0, {}]]], "name": "normal_add_1_1"}, {"class_name": "Add", "config": {"trainable": true, "name": "normal_add_2_1"}, "inbound_nodes": [[["separable_conv_2_bn_normal_left2_1", 0, 0, {}], ["separable_conv_2_bn_normal_right2_1", 0, 0, {}]]], "name": "normal_add_2_1"}, {"class_name": "Add", "config": {"trainable": true, "name": "normal_add_3_1"}, "inbound_nodes": [[["normal_left3_1", 0, 0, {}], ["stem_bn1", 0, 0, {}]]], "name": "normal_add_3_1"}, {"class_name": "Add", "config": {"trainable": true, "name": "normal_add_4_1"}, "inbound_nodes": [[["normal_left4_1", 0, 0, {}], ["normal_right4_1", 0, 0, {}]]], "name": "normal_add_4_1"}, {"class_name": "Add", "config": {"trainable": true, "name": "normal_add_5_1"}, "inbound_nodes": [[["separable_conv_2_bn_normal_left5_1", 0, 0, {}], ["normal_bn_1_1", 0, 0, {}]]], "name": "normal_add_5_1"}, {"class_name": "Concatenate", "config": {"axis": -1, "trainable": true, "name": "normal_concat_1"}, "inbound_nodes": [[["stem_bn1", 0, 0, {}], ["normal_add_1_1", 0, 0, {}], ["normal_add_2_1", 0, 0, {}], ["normal_add_3_1", 0, 0, {}], ["normal_add_4_1", 0, 0, {}], ["normal_add_5_1", 0, 0, {}]]], "name": "normal_concat_1"}, {"class_name": "Activation", "config": {"activation": "relu", "trainable": true, "name": "activation_398"}, "inbound_nodes": [[["normal_concat_0", 0, 0, {}]]], "name": "activation_398"}, {"class_name": "Activation", "config": {"activation": "relu", "trainable": true, "name": "activation_399"}, "inbound_nodes": [[["normal_concat_1", 0, 0, {}]]], "name": "activation_399"}, {"class_name": "Conv2D", "config": {"kernel_size": [1, 1], "dilation_rate": [1, 1], "filters": 32, "padding": "same", "bias_initializer": {"class_name": "Zeros", "config": {}}, "name": "adjust_conv_projection_2", "strides": [1, 1], "kernel_initializer": {"class_name": "VarianceScaling", "config": {"scale": 2.0, "mode": "fan_in", "distribution": "normal", "seed": null}}, "trainable": true, "bias_constraint": null, "data_format": "channels_last", "activation": "linear", "use_bias": false, "kernel_regularizer": {"class_name": "L1L2", "config": {"l1": 0.0, "l2": 0.0005000000237487257}}, "kernel_constraint": null, "bias_regularizer": null, "activity_regularizer": null}, "inbound_nodes": [[["activation_398", 0, 0, {}]]], "name": "adjust_conv_projection_2"}, {"class_name": "Conv2D", "config": {"kernel_size": [1, 1], "dilation_rate": [1, 1], "filters": 32, "padding": "same", "bias_initializer": {"class_name": "Zeros", "config": {}}, "name": "normal_conv_1_2", "strides": [1, 1], "kernel_initializer": {"class_name": "VarianceScaling", "config": {"scale": 2.0, "mode": "fan_in", "distribution": "normal", "seed": null}}, "trainable": true, "bias_constraint": null, "data_format": "channels_last", "activation": "linear", "use_bias": false, "kernel_regularizer": {"class_name": "L1L2", "config": {"l1": 0.0, "l2": 0.0005000000237487257}}, "kernel_constraint": null, "bias_regularizer": null, "activity_regularizer": null}, "inbound_nodes": [[["activation_399", 0, 0, {}]]], "name": "normal_conv_1_2"}, {"class_name": "BatchNormalization", "config": {"beta_regularizer": null, "center": true, "trainable": true, "gamma_constraint": null, "axis": -1, "gamma_initializer": {"class_name": "Ones", "config": {}}, "moving_variance_initializer": {"class_name": "Ones", "config": {}}, "moving_mean_initializer": {"class_name": "Zeros", "config": {}}, "epsilon": 1e-05, "gamma_regularizer": null, "scale": true, "beta_constraint": null, "beta_initializer": {"class_name": "Zeros", "config": {}}, "momentum": 0.9, "name": "adjust_bn_2"}, "inbound_nodes": [[["adjust_conv_projection_2", 0, 0, {}]]], "name": "adjust_bn_2"}, {"class_name": "BatchNormalization", "config": {"beta_regularizer": null, "center": true, "trainable": true, "gamma_constraint": null, "axis": -1, "gamma_initializer": {"class_name": "Ones", "config": {}}, "moving_variance_initializer": {"class_name": "Ones", "config": {}}, "moving_mean_initializer": {"class_name": "Zeros", "config": {}}, "epsilon": 1e-05, "gamma_regularizer": null, "scale": true, "beta_constraint": null, "beta_initializer": {"class_name": "Zeros", "config": {}}, "momentum": 0.9, "name": "normal_bn_1_2"}, "inbound_nodes": [[["normal_conv_1_2", 0, 0, {}]]], "name": "normal_bn_1_2"}, {"class_name": "Activation", "config": {"activation": "relu", "trainable": true, "name": "activation_400"}, "inbound_nodes": [[["normal_bn_1_2", 0, 0, {}]]], "name": "activation_400"}, {"class_name": "Activation", "config": {"activation": "relu", "trainable": true, "name": "activation_402"}, "inbound_nodes": [[["adjust_bn_2", 0, 0, {}]]], "name": "activation_402"}, {"class_name": "Activation", "config": {"activation": "relu", "trainable": true, "name": "activation_404"}, "inbound_nodes": [[["adjust_bn_2", 0, 0, {}]]], "name": "activation_404"}, {"class_name": "Activation", "config": {"activation": "relu", "trainable": true, "name": "activation_406"}, "inbound_nodes": [[["adjust_bn_2", 0, 0, {}]]], "name": "activation_406"}, {"class_name": "Activation", "config": {"activation": "relu", "trainable": true, "name": "activation_408"}, "inbound_nodes": [[["normal_bn_1_2", 0, 0, {}]]], "name": "activation_408"}, {"class_name": "SeparableConv2D", "config": {"kernel_size": [5, 5], "dilation_rate": [1, 1], "filters": 32, "bias_initializer": {"class_name": "Zeros", "config": {}}, "depthwise_regularizer": null, "strides": [1, 1], "data_format": "channels_last", "trainable": true, "bias_constraint": null, "name": "separable_conv_1_normal_left1_2", "depth_multiplier": 1, "pointwise_initializer": {"class_name": "VarianceScaling", "config": {"scale": 1.0, "mode": "fan_avg", "distribution": "uniform", "seed": null}}, "padding": "same", "pointwise_regularizer": null, "bias_regularizer": null, "depthwise_constraint": null, "activation": "linear", "use_bias": false, "pointwise_constraint": null, "depthwise_initializer": {"class_name": "VarianceScaling", "config": {"scale": 1.0, "mode": "fan_avg", "distribution": "uniform", "seed": null}}, "activity_regularizer": null}, "inbound_nodes": [[["activation_400", 0, 0, {}]]], "name": "separable_conv_1_normal_left1_2"}, {"class_name": "SeparableConv2D", "config": {"kernel_size": [3, 3], "dilation_rate": [1, 1], "filters": 32, "bias_initializer": {"class_name": "Zeros", "config": {}}, "depthwise_regularizer": null, "strides": [1, 1], "data_format": "channels_last", "trainable": true, "bias_constraint": null, "name": "separable_conv_1_normal_right1_2", "depth_multiplier": 1, "pointwise_initializer": {"class_name": "VarianceScaling", "config": {"scale": 1.0, "mode": "fan_avg", "distribution": "uniform", "seed": null}}, "padding": "same", "pointwise_regularizer": null, "bias_regularizer": null, "depthwise_constraint": null, "activation": "linear", "use_bias": false, "pointwise_constraint": null, "depthwise_initializer": {"class_name": "VarianceScaling", "config": {"scale": 1.0, "mode": "fan_avg", "distribution": "uniform", "seed": null}}, "activity_regularizer": null}, "inbound_nodes": [[["activation_402", 0, 0, {}]]], "name": "separable_conv_1_normal_right1_2"}, {"class_name": "SeparableConv2D", "config": {"kernel_size": [5, 5], "dilation_rate": [1, 1], "filters": 32, "bias_initializer": {"class_name": "Zeros", "config": {}}, "depthwise_regularizer": null, "strides": [1, 1], "data_format": "channels_last", "trainable": true, "bias_constraint": null, "name": "separable_conv_1_normal_left2_2", "depth_multiplier": 1, "pointwise_initializer": {"class_name": "VarianceScaling", "config": {"scale": 1.0, "mode": "fan_avg", "distribution": "uniform", "seed": null}}, "padding": "same", "pointwise_regularizer": null, "bias_regularizer": null, "depthwise_constraint": null, "activation": "linear", "use_bias": false, "pointwise_constraint": null, "depthwise_initializer": {"class_name": "VarianceScaling", "config": {"scale": 1.0, "mode": "fan_avg", "distribution": "uniform", "seed": null}}, "activity_regularizer": null}, "inbound_nodes": [[["activation_404", 0, 0, {}]]], "name": "separable_conv_1_normal_left2_2"}, {"class_name": "SeparableConv2D", "config": {"kernel_size": [3, 3], "dilation_rate": [1, 1], "filters": 32, "bias_initializer": {"class_name": "Zeros", "config": {}}, "depthwise_regularizer": null, "strides": [1, 1], "data_format": "channels_last", "trainable": true, "bias_constraint": null, "name": "separable_conv_1_normal_right2_2", "depth_multiplier": 1, "pointwise_initializer": {"class_name": "VarianceScaling", "config": {"scale": 1.0, "mode": "fan_avg", "distribution": "uniform", "seed": null}}, "padding": "same", "pointwise_regularizer": null, "bias_regularizer": null, "depthwise_constraint": null, "activation": "linear", "use_bias": false, "pointwise_constraint": null, "depthwise_initializer": {"class_name": "VarianceScaling", "config": {"scale": 1.0, "mode": "fan_avg", "distribution": "uniform", "seed": null}}, "activity_regularizer": null}, "inbound_nodes": [[["activation_406", 0, 0, {}]]], "name": "separable_conv_1_normal_right2_2"}, {"class_name": "SeparableConv2D", "config": {"kernel_size": [3, 3], "dilation_rate": [1, 1], "filters": 32, "bias_initializer": {"class_name": "Zeros", "config": {}}, "depthwise_regularizer": null, "strides": [1, 1], "data_format": "channels_last", "trainable": true, "bias_constraint": null, "name": "separable_conv_1_normal_left5_2", "depth_multiplier": 1, "pointwise_initializer": {"class_name": "VarianceScaling", "config": {"scale": 1.0, "mode": "fan_avg", "distribution": "uniform", "seed": null}}, "padding": "same", "pointwise_regularizer": null, "bias_regularizer": null, "depthwise_constraint": null, "activation": "linear", "use_bias": false, "pointwise_constraint": null, "depthwise_initializer": {"class_name": "VarianceScaling", "config": {"scale": 1.0, "mode": "fan_avg", "distribution": "uniform", "seed": null}}, "activity_regularizer": null}, "inbound_nodes": [[["activation_408", 0, 0, {}]]], "name": "separable_conv_1_normal_left5_2"}, {"class_name": "BatchNormalization", "config": {"beta_regularizer": null, "center": true, "trainable": true, "gamma_constraint": null, "axis": -1, "gamma_initializer": {"class_name": "Ones", "config": {}}, "moving_variance_initializer": {"class_name": "Ones", "config": {}}, "moving_mean_initializer": {"class_name": "Zeros", "config": {}}, "epsilon": 1e-05, "gamma_regularizer": null, "scale": true, "beta_constraint": null, "beta_initializer": {"class_name": "Zeros", "config": {}}, "momentum": 0.9, "name": "separable_conv_1_bn_normal_left1_2"}, "inbound_nodes": [[["separable_conv_1_normal_left1_2", 0, 0, {}]]], "name": "separable_conv_1_bn_normal_left1_2"}, {"class_name": "BatchNormalization", "config": {"beta_regularizer": null, "center": true, "trainable": true, "gamma_constraint": null, "axis": -1, "gamma_initializer": {"class_name": "Ones", "config": {}}, "moving_variance_initializer": {"class_name": "Ones", "config": {}}, "moving_mean_initializer": {"class_name": "Zeros", "config": {}}, "epsilon": 1e-05, "gamma_regularizer": null, "scale": true, "beta_constraint": null, "beta_initializer": {"class_name": "Zeros", "config": {}}, "momentum": 0.9, "name": "separable_conv_1_bn_normal_right1_2"}, "inbound_nodes": [[["separable_conv_1_normal_right1_2", 0, 0, {}]]], "name": "separable_conv_1_bn_normal_right1_2"}, {"class_name": "BatchNormalization", "config": {"beta_regularizer": null, "center": true, "trainable": true, "gamma_constraint": null, "axis": -1, "gamma_initializer": {"class_name": "Ones", "config": {}}, "moving_variance_initializer": {"class_name": "Ones", "config": {}}, "moving_mean_initializer": {"class_name": "Zeros", "config": {}}, "epsilon": 1e-05, "gamma_regularizer": null, "scale": true, "beta_constraint": null, "beta_initializer": {"class_name": "Zeros", "config": {}}, "momentum": 0.9, "name": "separable_conv_1_bn_normal_left2_2"}, "inbound_nodes": [[["separable_conv_1_normal_left2_2", 0, 0, {}]]], "name": "separable_conv_1_bn_normal_left2_2"}, {"class_name": "BatchNormalization", "config": {"beta_regularizer": null, "center": true, "trainable": true, "gamma_constraint": null, "axis": -1, "gamma_initializer": {"class_name": "Ones", "config": {}}, "moving_variance_initializer": {"class_name": "Ones", "config": {}}, "moving_mean_initializer": {"class_name": "Zeros", "config": {}}, "epsilon": 1e-05, "gamma_regularizer": null, "scale": true, "beta_constraint": null, "beta_initializer": {"class_name": "Zeros", "config": {}}, "momentum": 0.9, "name": "separable_conv_1_bn_normal_right2_2"}, "inbound_nodes": [[["separable_conv_1_normal_right2_2", 0, 0, {}]]], "name": "separable_conv_1_bn_normal_right2_2"}, {"class_name": "BatchNormalization", "config": {"beta_regularizer": null, "center": true, "trainable": true, "gamma_constraint": null, "axis": -1, "gamma_initializer": {"class_name": "Ones", "config": {}}, "moving_variance_initializer": {"class_name": "Ones", "config": {}}, "moving_mean_initializer": {"class_name": "Zeros", "config": {}}, "epsilon": 1e-05, "gamma_regularizer": null, "scale": true, "beta_constraint": null, "beta_initializer": {"class_name": "Zeros", "config": {}}, "momentum": 0.9, "name": "separable_conv_1_bn_normal_left5_2"}, "inbound_nodes": [[["separable_conv_1_normal_left5_2", 0, 0, {}]]], "name": "separable_conv_1_bn_normal_left5_2"}, {"class_name": "Activation", "config": {"activation": "relu", "trainable": true, "name": "activation_401"}, "inbound_nodes": [[["separable_conv_1_bn_normal_left1_2", 0, 0, {}]]], "name": "activation_401"}, {"class_name": "Activation", "config": {"activation": "relu", "trainable": true, "name": "activation_403"}, "inbound_nodes": [[["separable_conv_1_bn_normal_right1_2", 0, 0, {}]]], "name": "activation_403"}, {"class_name": "Activation", "config": {"activation": "relu", "trainable": true, "name": "activation_405"}, "inbound_nodes": [[["separable_conv_1_bn_normal_left2_2", 0, 0, {}]]], "name": "activation_405"}, {"class_name": "Activation", "config": {"activation": "relu", "trainable": true, "name": "activation_407"}, "inbound_nodes": [[["separable_conv_1_bn_normal_right2_2", 0, 0, {}]]], "name": "activation_407"}, {"class_name": "Activation", "config": {"activation": "relu", "trainable": true, "name": "activation_409"}, "inbound_nodes": [[["separable_conv_1_bn_normal_left5_2", 0, 0, {}]]], "name": "activation_409"}, {"class_name": "SeparableConv2D", "config": {"kernel_size": [5, 5], "dilation_rate": [1, 1], "filters": 32, "bias_initializer": {"class_name": "Zeros", "config": {}}, "depthwise_regularizer": null, "strides": [1, 1], "data_format": "channels_last", "trainable": true, "bias_constraint": null, "name": "separable_conv_2_normal_left1_2", "depth_multiplier": 1, "pointwise_initializer": {"class_name": "VarianceScaling", "config": {"scale": 1.0, "mode": "fan_avg", "distribution": "uniform", "seed": null}}, "padding": "same", "pointwise_regularizer": null, "bias_regularizer": null, "depthwise_constraint": null, "activation": "linear", "use_bias": false, "pointwise_constraint": null, "depthwise_initializer": {"class_name": "VarianceScaling", "config": {"scale": 1.0, "mode": "fan_avg", "distribution": "uniform", "seed": null}}, "activity_regularizer": null}, "inbound_nodes": [[["activation_401", 0, 0, {}]]], "name": "separable_conv_2_normal_left1_2"}, {"class_name": "SeparableConv2D", "config": {"kernel_size": [3, 3], "dilation_rate": [1, 1], "filters": 32, "bias_initializer": {"class_name": "Zeros", "config": {}}, "depthwise_regularizer": null, "strides": [1, 1], "data_format": "channels_last", "trainable": true, "bias_constraint": null, "name": "separable_conv_2_normal_right1_2", "depth_multiplier": 1, "pointwise_initializer": {"class_name": "VarianceScaling", "config": {"scale": 1.0, "mode": "fan_avg", "distribution": "uniform", "seed": null}}, "padding": "same", "pointwise_regularizer": null, "bias_regularizer": null, "depthwise_constraint": null, "activation": "linear", "use_bias": false, "pointwise_constraint": null, "depthwise_initializer": {"class_name": "VarianceScaling", "config": {"scale": 1.0, "mode": "fan_avg", "distribution": "uniform", "seed": null}}, "activity_regularizer": null}, "inbound_nodes": [[["activation_403", 0, 0, {}]]], "name": "separable_conv_2_normal_right1_2"}, {"class_name": "SeparableConv2D", "config": {"kernel_size": [5, 5], "dilation_rate": [1, 1], "filters": 32, "bias_initializer": {"class_name": "Zeros", "config": {}}, "depthwise_regularizer": null, "strides": [1, 1], "data_format": "channels_last", "trainable": true, "bias_constraint": null, "name": "separable_conv_2_normal_left2_2", "depth_multiplier": 1, "pointwise_initializer": {"class_name": "VarianceScaling", "config": {"scale": 1.0, "mode": "fan_avg", "distribution": "uniform", "seed": null}}, "padding": "same", "pointwise_regularizer": null, "bias_regularizer": null, "depthwise_constraint": null, "activation": "linear", "use_bias": false, "pointwise_constraint": null, "depthwise_initializer": {"class_name": "VarianceScaling", "config": {"scale": 1.0, "mode": "fan_avg", "distribution": "uniform", "seed": null}}, "activity_regularizer": null}, "inbound_nodes": [[["activation_405", 0, 0, {}]]], "name": "separable_conv_2_normal_left2_2"}, {"class_name": "SeparableConv2D", "config": {"kernel_size": [3, 3], "dilation_rate": [1, 1], "filters": 32, "bias_initializer": {"class_name": "Zeros", "config": {}}, "depthwise_regularizer": null, "strides": [1, 1], "data_format": "channels_last", "trainable": true, "bias_constraint": null, "name": "separable_conv_2_normal_right2_2", "depth_multiplier": 1, "pointwise_initializer": {"class_name": "VarianceScaling", "config": {"scale": 1.0, "mode": "fan_avg", "distribution": "uniform", "seed": null}}, "padding": "same", "pointwise_regularizer": null, "bias_regularizer": null, "depthwise_constraint": null, "activation": "linear", "use_bias": false, "pointwise_constraint": null, "depthwise_initializer": {"class_name": "VarianceScaling", "config": {"scale": 1.0, "mode": "fan_avg", "distribution": "uniform", "seed": null}}, "activity_regularizer": null}, "inbound_nodes": [[["activation_407", 0, 0, {}]]], "name": "separable_conv_2_normal_right2_2"}, {"class_name": "SeparableConv2D", "config": {"kernel_size": [3, 3], "dilation_rate": [1, 1], "filters": 32, "bias_initializer": {"class_name": "Zeros", "config": {}}, "depthwise_regularizer": null, "strides": [1, 1], "data_format": "channels_last", "trainable": true, "bias_constraint": null, "name": "separable_conv_2_normal_left5_2", "depth_multiplier": 1, "pointwise_initializer": {"class_name": "VarianceScaling", "config": {"scale": 1.0, "mode": "fan_avg", "distribution": "uniform", "seed": null}}, "padding": "same", "pointwise_regularizer": null, "bias_regularizer": null, "depthwise_constraint": null, "activation": "linear", "use_bias": false, "pointwise_constraint": null, "depthwise_initializer": {"class_name": "VarianceScaling", "config": {"scale": 1.0, "mode": "fan_avg", "distribution": "uniform", "seed": null}}, "activity_regularizer": null}, "inbound_nodes": [[["activation_409", 0, 0, {}]]], "name": "separable_conv_2_normal_left5_2"}, {"class_name": "BatchNormalization", "config": {"beta_regularizer": null, "center": true, "trainable": true, "gamma_constraint": null, "axis": -1, "gamma_initializer": {"class_name": "Ones", "config": {}}, "moving_variance_initializer": {"class_name": "Ones", "config": {}}, "moving_mean_initializer": {"class_name": "Zeros", "config": {}}, "epsilon": 1e-05, "gamma_regularizer": null, "scale": true, "beta_constraint": null, "beta_initializer": {"class_name": "Zeros", "config": {}}, "momentum": 0.9, "name": "separable_conv_2_bn_normal_left1_2"}, "inbound_nodes": [[["separable_conv_2_normal_left1_2", 0, 0, {}]]], "name": "separable_conv_2_bn_normal_left1_2"}, {"class_name": "BatchNormalization", "config": {"beta_regularizer": null, "center": true, "trainable": true, "gamma_constraint": null, "axis": -1, "gamma_initializer": {"class_name": "Ones", "config": {}}, "moving_variance_initializer": {"class_name": "Ones", "config": {}}, "moving_mean_initializer": {"class_name": "Zeros", "config": {}}, "epsilon": 1e-05, "gamma_regularizer": null, "scale": true, "beta_constraint": null, "beta_initializer": {"class_name": "Zeros", "config": {}}, "momentum": 0.9, "name": "separable_conv_2_bn_normal_right1_2"}, "inbound_nodes": [[["separable_conv_2_normal_right1_2", 0, 0, {}]]], "name": "separable_conv_2_bn_normal_right1_2"}, {"class_name": "BatchNormalization", "config": {"beta_regularizer": null, "center": true, "trainable": true, "gamma_constraint": null, "axis": -1, "gamma_initializer": {"class_name": "Ones", "config": {}}, "moving_variance_initializer": {"class_name": "Ones", "config": {}}, "moving_mean_initializer": {"class_name": "Zeros", "config": {}}, "epsilon": 1e-05, "gamma_regularizer": null, "scale": true, "beta_constraint": null, "beta_initializer": {"class_name": "Zeros", "config": {}}, "momentum": 0.9, "name": "separable_conv_2_bn_normal_left2_2"}, "inbound_nodes": [[["separable_conv_2_normal_left2_2", 0, 0, {}]]], "name": "separable_conv_2_bn_normal_left2_2"}, {"class_name": "BatchNormalization", "config": {"beta_regularizer": null, "center": true, "trainable": true, "gamma_constraint": null, "axis": -1, "gamma_initializer": {"class_name": "Ones", "config": {}}, "moving_variance_initializer": {"class_name": "Ones", "config": {}}, "moving_mean_initializer": {"class_name": "Zeros", "config": {}}, "epsilon": 1e-05, "gamma_regularizer": null, "scale": true, "beta_constraint": null, "beta_initializer": {"class_name": "Zeros", "config": {}}, "momentum": 0.9, "name": "separable_conv_2_bn_normal_right2_2"}, "inbound_nodes": [[["separable_conv_2_normal_right2_2", 0, 0, {}]]], "name": "separable_conv_2_bn_normal_right2_2"}, {"class_name": "AveragePooling2D", "config": {"padding": "same", "data_format": "channels_last", "pool_size": [3, 3], "trainable": true, "strides": [1, 1], "name": "normal_left3_2"}, "inbound_nodes": [[["normal_bn_1_2", 0, 0, {}]]], "name": "normal_left3_2"}, {"class_name": "AveragePooling2D", "config": {"padding": "same", "data_format": "channels_last", "pool_size": [3, 3], "trainable": true, "strides": [1, 1], "name": "normal_left4_2"}, "inbound_nodes": [[["adjust_bn_2", 0, 0, {}]]], "name": "normal_left4_2"}, {"class_name": "AveragePooling2D", "config": {"padding": "same", "data_format": "channels_last", "pool_size": [3, 3], "trainable": true, "strides": [1, 1], "name": "normal_right4_2"}, "inbound_nodes": [[["adjust_bn_2", 0, 0, {}]]], "name": "normal_right4_2"}, {"class_name": "BatchNormalization", "config": {"beta_regularizer": null, "center": true, "trainable": true, "gamma_constraint": null, "axis": -1, "gamma_initializer": {"class_name": "Ones", "config": {}}, "moving_variance_initializer": {"class_name": "Ones", "config": {}}, "moving_mean_initializer": {"class_name": "Zeros", "config": {}}, "epsilon": 1e-05, "gamma_regularizer": null, "scale": true, "beta_constraint": null, "beta_initializer": {"class_name": "Zeros", "config": {}}, "momentum": 0.9, "name": "separable_conv_2_bn_normal_left5_2"}, "inbound_nodes": [[["separable_conv_2_normal_left5_2", 0, 0, {}]]], "name": "separable_conv_2_bn_normal_left5_2"}, {"class_name": "Add", "config": {"trainable": true, "name": "normal_add_1_2"}, "inbound_nodes": [[["separable_conv_2_bn_normal_left1_2", 0, 0, {}], ["separable_conv_2_bn_normal_right1_2", 0, 0, {}]]], "name": "normal_add_1_2"}, {"class_name": "Add", "config": {"trainable": true, "name": "normal_add_2_2"}, "inbound_nodes": [[["separable_conv_2_bn_normal_left2_2", 0, 0, {}], ["separable_conv_2_bn_normal_right2_2", 0, 0, {}]]], "name": "normal_add_2_2"}, {"class_name": "Add", "config": {"trainable": true, "name": "normal_add_3_2"}, "inbound_nodes": [[["normal_left3_2", 0, 0, {}], ["adjust_bn_2", 0, 0, {}]]], "name": "normal_add_3_2"}, {"class_name": "Add", "config": {"trainable": true, "name": "normal_add_4_2"}, "inbound_nodes": [[["normal_left4_2", 0, 0, {}], ["normal_right4_2", 0, 0, {}]]], "name": "normal_add_4_2"}, {"class_name": "Add", "config": {"trainable": true, "name": "normal_add_5_2"}, "inbound_nodes": [[["separable_conv_2_bn_normal_left5_2", 0, 0, {}], ["normal_bn_1_2", 0, 0, {}]]], "name": "normal_add_5_2"}, {"class_name": "Concatenate", "config": {"axis": -1, "trainable": true, "name": "normal_concat_2"}, "inbound_nodes": [[["adjust_bn_2", 0, 0, {}], ["normal_add_1_2", 0, 0, {}], ["normal_add_2_2", 0, 0, {}], ["normal_add_3_2", 0, 0, {}], ["normal_add_4_2", 0, 0, {}], ["normal_add_5_2", 0, 0, {}]]], "name": "normal_concat_2"}, {"class_name": "Activation", "config": {"activation": "relu", "trainable": true, "name": "activation_411"}, "inbound_nodes": [[["normal_concat_2", 0, 0, {}]]], "name": "activation_411"}, {"class_name": "Activation", "config": {"activation": "relu", "trainable": true, "name": "activation_410"}, "inbound_nodes": [[["normal_concat_1", 0, 0, {}]]], "name": "activation_410"}, {"class_name": "Conv2D", "config": {"kernel_size": [1, 1], "dilation_rate": [1, 1], "filters": 64, "padding": "same", "bias_initializer": {"class_name": "Zeros", "config": {}}, "name": "reduction_conv_1_reduce_3", "strides": [1, 1], "kernel_initializer": {"class_name": "VarianceScaling", "config": {"scale": 2.0, "mode": "fan_in", "distribution": "normal", "seed": null}}, "trainable": true, "bias_constraint": null, "data_format": "channels_last", "activation": "linear", "use_bias": false, "kernel_regularizer": {"class_name": "L1L2", "config": {"l1": 0.0, "l2": 0.0005000000237487257}}, "kernel_constraint": null, "bias_regularizer": null, "activity_regularizer": null}, "inbound_nodes": [[["activation_411", 0, 0, {}]]], "name": "reduction_conv_1_reduce_3"}, {"class_name": "Conv2D", "config": {"kernel_size": [1, 1], "dilation_rate": [1, 1], "filters": 64, "padding": "same", "bias_initializer": {"class_name": "Zeros", "config": {}}, "name": "adjust_conv_projection_reduce_3", "strides": [1, 1], "kernel_initializer": {"class_name": "VarianceScaling", "config": {"scale": 2.0, "mode": "fan_in", "distribution": "normal", "seed": null}}, "trainable": true, "bias_constraint": null, "data_format": "channels_last", "activation": "linear", "use_bias": false, "kernel_regularizer": {"class_name": "L1L2", "config": {"l1": 0.0, "l2": 0.0005000000237487257}}, "kernel_constraint": null, "bias_regularizer": null, "activity_regularizer": null}, "inbound_nodes": [[["activation_410", 0, 0, {}]]], "name": "adjust_conv_projection_reduce_3"}, {"class_name": "BatchNormalization", "config": {"beta_regularizer": null, "center": true, "trainable": true, "gamma_constraint": null, "axis": -1, "gamma_initializer": {"class_name": "Ones", "config": {}}, "moving_variance_initializer": {"class_name": "Ones", "config": {}}, "moving_mean_initializer": {"class_name": "Zeros", "config": {}}, "epsilon": 1e-05, "gamma_regularizer": null, "scale": true, "beta_constraint": null, "beta_initializer": {"class_name": "Zeros", "config": {}}, "momentum": 0.9, "name": "reduction_bn_1_reduce_3"}, "inbound_nodes": [[["reduction_conv_1_reduce_3", 0, 0, {}]]], "name": "reduction_bn_1_reduce_3"}, {"class_name": "BatchNormalization", "config": {"beta_regularizer": null, "center": true, "trainable": true, "gamma_constraint": null, "axis": -1, "gamma_initializer": {"class_name": "Ones", "config": {}}, "moving_variance_initializer": {"class_name": "Ones", "config": {}}, "moving_mean_initializer": {"class_name": "Zeros", "config": {}}, "epsilon": 1e-05, "gamma_regularizer": null, "scale": true, "beta_constraint": null, "beta_initializer": {"class_name": "Zeros", "config": {}}, "momentum": 0.9, "name": "adjust_bn_reduce_3"}, "inbound_nodes": [[["adjust_conv_projection_reduce_3", 0, 0, {}]]], "name": "adjust_bn_reduce_3"}, {"class_name": "Activation", "config": {"activation": "relu", "trainable": true, "name": "activation_412"}, "inbound_nodes": [[["reduction_bn_1_reduce_3", 0, 0, {}]]], "name": "activation_412"}, {"class_name": "Activation", "config": {"activation": "relu", "trainable": true, "name": "activation_414"}, "inbound_nodes": [[["adjust_bn_reduce_3", 0, 0, {}]]], "name": "activation_414"}, {"class_name": "SeparableConv2D", "config": {"kernel_size": [5, 5], "dilation_rate": [1, 1], "filters": 64, "bias_initializer": {"class_name": "Zeros", "config": {}}, "depthwise_regularizer": null, "strides": [2, 2], "data_format": "channels_last", "trainable": true, "bias_constraint": null, "name": "separable_conv_1_reduction_left1_reduce_3", "depth_multiplier": 1, "pointwise_initializer": {"class_name": "VarianceScaling", "config": {"scale": 1.0, "mode": "fan_avg", "distribution": "uniform", "seed": null}}, "padding": "same", "pointwise_regularizer": null, "bias_regularizer": null, "depthwise_constraint": null, "activation": "linear", "use_bias": false, "pointwise_constraint": null, "depthwise_initializer": {"class_name": "VarianceScaling", "config": {"scale": 1.0, "mode": "fan_avg", "distribution": "uniform", "seed": null}}, "activity_regularizer": null}, "inbound_nodes": [[["activation_412", 0, 0, {}]]], "name": "separable_conv_1_reduction_left1_reduce_3"}, {"class_name": "SeparableConv2D", "config": {"kernel_size": [7, 7], "dilation_rate": [1, 1], "filters": 64, "bias_initializer": {"class_name": "Zeros", "config": {}}, "depthwise_regularizer": null, "strides": [2, 2], "data_format": "channels_last", "trainable": true, "bias_constraint": null, "name": "separable_conv_1_reduction_1_reduce_3", "depth_multiplier": 1, "pointwise_initializer": {"class_name": "VarianceScaling", "config": {"scale": 1.0, "mode": "fan_avg", "distribution": "uniform", "seed": null}}, "padding": "same", "pointwise_regularizer": null, "bias_regularizer": null, "depthwise_constraint": null, "activation": "linear", "use_bias": false, "pointwise_constraint": null, "depthwise_initializer": {"class_name": "VarianceScaling", "config": {"scale": 1.0, "mode": "fan_avg", "distribution": "uniform", "seed": null}}, "activity_regularizer": null}, "inbound_nodes": [[["activation_414", 0, 0, {}]]], "name": "separable_conv_1_reduction_1_reduce_3"}, {"class_name": "BatchNormalization", "config": {"beta_regularizer": null, "center": true, "trainable": true, "gamma_constraint": null, "axis": -1, "gamma_initializer": {"class_name": "Ones", "config": {}}, "moving_variance_initializer": {"class_name": "Ones", "config": {}}, "moving_mean_initializer": {"class_name": "Zeros", "config": {}}, "epsilon": 1e-05, "gamma_regularizer": null, "scale": true, "beta_constraint": null, "beta_initializer": {"class_name": "Zeros", "config": {}}, "momentum": 0.9, "name": "separable_conv_1_bn_reduction_left1_reduce_3"}, "inbound_nodes": [[["separable_conv_1_reduction_left1_reduce_3", 0, 0, {}]]], "name": "separable_conv_1_bn_reduction_left1_reduce_3"}, {"class_name": "BatchNormalization", "config": {"beta_regularizer": null, "center": true, "trainable": true, "gamma_constraint": null, "axis": -1, "gamma_initializer": {"class_name": "Ones", "config": {}}, "moving_variance_initializer": {"class_name": "Ones", "config": {}}, "moving_mean_initializer": {"class_name": "Zeros", "config": {}}, "epsilon": 1e-05, "gamma_regularizer": null, "scale": true, "beta_constraint": null, "beta_initializer": {"class_name": "Zeros", "config": {}}, "momentum": 0.9, "name": "separable_conv_1_bn_reduction_1_reduce_3"}, "inbound_nodes": [[["separable_conv_1_reduction_1_reduce_3", 0, 0, {}]]], "name": "separable_conv_1_bn_reduction_1_reduce_3"}, {"class_name": "Activation", "config": {"activation": "relu", "trainable": true, "name": "activation_413"}, "inbound_nodes": [[["separable_conv_1_bn_reduction_left1_reduce_3", 0, 0, {}]]], "name": "activation_413"}, {"class_name": "Activation", "config": {"activation": "relu", "trainable": true, "name": "activation_415"}, "inbound_nodes": [[["separable_conv_1_bn_reduction_1_reduce_3", 0, 0, {}]]], "name": "activation_415"}, {"class_name": "SeparableConv2D", "config": {"kernel_size": [5, 5], "dilation_rate": [1, 1], "filters": 64, "bias_initializer": {"class_name": "Zeros", "config": {}}, "depthwise_regularizer": null, "strides": [1, 1], "data_format": "channels_last", "trainable": true, "bias_constraint": null, "name": "separable_conv_2_reduction_left1_reduce_3", "depth_multiplier": 1, "pointwise_initializer": {"class_name": "VarianceScaling", "config": {"scale": 1.0, "mode": "fan_avg", "distribution": "uniform", "seed": null}}, "padding": "same", "pointwise_regularizer": null, "bias_regularizer": null, "depthwise_constraint": null, "activation": "linear", "use_bias": false, "pointwise_constraint": null, "depthwise_initializer": {"class_name": "VarianceScaling", "config": {"scale": 1.0, "mode": "fan_avg", "distribution": "uniform", "seed": null}}, "activity_regularizer": null}, "inbound_nodes": [[["activation_413", 0, 0, {}]]], "name": "separable_conv_2_reduction_left1_reduce_3"}, {"class_name": "SeparableConv2D", "config": {"kernel_size": [7, 7], "dilation_rate": [1, 1], "filters": 64, "bias_initializer": {"class_name": "Zeros", "config": {}}, "depthwise_regularizer": null, "strides": [1, 1], "data_format": "channels_last", "trainable": true, "bias_constraint": null, "name": "separable_conv_2_reduction_1_reduce_3", "depth_multiplier": 1, "pointwise_initializer": {"class_name": "VarianceScaling", "config": {"scale": 1.0, "mode": "fan_avg", "distribution": "uniform", "seed": null}}, "padding": "same", "pointwise_regularizer": null, "bias_regularizer": null, "depthwise_constraint": null, "activation": "linear", "use_bias": false, "pointwise_constraint": null, "depthwise_initializer": {"class_name": "VarianceScaling", "config": {"scale": 1.0, "mode": "fan_avg", "distribution": "uniform", "seed": null}}, "activity_regularizer": null}, "inbound_nodes": [[["activation_415", 0, 0, {}]]], "name": "separable_conv_2_reduction_1_reduce_3"}, {"class_name": "BatchNormalization", "config": {"beta_regularizer": null, "center": true, "trainable": true, "gamma_constraint": null, "axis": -1, "gamma_initializer": {"class_name": "Ones", "config": {}}, "moving_variance_initializer": {"class_name": "Ones", "config": {}}, "moving_mean_initializer": {"class_name": "Zeros", "config": {}}, "epsilon": 1e-05, "gamma_regularizer": null, "scale": true, "beta_constraint": null, "beta_initializer": {"class_name": "Zeros", "config": {}}, "momentum": 0.9, "name": "separable_conv_2_bn_reduction_left1_reduce_3"}, "inbound_nodes": [[["separable_conv_2_reduction_left1_reduce_3", 0, 0, {}]]], "name": "separable_conv_2_bn_reduction_left1_reduce_3"}, {"class_name": "BatchNormalization", "config": {"beta_regularizer": null, "center": true, "trainable": true, "gamma_constraint": null, "axis": -1, "gamma_initializer": {"class_name": "Ones", "config": {}}, "moving_variance_initializer": {"class_name": "Ones", "config": {}}, "moving_mean_initializer": {"class_name": "Zeros", "config": {}}, "epsilon": 1e-05, "gamma_regularizer": null, "scale": true, "beta_constraint": null, "beta_initializer": {"class_name": "Zeros", "config": {}}, "momentum": 0.9, "name": "separable_conv_2_bn_reduction_1_reduce_3"}, "inbound_nodes": [[["separable_conv_2_reduction_1_reduce_3", 0, 0, {}]]], "name": "separable_conv_2_bn_reduction_1_reduce_3"}, {"class_name": "Activation", "config": {"activation": "relu", "trainable": true, "name": "activation_416"}, "inbound_nodes": [[["adjust_bn_reduce_3", 0, 0, {}]]], "name": "activation_416"}, {"class_name": "Add", "config": {"trainable": true, "name": "reduction_add_1_reduce_3"}, "inbound_nodes": [[["separable_conv_2_bn_reduction_left1_reduce_3", 0, 0, {}], ["separable_conv_2_bn_reduction_1_reduce_3", 0, 0, {}]]], "name": "reduction_add_1_reduce_3"}, {"class_name": "SeparableConv2D", "config": {"kernel_size": [7, 7], "dilation_rate": [1, 1], "filters": 64, "bias_initializer": {"class_name": "Zeros", "config": {}}, "depthwise_regularizer": null, "strides": [2, 2], "data_format": "channels_last", "trainable": true, "bias_constraint": null, "name": "separable_conv_1_reduction_right2_reduce_3", "depth_multiplier": 1, "pointwise_initializer": {"class_name": "VarianceScaling", "config": {"scale": 1.0, "mode": "fan_avg", "distribution": "uniform", "seed": null}}, "padding": "same", "pointwise_regularizer": null, "bias_regularizer": null, "depthwise_constraint": null, "activation": "linear", "use_bias": false, "pointwise_constraint": null, "depthwise_initializer": {"class_name": "VarianceScaling", "config": {"scale": 1.0, "mode": "fan_avg", "distribution": "uniform", "seed": null}}, "activity_regularizer": null}, "inbound_nodes": [[["activation_416", 0, 0, {}]]], "name": "separable_conv_1_reduction_right2_reduce_3"}, {"class_name": "Activation", "config": {"activation": "relu", "trainable": true, "name": "activation_418"}, "inbound_nodes": [[["adjust_bn_reduce_3", 0, 0, {}]]], "name": "activation_418"}, {"class_name": "Activation", "config": {"activation": "relu", "trainable": true, "name": "activation_420"}, "inbound_nodes": [[["reduction_add_1_reduce_3", 0, 0, {}]]], "name": "activation_420"}, {"class_name": "BatchNormalization", "config": {"beta_regularizer": null, "center": true, "trainable": true, "gamma_constraint": null, "axis": -1, "gamma_initializer": {"class_name": "Ones", "config": {}}, "moving_variance_initializer": {"class_name": "Ones", "config": {}}, "moving_mean_initializer": {"class_name": "Zeros", "config": {}}, "epsilon": 1e-05, "gamma_regularizer": null, "scale": true, "beta_constraint": null, "beta_initializer": {"class_name": "Zeros", "config": {}}, "momentum": 0.9, "name": "separable_conv_1_bn_reduction_right2_reduce_3"}, "inbound_nodes": [[["separable_conv_1_reduction_right2_reduce_3", 0, 0, {}]]], "name": "separable_conv_1_bn_reduction_right2_reduce_3"}, {"class_name": "SeparableConv2D", "config": {"kernel_size": [5, 5], "dilation_rate": [1, 1], "filters": 64, "bias_initializer": {"class_name": "Zeros", "config": {}}, "depthwise_regularizer": null, "strides": [2, 2], "data_format": "channels_last", "trainable": true, "bias_constraint": null, "name": "separable_conv_1_reduction_right3_reduce_3", "depth_multiplier": 1, "pointwise_initializer": {"class_name": "VarianceScaling", "config": {"scale": 1.0, "mode": "fan_avg", "distribution": "uniform", "seed": null}}, "padding": "same", "pointwise_regularizer": null, "bias_regularizer": null, "depthwise_constraint": null, "activation": "linear", "use_bias": false, "pointwise_constraint": null, "depthwise_initializer": {"class_name": "VarianceScaling", "config": {"scale": 1.0, "mode": "fan_avg", "distribution": "uniform", "seed": null}}, "activity_regularizer": null}, "inbound_nodes": [[["activation_418", 0, 0, {}]]], "name": "separable_conv_1_reduction_right3_reduce_3"}, {"class_name": "SeparableConv2D", "config": {"kernel_size": [3, 3], "dilation_rate": [1, 1], "filters": 64, "bias_initializer": {"class_name": "Zeros", "config": {}}, "depthwise_regularizer": null, "strides": [1, 1], "data_format": "channels_last", "trainable": true, "bias_constraint": null, "name": "separable_conv_1_reduction_left4_reduce_3", "depth_multiplier": 1, "pointwise_initializer": {"class_name": "VarianceScaling", "config": {"scale": 1.0, "mode": "fan_avg", "distribution": "uniform", "seed": null}}, "padding": "same", "pointwise_regularizer": null, "bias_regularizer": null, "depthwise_constraint": null, "activation": "linear", "use_bias": false, "pointwise_constraint": null, "depthwise_initializer": {"class_name": "VarianceScaling", "config": {"scale": 1.0, "mode": "fan_avg", "distribution": "uniform", "seed": null}}, "activity_regularizer": null}, "inbound_nodes": [[["activation_420", 0, 0, {}]]], "name": "separable_conv_1_reduction_left4_reduce_3"}, {"class_name": "Activation", "config": {"activation": "relu", "trainable": true, "name": "activation_417"}, "inbound_nodes": [[["separable_conv_1_bn_reduction_right2_reduce_3", 0, 0, {}]]], "name": "activation_417"}, {"class_name": "BatchNormalization", "config": {"beta_regularizer": null, "center": true, "trainable": true, "gamma_constraint": null, "axis": -1, "gamma_initializer": {"class_name": "Ones", "config": {}}, "moving_variance_initializer": {"class_name": "Ones", "config": {}}, "moving_mean_initializer": {"class_name": "Zeros", "config": {}}, "epsilon": 1e-05, "gamma_regularizer": null, "scale": true, "beta_constraint": null, "beta_initializer": {"class_name": "Zeros", "config": {}}, "momentum": 0.9, "name": "separable_conv_1_bn_reduction_right3_reduce_3"}, "inbound_nodes": [[["separable_conv_1_reduction_right3_reduce_3", 0, 0, {}]]], "name": "separable_conv_1_bn_reduction_right3_reduce_3"}, {"class_name": "BatchNormalization", "config": {"beta_regularizer": null, "center": true, "trainable": true, "gamma_constraint": null, "axis": -1, "gamma_initializer": {"class_name": "Ones", "config": {}}, "moving_variance_initializer": {"class_name": "Ones", "config": {}}, "moving_mean_initializer": {"class_name": "Zeros", "config": {}}, "epsilon": 1e-05, "gamma_regularizer": null, "scale": true, "beta_constraint": null, "beta_initializer": {"class_name": "Zeros", "config": {}}, "momentum": 0.9, "name": "separable_conv_1_bn_reduction_left4_reduce_3"}, "inbound_nodes": [[["separable_conv_1_reduction_left4_reduce_3", 0, 0, {}]]], "name": "separable_conv_1_bn_reduction_left4_reduce_3"}, {"class_name": "SeparableConv2D", "config": {"kernel_size": [7, 7], "dilation_rate": [1, 1], "filters": 64, "bias_initializer": {"class_name": "Zeros", "config": {}}, "depthwise_regularizer": null, "strides": [1, 1], "data_format": "channels_last", "trainable": true, "bias_constraint": null, "name": "separable_conv_2_reduction_right2_reduce_3", "depth_multiplier": 1, "pointwise_initializer": {"class_name": "VarianceScaling", "config": {"scale": 1.0, "mode": "fan_avg", "distribution": "uniform", "seed": null}}, "padding": "same", "pointwise_regularizer": null, "bias_regularizer": null, "depthwise_constraint": null, "activation": "linear", "use_bias": false, "pointwise_constraint": null, "depthwise_initializer": {"class_name": "VarianceScaling", "config": {"scale": 1.0, "mode": "fan_avg", "distribution": "uniform", "seed": null}}, "activity_regularizer": null}, "inbound_nodes": [[["activation_417", 0, 0, {}]]], "name": "separable_conv_2_reduction_right2_reduce_3"}, {"class_name": "Activation", "config": {"activation": "relu", "trainable": true, "name": "activation_419"}, "inbound_nodes": [[["separable_conv_1_bn_reduction_right3_reduce_3", 0, 0, {}]]], "name": "activation_419"}, {"class_name": "Activation", "config": {"activation": "relu", "trainable": true, "name": "activation_421"}, "inbound_nodes": [[["separable_conv_1_bn_reduction_left4_reduce_3", 0, 0, {}]]], "name": "activation_421"}, {"class_name": "Activation", "config": {"activation": "relu", "trainable": true, "name": "adjust_relu_1_4"}, "inbound_nodes": [[["normal_concat_2", 0, 0, {}]]], "name": "adjust_relu_1_4"}, {"class_name": "MaxPooling2D", "config": {"padding": "same", "data_format": "channels_last", "pool_size": [3, 3], "trainable": true, "strides": [2, 2], "name": "reduction_left2_reduce_3"}, "inbound_nodes": [[["reduction_bn_1_reduce_3", 0, 0, {}]]], "name": "reduction_left2_reduce_3"}, {"class_name": "BatchNormalization", "config": {"beta_regularizer": null, "center": true, "trainable": true, "gamma_constraint": null, "axis": -1, "gamma_initializer": {"class_name": "Ones", "config": {}}, "moving_variance_initializer": {"class_name": "Ones", "config": {}}, "moving_mean_initializer": {"class_name": "Zeros", "config": {}}, "epsilon": 1e-05, "gamma_regularizer": null, "scale": true, "beta_constraint": null, "beta_initializer": {"class_name": "Zeros", "config": {}}, "momentum": 0.9, "name": "separable_conv_2_bn_reduction_right2_reduce_3"}, "inbound_nodes": [[["separable_conv_2_reduction_right2_reduce_3", 0, 0, {}]]], "name": "separable_conv_2_bn_reduction_right2_reduce_3"}, {"class_name": "SeparableConv2D", "config": {"kernel_size": [5, 5], "dilation_rate": [1, 1], "filters": 64, "bias_initializer": {"class_name": "Zeros", "config": {}}, "depthwise_regularizer": null, "strides": [1, 1], "data_format": "channels_last", "trainable": true, "bias_constraint": null, "name": "separable_conv_2_reduction_right3_reduce_3", "depth_multiplier": 1, "pointwise_initializer": {"class_name": "VarianceScaling", "config": {"scale": 1.0, "mode": "fan_avg", "distribution": "uniform", "seed": null}}, "padding": "same", "pointwise_regularizer": null, "bias_regularizer": null, "depthwise_constraint": null, "activation": "linear", "use_bias": false, "pointwise_constraint": null, "depthwise_initializer": {"class_name": "VarianceScaling", "config": {"scale": 1.0, "mode": "fan_avg", "distribution": "uniform", "seed": null}}, "activity_regularizer": null}, "inbound_nodes": [[["activation_419", 0, 0, {}]]], "name": "separable_conv_2_reduction_right3_reduce_3"}, {"class_name": "SeparableConv2D", "config": {"kernel_size": [3, 3], "dilation_rate": [1, 1], "filters": 64, "bias_initializer": {"class_name": "Zeros", "config": {}}, "depthwise_regularizer": null, "strides": [1, 1], "data_format": "channels_last", "trainable": true, "bias_constraint": null, "name": "separable_conv_2_reduction_left4_reduce_3", "depth_multiplier": 1, "pointwise_initializer": {"class_name": "VarianceScaling", "config": {"scale": 1.0, "mode": "fan_avg", "distribution": "uniform", "seed": null}}, "padding": "same", "pointwise_regularizer": null, "bias_regularizer": null, "depthwise_constraint": null, "activation": "linear", "use_bias": false, "pointwise_constraint": null, "depthwise_initializer": {"class_name": "VarianceScaling", "config": {"scale": 1.0, "mode": "fan_avg", "distribution": "uniform", "seed": null}}, "activity_regularizer": null}, "inbound_nodes": [[["activation_421", 0, 0, {}]]], "name": "separable_conv_2_reduction_left4_reduce_3"}, {"class_name": "ZeroPadding2D", "config": {"name": "zero_padding2d_7", "trainable": true, "padding": [[0, 1], [0, 1]], "data_format": "channels_last"}, "inbound_nodes": [[["adjust_relu_1_4", 0, 0, {}]]], "name": "zero_padding2d_7"}, {"class_name": "Add", "config": {"trainable": true, "name": "reduction_add_2_reduce_3"}, "inbound_nodes": [[["reduction_left2_reduce_3", 0, 0, {}], ["separable_conv_2_bn_reduction_right2_reduce_3", 0, 0, {}]]], "name": "reduction_add_2_reduce_3"}, {"class_name": "AveragePooling2D", "config": {"padding": "same", "data_format": "channels_last", "pool_size": [3, 3], "trainable": true, "strides": [2, 2], "name": "reduction_left3_reduce_3"}, "inbound_nodes": [[["reduction_bn_1_reduce_3", 0, 0, {}]]], "name": "reduction_left3_reduce_3"}, {"class_name": "BatchNormalization", "config": {"beta_regularizer": null, "center": true, "trainable": true, "gamma_constraint": null, "axis": -1, "gamma_initializer": {"class_name": "Ones", "config": {}}, "moving_variance_initializer": {"class_name": "Ones", "config": {}}, "moving_mean_initializer": {"class_name": "Zeros", "config": {}}, "epsilon": 1e-05, "gamma_regularizer": null, "scale": true, "beta_constraint": null, "beta_initializer": {"class_name": "Zeros", "config": {}}, "momentum": 0.9, "name": "separable_conv_2_bn_reduction_right3_reduce_3"}, "inbound_nodes": [[["separable_conv_2_reduction_right3_reduce_3", 0, 0, {}]]], "name": "separable_conv_2_bn_reduction_right3_reduce_3"}, {"class_name": "AveragePooling2D", "config": {"padding": "same", "data_format": "channels_last", "pool_size": [3, 3], "trainable": true, "strides": [1, 1], "name": "reduction_left4_reduce_3"}, "inbound_nodes": [[["reduction_add_1_reduce_3", 0, 0, {}]]], "name": "reduction_left4_reduce_3"}, {"class_name": "BatchNormalization", "config": {"beta_regularizer": null, "center": true, "trainable": true, "gamma_constraint": null, "axis": -1, "gamma_initializer": {"class_name": "Ones", "config": {}}, "moving_variance_initializer": {"class_name": "Ones", "config": {}}, "moving_mean_initializer": {"class_name": "Zeros", "config": {}}, "epsilon": 1e-05, "gamma_regularizer": null, "scale": true, "beta_constraint": null, "beta_initializer": {"class_name": "Zeros", "config": {}}, "momentum": 0.9, "name": "separable_conv_2_bn_reduction_left4_reduce_3"}, "inbound_nodes": [[["separable_conv_2_reduction_left4_reduce_3", 0, 0, {}]]], "name": "separable_conv_2_bn_reduction_left4_reduce_3"}, {"class_name": "MaxPooling2D", "config": {"padding": "same", "data_format": "channels_last", "pool_size": [3, 3], "trainable": true, "strides": [2, 2], "name": "reduction_right5_reduce_3"}, "inbound_nodes": [[["reduction_bn_1_reduce_3", 0, 0, {}]]], "name": "reduction_right5_reduce_3"}, {"class_name": "Cropping2D", "config": {"name": "cropping2d_7", "trainable": true, "cropping": [[1, 0], [1, 0]], "data_format": "channels_last"}, "inbound_nodes": [[["zero_padding2d_7", 0, 0, {}]]], "name": "cropping2d_7"}, {"class_name": "Add", "config": {"trainable": true, "name": "reduction_add3_reduce_3"}, "inbound_nodes": [[["reduction_left3_reduce_3", 0, 0, {}], ["separable_conv_2_bn_reduction_right3_reduce_3", 0, 0, {}]]], "name": "reduction_add3_reduce_3"}, {"class_name": "Add", "config": {"trainable": true, "name": "add_7"}, "inbound_nodes": [[["reduction_add_2_reduce_3", 0, 0, {}], ["reduction_left4_reduce_3", 0, 0, {}]]], "name": "add_7"}, {"class_name": "Add", "config": {"trainable": true, "name": "reduction_add4_reduce_3"}, "inbound_nodes": [[["separable_conv_2_bn_reduction_left4_reduce_3", 0, 0, {}], ["reduction_right5_reduce_3", 0, 0, {}]]], "name": "reduction_add4_reduce_3"}, {"class_name": "AveragePooling2D", "config": {"padding": "valid", "data_format": "channels_last", "pool_size": [1, 1], "trainable": true, "strides": [2, 2], "name": "adjust_avg_pool_1_4"}, "inbound_nodes": [[["adjust_relu_1_4", 0, 0, {}]]], "name": "adjust_avg_pool_1_4"}, {"class_name": "AveragePooling2D", "config": {"padding": "valid", "data_format": "channels_last", "pool_size": [1, 1], "trainable": true, "strides": [2, 2], "name": "adjust_avg_pool_2_4"}, "inbound_nodes": [[["cropping2d_7", 0, 0, {}]]], "name": "adjust_avg_pool_2_4"}, {"class_name": "Concatenate", "config": {"axis": -1, "trainable": true, "name": "reduction_concat_reduce_3"}, "inbound_nodes": [[["reduction_add_2_reduce_3", 0, 0, {}], ["reduction_add3_reduce_3", 0, 0, {}], ["add_7", 0, 0, {}], ["reduction_add4_reduce_3", 0, 0, {}]]], "name": "reduction_concat_reduce_3"}, {"class_name": "Conv2D", "config": {"kernel_size": [1, 1], "dilation_rate": [1, 1], "filters": 32, "padding": "same", "bias_initializer": {"class_name": "Zeros", "config": {}}, "name": "adjust_conv_1_4", "strides": [1, 1], "kernel_initializer": {"class_name": "VarianceScaling", "config": {"scale": 2.0, "mode": "fan_in", "distribution": "normal", "seed": null}}, "trainable": true, "bias_constraint": null, "data_format": "channels_last", "activation": "linear", "use_bias": false, "kernel_regularizer": {"class_name": "L1L2", "config": {"l1": 0.0, "l2": 0.0005000000237487257}}, "kernel_constraint": null, "bias_regularizer": null, "activity_regularizer": null}, "inbound_nodes": [[["adjust_avg_pool_1_4", 0, 0, {}]]], "name": "adjust_conv_1_4"}, {"class_name": "Conv2D", "config": {"kernel_size": [1, 1], "dilation_rate": [1, 1], "filters": 32, "padding": "same", "bias_initializer": {"class_name": "Zeros", "config": {}}, "name": "adjust_conv_2_4", "strides": [1, 1], "kernel_initializer": {"class_name": "VarianceScaling", "config": {"scale": 2.0, "mode": "fan_in", "distribution": "normal", "seed": null}}, "trainable": true, "bias_constraint": null, "data_format": "channels_last", "activation": "linear", "use_bias": false, "kernel_regularizer": {"class_name": "L1L2", "config": {"l1": 0.0, "l2": 0.0005000000237487257}}, "kernel_constraint": null, "bias_regularizer": null, "activity_regularizer": null}, "inbound_nodes": [[["adjust_avg_pool_2_4", 0, 0, {}]]], "name": "adjust_conv_2_4"}, {"class_name": "Activation", "config": {"activation": "relu", "trainable": true, "name": "activation_422"}, "inbound_nodes": [[["reduction_concat_reduce_3", 0, 0, {}]]], "name": "activation_422"}, {"class_name": "Concatenate", "config": {"axis": -1, "trainable": true, "name": "concatenate_7"}, "inbound_nodes": [[["adjust_conv_1_4", 0, 0, {}], ["adjust_conv_2_4", 0, 0, {}]]], "name": "concatenate_7"}, {"class_name": "Conv2D", "config": {"kernel_size": [1, 1], "dilation_rate": [1, 1], "filters": 64, "padding": "same", "bias_initializer": {"class_name": "Zeros", "config": {}}, "name": "normal_conv_1_4", "strides": [1, 1], "kernel_initializer": {"class_name": "VarianceScaling", "config": {"scale": 2.0, "mode": "fan_in", "distribution": "normal", "seed": null}}, "trainable": true, "bias_constraint": null, "data_format": "channels_last", "activation": "linear", "use_bias": false, "kernel_regularizer": {"class_name": "L1L2", "config": {"l1": 0.0, "l2": 0.0005000000237487257}}, "kernel_constraint": null, "bias_regularizer": null, "activity_regularizer": null}, "inbound_nodes": [[["activation_422", 0, 0, {}]]], "name": "normal_conv_1_4"}, {"class_name": "BatchNormalization", "config": {"beta_regularizer": null, "center": true, "trainable": true, "gamma_constraint": null, "axis": -1, "gamma_initializer": {"class_name": "Ones", "config": {}}, "moving_variance_initializer": {"class_name": "Ones", "config": {}}, "moving_mean_initializer": {"class_name": "Zeros", "config": {}}, "epsilon": 1e-05, "gamma_regularizer": null, "scale": true, "beta_constraint": null, "beta_initializer": {"class_name": "Zeros", "config": {}}, "momentum": 0.9, "name": "adjust_bn_4"}, "inbound_nodes": [[["concatenate_7", 0, 0, {}]]], "name": "adjust_bn_4"}, {"class_name": "BatchNormalization", "config": {"beta_regularizer": null, "center": true, "trainable": true, "gamma_constraint": null, "axis": -1, "gamma_initializer": {"class_name": "Ones", "config": {}}, "moving_variance_initializer": {"class_name": "Ones", "config": {}}, "moving_mean_initializer": {"class_name": "Zeros", "config": {}}, "epsilon": 1e-05, "gamma_regularizer": null, "scale": true, "beta_constraint": null, "beta_initializer": {"class_name": "Zeros", "config": {}}, "momentum": 0.9, "name": "normal_bn_1_4"}, "inbound_nodes": [[["normal_conv_1_4", 0, 0, {}]]], "name": "normal_bn_1_4"}, {"class_name": "Activation", "config": {"activation": "relu", "trainable": true, "name": "activation_423"}, "inbound_nodes": [[["normal_bn_1_4", 0, 0, {}]]], "name": "activation_423"}, {"class_name": "Activation", "config": {"activation": "relu", "trainable": true, "name": "activation_425"}, "inbound_nodes": [[["adjust_bn_4", 0, 0, {}]]], "name": "activation_425"}, {"class_name": "Activation", "config": {"activation": "relu", "trainable": true, "name": "activation_427"}, "inbound_nodes": [[["adjust_bn_4", 0, 0, {}]]], "name": "activation_427"}, {"class_name": "Activation", "config": {"activation": "relu", "trainable": true, "name": "activation_429"}, "inbound_nodes": [[["adjust_bn_4", 0, 0, {}]]], "name": "activation_429"}, {"class_name": "Activation", "config": {"activation": "relu", "trainable": true, "name": "activation_431"}, "inbound_nodes": [[["normal_bn_1_4", 0, 0, {}]]], "name": "activation_431"}, {"class_name": "SeparableConv2D", "config": {"kernel_size": [5, 5], "dilation_rate": [1, 1], "filters": 64, "bias_initializer": {"class_name": "Zeros", "config": {}}, "depthwise_regularizer": null, "strides": [1, 1], "data_format": "channels_last", "trainable": true, "bias_constraint": null, "name": "separable_conv_1_normal_left1_4", "depth_multiplier": 1, "pointwise_initializer": {"class_name": "VarianceScaling", "config": {"scale": 1.0, "mode": "fan_avg", "distribution": "uniform", "seed": null}}, "padding": "same", "pointwise_regularizer": null, "bias_regularizer": null, "depthwise_constraint": null, "activation": "linear", "use_bias": false, "pointwise_constraint": null, "depthwise_initializer": {"class_name": "VarianceScaling", "config": {"scale": 1.0, "mode": "fan_avg", "distribution": "uniform", "seed": null}}, "activity_regularizer": null}, "inbound_nodes": [[["activation_423", 0, 0, {}]]], "name": "separable_conv_1_normal_left1_4"}, {"class_name": "SeparableConv2D", "config": {"kernel_size": [3, 3], "dilation_rate": [1, 1], "filters": 64, "bias_initializer": {"class_name": "Zeros", "config": {}}, "depthwise_regularizer": null, "strides": [1, 1], "data_format": "channels_last", "trainable": true, "bias_constraint": null, "name": "separable_conv_1_normal_right1_4", "depth_multiplier": 1, "pointwise_initializer": {"class_name": "VarianceScaling", "config": {"scale": 1.0, "mode": "fan_avg", "distribution": "uniform", "seed": null}}, "padding": "same", "pointwise_regularizer": null, "bias_regularizer": null, "depthwise_constraint": null, "activation": "linear", "use_bias": false, "pointwise_constraint": null, "depthwise_initializer": {"class_name": "VarianceScaling", "config": {"scale": 1.0, "mode": "fan_avg", "distribution": "uniform", "seed": null}}, "activity_regularizer": null}, "inbound_nodes": [[["activation_425", 0, 0, {}]]], "name": "separable_conv_1_normal_right1_4"}, {"class_name": "SeparableConv2D", "config": {"kernel_size": [5, 5], "dilation_rate": [1, 1], "filters": 64, "bias_initializer": {"class_name": "Zeros", "config": {}}, "depthwise_regularizer": null, "strides": [1, 1], "data_format": "channels_last", "trainable": true, "bias_constraint": null, "name": "separable_conv_1_normal_left2_4", "depth_multiplier": 1, "pointwise_initializer": {"class_name": "VarianceScaling", "config": {"scale": 1.0, "mode": "fan_avg", "distribution": "uniform", "seed": null}}, "padding": "same", "pointwise_regularizer": null, "bias_regularizer": null, "depthwise_constraint": null, "activation": "linear", "use_bias": false, "pointwise_constraint": null, "depthwise_initializer": {"class_name": "VarianceScaling", "config": {"scale": 1.0, "mode": "fan_avg", "distribution": "uniform", "seed": null}}, "activity_regularizer": null}, "inbound_nodes": [[["activation_427", 0, 0, {}]]], "name": "separable_conv_1_normal_left2_4"}, {"class_name": "SeparableConv2D", "config": {"kernel_size": [3, 3], "dilation_rate": [1, 1], "filters": 64, "bias_initializer": {"class_name": "Zeros", "config": {}}, "depthwise_regularizer": null, "strides": [1, 1], "data_format": "channels_last", "trainable": true, "bias_constraint": null, "name": "separable_conv_1_normal_right2_4", "depth_multiplier": 1, "pointwise_initializer": {"class_name": "VarianceScaling", "config": {"scale": 1.0, "mode": "fan_avg", "distribution": "uniform", "seed": null}}, "padding": "same", "pointwise_regularizer": null, "bias_regularizer": null, "depthwise_constraint": null, "activation": "linear", "use_bias": false, "pointwise_constraint": null, "depthwise_initializer": {"class_name": "VarianceScaling", "config": {"scale": 1.0, "mode": "fan_avg", "distribution": "uniform", "seed": null}}, "activity_regularizer": null}, "inbound_nodes": [[["activation_429", 0, 0, {}]]], "name": "separable_conv_1_normal_right2_4"}, {"class_name": "SeparableConv2D", "config": {"kernel_size": [3, 3], "dilation_rate": [1, 1], "filters": 64, "bias_initializer": {"class_name": "Zeros", "config": {}}, "depthwise_regularizer": null, "strides": [1, 1], "data_format": "channels_last", "trainable": true, "bias_constraint": null, "name": "separable_conv_1_normal_left5_4", "depth_multiplier": 1, "pointwise_initializer": {"class_name": "VarianceScaling", "config": {"scale": 1.0, "mode": "fan_avg", "distribution": "uniform", "seed": null}}, "padding": "same", "pointwise_regularizer": null, "bias_regularizer": null, "depthwise_constraint": null, "activation": "linear", "use_bias": false, "pointwise_constraint": null, "depthwise_initializer": {"class_name": "VarianceScaling", "config": {"scale": 1.0, "mode": "fan_avg", "distribution": "uniform", "seed": null}}, "activity_regularizer": null}, "inbound_nodes": [[["activation_431", 0, 0, {}]]], "name": "separable_conv_1_normal_left5_4"}, {"class_name": "BatchNormalization", "config": {"beta_regularizer": null, "center": true, "trainable": true, "gamma_constraint": null, "axis": -1, "gamma_initializer": {"class_name": "Ones", "config": {}}, "moving_variance_initializer": {"class_name": "Ones", "config": {}}, "moving_mean_initializer": {"class_name": "Zeros", "config": {}}, "epsilon": 1e-05, "gamma_regularizer": null, "scale": true, "beta_constraint": null, "beta_initializer": {"class_name": "Zeros", "config": {}}, "momentum": 0.9, "name": "separable_conv_1_bn_normal_left1_4"}, "inbound_nodes": [[["separable_conv_1_normal_left1_4", 0, 0, {}]]], "name": "separable_conv_1_bn_normal_left1_4"}, {"class_name": "BatchNormalization", "config": {"beta_regularizer": null, "center": true, "trainable": true, "gamma_constraint": null, "axis": -1, "gamma_initializer": {"class_name": "Ones", "config": {}}, "moving_variance_initializer": {"class_name": "Ones", "config": {}}, "moving_mean_initializer": {"class_name": "Zeros", "config": {}}, "epsilon": 1e-05, "gamma_regularizer": null, "scale": true, "beta_constraint": null, "beta_initializer": {"class_name": "Zeros", "config": {}}, "momentum": 0.9, "name": "separable_conv_1_bn_normal_right1_4"}, "inbound_nodes": [[["separable_conv_1_normal_right1_4", 0, 0, {}]]], "name": "separable_conv_1_bn_normal_right1_4"}, {"class_name": "BatchNormalization", "config": {"beta_regularizer": null, "center": true, "trainable": true, "gamma_constraint": null, "axis": -1, "gamma_initializer": {"class_name": "Ones", "config": {}}, "moving_variance_initializer": {"class_name": "Ones", "config": {}}, "moving_mean_initializer": {"class_name": "Zeros", "config": {}}, "epsilon": 1e-05, "gamma_regularizer": null, "scale": true, "beta_constraint": null, "beta_initializer": {"class_name": "Zeros", "config": {}}, "momentum": 0.9, "name": "separable_conv_1_bn_normal_left2_4"}, "inbound_nodes": [[["separable_conv_1_normal_left2_4", 0, 0, {}]]], "name": "separable_conv_1_bn_normal_left2_4"}, {"class_name": "BatchNormalization", "config": {"beta_regularizer": null, "center": true, "trainable": true, "gamma_constraint": null, "axis": -1, "gamma_initializer": {"class_name": "Ones", "config": {}}, "moving_variance_initializer": {"class_name": "Ones", "config": {}}, "moving_mean_initializer": {"class_name": "Zeros", "config": {}}, "epsilon": 1e-05, "gamma_regularizer": null, "scale": true, "beta_constraint": null, "beta_initializer": {"class_name": "Zeros", "config": {}}, "momentum": 0.9, "name": "separable_conv_1_bn_normal_right2_4"}, "inbound_nodes": [[["separable_conv_1_normal_right2_4", 0, 0, {}]]], "name": "separable_conv_1_bn_normal_right2_4"}, {"class_name": "BatchNormalization", "config": {"beta_regularizer": null, "center": true, "trainable": true, "gamma_constraint": null, "axis": -1, "gamma_initializer": {"class_name": "Ones", "config": {}}, "moving_variance_initializer": {"class_name": "Ones", "config": {}}, "moving_mean_initializer": {"class_name": "Zeros", "config": {}}, "epsilon": 1e-05, "gamma_regularizer": null, "scale": true, "beta_constraint": null, "beta_initializer": {"class_name": "Zeros", "config": {}}, "momentum": 0.9, "name": "separable_conv_1_bn_normal_left5_4"}, "inbound_nodes": [[["separable_conv_1_normal_left5_4", 0, 0, {}]]], "name": "separable_conv_1_bn_normal_left5_4"}, {"class_name": "Activation", "config": {"activation": "relu", "trainable": true, "name": "activation_424"}, "inbound_nodes": [[["separable_conv_1_bn_normal_left1_4", 0, 0, {}]]], "name": "activation_424"}, {"class_name": "Activation", "config": {"activation": "relu", "trainable": true, "name": "activation_426"}, "inbound_nodes": [[["separable_conv_1_bn_normal_right1_4", 0, 0, {}]]], "name": "activation_426"}, {"class_name": "Activation", "config": {"activation": "relu", "trainable": true, "name": "activation_428"}, "inbound_nodes": [[["separable_conv_1_bn_normal_left2_4", 0, 0, {}]]], "name": "activation_428"}, {"class_name": "Activation", "config": {"activation": "relu", "trainable": true, "name": "activation_430"}, "inbound_nodes": [[["separable_conv_1_bn_normal_right2_4", 0, 0, {}]]], "name": "activation_430"}, {"class_name": "Activation", "config": {"activation": "relu", "trainable": true, "name": "activation_432"}, "inbound_nodes": [[["separable_conv_1_bn_normal_left5_4", 0, 0, {}]]], "name": "activation_432"}, {"class_name": "SeparableConv2D", "config": {"kernel_size": [5, 5], "dilation_rate": [1, 1], "filters": 64, "bias_initializer": {"class_name": "Zeros", "config": {}}, "depthwise_regularizer": null, "strides": [1, 1], "data_format": "channels_last", "trainable": true, "bias_constraint": null, "name": "separable_conv_2_normal_left1_4", "depth_multiplier": 1, "pointwise_initializer": {"class_name": "VarianceScaling", "config": {"scale": 1.0, "mode": "fan_avg", "distribution": "uniform", "seed": null}}, "padding": "same", "pointwise_regularizer": null, "bias_regularizer": null, "depthwise_constraint": null, "activation": "linear", "use_bias": false, "pointwise_constraint": null, "depthwise_initializer": {"class_name": "VarianceScaling", "config": {"scale": 1.0, "mode": "fan_avg", "distribution": "uniform", "seed": null}}, "activity_regularizer": null}, "inbound_nodes": [[["activation_424", 0, 0, {}]]], "name": "separable_conv_2_normal_left1_4"}, {"class_name": "SeparableConv2D", "config": {"kernel_size": [3, 3], "dilation_rate": [1, 1], "filters": 64, "bias_initializer": {"class_name": "Zeros", "config": {}}, "depthwise_regularizer": null, "strides": [1, 1], "data_format": "channels_last", "trainable": true, "bias_constraint": null, "name": "separable_conv_2_normal_right1_4", "depth_multiplier": 1, "pointwise_initializer": {"class_name": "VarianceScaling", "config": {"scale": 1.0, "mode": "fan_avg", "distribution": "uniform", "seed": null}}, "padding": "same", "pointwise_regularizer": null, "bias_regularizer": null, "depthwise_constraint": null, "activation": "linear", "use_bias": false, "pointwise_constraint": null, "depthwise_initializer": {"class_name": "VarianceScaling", "config": {"scale": 1.0, "mode": "fan_avg", "distribution": "uniform", "seed": null}}, "activity_regularizer": null}, "inbound_nodes": [[["activation_426", 0, 0, {}]]], "name": "separable_conv_2_normal_right1_4"}, {"class_name": "SeparableConv2D", "config": {"kernel_size": [5, 5], "dilation_rate": [1, 1], "filters": 64, "bias_initializer": {"class_name": "Zeros", "config": {}}, "depthwise_regularizer": null, "strides": [1, 1], "data_format": "channels_last", "trainable": true, "bias_constraint": null, "name": "separable_conv_2_normal_left2_4", "depth_multiplier": 1, "pointwise_initializer": {"class_name": "VarianceScaling", "config": {"scale": 1.0, "mode": "fan_avg", "distribution": "uniform", "seed": null}}, "padding": "same", "pointwise_regularizer": null, "bias_regularizer": null, "depthwise_constraint": null, "activation": "linear", "use_bias": false, "pointwise_constraint": null, "depthwise_initializer": {"class_name": "VarianceScaling", "config": {"scale": 1.0, "mode": "fan_avg", "distribution": "uniform", "seed": null}}, "activity_regularizer": null}, "inbound_nodes": [[["activation_428", 0, 0, {}]]], "name": "separable_conv_2_normal_left2_4"}, {"class_name": "SeparableConv2D", "config": {"kernel_size": [3, 3], "dilation_rate": [1, 1], "filters": 64, "bias_initializer": {"class_name": "Zeros", "config": {}}, "depthwise_regularizer": null, "strides": [1, 1], "data_format": "channels_last", "trainable": true, "bias_constraint": null, "name": "separable_conv_2_normal_right2_4", "depth_multiplier": 1, "pointwise_initializer": {"class_name": "VarianceScaling", "config": {"scale": 1.0, "mode": "fan_avg", "distribution": "uniform", "seed": null}}, "padding": "same", "pointwise_regularizer": null, "bias_regularizer": null, "depthwise_constraint": null, "activation": "linear", "use_bias": false, "pointwise_constraint": null, "depthwise_initializer": {"class_name": "VarianceScaling", "config": {"scale": 1.0, "mode": "fan_avg", "distribution": "uniform", "seed": null}}, "activity_regularizer": null}, "inbound_nodes": [[["activation_430", 0, 0, {}]]], "name": "separable_conv_2_normal_right2_4"}, {"class_name": "SeparableConv2D", "config": {"kernel_size": [3, 3], "dilation_rate": [1, 1], "filters": 64, "bias_initializer": {"class_name": "Zeros", "config": {}}, "depthwise_regularizer": null, "strides": [1, 1], "data_format": "channels_last", "trainable": true, "bias_constraint": null, "name": "separable_conv_2_normal_left5_4", "depth_multiplier": 1, "pointwise_initializer": {"class_name": "VarianceScaling", "config": {"scale": 1.0, "mode": "fan_avg", "distribution": "uniform", "seed": null}}, "padding": "same", "pointwise_regularizer": null, "bias_regularizer": null, "depthwise_constraint": null, "activation": "linear", "use_bias": false, "pointwise_constraint": null, "depthwise_initializer": {"class_name": "VarianceScaling", "config": {"scale": 1.0, "mode": "fan_avg", "distribution": "uniform", "seed": null}}, "activity_regularizer": null}, "inbound_nodes": [[["activation_432", 0, 0, {}]]], "name": "separable_conv_2_normal_left5_4"}, {"class_name": "BatchNormalization", "config": {"beta_regularizer": null, "center": true, "trainable": true, "gamma_constraint": null, "axis": -1, "gamma_initializer": {"class_name": "Ones", "config": {}}, "moving_variance_initializer": {"class_name": "Ones", "config": {}}, "moving_mean_initializer": {"class_name": "Zeros", "config": {}}, "epsilon": 1e-05, "gamma_regularizer": null, "scale": true, "beta_constraint": null, "beta_initializer": {"class_name": "Zeros", "config": {}}, "momentum": 0.9, "name": "separable_conv_2_bn_normal_left1_4"}, "inbound_nodes": [[["separable_conv_2_normal_left1_4", 0, 0, {}]]], "name": "separable_conv_2_bn_normal_left1_4"}, {"class_name": "BatchNormalization", "config": {"beta_regularizer": null, "center": true, "trainable": true, "gamma_constraint": null, "axis": -1, "gamma_initializer": {"class_name": "Ones", "config": {}}, "moving_variance_initializer": {"class_name": "Ones", "config": {}}, "moving_mean_initializer": {"class_name": "Zeros", "config": {}}, "epsilon": 1e-05, "gamma_regularizer": null, "scale": true, "beta_constraint": null, "beta_initializer": {"class_name": "Zeros", "config": {}}, "momentum": 0.9, "name": "separable_conv_2_bn_normal_right1_4"}, "inbound_nodes": [[["separable_conv_2_normal_right1_4", 0, 0, {}]]], "name": "separable_conv_2_bn_normal_right1_4"}, {"class_name": "BatchNormalization", "config": {"beta_regularizer": null, "center": true, "trainable": true, "gamma_constraint": null, "axis": -1, "gamma_initializer": {"class_name": "Ones", "config": {}}, "moving_variance_initializer": {"class_name": "Ones", "config": {}}, "moving_mean_initializer": {"class_name": "Zeros", "config": {}}, "epsilon": 1e-05, "gamma_regularizer": null, "scale": true, "beta_constraint": null, "beta_initializer": {"class_name": "Zeros", "config": {}}, "momentum": 0.9, "name": "separable_conv_2_bn_normal_left2_4"}, "inbound_nodes": [[["separable_conv_2_normal_left2_4", 0, 0, {}]]], "name": "separable_conv_2_bn_normal_left2_4"}, {"class_name": "BatchNormalization", "config": {"beta_regularizer": null, "center": true, "trainable": true, "gamma_constraint": null, "axis": -1, "gamma_initializer": {"class_name": "Ones", "config": {}}, "moving_variance_initializer": {"class_name": "Ones", "config": {}}, "moving_mean_initializer": {"class_name": "Zeros", "config": {}}, "epsilon": 1e-05, "gamma_regularizer": null, "scale": true, "beta_constraint": null, "beta_initializer": {"class_name": "Zeros", "config": {}}, "momentum": 0.9, "name": "separable_conv_2_bn_normal_right2_4"}, "inbound_nodes": [[["separable_conv_2_normal_right2_4", 0, 0, {}]]], "name": "separable_conv_2_bn_normal_right2_4"}, {"class_name": "AveragePooling2D", "config": {"padding": "same", "data_format": "channels_last", "pool_size": [3, 3], "trainable": true, "strides": [1, 1], "name": "normal_left3_4"}, "inbound_nodes": [[["normal_bn_1_4", 0, 0, {}]]], "name": "normal_left3_4"}, {"class_name": "AveragePooling2D", "config": {"padding": "same", "data_format": "channels_last", "pool_size": [3, 3], "trainable": true, "strides": [1, 1], "name": "normal_left4_4"}, "inbound_nodes": [[["adjust_bn_4", 0, 0, {}]]], "name": "normal_left4_4"}, {"class_name": "AveragePooling2D", "config": {"padding": "same", "data_format": "channels_last", "pool_size": [3, 3], "trainable": true, "strides": [1, 1], "name": "normal_right4_4"}, "inbound_nodes": [[["adjust_bn_4", 0, 0, {}]]], "name": "normal_right4_4"}, {"class_name": "BatchNormalization", "config": {"beta_regularizer": null, "center": true, "trainable": true, "gamma_constraint": null, "axis": -1, "gamma_initializer": {"class_name": "Ones", "config": {}}, "moving_variance_initializer": {"class_name": "Ones", "config": {}}, "moving_mean_initializer": {"class_name": "Zeros", "config": {}}, "epsilon": 1e-05, "gamma_regularizer": null, "scale": true, "beta_constraint": null, "beta_initializer": {"class_name": "Zeros", "config": {}}, "momentum": 0.9, "name": "separable_conv_2_bn_normal_left5_4"}, "inbound_nodes": [[["separable_conv_2_normal_left5_4", 0, 0, {}]]], "name": "separable_conv_2_bn_normal_left5_4"}, {"class_name": "Add", "config": {"trainable": true, "name": "normal_add_1_4"}, "inbound_nodes": [[["separable_conv_2_bn_normal_left1_4", 0, 0, {}], ["separable_conv_2_bn_normal_right1_4", 0, 0, {}]]], "name": "normal_add_1_4"}, {"class_name": "Add", "config": {"trainable": true, "name": "normal_add_2_4"}, "inbound_nodes": [[["separable_conv_2_bn_normal_left2_4", 0, 0, {}], ["separable_conv_2_bn_normal_right2_4", 0, 0, {}]]], "name": "normal_add_2_4"}, {"class_name": "Add", "config": {"trainable": true, "name": "normal_add_3_4"}, "inbound_nodes": [[["normal_left3_4", 0, 0, {}], ["adjust_bn_4", 0, 0, {}]]], "name": "normal_add_3_4"}, {"class_name": "Add", "config": {"trainable": true, "name": "normal_add_4_4"}, "inbound_nodes": [[["normal_left4_4", 0, 0, {}], ["normal_right4_4", 0, 0, {}]]], "name": "normal_add_4_4"}, {"class_name": "Add", "config": {"trainable": true, "name": "normal_add_5_4"}, "inbound_nodes": [[["separable_conv_2_bn_normal_left5_4", 0, 0, {}], ["normal_bn_1_4", 0, 0, {}]]], "name": "normal_add_5_4"}, {"class_name": "Concatenate", "config": {"axis": -1, "trainable": true, "name": "normal_concat_4"}, "inbound_nodes": [[["adjust_bn_4", 0, 0, {}], ["normal_add_1_4", 0, 0, {}], ["normal_add_2_4", 0, 0, {}], ["normal_add_3_4", 0, 0, {}], ["normal_add_4_4", 0, 0, {}], ["normal_add_5_4", 0, 0, {}]]], "name": "normal_concat_4"}, {"class_name": "Activation", "config": {"activation": "relu", "trainable": true, "name": "activation_433"}, "inbound_nodes": [[["reduction_concat_reduce_3", 0, 0, {}]]], "name": "activation_433"}, {"class_name": "Activation", "config": {"activation": "relu", "trainable": true, "name": "activation_434"}, "inbound_nodes": [[["normal_concat_4", 0, 0, {}]]], "name": "activation_434"}, {"class_name": "Conv2D", "config": {"kernel_size": [1, 1], "dilation_rate": [1, 1], "filters": 64, "padding": "same", "bias_initializer": {"class_name": "Zeros", "config": {}}, "name": "adjust_conv_projection_5", "strides": [1, 1], "kernel_initializer": {"class_name": "VarianceScaling", "config": {"scale": 2.0, "mode": "fan_in", "distribution": "normal", "seed": null}}, "trainable": true, "bias_constraint": null, "data_format": "channels_last", "activation": "linear", "use_bias": false, "kernel_regularizer": {"class_name": "L1L2", "config": {"l1": 0.0, "l2": 0.0005000000237487257}}, "kernel_constraint": null, "bias_regularizer": null, "activity_regularizer": null}, "inbound_nodes": [[["activation_433", 0, 0, {}]]], "name": "adjust_conv_projection_5"}, {"class_name": "Conv2D", "config": {"kernel_size": [1, 1], "dilation_rate": [1, 1], "filters": 64, "padding": "same", "bias_initializer": {"class_name": "Zeros", "config": {}}, "name": "normal_conv_1_5", "strides": [1, 1], "kernel_initializer": {"class_name": "VarianceScaling", "config": {"scale": 2.0, "mode": "fan_in", "distribution": "normal", "seed": null}}, "trainable": true, "bias_constraint": null, "data_format": "channels_last", "activation": "linear", "use_bias": false, "kernel_regularizer": {"class_name": "L1L2", "config": {"l1": 0.0, "l2": 0.0005000000237487257}}, "kernel_constraint": null, "bias_regularizer": null, "activity_regularizer": null}, "inbound_nodes": [[["activation_434", 0, 0, {}]]], "name": "normal_conv_1_5"}, {"class_name": "BatchNormalization", "config": {"beta_regularizer": null, "center": true, "trainable": true, "gamma_constraint": null, "axis": -1, "gamma_initializer": {"class_name": "Ones", "config": {}}, "moving_variance_initializer": {"class_name": "Ones", "config": {}}, "moving_mean_initializer": {"class_name": "Zeros", "config": {}}, "epsilon": 1e-05, "gamma_regularizer": null, "scale": true, "beta_constraint": null, "beta_initializer": {"class_name": "Zeros", "config": {}}, "momentum": 0.9, "name": "adjust_bn_5"}, "inbound_nodes": [[["adjust_conv_projection_5", 0, 0, {}]]], "name": "adjust_bn_5"}, {"class_name": "BatchNormalization", "config": {"beta_regularizer": null, "center": true, "trainable": true, "gamma_constraint": null, "axis": -1, "gamma_initializer": {"class_name": "Ones", "config": {}}, "moving_variance_initializer": {"class_name": "Ones", "config": {}}, "moving_mean_initializer": {"class_name": "Zeros", "config": {}}, "epsilon": 1e-05, "gamma_regularizer": null, "scale": true, "beta_constraint": null, "beta_initializer": {"class_name": "Zeros", "config": {}}, "momentum": 0.9, "name": "normal_bn_1_5"}, "inbound_nodes": [[["normal_conv_1_5", 0, 0, {}]]], "name": "normal_bn_1_5"}, {"class_name": "Activation", "config": {"activation": "relu", "trainable": true, "name": "activation_435"}, "inbound_nodes": [[["normal_bn_1_5", 0, 0, {}]]], "name": "activation_435"}, {"class_name": "Activation", "config": {"activation": "relu", "trainable": true, "name": "activation_437"}, "inbound_nodes": [[["adjust_bn_5", 0, 0, {}]]], "name": "activation_437"}, {"class_name": "Activation", "config": {"activation": "relu", "trainable": true, "name": "activation_439"}, "inbound_nodes": [[["adjust_bn_5", 0, 0, {}]]], "name": "activation_439"}, {"class_name": "Activation", "config": {"activation": "relu", "trainable": true, "name": "activation_441"}, "inbound_nodes": [[["adjust_bn_5", 0, 0, {}]]], "name": "activation_441"}, {"class_name": "Activation", "config": {"activation": "relu", "trainable": true, "name": "activation_443"}, "inbound_nodes": [[["normal_bn_1_5", 0, 0, {}]]], "name": "activation_443"}, {"class_name": "SeparableConv2D", "config": {"kernel_size": [5, 5], "dilation_rate": [1, 1], "filters": 64, "bias_initializer": {"class_name": "Zeros", "config": {}}, "depthwise_regularizer": null, "strides": [1, 1], "data_format": "channels_last", "trainable": true, "bias_constraint": null, "name": "separable_conv_1_normal_left1_5", "depth_multiplier": 1, "pointwise_initializer": {"class_name": "VarianceScaling", "config": {"scale": 1.0, "mode": "fan_avg", "distribution": "uniform", "seed": null}}, "padding": "same", "pointwise_regularizer": null, "bias_regularizer": null, "depthwise_constraint": null, "activation": "linear", "use_bias": false, "pointwise_constraint": null, "depthwise_initializer": {"class_name": "VarianceScaling", "config": {"scale": 1.0, "mode": "fan_avg", "distribution": "uniform", "seed": null}}, "activity_regularizer": null}, "inbound_nodes": [[["activation_435", 0, 0, {}]]], "name": "separable_conv_1_normal_left1_5"}, {"class_name": "SeparableConv2D", "config": {"kernel_size": [3, 3], "dilation_rate": [1, 1], "filters": 64, "bias_initializer": {"class_name": "Zeros", "config": {}}, "depthwise_regularizer": null, "strides": [1, 1], "data_format": "channels_last", "trainable": true, "bias_constraint": null, "name": "separable_conv_1_normal_right1_5", "depth_multiplier": 1, "pointwise_initializer": {"class_name": "VarianceScaling", "config": {"scale": 1.0, "mode": "fan_avg", "distribution": "uniform", "seed": null}}, "padding": "same", "pointwise_regularizer": null, "bias_regularizer": null, "depthwise_constraint": null, "activation": "linear", "use_bias": false, "pointwise_constraint": null, "depthwise_initializer": {"class_name": "VarianceScaling", "config": {"scale": 1.0, "mode": "fan_avg", "distribution": "uniform", "seed": null}}, "activity_regularizer": null}, "inbound_nodes": [[["activation_437", 0, 0, {}]]], "name": "separable_conv_1_normal_right1_5"}, {"class_name": "SeparableConv2D", "config": {"kernel_size": [5, 5], "dilation_rate": [1, 1], "filters": 64, "bias_initializer": {"class_name": "Zeros", "config": {}}, "depthwise_regularizer": null, "strides": [1, 1], "data_format": "channels_last", "trainable": true, "bias_constraint": null, "name": "separable_conv_1_normal_left2_5", "depth_multiplier": 1, "pointwise_initializer": {"class_name": "VarianceScaling", "config": {"scale": 1.0, "mode": "fan_avg", "distribution": "uniform", "seed": null}}, "padding": "same", "pointwise_regularizer": null, "bias_regularizer": null, "depthwise_constraint": null, "activation": "linear", "use_bias": false, "pointwise_constraint": null, "depthwise_initializer": {"class_name": "VarianceScaling", "config": {"scale": 1.0, "mode": "fan_avg", "distribution": "uniform", "seed": null}}, "activity_regularizer": null}, "inbound_nodes": [[["activation_439", 0, 0, {}]]], "name": "separable_conv_1_normal_left2_5"}, {"class_name": "SeparableConv2D", "config": {"kernel_size": [3, 3], "dilation_rate": [1, 1], "filters": 64, "bias_initializer": {"class_name": "Zeros", "config": {}}, "depthwise_regularizer": null, "strides": [1, 1], "data_format": "channels_last", "trainable": true, "bias_constraint": null, "name": "separable_conv_1_normal_right2_5", "depth_multiplier": 1, "pointwise_initializer": {"class_name": "VarianceScaling", "config": {"scale": 1.0, "mode": "fan_avg", "distribution": "uniform", "seed": null}}, "padding": "same", "pointwise_regularizer": null, "bias_regularizer": null, "depthwise_constraint": null, "activation": "linear", "use_bias": false, "pointwise_constraint": null, "depthwise_initializer": {"class_name": "VarianceScaling", "config": {"scale": 1.0, "mode": "fan_avg", "distribution": "uniform", "seed": null}}, "activity_regularizer": null}, "inbound_nodes": [[["activation_441", 0, 0, {}]]], "name": "separable_conv_1_normal_right2_5"}, {"class_name": "SeparableConv2D", "config": {"kernel_size": [3, 3], "dilation_rate": [1, 1], "filters": 64, "bias_initializer": {"class_name": "Zeros", "config": {}}, "depthwise_regularizer": null, "strides": [1, 1], "data_format": "channels_last", "trainable": true, "bias_constraint": null, "name": "separable_conv_1_normal_left5_5", "depth_multiplier": 1, "pointwise_initializer": {"class_name": "VarianceScaling", "config": {"scale": 1.0, "mode": "fan_avg", "distribution": "uniform", "seed": null}}, "padding": "same", "pointwise_regularizer": null, "bias_regularizer": null, "depthwise_constraint": null, "activation": "linear", "use_bias": false, "pointwise_constraint": null, "depthwise_initializer": {"class_name": "VarianceScaling", "config": {"scale": 1.0, "mode": "fan_avg", "distribution": "uniform", "seed": null}}, "activity_regularizer": null}, "inbound_nodes": [[["activation_443", 0, 0, {}]]], "name": "separable_conv_1_normal_left5_5"}, {"class_name": "BatchNormalization", "config": {"beta_regularizer": null, "center": true, "trainable": true, "gamma_constraint": null, "axis": -1, "gamma_initializer": {"class_name": "Ones", "config": {}}, "moving_variance_initializer": {"class_name": "Ones", "config": {}}, "moving_mean_initializer": {"class_name": "Zeros", "config": {}}, "epsilon": 1e-05, "gamma_regularizer": null, "scale": true, "beta_constraint": null, "beta_initializer": {"class_name": "Zeros", "config": {}}, "momentum": 0.9, "name": "separable_conv_1_bn_normal_left1_5"}, "inbound_nodes": [[["separable_conv_1_normal_left1_5", 0, 0, {}]]], "name": "separable_conv_1_bn_normal_left1_5"}, {"class_name": "BatchNormalization", "config": {"beta_regularizer": null, "center": true, "trainable": true, "gamma_constraint": null, "axis": -1, "gamma_initializer": {"class_name": "Ones", "config": {}}, "moving_variance_initializer": {"class_name": "Ones", "config": {}}, "moving_mean_initializer": {"class_name": "Zeros", "config": {}}, "epsilon": 1e-05, "gamma_regularizer": null, "scale": true, "beta_constraint": null, "beta_initializer": {"class_name": "Zeros", "config": {}}, "momentum": 0.9, "name": "separable_conv_1_bn_normal_right1_5"}, "inbound_nodes": [[["separable_conv_1_normal_right1_5", 0, 0, {}]]], "name": "separable_conv_1_bn_normal_right1_5"}, {"class_name": "BatchNormalization", "config": {"beta_regularizer": null, "center": true, "trainable": true, "gamma_constraint": null, "axis": -1, "gamma_initializer": {"class_name": "Ones", "config": {}}, "moving_variance_initializer": {"class_name": "Ones", "config": {}}, "moving_mean_initializer": {"class_name": "Zeros", "config": {}}, "epsilon": 1e-05, "gamma_regularizer": null, "scale": true, "beta_constraint": null, "beta_initializer": {"class_name": "Zeros", "config": {}}, "momentum": 0.9, "name": "separable_conv_1_bn_normal_left2_5"}, "inbound_nodes": [[["separable_conv_1_normal_left2_5", 0, 0, {}]]], "name": "separable_conv_1_bn_normal_left2_5"}, {"class_name": "BatchNormalization", "config": {"beta_regularizer": null, "center": true, "trainable": true, "gamma_constraint": null, "axis": -1, "gamma_initializer": {"class_name": "Ones", "config": {}}, "moving_variance_initializer": {"class_name": "Ones", "config": {}}, "moving_mean_initializer": {"class_name": "Zeros", "config": {}}, "epsilon": 1e-05, "gamma_regularizer": null, "scale": true, "beta_constraint": null, "beta_initializer": {"class_name": "Zeros", "config": {}}, "momentum": 0.9, "name": "separable_conv_1_bn_normal_right2_5"}, "inbound_nodes": [[["separable_conv_1_normal_right2_5", 0, 0, {}]]], "name": "separable_conv_1_bn_normal_right2_5"}, {"class_name": "BatchNormalization", "config": {"beta_regularizer": null, "center": true, "trainable": true, "gamma_constraint": null, "axis": -1, "gamma_initializer": {"class_name": "Ones", "config": {}}, "moving_variance_initializer": {"class_name": "Ones", "config": {}}, "moving_mean_initializer": {"class_name": "Zeros", "config": {}}, "epsilon": 1e-05, "gamma_regularizer": null, "scale": true, "beta_constraint": null, "beta_initializer": {"class_name": "Zeros", "config": {}}, "momentum": 0.9, "name": "separable_conv_1_bn_normal_left5_5"}, "inbound_nodes": [[["separable_conv_1_normal_left5_5", 0, 0, {}]]], "name": "separable_conv_1_bn_normal_left5_5"}, {"class_name": "Activation", "config": {"activation": "relu", "trainable": true, "name": "activation_436"}, "inbound_nodes": [[["separable_conv_1_bn_normal_left1_5", 0, 0, {}]]], "name": "activation_436"}, {"class_name": "Activation", "config": {"activation": "relu", "trainable": true, "name": "activation_438"}, "inbound_nodes": [[["separable_conv_1_bn_normal_right1_5", 0, 0, {}]]], "name": "activation_438"}, {"class_name": "Activation", "config": {"activation": "relu", "trainable": true, "name": "activation_440"}, "inbound_nodes": [[["separable_conv_1_bn_normal_left2_5", 0, 0, {}]]], "name": "activation_440"}, {"class_name": "Activation", "config": {"activation": "relu", "trainable": true, "name": "activation_442"}, "inbound_nodes": [[["separable_conv_1_bn_normal_right2_5", 0, 0, {}]]], "name": "activation_442"}, {"class_name": "Activation", "config": {"activation": "relu", "trainable": true, "name": "activation_444"}, "inbound_nodes": [[["separable_conv_1_bn_normal_left5_5", 0, 0, {}]]], "name": "activation_444"}, {"class_name": "SeparableConv2D", "config": {"kernel_size": [5, 5], "dilation_rate": [1, 1], "filters": 64, "bias_initializer": {"class_name": "Zeros", "config": {}}, "depthwise_regularizer": null, "strides": [1, 1], "data_format": "channels_last", "trainable": true, "bias_constraint": null, "name": "separable_conv_2_normal_left1_5", "depth_multiplier": 1, "pointwise_initializer": {"class_name": "VarianceScaling", "config": {"scale": 1.0, "mode": "fan_avg", "distribution": "uniform", "seed": null}}, "padding": "same", "pointwise_regularizer": null, "bias_regularizer": null, "depthwise_constraint": null, "activation": "linear", "use_bias": false, "pointwise_constraint": null, "depthwise_initializer": {"class_name": "VarianceScaling", "config": {"scale": 1.0, "mode": "fan_avg", "distribution": "uniform", "seed": null}}, "activity_regularizer": null}, "inbound_nodes": [[["activation_436", 0, 0, {}]]], "name": "separable_conv_2_normal_left1_5"}, {"class_name": "SeparableConv2D", "config": {"kernel_size": [3, 3], "dilation_rate": [1, 1], "filters": 64, "bias_initializer": {"class_name": "Zeros", "config": {}}, "depthwise_regularizer": null, "strides": [1, 1], "data_format": "channels_last", "trainable": true, "bias_constraint": null, "name": "separable_conv_2_normal_right1_5", "depth_multiplier": 1, "pointwise_initializer": {"class_name": "VarianceScaling", "config": {"scale": 1.0, "mode": "fan_avg", "distribution": "uniform", "seed": null}}, "padding": "same", "pointwise_regularizer": null, "bias_regularizer": null, "depthwise_constraint": null, "activation": "linear", "use_bias": false, "pointwise_constraint": null, "depthwise_initializer": {"class_name": "VarianceScaling", "config": {"scale": 1.0, "mode": "fan_avg", "distribution": "uniform", "seed": null}}, "activity_regularizer": null}, "inbound_nodes": [[["activation_438", 0, 0, {}]]], "name": "separable_conv_2_normal_right1_5"}, {"class_name": "SeparableConv2D", "config": {"kernel_size": [5, 5], "dilation_rate": [1, 1], "filters": 64, "bias_initializer": {"class_name": "Zeros", "config": {}}, "depthwise_regularizer": null, "strides": [1, 1], "data_format": "channels_last", "trainable": true, "bias_constraint": null, "name": "separable_conv_2_normal_left2_5", "depth_multiplier": 1, "pointwise_initializer": {"class_name": "VarianceScaling", "config": {"scale": 1.0, "mode": "fan_avg", "distribution": "uniform", "seed": null}}, "padding": "same", "pointwise_regularizer": null, "bias_regularizer": null, "depthwise_constraint": null, "activation": "linear", "use_bias": false, "pointwise_constraint": null, "depthwise_initializer": {"class_name": "VarianceScaling", "config": {"scale": 1.0, "mode": "fan_avg", "distribution": "uniform", "seed": null}}, "activity_regularizer": null}, "inbound_nodes": [[["activation_440", 0, 0, {}]]], "name": "separable_conv_2_normal_left2_5"}, {"class_name": "SeparableConv2D", "config": {"kernel_size": [3, 3], "dilation_rate": [1, 1], "filters": 64, "bias_initializer": {"class_name": "Zeros", "config": {}}, "depthwise_regularizer": null, "strides": [1, 1], "data_format": "channels_last", "trainable": true, "bias_constraint": null, "name": "separable_conv_2_normal_right2_5", "depth_multiplier": 1, "pointwise_initializer": {"class_name": "VarianceScaling", "config": {"scale": 1.0, "mode": "fan_avg", "distribution": "uniform", "seed": null}}, "padding": "same", "pointwise_regularizer": null, "bias_regularizer": null, "depthwise_constraint": null, "activation": "linear", "use_bias": false, "pointwise_constraint": null, "depthwise_initializer": {"class_name": "VarianceScaling", "config": {"scale": 1.0, "mode": "fan_avg", "distribution": "uniform", "seed": null}}, "activity_regularizer": null}, "inbound_nodes": [[["activation_442", 0, 0, {}]]], "name": "separable_conv_2_normal_right2_5"}, {"class_name": "SeparableConv2D", "config": {"kernel_size": [3, 3], "dilation_rate": [1, 1], "filters": 64, "bias_initializer": {"class_name": "Zeros", "config": {}}, "depthwise_regularizer": null, "strides": [1, 1], "data_format": "channels_last", "trainable": true, "bias_constraint": null, "name": "separable_conv_2_normal_left5_5", "depth_multiplier": 1, "pointwise_initializer": {"class_name": "VarianceScaling", "config": {"scale": 1.0, "mode": "fan_avg", "distribution": "uniform", "seed": null}}, "padding": "same", "pointwise_regularizer": null, "bias_regularizer": null, "depthwise_constraint": null, "activation": "linear", "use_bias": false, "pointwise_constraint": null, "depthwise_initializer": {"class_name": "VarianceScaling", "config": {"scale": 1.0, "mode": "fan_avg", "distribution": "uniform", "seed": null}}, "activity_regularizer": null}, "inbound_nodes": [[["activation_444", 0, 0, {}]]], "name": "separable_conv_2_normal_left5_5"}, {"class_name": "BatchNormalization", "config": {"beta_regularizer": null, "center": true, "trainable": true, "gamma_constraint": null, "axis": -1, "gamma_initializer": {"class_name": "Ones", "config": {}}, "moving_variance_initializer": {"class_name": "Ones", "config": {}}, "moving_mean_initializer": {"class_name": "Zeros", "config": {}}, "epsilon": 1e-05, "gamma_regularizer": null, "scale": true, "beta_constraint": null, "beta_initializer": {"class_name": "Zeros", "config": {}}, "momentum": 0.9, "name": "separable_conv_2_bn_normal_left1_5"}, "inbound_nodes": [[["separable_conv_2_normal_left1_5", 0, 0, {}]]], "name": "separable_conv_2_bn_normal_left1_5"}, {"class_name": "BatchNormalization", "config": {"beta_regularizer": null, "center": true, "trainable": true, "gamma_constraint": null, "axis": -1, "gamma_initializer": {"class_name": "Ones", "config": {}}, "moving_variance_initializer": {"class_name": "Ones", "config": {}}, "moving_mean_initializer": {"class_name": "Zeros", "config": {}}, "epsilon": 1e-05, "gamma_regularizer": null, "scale": true, "beta_constraint": null, "beta_initializer": {"class_name": "Zeros", "config": {}}, "momentum": 0.9, "name": "separable_conv_2_bn_normal_right1_5"}, "inbound_nodes": [[["separable_conv_2_normal_right1_5", 0, 0, {}]]], "name": "separable_conv_2_bn_normal_right1_5"}, {"class_name": "BatchNormalization", "config": {"beta_regularizer": null, "center": true, "trainable": true, "gamma_constraint": null, "axis": -1, "gamma_initializer": {"class_name": "Ones", "config": {}}, "moving_variance_initializer": {"class_name": "Ones", "config": {}}, "moving_mean_initializer": {"class_name": "Zeros", "config": {}}, "epsilon": 1e-05, "gamma_regularizer": null, "scale": true, "beta_constraint": null, "beta_initializer": {"class_name": "Zeros", "config": {}}, "momentum": 0.9, "name": "separable_conv_2_bn_normal_left2_5"}, "inbound_nodes": [[["separable_conv_2_normal_left2_5", 0, 0, {}]]], "name": "separable_conv_2_bn_normal_left2_5"}, {"class_name": "BatchNormalization", "config": {"beta_regularizer": null, "center": true, "trainable": true, "gamma_constraint": null, "axis": -1, "gamma_initializer": {"class_name": "Ones", "config": {}}, "moving_variance_initializer": {"class_name": "Ones", "config": {}}, "moving_mean_initializer": {"class_name": "Zeros", "config": {}}, "epsilon": 1e-05, "gamma_regularizer": null, "scale": true, "beta_constraint": null, "beta_initializer": {"class_name": "Zeros", "config": {}}, "momentum": 0.9, "name": "separable_conv_2_bn_normal_right2_5"}, "inbound_nodes": [[["separable_conv_2_normal_right2_5", 0, 0, {}]]], "name": "separable_conv_2_bn_normal_right2_5"}, {"class_name": "AveragePooling2D", "config": {"padding": "same", "data_format": "channels_last", "pool_size": [3, 3], "trainable": true, "strides": [1, 1], "name": "normal_left3_5"}, "inbound_nodes": [[["normal_bn_1_5", 0, 0, {}]]], "name": "normal_left3_5"}, {"class_name": "AveragePooling2D", "config": {"padding": "same", "data_format": "channels_last", "pool_size": [3, 3], "trainable": true, "strides": [1, 1], "name": "normal_left4_5"}, "inbound_nodes": [[["adjust_bn_5", 0, 0, {}]]], "name": "normal_left4_5"}, {"class_name": "AveragePooling2D", "config": {"padding": "same", "data_format": "channels_last", "pool_size": [3, 3], "trainable": true, "strides": [1, 1], "name": "normal_right4_5"}, "inbound_nodes": [[["adjust_bn_5", 0, 0, {}]]], "name": "normal_right4_5"}, {"class_name": "BatchNormalization", "config": {"beta_regularizer": null, "center": true, "trainable": true, "gamma_constraint": null, "axis": -1, "gamma_initializer": {"class_name": "Ones", "config": {}}, "moving_variance_initializer": {"class_name": "Ones", "config": {}}, "moving_mean_initializer": {"class_name": "Zeros", "config": {}}, "epsilon": 1e-05, "gamma_regularizer": null, "scale": true, "beta_constraint": null, "beta_initializer": {"class_name": "Zeros", "config": {}}, "momentum": 0.9, "name": "separable_conv_2_bn_normal_left5_5"}, "inbound_nodes": [[["separable_conv_2_normal_left5_5", 0, 0, {}]]], "name": "separable_conv_2_bn_normal_left5_5"}, {"class_name": "Add", "config": {"trainable": true, "name": "normal_add_1_5"}, "inbound_nodes": [[["separable_conv_2_bn_normal_left1_5", 0, 0, {}], ["separable_conv_2_bn_normal_right1_5", 0, 0, {}]]], "name": "normal_add_1_5"}, {"class_name": "Add", "config": {"trainable": true, "name": "normal_add_2_5"}, "inbound_nodes": [[["separable_conv_2_bn_normal_left2_5", 0, 0, {}], ["separable_conv_2_bn_normal_right2_5", 0, 0, {}]]], "name": "normal_add_2_5"}, {"class_name": "Add", "config": {"trainable": true, "name": "normal_add_3_5"}, "inbound_nodes": [[["normal_left3_5", 0, 0, {}], ["adjust_bn_5", 0, 0, {}]]], "name": "normal_add_3_5"}, {"class_name": "Add", "config": {"trainable": true, "name": "normal_add_4_5"}, "inbound_nodes": [[["normal_left4_5", 0, 0, {}], ["normal_right4_5", 0, 0, {}]]], "name": "normal_add_4_5"}, {"class_name": "Add", "config": {"trainable": true, "name": "normal_add_5_5"}, "inbound_nodes": [[["separable_conv_2_bn_normal_left5_5", 0, 0, {}], ["normal_bn_1_5", 0, 0, {}]]], "name": "normal_add_5_5"}, {"class_name": "Concatenate", "config": {"axis": -1, "trainable": true, "name": "normal_concat_5"}, "inbound_nodes": [[["adjust_bn_5", 0, 0, {}], ["normal_add_1_5", 0, 0, {}], ["normal_add_2_5", 0, 0, {}], ["normal_add_3_5", 0, 0, {}], ["normal_add_4_5", 0, 0, {}], ["normal_add_5_5", 0, 0, {}]]], "name": "normal_concat_5"}, {"class_name": "Activation", "config": {"activation": "relu", "trainable": true, "name": "activation_445"}, "inbound_nodes": [[["normal_concat_4", 0, 0, {}]]], "name": "activation_445"}, {"class_name": "Activation", "config": {"activation": "relu", "trainable": true, "name": "activation_446"}, "inbound_nodes": [[["normal_concat_5", 0, 0, {}]]], "name": "activation_446"}, {"class_name": "Conv2D", "config": {"kernel_size": [1, 1], "dilation_rate": [1, 1], "filters": 64, "padding": "same", "bias_initializer": {"class_name": "Zeros", "config": {}}, "name": "adjust_conv_projection_6", "strides": [1, 1], "kernel_initializer": {"class_name": "VarianceScaling", "config": {"scale": 2.0, "mode": "fan_in", "distribution": "normal", "seed": null}}, "trainable": true, "bias_constraint": null, "data_format": "channels_last", "activation": "linear", "use_bias": false, "kernel_regularizer": {"class_name": "L1L2", "config": {"l1": 0.0, "l2": 0.0005000000237487257}}, "kernel_constraint": null, "bias_regularizer": null, "activity_regularizer": null}, "inbound_nodes": [[["activation_445", 0, 0, {}]]], "name": "adjust_conv_projection_6"}, {"class_name": "Conv2D", "config": {"kernel_size": [1, 1], "dilation_rate": [1, 1], "filters": 64, "padding": "same", "bias_initializer": {"class_name": "Zeros", "config": {}}, "name": "normal_conv_1_6", "strides": [1, 1], "kernel_initializer": {"class_name": "VarianceScaling", "config": {"scale": 2.0, "mode": "fan_in", "distribution": "normal", "seed": null}}, "trainable": true, "bias_constraint": null, "data_format": "channels_last", "activation": "linear", "use_bias": false, "kernel_regularizer": {"class_name": "L1L2", "config": {"l1": 0.0, "l2": 0.0005000000237487257}}, "kernel_constraint": null, "bias_regularizer": null, "activity_regularizer": null}, "inbound_nodes": [[["activation_446", 0, 0, {}]]], "name": "normal_conv_1_6"}, {"class_name": "BatchNormalization", "config": {"beta_regularizer": null, "center": true, "trainable": true, "gamma_constraint": null, "axis": -1, "gamma_initializer": {"class_name": "Ones", "config": {}}, "moving_variance_initializer": {"class_name": "Ones", "config": {}}, "moving_mean_initializer": {"class_name": "Zeros", "config": {}}, "epsilon": 1e-05, "gamma_regularizer": null, "scale": true, "beta_constraint": null, "beta_initializer": {"class_name": "Zeros", "config": {}}, "momentum": 0.9, "name": "adjust_bn_6"}, "inbound_nodes": [[["adjust_conv_projection_6", 0, 0, {}]]], "name": "adjust_bn_6"}, {"class_name": "BatchNormalization", "config": {"beta_regularizer": null, "center": true, "trainable": true, "gamma_constraint": null, "axis": -1, "gamma_initializer": {"class_name": "Ones", "config": {}}, "moving_variance_initializer": {"class_name": "Ones", "config": {}}, "moving_mean_initializer": {"class_name": "Zeros", "config": {}}, "epsilon": 1e-05, "gamma_regularizer": null, "scale": true, "beta_constraint": null, "beta_initializer": {"class_name": "Zeros", "config": {}}, "momentum": 0.9, "name": "normal_bn_1_6"}, "inbound_nodes": [[["normal_conv_1_6", 0, 0, {}]]], "name": "normal_bn_1_6"}, {"class_name": "Activation", "config": {"activation": "relu", "trainable": true, "name": "activation_447"}, "inbound_nodes": [[["normal_bn_1_6", 0, 0, {}]]], "name": "activation_447"}, {"class_name": "Activation", "config": {"activation": "relu", "trainable": true, "name": "activation_449"}, "inbound_nodes": [[["adjust_bn_6", 0, 0, {}]]], "name": "activation_449"}, {"class_name": "Activation", "config": {"activation": "relu", "trainable": true, "name": "activation_451"}, "inbound_nodes": [[["adjust_bn_6", 0, 0, {}]]], "name": "activation_451"}, {"class_name": "Activation", "config": {"activation": "relu", "trainable": true, "name": "activation_453"}, "inbound_nodes": [[["adjust_bn_6", 0, 0, {}]]], "name": "activation_453"}, {"class_name": "Activation", "config": {"activation": "relu", "trainable": true, "name": "activation_455"}, "inbound_nodes": [[["normal_bn_1_6", 0, 0, {}]]], "name": "activation_455"}, {"class_name": "SeparableConv2D", "config": {"kernel_size": [5, 5], "dilation_rate": [1, 1], "filters": 64, "bias_initializer": {"class_name": "Zeros", "config": {}}, "depthwise_regularizer": null, "strides": [1, 1], "data_format": "channels_last", "trainable": true, "bias_constraint": null, "name": "separable_conv_1_normal_left1_6", "depth_multiplier": 1, "pointwise_initializer": {"class_name": "VarianceScaling", "config": {"scale": 1.0, "mode": "fan_avg", "distribution": "uniform", "seed": null}}, "padding": "same", "pointwise_regularizer": null, "bias_regularizer": null, "depthwise_constraint": null, "activation": "linear", "use_bias": false, "pointwise_constraint": null, "depthwise_initializer": {"class_name": "VarianceScaling", "config": {"scale": 1.0, "mode": "fan_avg", "distribution": "uniform", "seed": null}}, "activity_regularizer": null}, "inbound_nodes": [[["activation_447", 0, 0, {}]]], "name": "separable_conv_1_normal_left1_6"}, {"class_name": "SeparableConv2D", "config": {"kernel_size": [3, 3], "dilation_rate": [1, 1], "filters": 64, "bias_initializer": {"class_name": "Zeros", "config": {}}, "depthwise_regularizer": null, "strides": [1, 1], "data_format": "channels_last", "trainable": true, "bias_constraint": null, "name": "separable_conv_1_normal_right1_6", "depth_multiplier": 1, "pointwise_initializer": {"class_name": "VarianceScaling", "config": {"scale": 1.0, "mode": "fan_avg", "distribution": "uniform", "seed": null}}, "padding": "same", "pointwise_regularizer": null, "bias_regularizer": null, "depthwise_constraint": null, "activation": "linear", "use_bias": false, "pointwise_constraint": null, "depthwise_initializer": {"class_name": "VarianceScaling", "config": {"scale": 1.0, "mode": "fan_avg", "distribution": "uniform", "seed": null}}, "activity_regularizer": null}, "inbound_nodes": [[["activation_449", 0, 0, {}]]], "name": "separable_conv_1_normal_right1_6"}, {"class_name": "SeparableConv2D", "config": {"kernel_size": [5, 5], "dilation_rate": [1, 1], "filters": 64, "bias_initializer": {"class_name": "Zeros", "config": {}}, "depthwise_regularizer": null, "strides": [1, 1], "data_format": "channels_last", "trainable": true, "bias_constraint": null, "name": "separable_conv_1_normal_left2_6", "depth_multiplier": 1, "pointwise_initializer": {"class_name": "VarianceScaling", "config": {"scale": 1.0, "mode": "fan_avg", "distribution": "uniform", "seed": null}}, "padding": "same", "pointwise_regularizer": null, "bias_regularizer": null, "depthwise_constraint": null, "activation": "linear", "use_bias": false, "pointwise_constraint": null, "depthwise_initializer": {"class_name": "VarianceScaling", "config": {"scale": 1.0, "mode": "fan_avg", "distribution": "uniform", "seed": null}}, "activity_regularizer": null}, "inbound_nodes": [[["activation_451", 0, 0, {}]]], "name": "separable_conv_1_normal_left2_6"}, {"class_name": "SeparableConv2D", "config": {"kernel_size": [3, 3], "dilation_rate": [1, 1], "filters": 64, "bias_initializer": {"class_name": "Zeros", "config": {}}, "depthwise_regularizer": null, "strides": [1, 1], "data_format": "channels_last", "trainable": true, "bias_constraint": null, "name": "separable_conv_1_normal_right2_6", "depth_multiplier": 1, "pointwise_initializer": {"class_name": "VarianceScaling", "config": {"scale": 1.0, "mode": "fan_avg", "distribution": "uniform", "seed": null}}, "padding": "same", "pointwise_regularizer": null, "bias_regularizer": null, "depthwise_constraint": null, "activation": "linear", "use_bias": false, "pointwise_constraint": null, "depthwise_initializer": {"class_name": "VarianceScaling", "config": {"scale": 1.0, "mode": "fan_avg", "distribution": "uniform", "seed": null}}, "activity_regularizer": null}, "inbound_nodes": [[["activation_453", 0, 0, {}]]], "name": "separable_conv_1_normal_right2_6"}, {"class_name": "SeparableConv2D", "config": {"kernel_size": [3, 3], "dilation_rate": [1, 1], "filters": 64, "bias_initializer": {"class_name": "Ze…
": "reduction_add4_reduce_6"}, {"class_name": "Cropping2D", "config": {"name": "cropping2d_8", "trainable": true, "cropping": [[1, 0], [1, 0]], "data_format": "channels_last"}, "inbound_nodes": [[["zero_padding2d_8", 0, 0, {}]]], "name": "cropping2d_8"}, {"class_name": "Concatenate", "config": {"axis": -1, "trainable": true, "name": "reduction_concat_reduce_6"}, "inbound_nodes": [[["reduction_add_2_reduce_6", 0, 0, {}], ["reduction_add3_reduce_6", 0, 0, {}], ["add_8", 0, 0, {}], ["reduction_add4_reduce_6", 0, 0, {}]]], "name": "reduction_concat_reduce_6"}, {"class_name": "AveragePooling2D", "config": {"padding": "valid", "data_format": "channels_last", "pool_size": [1, 1], "trainable": true, "strides": [2, 2], "name": "adjust_avg_pool_1_7"}, "inbound_nodes": [[["adjust_relu_1_7", 0, 0, {}]]], "name": "adjust_avg_pool_1_7"}, {"class_name": "AveragePooling2D", "config": {"padding": "valid", "data_format": "channels_last", "pool_size": [1, 1], "trainable": true, "strides": [2, 2], "name": "adjust_avg_pool_2_7"}, "inbound_nodes": [[["cropping2d_8", 0, 0, {}]]], "name": "adjust_avg_pool_2_7"}, {"class_name": "Conv2D", "config": {"kernel_size": [1, 1], "dilation_rate": [1, 1], "filters": 64, "padding": "same", "bias_initializer": {"class_name": "Zeros", "config": {}}, "name": "adjust_conv_1_7", "strides": [1, 1], "kernel_initializer": {"class_name": "VarianceScaling", "config": {"scale": 2.0, "mode": "fan_in", "distribution": "normal", "seed": null}}, "trainable": true, "bias_constraint": null, "data_format": "channels_last", "activation": "linear", "use_bias": false, "kernel_regularizer": {"class_name": "L1L2", "config": {"l1": 0.0, "l2": 0.0005000000237487257}}, "kernel_constraint": null, "bias_regularizer": null, "activity_regularizer": null}, "inbound_nodes": [[["adjust_avg_pool_1_7", 0, 0, {}]]], "name": "adjust_conv_1_7"}, {"class_name": "Conv2D", "config": {"kernel_size": [1, 1], "dilation_rate": [1, 1], "filters": 64, "padding": "same", "bias_initializer": {"class_name": "Zeros", "config": {}}, "name": "adjust_conv_2_7", "strides": [1, 1], "kernel_initializer": {"class_name": "VarianceScaling", "config": {"scale": 2.0, "mode": "fan_in", "distribution": "normal", "seed": null}}, "trainable": true, "bias_constraint": null, "data_format": "channels_last", "activation": "linear", "use_bias": false, "kernel_regularizer": {"class_name": "L1L2", "config": {"l1": 0.0, "l2": 0.0005000000237487257}}, "kernel_constraint": null, "bias_regularizer": null, "activity_regularizer": null}, "inbound_nodes": [[["adjust_avg_pool_2_7", 0, 0, {}]]], "name": "adjust_conv_2_7"}, {"class_name": "Activation", "config": {"activation": "relu", "trainable": true, "name": "activation_469"}, "inbound_nodes": [[["reduction_concat_reduce_6", 0, 0, {}]]], "name": "activation_469"}, {"class_name": "Concatenate", "config": {"axis": -1, "trainable": true, "name": "concatenate_8"}, "inbound_nodes": [[["adjust_conv_1_7", 0, 0, {}], ["adjust_conv_2_7", 0, 0, {}]]], "name": "concatenate_8"}, {"class_name": "Conv2D", "config": {"kernel_size": [1, 1], "dilation_rate": [1, 1], "filters": 128, "padding": "same", "bias_initializer": {"class_name": "Zeros", "config": {}}, "name": "normal_conv_1_7", "strides": [1, 1], "kernel_initializer": {"class_name": "VarianceScaling", "config": {"scale": 2.0, "mode": "fan_in", "distribution": "normal", "seed": null}}, "trainable": true, "bias_constraint": null, "data_format": "channels_last", "activation": "linear", "use_bias": false, "kernel_regularizer": {"class_name": "L1L2", "config": {"l1": 0.0, "l2": 0.0005000000237487257}}, "kernel_constraint": null, "bias_regularizer": null, "activity_regularizer": null}, "inbound_nodes": [[["activation_469", 0, 0, {}]]], "name": "normal_conv_1_7"}, {"class_name": "BatchNormalization", "config": {"beta_regularizer": null, "center": true, "trainable": true, "gamma_constraint": null, "axis": -1, "gamma_initializer": {"class_name": "Ones", "config": {}}, "moving_variance_initializer": {"class_name": "Ones", "config": {}}, "moving_mean_initializer": {"class_name": "Zeros", "config": {}}, "epsilon": 1e-05, "gamma_regularizer": null, "scale": true, "beta_constraint": null, "beta_initializer": {"class_name": "Zeros", "config": {}}, "momentum": 0.9, "name": "adjust_bn_7"}, "inbound_nodes": [[["concatenate_8", 0, 0, {}]]], "name": "adjust_bn_7"}, {"class_name": "BatchNormalization", "config": {"beta_regularizer": null, "center": true, "trainable": true, "gamma_constraint": null, "axis": -1, "gamma_initializer": {"class_name": "Ones", "config": {}}, "moving_variance_initializer": {"class_name": "Ones", "config": {}}, "moving_mean_initializer": {"class_name": "Zeros", "config": {}}, "epsilon": 1e-05, "gamma_regularizer": null, "scale": true, "beta_constraint": null, "beta_initializer": {"class_name": "Zeros", "config": {}}, "momentum": 0.9, "name": "normal_bn_1_7"}, "inbound_nodes": [[["normal_conv_1_7", 0, 0, {}]]], "name": "normal_bn_1_7"}, {"class_name": "Activation", "config": {"activation": "relu", "trainable": true, "name": "activation_470"}, "inbound_nodes": [[["normal_bn_1_7", 0, 0, {}]]], "name": "activation_470"}, {"class_name": "Activation", "config": {"activation": "relu", "trainable": true, "name": "activation_472"}, "inbound_nodes": [[["adjust_bn_7", 0, 0, {}]]], "name": "activation_472"}, {"class_name": "Activation", "config": {"activation": "relu", "trainable": true, "name": "activation_474"}, "inbound_nodes": [[["adjust_bn_7", 0, 0, {}]]], "name": "activation_474"}, {"class_name": "Activation", "config": {"activation": "relu", "trainable": true, "name": "activation_476"}, "inbound_nodes": [[["adjust_bn_7", 0, 0, {}]]], "name": "activation_476"}, {"class_name": "Activation", "config": {"activation": "relu", "trainable": true, "name": "activation_478"}, "inbound_nodes": [[["normal_bn_1_7", 0, 0, {}]]], "name": "activation_478"}, {"class_name": "SeparableConv2D", "config": {"kernel_size": [5, 5], "dilation_rate": [1, 1], "filters": 128, "bias_initializer": {"class_name": "Zeros", "config": {}}, "depthwise_regularizer": null, "strides": [1, 1], "data_format": "channels_last", "trainable": true, "bias_constraint": null, "name": "separable_conv_1_normal_left1_7", "depth_multiplier": 1, "pointwise_initializer": {"class_name": "VarianceScaling", "config": {"scale": 1.0, "mode": "fan_avg", "distribution": "uniform", "seed": null}}, "padding": "same", "pointwise_regularizer": null, "bias_regularizer": null, "depthwise_constraint": null, "activation": "linear", "use_bias": false, "pointwise_constraint": null, "depthwise_initializer": {"class_name": "VarianceScaling", "config": {"scale": 1.0, "mode": "fan_avg", "distribution": "uniform", "seed": null}}, "activity_regularizer": null}, "inbound_nodes": [[["activation_470", 0, 0, {}]]], "name": "separable_conv_1_normal_left1_7"}, {"class_name": "SeparableConv2D", "config": {"kernel_size": [3, 3], "dilation_rate": [1, 1], "filters": 128, "bias_initializer": {"class_name": "Zeros", "config": {}}, "depthwise_regularizer": null, "strides": [1, 1], "data_format": "channels_last", "trainable": true, "bias_constraint": null, "name": "separable_conv_1_normal_right1_7", "depth_multiplier": 1, "pointwise_initializer": {"class_name": "VarianceScaling", "config": {"scale": 1.0, "mode": "fan_avg", "distribution": "uniform", "seed": null}}, "padding": "same", "pointwise_regularizer": null, "bias_regularizer": null, "depthwise_constraint": null, "activation": "linear", "use_bias": false, "pointwise_constraint": null, "depthwise_initializer": {"class_name": "VarianceScaling", "config": {"scale": 1.0, "mode": "fan_avg", "distribution": "uniform", "seed": null}}, "activity_regularizer": null}, "inbound_nodes": [[["activation_472", 0, 0, {}]]], "name": "separable_conv_1_normal_right1_7"}, {"class_name": "SeparableConv2D", "config": {"kernel_size": [5, 5], "dilation_rate": [1, 1], "filters": 128, "bias_initializer": {"class_name": "Zeros", "config": {}}, "depthwise_regularizer": null, "strides": [1, 1], "data_format": "channels_last", "trainable": true, "bias_constraint": null, "name": "separable_conv_1_normal_left2_7", "depth_multiplier": 1, "pointwise_initializer": {"class_name": "VarianceScaling", "config": {"scale": 1.0, "mode": "fan_avg", "distribution": "uniform", "seed": null}}, "padding": "same", "pointwise_regularizer": null, "bias_regularizer": null, "depthwise_constraint": null, "activation": "linear", "use_bias": false, "pointwise_constraint": null, "depthwise_initializer": {"class_name": "VarianceScaling", "config": {"scale": 1.0, "mode": "fan_avg", "distribution": "uniform", "seed": null}}, "activity_regularizer": null}, "inbound_nodes": [[["activation_474", 0, 0, {}]]], "name": "separable_conv_1_normal_left2_7"}, {"class_name": "SeparableConv2D", "config": {"kernel_size": [3, 3], "dilation_rate": [1, 1], "filters": 128, "bias_initializer": {"class_name": "Zeros", "config": {}}, "depthwise_regularizer": null, "strides": [1, 1], "data_format": "channels_last", "trainable": true, "bias_constraint": null, "name": "separable_conv_1_normal_right2_7", "depth_multiplier": 1, "pointwise_initializer": {"class_name": "VarianceScaling", "config": {"scale": 1.0, "mode": "fan_avg", "distribution": "uniform", "seed": null}}, "padding": "same", "pointwise_regularizer": null, "bias_regularizer": null, "depthwise_constraint": null, "activation": "linear", "use_bias": false, "pointwise_constraint": null, "depthwise_initializer": {"class_name": "VarianceScaling", "config": {"scale": 1.0, "mode": "fan_avg", "distribution": "uniform", "seed": null}}, "activity_regularizer": null}, "inbound_nodes": [[["activation_476", 0, 0, {}]]], "name": "separable_conv_1_normal_right2_7"}, {"class_name": "SeparableConv2D", "config": {"kernel_size": [3, 3], "dilation_rate": [1, 1], "filters": 128, "bias_initializer": {"class_name": "Zeros", "config": {}}, "depthwise_regularizer": null, "strides": [1, 1], "data_format": "channels_last", "trainable": true, "bias_constraint": null, "name": "separable_conv_1_normal_left5_7", "depth_multiplier": 1, "pointwise_initializer": {"class_name": "VarianceScaling", "config": {"scale": 1.0, "mode": "fan_avg", "distribution": "uniform", "seed": null}}, "padding": "same", "pointwise_regularizer": null, "bias_regularizer": null, "depthwise_constraint": null, "activation": "linear", "use_bias": false, "pointwise_constraint": null, "depthwise_initializer": {"class_name": "VarianceScaling", "config": {"scale": 1.0, "mode": "fan_avg", "distribution": "uniform", "seed": null}}, "activity_regularizer": null}, "inbound_nodes": [[["activation_478", 0, 0, {}]]], "name": "separable_conv_1_normal_left5_7"}, {"class_name": "BatchNormalization", "config": {"beta_regularizer": null, "center": true, "trainable": true, "gamma_constraint": null, "axis": -1, "gamma_initializer": {"class_name": "Ones", "config": {}}, "moving_variance_initializer": {"class_name": "Ones", "config": {}}, "moving_mean_initializer": {"class_name": "Zeros", "config": {}}, "epsilon": 1e-05, "gamma_regularizer": null, "scale": true, "beta_constraint": null, "beta_initializer": {"class_name": "Zeros", "config": {}}, "momentum": 0.9, "name": "separable_conv_1_bn_normal_left1_7"}, "inbound_nodes": [[["separable_conv_1_normal_left1_7", 0, 0, {}]]], "name": "separable_conv_1_bn_normal_left1_7"}, {"class_name": "BatchNormalization", "config": {"beta_regularizer": null, "center": true, "trainable": true, "gamma_constraint": null, "axis": -1, "gamma_initializer": {"class_name": "Ones", "config": {}}, "moving_variance_initializer": {"class_name": "Ones", "config": {}}, "moving_mean_initializer": {"class_name": "Zeros", "config": {}}, "epsilon": 1e-05, "gamma_regularizer": null, "scale": true, "beta_constraint": null, "beta_initializer": {"class_name": "Zeros", "config": {}}, "momentum": 0.9, "name": "separable_conv_1_bn_normal_right1_7"}, "inbound_nodes": [[["separable_conv_1_normal_right1_7", 0, 0, {}]]], "name": "separable_conv_1_bn_normal_right1_7"}, {"class_name": "BatchNormalization", "config": {"beta_regularizer": null, "center": true, "trainable": true, "gamma_constraint": null, "axis": -1, "gamma_initializer": {"class_name": "Ones", "config": {}}, "moving_variance_initializer": {"class_name": "Ones", "config": {}}, "moving_mean_initializer": {"class_name": "Zeros", "config": {}}, "epsilon": 1e-05, "gamma_regularizer": null, "scale": true, "beta_constraint": null, "beta_initializer": {"class_name": "Zeros", "config": {}}, "momentum": 0.9, "name": "separable_conv_1_bn_normal_left2_7"}, "inbound_nodes": [[["separable_conv_1_normal_left2_7", 0, 0, {}]]], "name": "separable_conv_1_bn_normal_left2_7"}, {"class_name": "BatchNormalization", "config": {"beta_regularizer": null, "center": true, "trainable": true, "gamma_constraint": null, "axis": -1, "gamma_initializer": {"class_name": "Ones", "config": {}}, "moving_variance_initializer": {"class_name": "Ones", "config": {}}, "moving_mean_initializer": {"class_name": "Zeros", "config": {}}, "epsilon": 1e-05, "gamma_regularizer": null, "scale": true, "beta_constraint": null, "beta_initializer": {"class_name": "Zeros", "config": {}}, "momentum": 0.9, "name": "separable_conv_1_bn_normal_right2_7"}, "inbound_nodes": [[["separable_conv_1_normal_right2_7", 0, 0, {}]]], "name": "separable_conv_1_bn_normal_right2_7"}, {"class_name": "BatchNormalization", "config": {"beta_regularizer": null, "center": true, "trainable": true, "gamma_constraint": null, "axis": -1, "gamma_initializer": {"class_name": "Ones", "config": {}}, "moving_variance_initializer": {"class_name": "Ones", "config": {}}, "moving_mean_initializer": {"class_name": "Zeros", "config": {}}, "epsilon": 1e-05, "gamma_regularizer": null, "scale": true, "beta_constraint": null, "beta_initializer": {"class_name": "Zeros", "config": {}}, "momentum": 0.9, "name": "separable_conv_1_bn_normal_left5_7"}, "inbound_nodes": [[["separable_conv_1_normal_left5_7", 0, 0, {}]]], "name": "separable_conv_1_bn_normal_left5_7"}, {"class_name": "Activation", "config": {"activation": "relu", "trainable": true, "name": "activation_471"}, "inbound_nodes": [[["separable_conv_1_bn_normal_left1_7", 0, 0, {}]]], "name": "activation_471"}, {"class_name": "Activation", "config": {"activation": "relu", "trainable": true, "name": "activation_473"}, "inbound_nodes": [[["separable_conv_1_bn_normal_right1_7", 0, 0, {}]]], "name": "activation_473"}, {"class_name": "Activation", "config": {"activation": "relu", "trainable": true, "name": "activation_475"}, "inbound_nodes": [[["separable_conv_1_bn_normal_left2_7", 0, 0, {}]]], "name": "activation_475"}, {"class_name": "Activation", "config": {"activation": "relu", "trainable": true, "name": "activation_477"}, "inbound_nodes": [[["separable_conv_1_bn_normal_right2_7", 0, 0, {}]]], "name": "activation_477"}, {"class_name": "Activation", "config": {"activation": "relu", "trainable": true, "name": "activation_479"}, "inbound_nodes": [[["separable_conv_1_bn_normal_left5_7", 0, 0, {}]]], "name": "activation_479"}, {"class_name": "SeparableConv2D", "config": {"kernel_size": [5, 5], "dilation_rate": [1, 1], "filters": 128, "bias_initializer": {"class_name": "Zeros", "config": {}}, "depthwise_regularizer": null, "strides": [1, 1], "data_format": "channels_last", "trainable": true, "bias_constraint": null, "name": "separable_conv_2_normal_left1_7", "depth_multiplier": 1, "pointwise_initializer": {"class_name": "VarianceScaling", "config": {"scale": 1.0, "mode": "fan_avg", "distribution": "uniform", "seed": null}}, "padding": "same", "pointwise_regularizer": null, "bias_regularizer": null, "depthwise_constraint": null, "activation": "linear", "use_bias": false, "pointwise_constraint": null, "depthwise_initializer": {"class_name": "VarianceScaling", "config": {"scale": 1.0, "mode": "fan_avg", "distribution": "uniform", "seed": null}}, "activity_regularizer": null}, "inbound_nodes": [[["activation_471", 0, 0, {}]]], "name": "separable_conv_2_normal_left1_7"}, {"class_name": "SeparableConv2D", "config": {"kernel_size": [3, 3], "dilation_rate": [1, 1], "filters": 128, "bias_initializer": {"class_name": "Zeros", "config": {}}, "depthwise_regularizer": null, "strides": [1, 1], "data_format": "channels_last", "trainable": true, "bias_constraint": null, "name": "separable_conv_2_normal_right1_7", "depth_multiplier": 1, "pointwise_initializer": {"class_name": "VarianceScaling", "config": {"scale": 1.0, "mode": "fan_avg", "distribution": "uniform", "seed": null}}, "padding": "same", "pointwise_regularizer": null, "bias_regularizer": null, "depthwise_constraint": null, "activation": "linear", "use_bias": false, "pointwise_constraint": null, "depthwise_initializer": {"class_name": "VarianceScaling", "config": {"scale": 1.0, "mode": "fan_avg", "distribution": "uniform", "seed": null}}, "activity_regularizer": null}, "inbound_nodes": [[["activation_473", 0, 0, {}]]], "name": "separable_conv_2_normal_right1_7"}, {"class_name": "SeparableConv2D", "config": {"kernel_size": [5, 5], "dilation_rate": [1, 1], "filters": 128, "bias_initializer": {"class_name": "Zeros", "config": {}}, "depthwise_regularizer": null, "strides": [1, 1], "data_format": "channels_last", "trainable": true, "bias_constraint": null, "name": "separable_conv_2_normal_left2_7", "depth_multiplier": 1, "pointwise_initializer": {"class_name": "VarianceScaling", "config": {"scale": 1.0, "mode": "fan_avg", "distribution": "uniform", "seed": null}}, "padding": "same", "pointwise_regularizer": null, "bias_regularizer": null, "depthwise_constraint": null, "activation": "linear", "use_bias": false, "pointwise_constraint": null, "depthwise_initializer": {"class_name": "VarianceScaling", "config": {"scale": 1.0, "mode": "fan_avg", "distribution": "uniform", "seed": null}}, "activity_regularizer": null}, "inbound_nodes": [[["activation_475", 0, 0, {}]]], "name": "separable_conv_2_normal_left2_7"}, {"class_name": "SeparableConv2D", "config": {"kernel_size": [3, 3], "dilation_rate": [1, 1], "filters": 128, "bias_initializer": {"class_name": "Zeros", "config": {}}, "depthwise_regularizer": null, "strides": [1, 1], "data_format": "channels_last", "trainable": true, "bias_constraint": null, "name": "separable_conv_2_normal_right2_7", "depth_multiplier": 1, "pointwise_initializer": {"class_name": "VarianceScaling", "config": {"scale": 1.0, "mode": "fan_avg", "distribution": "uniform", "seed": null}}, "padding": "same", "pointwise_regularizer": null, "bias_regularizer": null, "depthwise_constraint": null, "activation": "linear", "use_bias": false, "pointwise_constraint": null, "depthwise_initializer": {"class_name": "VarianceScaling", "config": {"scale": 1.0, "mode": "fan_avg", "distribution": "uniform", "seed": null}}, "activity_regularizer": null}, "inbound_nodes": [[["activation_477", 0, 0, {}]]], "name": "separable_conv_2_normal_right2_7"}, {"class_name": "SeparableConv2D", "config": {"kernel_size": [3, 3], "dilation_rate": [1, 1], "filters": 128, "bias_initializer": {"class_name": "Zeros", "config": {}}, "depthwise_regularizer": null, "strides": [1, 1], "data_format": "channels_last", "trainable": true, "bias_constraint": null, "name": "separable_conv_2_normal_left5_7", "depth_multiplier": 1, "pointwise_initializer": {"class_name": "VarianceScaling", "config": {"scale": 1.0, "mode": "fan_avg", "distribution": "uniform", "seed": null}}, "padding": "same", "pointwise_regularizer": null, "bias_regularizer": null, "depthwise_constraint": null, "activation": "linear", "use_bias": false, "pointwise_constraint": null, "depthwise_initializer": {"class_name": "VarianceScaling", "config": {"scale": 1.0, "mode": "fan_avg", "distribution": "uniform", "seed": null}}, "activity_regularizer": null}, "inbound_nodes": [[["activation_479", 0, 0, {}]]], "name": "separable_conv_2_normal_left5_7"}, {"class_name": "BatchNormalization", "config": {"beta_regularizer": null, "center": true, "trainable": true, "gamma_constraint": null, "axis": -1, "gamma_initializer": {"class_name": "Ones", "config": {}}, "moving_variance_initializer": {"class_name": "Ones", "config": {}}, "moving_mean_initializer": {"class_name": "Zeros", "config": {}}, "epsilon": 1e-05, "gamma_regularizer": null, "scale": true, "beta_constraint": null, "beta_initializer": {"class_name": "Zeros", "config": {}}, "momentum": 0.9, "name": "separable_conv_2_bn_normal_left1_7"}, "inbound_nodes": [[["separable_conv_2_normal_left1_7", 0, 0, {}]]], "name": "separable_conv_2_bn_normal_left1_7"}, {"class_name": "BatchNormalization", "config": {"beta_regularizer": null, "center": true, "trainable": true, "gamma_constraint": null, "axis": -1, "gamma_initializer": {"class_name": "Ones", "config": {}}, "moving_variance_initializer": {"class_name": "Ones", "config": {}}, "moving_mean_initializer": {"class_name": "Zeros", "config": {}}, "epsilon": 1e-05, "gamma_regularizer": null, "scale": true, "beta_constraint": null, "beta_initializer": {"class_name": "Zeros", "config": {}}, "momentum": 0.9, "name": "separable_conv_2_bn_normal_right1_7"}, "inbound_nodes": [[["separable_conv_2_normal_right1_7", 0, 0, {}]]], "name": "separable_conv_2_bn_normal_right1_7"}, {"class_name": "BatchNormalization", "config": {"beta_regularizer": null, "center": true, "trainable": true, "gamma_constraint": null, "axis": -1, "gamma_initializer": {"class_name": "Ones", "config": {}}, "moving_variance_initializer": {"class_name": "Ones", "config": {}}, "moving_mean_initializer": {"class_name": "Zeros", "config": {}}, "epsilon": 1e-05, "gamma_regularizer": null, "scale": true, "beta_constraint": null, "beta_initializer": {"class_name": "Zeros", "config": {}}, "momentum": 0.9, "name": "separable_conv_2_bn_normal_left2_7"}, "inbound_nodes": [[["separable_conv_2_normal_left2_7", 0, 0, {}]]], "name": "separable_conv_2_bn_normal_left2_7"}, {"class_name": "BatchNormalization", "config": {"beta_regularizer": null, "center": true, "trainable": true, "gamma_constraint": null, "axis": -1, "gamma_initializer": {"class_name": "Ones", "config": {}}, "moving_variance_initializer": {"class_name": "Ones", "config": {}}, "moving_mean_initializer": {"class_name": "Zeros", "config": {}}, "epsilon": 1e-05, "gamma_regularizer": null, "scale": true, "beta_constraint": null, "beta_initializer": {"class_name": "Zeros", "config": {}}, "momentum": 0.9, "name": "separable_conv_2_bn_normal_right2_7"}, "inbound_nodes": [[["separable_conv_2_normal_right2_7", 0, 0, {}]]], "name": "separable_conv_2_bn_normal_right2_7"}, {"class_name": "AveragePooling2D", "config": {"padding": "same", "data_format": "channels_last", "pool_size": [3, 3], "trainable": true, "strides": [1, 1], "name": "normal_left3_7"}, "inbound_nodes": [[["normal_bn_1_7", 0, 0, {}]]], "name": "normal_left3_7"}, {"class_name": "AveragePooling2D", "config": {"padding": "same", "data_format": "channels_last", "pool_size": [3, 3], "trainable": true, "strides": [1, 1], "name": "normal_left4_7"}, "inbound_nodes": [[["adjust_bn_7", 0, 0, {}]]], "name": "normal_left4_7"}, {"class_name": "AveragePooling2D", "config": {"padding": "same", "data_format": "channels_last", "pool_size": [3, 3], "trainable": true, "strides": [1, 1], "name": "normal_right4_7"}, "inbound_nodes": [[["adjust_bn_7", 0, 0, {}]]], "name": "normal_right4_7"}, {"class_name": "BatchNormalization", "config": {"beta_regularizer": null, "center": true, "trainable": true, "gamma_constraint": null, "axis": -1, "gamma_initializer": {"class_name": "Ones", "config": {}}, "moving_variance_initializer": {"class_name": "Ones", "config": {}}, "moving_mean_initializer": {"class_name": "Zeros", "config": {}}, "epsilon": 1e-05, "gamma_regularizer": null, "scale": true, "beta_constraint": null, "beta_initializer": {"class_name": "Zeros", "config": {}}, "momentum": 0.9, "name": "separable_conv_2_bn_normal_left5_7"}, "inbound_nodes": [[["separable_conv_2_normal_left5_7", 0, 0, {}]]], "name": "separable_conv_2_bn_normal_left5_7"}, {"class_name": "Add", "config": {"trainable": true, "name": "normal_add_1_7"}, "inbound_nodes": [[["separable_conv_2_bn_normal_left1_7", 0, 0, {}], ["separable_conv_2_bn_normal_right1_7", 0, 0, {}]]], "name": "normal_add_1_7"}, {"class_name": "Add", "config": {"trainable": true, "name": "normal_add_2_7"}, "inbound_nodes": [[["separable_conv_2_bn_normal_left2_7", 0, 0, {}], ["separable_conv_2_bn_normal_right2_7", 0, 0, {}]]], "name": "normal_add_2_7"}, {"class_name": "Add", "config": {"trainable": true, "name": "normal_add_3_7"}, "inbound_nodes": [[["normal_left3_7", 0, 0, {}], ["adjust_bn_7", 0, 0, {}]]], "name": "normal_add_3_7"}, {"class_name": "Add", "config": {"trainable": true, "name": "normal_add_4_7"}, "inbound_nodes": [[["normal_left4_7", 0, 0, {}], ["normal_right4_7", 0, 0, {}]]], "name": "normal_add_4_7"}, {"class_name": "Add", "config": {"trainable": true, "name": "normal_add_5_7"}, "inbound_nodes": [[["separable_conv_2_bn_normal_left5_7", 0, 0, {}], ["normal_bn_1_7", 0, 0, {}]]], "name": "normal_add_5_7"}, {"class_name": "Concatenate", "config": {"axis": -1, "trainable": true, "name": "normal_concat_7"}, "inbound_nodes": [[["adjust_bn_7", 0, 0, {}], ["normal_add_1_7", 0, 0, {}], ["normal_add_2_7", 0, 0, {}], ["normal_add_3_7", 0, 0, {}], ["normal_add_4_7", 0, 0, {}], ["normal_add_5_7", 0, 0, {}]]], "name": "normal_concat_7"}, {"class_name": "Activation", "config": {"activation": "relu", "trainable": true, "name": "activation_480"}, "inbound_nodes": [[["reduction_concat_reduce_6", 0, 0, {}]]], "name": "activation_480"}, {"class_name": "Activation", "config": {"activation": "relu", "trainable": true, "name": "activation_481"}, "inbound_nodes": [[["normal_concat_7", 0, 0, {}]]], "name": "activation_481"}, {"class_name": "Conv2D", "config": {"kernel_size": [1, 1], "dilation_rate": [1, 1], "filters": 128, "padding": "same", "bias_initializer": {"class_name": "Zeros", "config": {}}, "name": "adjust_conv_projection_8", "strides": [1, 1], "kernel_initializer": {"class_name": "VarianceScaling", "config": {"scale": 2.0, "mode": "fan_in", "distribution": "normal", "seed": null}}, "trainable": true, "bias_constraint": null, "data_format": "channels_last", "activation": "linear", "use_bias": false, "kernel_regularizer": {"class_name": "L1L2", "config": {"l1": 0.0, "l2": 0.0005000000237487257}}, "kernel_constraint": null, "bias_regularizer": null, "activity_regularizer": null}, "inbound_nodes": [[["activation_480", 0, 0, {}]]], "name": "adjust_conv_projection_8"}, {"class_name": "Conv2D", "config": {"kernel_size": [1, 1], "dilation_rate": [1, 1], "filters": 128, "padding": "same", "bias_initializer": {"class_name": "Zeros", "config": {}}, "name": "normal_conv_1_8", "strides": [1, 1], "kernel_initializer": {"class_name": "VarianceScaling", "config": {"scale": 2.0, "mode": "fan_in", "distribution": "normal", "seed": null}}, "trainable": true, "bias_constraint": null, "data_format": "channels_last", "activation": "linear", "use_bias": false, "kernel_regularizer": {"class_name": "L1L2", "config": {"l1": 0.0, "l2": 0.0005000000237487257}}, "kernel_constraint": null, "bias_regularizer": null, "activity_regularizer": null}, "inbound_nodes": [[["activation_481", 0, 0, {}]]], "name": "normal_conv_1_8"}, {"class_name": "BatchNormalization", "config": {"beta_regularizer": null, "center": true, "trainable": true, "gamma_constraint": null, "axis": -1, "gamma_initializer": {"class_name": "Ones", "config": {}}, "moving_variance_initializer": {"class_name": "Ones", "config": {}}, "moving_mean_initializer": {"class_name": "Zeros", "config": {}}, "epsilon": 1e-05, "gamma_regularizer": null, "scale": true, "beta_constraint": null, "beta_initializer": {"class_name": "Zeros", "config": {}}, "momentum": 0.9, "name": "adjust_bn_8"}, "inbound_nodes": [[["adjust_conv_projection_8", 0, 0, {}]]], "name": "adjust_bn_8"}, {"class_name": "BatchNormalization", "config": {"beta_regularizer": null, "center": true, "trainable": true, "gamma_constraint": null, "axis": -1, "gamma_initializer": {"class_name": "Ones", "config": {}}, "moving_variance_initializer": {"class_name": "Ones", "config": {}}, "moving_mean_initializer": {"class_name": "Zeros", "config": {}}, "epsilon": 1e-05, "gamma_regularizer": null, "scale": true, "beta_constraint": null, "beta_initializer": {"class_name": "Zeros", "config": {}}, "momentum": 0.9, "name": "normal_bn_1_8"}, "inbound_nodes": [[["normal_conv_1_8", 0, 0, {}]]], "name": "normal_bn_1_8"}, {"class_name": "Activation", "config": {"activation": "relu", "trainable": true, "name": "activation_482"}, "inbound_nodes": [[["normal_bn_1_8", 0, 0, {}]]], "name": "activation_482"}, {"class_name": "Activation", "config": {"activation": "relu", "trainable": true, "name": "activation_484"}, "inbound_nodes": [[["adjust_bn_8", 0, 0, {}]]], "name": "activation_484"}, {"class_name": "Activation", "config": {"activation": "relu", "trainable": true, "name": "activation_486"}, "inbound_nodes": [[["adjust_bn_8", 0, 0, {}]]], "name": "activation_486"}, {"class_name": "Activation", "config": {"activation": "relu", "trainable": true, "name": "activation_488"}, "inbound_nodes": [[["adjust_bn_8", 0, 0, {}]]], "name": "activation_488"}, {"class_name": "Activation", "config": {"activation": "relu", "trainable": true, "name": "activation_490"}, "inbound_nodes": [[["normal_bn_1_8", 0, 0, {}]]], "name": "activation_490"}, {"class_name": "SeparableConv2D", "config": {"kernel_size": [5, 5], "dilation_rate": [1, 1], "filters": 128, "bias_initializer": {"class_name": "Zeros", "config": {}}, "depthwise_regularizer": null, "strides": [1, 1], "data_format": "channels_last", "trainable": true, "bias_constraint": null, "name": "separable_conv_1_normal_left1_8", "depth_multiplier": 1, "pointwise_initializer": {"class_name": "VarianceScaling", "config": {"scale": 1.0, "mode": "fan_avg", "distribution": "uniform", "seed": null}}, "padding": "same", "pointwise_regularizer": null, "bias_regularizer": null, "depthwise_constraint": null, "activation": "linear", "use_bias": false, "pointwise_constraint": null, "depthwise_initializer": {"class_name": "VarianceScaling", "config": {"scale": 1.0, "mode": "fan_avg", "distribution": "uniform", "seed": null}}, "activity_regularizer": null}, "inbound_nodes": [[["activation_482", 0, 0, {}]]], "name": "separable_conv_1_normal_left1_8"}, {"class_name": "SeparableConv2D", "config": {"kernel_size": [3, 3], "dilation_rate": [1, 1], "filters": 128, "bias_initializer": {"class_name": "Zeros", "config": {}}, "depthwise_regularizer": null, "strides": [1, 1], "data_format": "channels_last", "trainable": true, "bias_constraint": null, "name": "separable_conv_1_normal_right1_8", "depth_multiplier": 1, "pointwise_initializer": {"class_name": "VarianceScaling", "config": {"scale": 1.0, "mode": "fan_avg", "distribution": "uniform", "seed": null}}, "padding": "same", "pointwise_regularizer": null, "bias_regularizer": null, "depthwise_constraint": null, "activation": "linear", "use_bias": false, "pointwise_constraint": null, "depthwise_initializer": {"class_name": "VarianceScaling", "config": {"scale": 1.0, "mode": "fan_avg", "distribution": "uniform", "seed": null}}, "activity_regularizer": null}, "inbound_nodes": [[["activation_484", 0, 0, {}]]], "name": "separable_conv_1_normal_right1_8"}, {"class_name": "SeparableConv2D", "config": {"kernel_size": [5, 5], "dilation_rate": [1, 1], "filters": 128, "bias_initializer": {"class_name": "Zeros", "config": {}}, "depthwise_regularizer": null, "strides": [1, 1], "data_format": "channels_last", "trainable": true, "bias_constraint": null, "name": "separable_conv_1_normal_left2_8", "depth_multiplier": 1, "pointwise_initializer": {"class_name": "VarianceScaling", "config": {"scale": 1.0, "mode": "fan_avg", "distribution": "uniform", "seed": null}}, "padding": "same", "pointwise_regularizer": null, "bias_regularizer": null, "depthwise_constraint": null, "activation": "linear", "use_bias": false, "pointwise_constraint": null, "depthwise_initializer": {"class_name": "VarianceScaling", "config": {"scale": 1.0, "mode": "fan_avg", "distribution": "uniform", "seed": null}}, "activity_regularizer": null}, "inbound_nodes": [[["activation_486", 0, 0, {}]]], "name": "separable_conv_1_normal_left2_8"}, {"class_name": "SeparableConv2D", "config": {"kernel_size": [3, 3], "dilation_rate": [1, 1], "filters": 128, "bias_initializer": {"class_name": "Zeros", "config": {}}, "depthwise_regularizer": null, "strides": [1, 1], "data_format": "channels_last", "trainable": true, "bias_constraint": null, "name": "separable_conv_1_normal_right2_8", "depth_multiplier": 1, "pointwise_initializer": {"class_name": "VarianceScaling", "config": {"scale": 1.0, "mode": "fan_avg", "distribution": "uniform", "seed": null}}, "padding": "same", "pointwise_regularizer": null, "bias_regularizer": null, "depthwise_constraint": null, "activation": "linear", "use_bias": false, "pointwise_constraint": null, "depthwise_initializer": {"class_name": "VarianceScaling", "config": {"scale": 1.0, "mode": "fan_avg", "distribution": "uniform", "seed": null}}, "activity_regularizer": null}, "inbound_nodes": [[["activation_488", 0, 0, {}]]], "name": "separable_conv_1_normal_right2_8"}, {"class_name": "SeparableConv2D", "config": {"kernel_size": [3, 3], "dilation_rate": [1, 1], "filters": 128, "bias_initializer": {"class_name": "Zeros", "config": {}}, "depthwise_regularizer": null, "strides": [1, 1], "data_format": "channels_last", "trainable": true, "bias_constraint": null, "name": "separable_conv_1_normal_left5_8", "depth_multiplier": 1, "pointwise_initializer": {"class_name": "VarianceScaling", "config": {"scale": 1.0, "mode": "fan_avg", "distribution": "uniform", "seed": null}}, "padding": "same", "pointwise_regularizer": null, "bias_regularizer": null, "depthwise_constraint": null, "activation": "linear", "use_bias": false, "pointwise_constraint": null, "depthwise_initializer": {"class_name": "VarianceScaling", "config": {"scale": 1.0, "mode": "fan_avg", "distribution": "uniform", "seed": null}}, "activity_regularizer": null}, "inbound_nodes": [[["activation_490", 0, 0, {}]]], "name": "separable_conv_1_normal_left5_8"}, {"class_name": "BatchNormalization", "config": {"beta_regularizer": null, "center": true, "trainable": true, "gamma_constraint": null, "axis": -1, "gamma_initializer": {"class_name": "Ones", "config": {}}, "moving_variance_initializer": {"class_name": "Ones", "config": {}}, "moving_mean_initializer": {"class_name": "Zeros", "config": {}}, "epsilon": 1e-05, "gamma_regularizer": null, "scale": true, "beta_constraint": null, "beta_initializer": {"class_name": "Zeros", "config": {}}, "momentum": 0.9, "name": "separable_conv_1_bn_normal_left1_8"}, "inbound_nodes": [[["separable_conv_1_normal_left1_8", 0, 0, {}]]], "name": "separable_conv_1_bn_normal_left1_8"}, {"class_name": "BatchNormalization", "config": {"beta_regularizer": null, "center": true, "trainable": true, "gamma_constraint": null, "axis": -1, "gamma_initializer": {"class_name": "Ones", "config": {}}, "moving_variance_initializer": {"class_name": "Ones", "config": {}}, "moving_mean_initializer": {"class_name": "Zeros", "config": {}}, "epsilon": 1e-05, "gamma_regularizer": null, "scale": true, "beta_constraint": null, "beta_initializer": {"class_name": "Zeros", "config": {}}, "momentum": 0.9, "name": "separable_conv_1_bn_normal_right1_8"}, "inbound_nodes": [[["separable_conv_1_normal_right1_8", 0, 0, {}]]], "name": "separable_conv_1_bn_normal_right1_8"}, {"class_name": "BatchNormalization", "config": {"beta_regularizer": null, "center": true, "trainable": true, "gamma_constraint": null, "axis": -1, "gamma_initializer": {"class_name": "Ones", "config": {}}, "moving_variance_initializer": {"class_name": "Ones", "config": {}}, "moving_mean_initializer": {"class_name": "Zeros", "config": {}}, "epsilon": 1e-05, "gamma_regularizer": null, "scale": true, "beta_constraint": null, "beta_initializer": {"class_name": "Zeros", "config": {}}, "momentum": 0.9, "name": "separable_conv_1_bn_normal_left2_8"}, "inbound_nodes": [[["separable_conv_1_normal_left2_8", 0, 0, {}]]], "name": "separable_conv_1_bn_normal_left2_8"}, {"class_name": "BatchNormalization", "config": {"beta_regularizer": null, "center": true, "trainable": true, "gamma_constraint": null, "axis": -1, "gamma_initializer": {"class_name": "Ones", "config": {}}, "moving_variance_initializer": {"class_name": "Ones", "config": {}}, "moving_mean_initializer": {"class_name": "Zeros", "config": {}}, "epsilon": 1e-05, "gamma_regularizer": null, "scale": true, "beta_constraint": null, "beta_initializer": {"class_name": "Zeros", "config": {}}, "momentum": 0.9, "name": "separable_conv_1_bn_normal_right2_8"}, "inbound_nodes": [[["separable_conv_1_normal_right2_8", 0, 0, {}]]], "name": "separable_conv_1_bn_normal_right2_8"}, {"class_name": "BatchNormalization", "config": {"beta_regularizer": null, "center": true, "trainable": true, "gamma_constraint": null, "axis": -1, "gamma_initializer": {"class_name": "Ones", "config": {}}, "moving_variance_initializer": {"class_name": "Ones", "config": {}}, "moving_mean_initializer": {"class_name": "Zeros", "config": {}}, "epsilon": 1e-05, "gamma_regularizer": null, "scale": true, "beta_constraint": null, "beta_initializer": {"class_name": "Zeros", "config": {}}, "momentum": 0.9, "name": "separable_conv_1_bn_normal_left5_8"}, "inbound_nodes": [[["separable_conv_1_normal_left5_8", 0, 0, {}]]], "name": "separable_conv_1_bn_normal_left5_8"}, {"class_name": "Activation", "config": {"activation": "relu", "trainable": true, "name": "activation_483"}, "inbound_nodes": [[["separable_conv_1_bn_normal_left1_8", 0, 0, {}]]], "name": "activation_483"}, {"class_name": "Activation", "config": {"activation": "relu", "trainable": true, "name": "activation_485"}, "inbound_nodes": [[["separable_conv_1_bn_normal_right1_8", 0, 0, {}]]], "name": "activation_485"}, {"class_name": "Activation", "config": {"activation": "relu", "trainable": true, "name": "activation_487"}, "inbound_nodes": [[["separable_conv_1_bn_normal_left2_8", 0, 0, {}]]], "name": "activation_487"}, {"class_name": "Activation", "config": {"activation": "relu", "trainable": true, "name": "activation_489"}, "inbound_nodes": [[["separable_conv_1_bn_normal_right2_8", 0, 0, {}]]], "name": "activation_489"}, {"class_name": "Activation", "config": {"activation": "relu", "trainable": true, "name": "activation_491"}, "inbound_nodes": [[["separable_conv_1_bn_normal_left5_8", 0, 0, {}]]], "name": "activation_491"}, {"class_name": "SeparableConv2D", "config": {"kernel_size": [5, 5], "dilation_rate": [1, 1], "filters": 128, "bias_initializer": {"class_name": "Zeros", "config": {}}, "depthwise_regularizer": null, "strides": [1, 1], "data_format": "channels_last", "trainable": true, "bias_constraint": null, "name": "separable_conv_2_normal_left1_8", "depth_multiplier": 1, "pointwise_initializer": {"class_name": "VarianceScaling", "config": {"scale": 1.0, "mode": "fan_avg", "distribution": "uniform", "seed": null}}, "padding": "same", "pointwise_regularizer": null, "bias_regularizer": null, "depthwise_constraint": null, "activation": "linear", "use_bias": false, "pointwise_constraint": null, "depthwise_initializer": {"class_name": "VarianceScaling", "config": {"scale": 1.0, "mode": "fan_avg", "distribution": "uniform", "seed": null}}, "activity_regularizer": null}, "inbound_nodes": [[["activation_483", 0, 0, {}]]], "name": "separable_conv_2_normal_left1_8"}, {"class_name": "SeparableConv2D", "config": {"kernel_size": [3, 3], "dilation_rate": [1, 1], "filters": 128, "bias_initializer": {"class_name": "Zeros", "config": {}}, "depthwise_regularizer": null, "strides": [1, 1], "data_format": "channels_last", "trainable": true, "bias_constraint": null, "name": "separable_conv_2_normal_right1_8", "depth_multiplier": 1, "pointwise_initializer": {"class_name": "VarianceScaling", "config": {"scale": 1.0, "mode": "fan_avg", "distribution": "uniform", "seed": null}}, "padding": "same", "pointwise_regularizer": null, "bias_regularizer": null, "depthwise_constraint": null, "activation": "linear", "use_bias": false, "pointwise_constraint": null, "depthwise_initializer": {"class_name": "VarianceScaling", "config": {"scale": 1.0, "mode": "fan_avg", "distribution": "uniform", "seed": null}}, "activity_regularizer": null}, "inbound_nodes": [[["activation_485", 0, 0, {}]]], "name": "separable_conv_2_normal_right1_8"}, {"class_name": "SeparableConv2D", "config": {"kernel_size": [5, 5], "dilation_rate": [1, 1], "filters": 128, "bias_initializer": {"class_name": "Zeros", "config": {}}, "depthwise_regularizer": null, "strides": [1, 1], "data_format": "channels_last", "trainable": true, "bias_constraint": null, "name": "separable_conv_2_normal_left2_8", "depth_multiplier": 1, "pointwise_initializer": {"class_name": "VarianceScaling", "config": {"scale": 1.0, "mode": "fan_avg", "distribution": "uniform", "seed": null}}, "padding": "same", "pointwise_regularizer": null, "bias_regularizer": null, "depthwise_constraint": null, "activation": "linear", "use_bias": false, "pointwise_constraint": null, "depthwise_initializer": {"class_name": "VarianceScaling", "config": {"scale": 1.0, "mode": "fan_avg", "distribution": "uniform", "seed": null}}, "activity_regularizer": null}, "inbound_nodes": [[["activation_487", 0, 0, {}]]], "name": "separable_conv_2_normal_left2_8"}, {"class_name": "SeparableConv2D", "config": {"kernel_size": [3, 3], "dilation_rate": [1, 1], "filters": 128, "bias_initializer": {"class_name": "Zeros", "config": {}}, "depthwise_regularizer": null, "strides": [1, 1], "data_format": "channels_last", "trainable": true, "bias_constraint": null, "name": "separable_conv_2_normal_right2_8", "depth_multiplier": 1, "pointwise_initializer": {"class_name": "VarianceScaling", "config": {"scale": 1.0, "mode": "fan_avg", "distribution": "uniform", "seed": null}}, "padding": "same", "pointwise_regularizer": null, "bias_regularizer": null, "depthwise_constraint": null, "activation": "linear", "use_bias": false, "pointwise_constraint": null, "depthwise_initializer": {"class_name": "VarianceScaling", "config": {"scale": 1.0, "mode": "fan_avg", "distribution": "uniform", "seed": null}}, "activity_regularizer": null}, "inbound_nodes": [[["activation_489", 0, 0, {}]]], "name": "separable_conv_2_normal_right2_8"}, {"class_name": "SeparableConv2D", "config": {"kernel_size": [3, 3], "dilation_rate": [1, 1], "filters": 128, "bias_initializer": {"class_name": "Zeros", "config": {}}, "depthwise_regularizer": null, "strides": [1, 1], "data_format": "channels_last", "trainable": true, "bias_constraint": null, "name": "separable_conv_2_normal_left5_8", "depth_multiplier": 1, "pointwise_initializer": {"class_name": "VarianceScaling", "config": {"scale": 1.0, "mode": "fan_avg", "distribution": "uniform", "seed": null}}, "padding": "same", "pointwise_regularizer": null, "bias_regularizer": null, "depthwise_constraint": null, "activation": "linear", "use_bias": false, "pointwise_constraint": null, "depthwise_initializer": {"class_name": "VarianceScaling", "config": {"scale": 1.0, "mode": "fan_avg", "distribution": "uniform", "seed": null}}, "activity_regularizer": null}, "inbound_nodes": [[["activation_491", 0, 0, {}]]], "name": "separable_conv_2_normal_left5_8"}, {"class_name": "BatchNormalization", "config": {"beta_regularizer": null, "center": true, "trainable": true, "gamma_constraint": null, "axis": -1, "gamma_initializer": {"class_name": "Ones", "config": {}}, "moving_variance_initializer": {"class_name": "Ones", "config": {}}, "moving_mean_initializer": {"class_name": "Zeros", "config": {}}, "epsilon": 1e-05, "gamma_regularizer": null, "scale": true, "beta_constraint": null, "beta_initializer": {"class_name": "Zeros", "config": {}}, "momentum": 0.9, "name": "separable_conv_2_bn_normal_left1_8"}, "inbound_nodes": [[["separable_conv_2_normal_left1_8", 0, 0, {}]]], "name": "separable_conv_2_bn_normal_left1_8"}, {"class_name": "BatchNormalization", "config": {"beta_regularizer": null, "center": true, "trainable": true, "gamma_constraint": null, "axis": -1, "gamma_initializer": {"class_name": "Ones", "config": {}}, "moving_variance_initializer": {"class_name": "Ones", "config": {}}, "moving_mean_initializer": {"class_name": "Zeros", "config": {}}, "epsilon": 1e-05, "gamma_regularizer": null, "scale": true, "beta_constraint": null, "beta_initializer": {"class_name": "Zeros", "config": {}}, "momentum": 0.9, "name": "separable_conv_2_bn_normal_right1_8"}, "inbound_nodes": [[["separable_conv_2_normal_right1_8", 0, 0, {}]]], "name": "separable_conv_2_bn_normal_right1_8"}, {"class_name": "BatchNormalization", "config": {"beta_regularizer": null, "center": true, "trainable": true, "gamma_constraint": null, "axis": -1, "gamma_initializer": {"class_name": "Ones", "config": {}}, "moving_variance_initializer": {"class_name": "Ones", "config": {}}, "moving_mean_initializer": {"class_name": "Zeros", "config": {}}, "epsilon": 1e-05, "gamma_regularizer": null, "scale": true, "beta_constraint": null, "beta_initializer": {"class_name": "Zeros", "config": {}}, "momentum": 0.9, "name": "separable_conv_2_bn_normal_left2_8"}, "inbound_nodes": [[["separable_conv_2_normal_left2_8", 0, 0, {}]]], "name": "separable_conv_2_bn_normal_left2_8"}, {"class_name": "BatchNormalization", "config": {"beta_regularizer": null, "center": true, "trainable": true, "gamma_constraint": null, "axis": -1, "gamma_initializer": {"class_name": "Ones", "config": {}}, "moving_variance_initializer": {"class_name": "Ones", "config": {}}, "moving_mean_initializer": {"class_name": "Zeros", "config": {}}, "epsilon": 1e-05, "gamma_regularizer": null, "scale": true, "beta_constraint": null, "beta_initializer": {"class_name": "Zeros", "config": {}}, "momentum": 0.9, "name": "separable_conv_2_bn_normal_right2_8"}, "inbound_nodes": [[["separable_conv_2_normal_right2_8", 0, 0, {}]]], "name": "separable_conv_2_bn_normal_right2_8"}, {"class_name": "AveragePooling2D", "config": {"padding": "same", "data_format": "channels_last", "pool_size": [3, 3], "trainable": true, "strides": [1, 1], "name": "normal_left3_8"}, "inbound_nodes": [[["normal_bn_1_8", 0, 0, {}]]], "name": "normal_left3_8"}, {"class_name": "AveragePooling2D", "config": {"padding": "same", "data_format": "channels_last", "pool_size": [3, 3], "trainable": true, "strides": [1, 1], "name": "normal_left4_8"}, "inbound_nodes": [[["adjust_bn_8", 0, 0, {}]]], "name": "normal_left4_8"}, {"class_name": "AveragePooling2D", "config": {"padding": "same", "data_format": "channels_last", "pool_size": [3, 3], "trainable": true, "strides": [1, 1], "name": "normal_right4_8"}, "inbound_nodes": [[["adjust_bn_8", 0, 0, {}]]], "name": "normal_right4_8"}, {"class_name": "BatchNormalization", "config": {"beta_regularizer": null, "center": true, "trainable": true, "gamma_constraint": null, "axis": -1, "gamma_initializer": {"class_name": "Ones", "config": {}}, "moving_variance_initializer": {"class_name": "Ones", "config": {}}, "moving_mean_initializer": {"class_name": "Zeros", "config": {}}, "epsilon": 1e-05, "gamma_regularizer": null, "scale": true, "beta_constraint": null, "beta_initializer": {"class_name": "Zeros", "config": {}}, "momentum": 0.9, "name": "separable_conv_2_bn_normal_left5_8"}, "inbound_nodes": [[["separable_conv_2_normal_left5_8", 0, 0, {}]]], "name": "separable_conv_2_bn_normal_left5_8"}, {"class_name": "Add", "config": {"trainable": true, "name": "normal_add_1_8"}, "inbound_nodes": [[["separable_conv_2_bn_normal_left1_8", 0, 0, {}], ["separable_conv_2_bn_normal_right1_8", 0, 0, {}]]], "name": "normal_add_1_8"}, {"class_name": "Add", "config": {"trainable": true, "name": "normal_add_2_8"}, "inbound_nodes": [[["separable_conv_2_bn_normal_left2_8", 0, 0, {}], ["separable_conv_2_bn_normal_right2_8", 0, 0, {}]]], "name": "normal_add_2_8"}, {"class_name": "Add", "config": {"trainable": true, "name": "normal_add_3_8"}, "inbound_nodes": [[["normal_left3_8", 0, 0, {}], ["adjust_bn_8", 0, 0, {}]]], "name": "normal_add_3_8"}, {"class_name": "Add", "config": {"trainable": true, "name": "normal_add_4_8"}, "inbound_nodes": [[["normal_left4_8", 0, 0, {}], ["normal_right4_8", 0, 0, {}]]], "name": "normal_add_4_8"}, {"class_name": "Add", "config": {"trainable": true, "name": "normal_add_5_8"}, "inbound_nodes": [[["separable_conv_2_bn_normal_left5_8", 0, 0, {}], ["normal_bn_1_8", 0, 0, {}]]], "name": "normal_add_5_8"}, {"class_name": "Concatenate", "config": {"axis": -1, "trainable": true, "name": "normal_concat_8"}, "inbound_nodes": [[["adjust_bn_8", 0, 0, {}], ["normal_add_1_8", 0, 0, {}], ["normal_add_2_8", 0, 0, {}], ["normal_add_3_8", 0, 0, {}], ["normal_add_4_8", 0, 0, {}], ["normal_add_5_8", 0, 0, {}]]], "name": "normal_concat_8"}, {"class_name": "Activation", "config": {"activation": "relu", "trainable": true, "name": "activation_492"}, "inbound_nodes": [[["normal_concat_8", 0, 0, {}]]], "name": "activation_492"}, {"class_name": "GlobalAveragePooling2D", "config": {"name": "global_average_pooling2d_4", "trainable": true, "data_format": "channels_last"}, "inbound_nodes": [[["activation_492", 0, 0, {}]]], "name": "global_average_pooling2d_4"}, {"class_name": "Dropout", "config": {"rate": 0.0, "noise_shape": null, "trainable": true, "seed": null, "name": "dropout_4"}, "inbound_nodes": [[["global_average_pooling2d_4", 0, 0, {}]]], "name": "dropout_4"}, {"class_name": "Dense", "config": {"bias_constraint": null, "bias_initializer": {"class_name": "Zeros", "config": {}}, "bias_regularizer": null, "name": "predictions", "trainable": true, "units": 10, "kernel_initializer": {"class_name": "VarianceScaling", "config": {"scale": 1.0, "mode": "fan_avg", "distribution": "uniform", "seed": null}}, "activation": "softmax", "use_bias": true, "kernel_regularizer": {"class_name": "L1L2", "config": {"l1": 0.0, "l2": 0.0005000000237487257}}, "kernel_constraint": null, "activity_regularizer": null}, "inbound_nodes": [[["dropout_4", 0, 0, {}]]], "name": "predictions"}]}, "backend": "tensorflow", "keras_version": "2.1.2"}