{"class_name": "Model", "config": {"input_layers": [["input_2", 0, 0]], "name": "NASNet", "output_layers": [["predictions", 0, 0]], "layers": [{"class_name": "InputLayer", "config": {"batch_input_shape": [null, 32, 32, 3], "sparse": false, "dtype": "float32", "name": "input_2"}, "inbound_nodes": [], "name": "input_2"}, {"class_name": "Conv2D", "config": {"kernel_size": [3, 3], "dilation_rate": [1, 1], "filters": 32, "padding": "same", "bias_initializer": {"class_name": "Zeros", "config": {}}, "name": "stem_conv1", "strides": [1, 1], "kernel_initializer": {"class_name": "VarianceScaling", "config": {"scale": 2.0, "mode": "fan_in", "distribution": "normal", "seed": null}}, "trainable": true, "bias_constraint": null, "data_format": "channels_last", "activation": "linear", "use_bias": false, "kernel_regularizer": {"class_name": "L1L2", "config": {"l1": 0.0, "l2": 0.0005000000237487257}}, "kernel_constraint": null, "bias_regularizer": null, "activity_regularizer": null}, "inbound_nodes": [[["input_2", 0, 0, {}]]], "name": "stem_conv1"}, {"class_name": "BatchNormalization", "config": {"beta_regularizer": null, "center": true, "trainable": true, "gamma_constraint": null, "axis": -1, "gamma_initializer": {"class_name": "Ones", "config": {}}, "moving_variance_initializer": {"class_name": "Ones", "config": {}}, "moving_mean_initializer": {"class_name": "Zeros", "config": {}}, "epsilon": 1e-05, "gamma_regularizer": null, "scale": true, "beta_constraint": null, "beta_initializer": {"class_name": "Zeros", "config": {}}, "momentum": 0.9, "name": "stem_bn1"}, "inbound_nodes": [[["stem_conv1", 0, 0, {}]]], "name": "stem_bn1"}, {"class_name": "Activation", "config": {"activation": "relu", "trainable": true, "name": "activation_130"}, "inbound_nodes": [[["stem_bn1", 0, 0, {}]]], "name": "activation_130"}, {"class_name": "Conv2D", "config": {"kernel_size": [1, 1], "dilation_rate": [1, 1], "filters": 32, "padding": "same", "bias_initializer": {"class_name": "Zeros", "config": {}}, "name": "normal_conv_1_0", "strides": [1, 1], "kernel_initializer": {"class_name": "VarianceScaling", "config": {"scale": 2.0, "mode": "fan_in", "distribution": "normal", "seed": null}}, "trainable": true, "bias_constraint": null, "data_format": "channels_last", "activation": "linear", "use_bias": false, "kernel_regularizer": {"class_name": "L1L2", "config": {"l1": 0.0, "l2": 0.0005000000237487257}}, "kernel_constraint": null, "bias_regularizer": null, "activity_regularizer": null}, "inbound_nodes": [[["activation_130", 0, 0, {}]]], "name": "normal_conv_1_0"}, {"class_name": "BatchNormalization", "config": {"beta_regularizer": null, "center": true, "trainable": true, "gamma_constraint": null, "axis": -1, "gamma_initializer": {"class_name": "Ones", "config": {}}, "moving_variance_initializer": {"class_name": "Ones", "config": {}}, "moving_mean_initializer": {"class_name": "Zeros", "config": {}}, "epsilon": 1e-05, "gamma_regularizer": null, "scale": true, "beta_constraint": null, "beta_initializer": {"class_name": "Zeros", "config": {}}, "momentum": 0.9, "name": "normal_bn_1_0"}, "inbound_nodes": [[["normal_conv_1_0", 0, 0, {}]]], "name": "normal_bn_1_0"}, {"class_name": "Activation", "config": {"activation": "relu", "trainable": true, "name": "activation_131"}, "inbound_nodes": [[["normal_bn_1_0", 0, 0, {}]]], "name": "activation_131"}, {"class_name": "Activation", "config": {"activation": "relu", "trainable": true, "name": "activation_133"}, "inbound_nodes": [[["stem_bn1", 0, 0, {}]]], "name": "activation_133"}, {"class_name": "Activation", "config": {"activation": "relu", "trainable": true, "name": "activation_135"}, "inbound_nodes": [[["stem_bn1", 0, 0, {}]]], "name": "activation_135"}, {"class_name": "Activation", "config": {"activation": "relu", "trainable": true, "name": "activation_137"}, "inbound_nodes": [[["stem_bn1", 0, 0, {}]]], "name": "activation_137"}, {"class_name": "Activation", "config": {"activation": "relu", "trainable": true, "name": "activation_139"}, "inbound_nodes": [[["normal_bn_1_0", 0, 0, {}]]], "name": "activation_139"}, {"class_name": "SeparableConv2D", "config": {"kernel_size": [5, 5], "dilation_rate": [1, 1], "filters": 32, "bias_initializer": {"class_name": "Zeros", "config": {}}, "depthwise_regularizer": null, "strides": [1, 1], "data_format": "channels_last", "trainable": true, "bias_constraint": null, "name": "separable_conv_1_normal_left1_0", "depth_multiplier": 1, "pointwise_initializer": {"class_name": "VarianceScaling", "config": {"scale": 1.0, "mode": "fan_avg", "distribution": "uniform", "seed": null}}, "padding": "same", "pointwise_regularizer": null, "bias_regularizer": null, "depthwise_constraint": null, "activation": "linear", "use_bias": false, "pointwise_constraint": null, "depthwise_initializer": {"class_name": "VarianceScaling", "config": {"scale": 1.0, "mode": "fan_avg", "distribution": "uniform", "seed": null}}, "activity_regularizer": null}, "inbound_nodes": [[["activation_131", 0, 0, {}]]], "name": "separable_conv_1_normal_left1_0"}, {"class_name": "SeparableConv2D", "config": {"kernel_size": [3, 3], "dilation_rate": [1, 1], "filters": 32, "bias_initializer": {"class_name": "Zeros", "config": {}}, "depthwise_regularizer": null, "strides": [1, 1], "data_format": "channels_last", "trainable": true, "bias_constraint": null, "name": "separable_conv_1_normal_right1_0", "depth_multiplier": 1, "pointwise_initializer": {"class_name": "VarianceScaling", "config": {"scale": 1.0, "mode": "fan_avg", "distribution": "uniform", "seed": null}}, "padding": "same", "pointwise_regularizer": null, "bias_regularizer": null, "depthwise_constraint": null, "activation": "linear", "use_bias": false, "pointwise_constraint": null, "depthwise_initializer": {"class_name": "VarianceScaling", "config": {"scale": 1.0, "mode": "fan_avg", "distribution": "uniform", "seed": null}}, "activity_regularizer": null}, "inbound_nodes": [[["activation_133", 0, 0, {}]]], "name": "separable_conv_1_normal_right1_0"}, {"class_name": "SeparableConv2D", "config": {"kernel_size": [5, 5], "dilation_rate": [1, 1], "filters": 32, "bias_initializer": {"class_name": "Zeros", "config": {}}, "depthwise_regularizer": null, "strides": [1, 1], "data_format": "channels_last", "trainable": true, "bias_constraint": null, "name": "separable_conv_1_normal_left2_0", "depth_multiplier": 1, "pointwise_initializer": {"class_name": "VarianceScaling", "config": {"scale": 1.0, "mode": "fan_avg", "distribution": "uniform", "seed": null}}, "padding": "same", "pointwise_regularizer": null, "bias_regularizer": null, "depthwise_constraint": null, "activation": "linear", "use_bias": false, "pointwise_constraint": null, "depthwise_initializer": {"class_name": "VarianceScaling", "config": {"scale": 1.0, "mode": "fan_avg", "distribution": "uniform", "seed": null}}, "activity_regularizer": null}, "inbound_nodes": [[["activation_135", 0, 0, {}]]], "name": "separable_conv_1_normal_left2_0"}, {"class_name": "SeparableConv2D", "config": {"kernel_size": [3, 3], "dilation_rate": [1, 1], "filters": 32, "bias_initializer": {"class_name": "Zeros", "config": {}}, "depthwise_regularizer": null, "strides": [1, 1], "data_format": "channels_last", "trainable": true, "bias_constraint": null, "name": "separable_conv_1_normal_right2_0", "depth_multiplier": 1, "pointwise_initializer": {"class_name": "VarianceScaling", "config": {"scale": 1.0, "mode": "fan_avg", "distribution": "uniform", "seed": null}}, "padding": "same", "pointwise_regularizer": null, "bias_regularizer": null, "depthwise_constraint": null, "activation": "linear", "use_bias": false, "pointwise_constraint": null, "depthwise_initializer": {"class_name": "VarianceScaling", "config": {"scale": 1.0, "mode": "fan_avg", "distribution": "uniform", "seed": null}}, "activity_regularizer": null}, "inbound_nodes": [[["activation_137", 0, 0, {}]]], "name": "separable_conv_1_normal_right2_0"}, {"class_name": "SeparableConv2D", "config": {"kernel_size": [3, 3], "dilation_rate": [1, 1], "filters": 32, "bias_initializer": {"class_name": "Zeros", "config": {}}, "depthwise_regularizer": null, "strides": [1, 1], "data_format": "channels_last", "trainable": true, "bias_constraint": null, "name": "separable_conv_1_normal_left5_0", "depth_multiplier": 1, "pointwise_initializer": {"class_name": "VarianceScaling", "config": {"scale": 1.0, "mode": "fan_avg", "distribution": "uniform", "seed": null}}, "padding": "same", "pointwise_regularizer": null, "bias_regularizer": null, "depthwise_constraint": null, "activation": "linear", "use_bias": false, "pointwise_constraint": null, "depthwise_initializer": {"class_name": "VarianceScaling", "config": {"scale": 1.0, "mode": "fan_avg", "distribution": "uniform", "seed": null}}, "activity_regularizer": null}, "inbound_nodes": [[["activation_139", 0, 0, {}]]], "name": "separable_conv_1_normal_left5_0"}, {"class_name": "BatchNormalization", "config": {"beta_regularizer": null, "center": true, "trainable": true, "gamma_constraint": null, "axis": -1, "gamma_initializer": {"class_name": "Ones", "config": {}}, "moving_variance_initializer": {"class_name": "Ones", "config": {}}, "moving_mean_initializer": {"class_name": "Zeros", "config": {}}, "epsilon": 1e-05, "gamma_regularizer": null, "scale": true, "beta_constraint": null, "beta_initializer": {"class_name": "Zeros", "config": {}}, "momentum": 0.9, "name": "separable_conv_1_bn_normal_left1_0"}, "inbound_nodes": [[["separable_conv_1_normal_left1_0", 0, 0, {}]]], "name": "separable_conv_1_bn_normal_left1_0"}, {"class_name": "BatchNormalization", "config": {"beta_regularizer": null, "center": true, "trainable": true, "gamma_constraint": null, "axis": -1, "gamma_initializer": {"class_name": "Ones", "config": {}}, "moving_variance_initializer": {"class_name": "Ones", "config": {}}, "moving_mean_initializer": {"class_name": "Zeros", "config": {}}, "epsilon": 1e-05, "gamma_regularizer": null, "scale": true, "beta_constraint": null, "beta_initializer": {"class_name": "Zeros", "config": {}}, "momentum": 0.9, "name": "separable_conv_1_bn_normal_right1_0"}, "inbound_nodes": [[["separable_conv_1_normal_right1_0", 0, 0, {}]]], "name": "separable_conv_1_bn_normal_right1_0"}, {"class_name": "BatchNormalization", "config": {"beta_regularizer": null, "center": true, "trainable": true, "gamma_constraint": null, "axis": -1, "gamma_initializer": {"class_name": "Ones", "config": {}}, "moving_variance_initializer": {"class_name": "Ones", "config": {}}, "moving_mean_initializer": {"class_name": "Zeros", "config": {}}, "epsilon": 1e-05, "gamma_regularizer": null, "scale": true, "beta_constraint": null, "beta_initializer": {"class_name": "Zeros", "config": {}}, "momentum": 0.9, "name": "separable_conv_1_bn_normal_left2_0"}, "inbound_nodes": [[["separable_conv_1_normal_left2_0", 0, 0, {}]]], "name": "separable_conv_1_bn_normal_left2_0"}, {"class_name": "BatchNormalization", "config": {"beta_regularizer": null, "center": true, "trainable": true, "gamma_constraint": null, "axis": -1, "gamma_initializer": {"class_name": "Ones", "config": {}}, "moving_variance_initializer": {"class_name": "Ones", "config": {}}, "moving_mean_initializer": {"class_name": "Zeros", "config": {}}, "epsilon": 1e-05, "gamma_regularizer": null, "scale": true, "beta_constraint": null, "beta_initializer": {"class_name": "Zeros", "config": {}}, "momentum": 0.9, "name": "separable_conv_1_bn_normal_right2_0"}, "inbound_nodes": [[["separable_conv_1_normal_right2_0", 0, 0, {}]]], "name": "separable_conv_1_bn_normal_right2_0"}, {"class_name": "BatchNormalization", "config": {"beta_regularizer": null, "center": true, "trainable": true, "gamma_constraint": null, "axis": -1, "gamma_initializer": {"class_name": "Ones", "config": {}}, "moving_variance_initializer": {"class_name": "Ones", "config": {}}, "moving_mean_initializer": {"class_name": "Zeros", "config": {}}, "epsilon": 1e-05, "gamma_regularizer": null, "scale": true, "beta_constraint": null, "beta_initializer": {"class_name": "Zeros", "config": {}}, "momentum": 0.9, "name": "separable_conv_1_bn_normal_left5_0"}, "inbound_nodes": [[["separable_conv_1_normal_left5_0", 0, 0, {}]]], "name": "separable_conv_1_bn_normal_left5_0"}, {"class_name": "Activation", "config": {"activation": "relu", "trainable": true, "name": "activation_132"}, "inbound_nodes": [[["separable_conv_1_bn_normal_left1_0", 0, 0, {}]]], "name": "activation_132"}, {"class_name": "Activation", "config": {"activation": "relu", "trainable": true, "name": "activation_134"}, "inbound_nodes": [[["separable_conv_1_bn_normal_right1_0", 0, 0, {}]]], "name": "activation_134"}, {"class_name": "Activation", "config": {"activation": "relu", "trainable": true, "name": "activation_136"}, "inbound_nodes": [[["separable_conv_1_bn_normal_left2_0", 0, 0, {}]]], "name": "activation_136"}, {"class_name": "Activation", "config": {"activation": "relu", "trainable": true, "name": "activation_138"}, "inbound_nodes": [[["separable_conv_1_bn_normal_right2_0", 0, 0, {}]]], "name": "activation_138"}, {"class_name": "Activation", "config": {"activation": "relu", "trainable": true, "name": "activation_140"}, "inbound_nodes": [[["separable_conv_1_bn_normal_left5_0", 0, 0, {}]]], "name": "activation_140"}, {"class_name": "SeparableConv2D", "config": {"kernel_size": [5, 5], "dilation_rate": [1, 1], "filters": 32, "bias_initializer": {"class_name": "Zeros", "config": {}}, "depthwise_regularizer": null, "strides": [1, 1], "data_format": "channels_last", "trainable": true, "bias_constraint": null, "name": "separable_conv_2_normal_left1_0", "depth_multiplier": 1, "pointwise_initializer": {"class_name": "VarianceScaling", "config": {"scale": 1.0, "mode": "fan_avg", "distribution": "uniform", "seed": null}}, "padding": "same", "pointwise_regularizer": null, "bias_regularizer": null, "depthwise_constraint": null, "activation": "linear", "use_bias": false, "pointwise_constraint": null, "depthwise_initializer": {"class_name": "VarianceScaling", "config": {"scale": 1.0, "mode": "fan_avg", "distribution": "uniform", "seed": null}}, "activity_regularizer": null}, "inbound_nodes": [[["activation_132", 0, 0, {}]]], "name": "separable_conv_2_normal_left1_0"}, {"class_name": "SeparableConv2D", "config": {"kernel_size": [3, 3], "dilation_rate": [1, 1], "filters": 32, "bias_initializer": {"class_name": "Zeros", "config": {}}, "depthwise_regularizer": null, "strides": [1, 1], "data_format": "channels_last", "trainable": true, "bias_constraint": null, "name": "separable_conv_2_normal_right1_0", "depth_multiplier": 1, "pointwise_initializer": {"class_name": "VarianceScaling", "config": {"scale": 1.0, "mode": "fan_avg", "distribution": "uniform", "seed": null}}, "padding": "same", "pointwise_regularizer": null, "bias_regularizer": null, "depthwise_constraint": null, "activation": "linear", "use_bias": false, "pointwise_constraint": null, "depthwise_initializer": {"class_name": "VarianceScaling", "config": {"scale": 1.0, "mode": "fan_avg", "distribution": "uniform", "seed": null}}, "activity_regularizer": null}, "inbound_nodes": [[["activation_134", 0, 0, {}]]], "name": "separable_conv_2_normal_right1_0"}, {"class_name": "SeparableConv2D", "config": {"kernel_size": [5, 5], "dilation_rate": [1, 1], "filters": 32, "bias_initializer": {"class_name": "Zeros", "config": {}}, "depthwise_regularizer": null, "strides": [1, 1], "data_format": "channels_last", "trainable": true, "bias_constraint": null, "name": "separable_conv_2_normal_left2_0", "depth_multiplier": 1, "pointwise_initializer": {"class_name": "VarianceScaling", "config": {"scale": 1.0, "mode": "fan_avg", "distribution": "uniform", "seed": null}}, "padding": "same", "pointwise_regularizer": null, "bias_regularizer": null, "depthwise_constraint": null, "activation": "linear", "use_bias": false, "pointwise_constraint": null, "depthwise_initializer": {"class_name": "VarianceScaling", "config": {"scale": 1.0, "mode": "fan_avg", "distribution": "uniform", "seed": null}}, "activity_regularizer": null}, "inbound_nodes": [[["activation_136", 0, 0, {}]]], "name": "separable_conv_2_normal_left2_0"}, {"class_name": "SeparableConv2D", "config": {"kernel_size": [3, 3], "dilation_rate": [1, 1], "filters": 32, "bias_initializer": {"class_name": "Zeros", "config": {}}, "depthwise_regularizer": null, "strides": [1, 1], "data_format": "channels_last", "trainable": true, "bias_constraint": null, "name": "separable_conv_2_normal_right2_0", "depth_multiplier": 1, "pointwise_initializer": {"class_name": "VarianceScaling", "config": {"scale": 1.0, "mode": "fan_avg", "distribution": "uniform", "seed": null}}, "padding": "same", "pointwise_regularizer": null, "bias_regularizer": null, "depthwise_constraint": null, "activation": "linear", "use_bias": false, "pointwise_constraint": null, "depthwise_initializer": {"class_name": "VarianceScaling", "config": {"scale": 1.0, "mode": "fan_avg", "distribution": "uniform", "seed": null}}, "activity_regularizer": null}, "inbound_nodes": [[["activation_138", 0, 0, {}]]], "name": "separable_conv_2_normal_right2_0"}, {"class_name": "SeparableConv2D", "config": {"kernel_size": [3, 3], "dilation_rate": [1, 1], "filters": 32, "bias_initializer": {"class_name": "Zeros", "config": {}}, "depthwise_regularizer": null, "strides": [1, 1], "data_format": "channels_last", "trainable": true, "bias_constraint": null, "name": "separable_conv_2_normal_left5_0", "depth_multiplier": 1, "pointwise_initializer": {"class_name": "VarianceScaling", "config": {"scale": 1.0, "mode": "fan_avg", "distribution": "uniform", "seed": null}}, "padding": "same", "pointwise_regularizer": null, "bias_regularizer": null, "depthwise_constraint": null, "activation": "linear", "use_bias": false, "pointwise_constraint": null, "depthwise_initializer": {"class_name": "VarianceScaling", "config": {"scale": 1.0, "mode": "fan_avg", "distribution": "uniform", "seed": null}}, "activity_regularizer": null}, "inbound_nodes": [[["activation_140", 0, 0, {}]]], "name": "separable_conv_2_normal_left5_0"}, {"class_name": "BatchNormalization", "config": {"beta_regularizer": null, "center": true, "trainable": true, "gamma_constraint": null, "axis": -1, "gamma_initializer": {"class_name": "Ones", "config": {}}, "moving_variance_initializer": {"class_name": "Ones", "config": {}}, "moving_mean_initializer": {"class_name": "Zeros", "config": {}}, "epsilon": 1e-05, "gamma_regularizer": null, "scale": true, "beta_constraint": null, "beta_initializer": {"class_name": "Zeros", "config": {}}, "momentum": 0.9, "name": "separable_conv_2_bn_normal_left1_0"}, "inbound_nodes": [[["separable_conv_2_normal_left1_0", 0, 0, {}]]], "name": "separable_conv_2_bn_normal_left1_0"}, {"class_name": "BatchNormalization", "config": {"beta_regularizer": null, "center": true, "trainable": true, "gamma_constraint": null, "axis": -1, "gamma_initializer": {"class_name": "Ones", "config": {}}, "moving_variance_initializer": {"class_name": "Ones", "config": {}}, "moving_mean_initializer": {"class_name": "Zeros", "config": {}}, "epsilon": 1e-05, "gamma_regularizer": null, "scale": true, "beta_constraint": null, "beta_initializer": {"class_name": "Zeros", "config": {}}, "momentum": 0.9, "name": "separable_conv_2_bn_normal_right1_0"}, "inbound_nodes": [[["separable_conv_2_normal_right1_0", 0, 0, {}]]], "name": "separable_conv_2_bn_normal_right1_0"}, {"class_name": "BatchNormalization", "config": {"beta_regularizer": null, "center": true, "trainable": true, "gamma_constraint": null, "axis": -1, "gamma_initializer": {"class_name": "Ones", "config": {}}, "moving_variance_initializer": {"class_name": "Ones", "config": {}}, "moving_mean_initializer": {"class_name": "Zeros", "config": {}}, "epsilon": 1e-05, "gamma_regularizer": null, "scale": true, "beta_constraint": null, "beta_initializer": {"class_name": "Zeros", "config": {}}, "momentum": 0.9, "name": "separable_conv_2_bn_normal_left2_0"}, "inbound_nodes": [[["separable_conv_2_normal_left2_0", 0, 0, {}]]], "name": "separable_conv_2_bn_normal_left2_0"}, {"class_name": "BatchNormalization", "config": {"beta_regularizer": null, "center": true, "trainable": true, "gamma_constraint": null, "axis": -1, "gamma_initializer": {"class_name": "Ones", "config": {}}, "moving_variance_initializer": {"class_name": "Ones", "config": {}}, "moving_mean_initializer": {"class_name": "Zeros", "config": {}}, "epsilon": 1e-05, "gamma_regularizer": null, "scale": true, "beta_constraint": null, "beta_initializer": {"class_name": "Zeros", "config": {}}, "momentum": 0.9, "name": "separable_conv_2_bn_normal_right2_0"}, "inbound_nodes": [[["separable_conv_2_normal_right2_0", 0, 0, {}]]], "name": "separable_conv_2_bn_normal_right2_0"}, {"class_name": "AveragePooling2D", "config": {"padding": "same", "data_format": "channels_last", "pool_size": [3, 3], "trainable": true, "strides": [1, 1], "name": "normal_left3_0"}, "inbound_nodes": [[["normal_bn_1_0", 0, 0, {}]]], "name": "normal_left3_0"}, {"class_name": "AveragePooling2D", "config": {"padding": "same", "data_format": "channels_last", "pool_size": [3, 3], "trainable": true, "strides": [1, 1], "name": "normal_left4_0"}, "inbound_nodes": [[["stem_bn1", 0, 0, {}]]], "name": "normal_left4_0"}, {"class_name": "AveragePooling2D", "config": {"padding": "same", "data_format": "channels_last", "pool_size": [3, 3], "trainable": true, "strides": [1, 1], "name": "normal_right4_0"}, "inbound_nodes": [[["stem_bn1", 0, 0, {}]]], "name": "normal_right4_0"}, {"class_name": "BatchNormalization", "config": {"beta_regularizer": null, "center": true, "trainable": true, "gamma_constraint": null, "axis": -1, "gamma_initializer": {"class_name": "Ones", "config": {}}, "moving_variance_initializer": {"class_name": "Ones", "config": {}}, "moving_mean_initializer": {"class_name": "Zeros", "config": {}}, "epsilon": 1e-05, "gamma_regularizer": null, "scale": true, "beta_constraint": null, "beta_initializer": {"class_name": "Zeros", "config": {}}, "momentum": 0.9, "name": "separable_conv_2_bn_normal_left5_0"}, "inbound_nodes": [[["separable_conv_2_normal_left5_0", 0, 0, {}]]], "name": "separable_conv_2_bn_normal_left5_0"}, {"class_name": "Add", "config": {"trainable": true, "name": "normal_add_1_0"}, "inbound_nodes": [[["separable_conv_2_bn_normal_left1_0", 0, 0, {}], ["separable_conv_2_bn_normal_right1_0", 0, 0, {}]]], "name": "normal_add_1_0"}, {"class_name": "Add", "config": {"trainable": true, "name": "normal_add_2_0"}, "inbound_nodes": [[["separable_conv_2_bn_normal_left2_0", 0, 0, {}], ["separable_conv_2_bn_normal_right2_0", 0, 0, {}]]], "name": "normal_add_2_0"}, {"class_name": "Add", "config": {"trainable": true, "name": "normal_add_3_0"}, "inbound_nodes": [[["normal_left3_0", 0, 0, {}], ["stem_bn1", 0, 0, {}]]], "name": "normal_add_3_0"}, {"class_name": "Add", "config": {"trainable": true, "name": "normal_add_4_0"}, "inbound_nodes": [[["normal_left4_0", 0, 0, {}], ["normal_right4_0", 0, 0, {}]]], "name": "normal_add_4_0"}, {"class_name": "Add", "config": {"trainable": true, "name": "normal_add_5_0"}, "inbound_nodes": [[["separable_conv_2_bn_normal_left5_0", 0, 0, {}], ["normal_bn_1_0", 0, 0, {}]]], "name": "normal_add_5_0"}, {"class_name": "Concatenate", "config": {"axis": -1, "trainable": true, "name": "normal_concat_0"}, "inbound_nodes": [[["stem_bn1", 0, 0, {}], ["normal_add_1_0", 0, 0, {}], ["normal_add_2_0", 0, 0, {}], ["normal_add_3_0", 0, 0, {}], ["normal_add_4_0", 0, 0, {}], ["normal_add_5_0", 0, 0, {}]]], "name": "normal_concat_0"}, {"class_name": "Activation", "config": {"activation": "relu", "trainable": true, "name": "activation_141"}, "inbound_nodes": [[["normal_concat_0", 0, 0, {}]]], "name": "activation_141"}, {"class_name": "Conv2D", "config": {"kernel_size": [1, 1], "dilation_rate": [1, 1], "filters": 32, "padding": "same", "bias_initializer": {"class_name": "Zeros", "config": {}}, "name": "normal_conv_1_1", "strides": [1, 1], "kernel_initializer": {"class_name": "VarianceScaling", "config": {"scale": 2.0, "mode": "fan_in", "distribution": "normal", "seed": null}}, "trainable": true, "bias_constraint": null, "data_format": "channels_last", "activation": "linear", "use_bias": false, "kernel_regularizer": {"class_name": "L1L2", "config": {"l1": 0.0, "l2": 0.0005000000237487257}}, "kernel_constraint": null, "bias_regularizer": null, "activity_regularizer": null}, "inbound_nodes": [[["activation_141", 0, 0, {}]]], "name": "normal_conv_1_1"}, {"class_name": "BatchNormalization", "config": {"beta_regularizer": null, "center": true, "trainable": true, "gamma_constraint": null, "axis": -1, "gamma_initializer": {"class_name": "Ones", "config": {}}, "moving_variance_initializer": {"class_name": "Ones", "config": {}}, "moving_mean_initializer": {"class_name": "Zeros", "config": {}}, "epsilon": 1e-05, "gamma_regularizer": null, "scale": true, "beta_constraint": null, "beta_initializer": {"class_name": "Zeros", "config": {}}, "momentum": 0.9, "name": "normal_bn_1_1"}, "inbound_nodes": [[["normal_conv_1_1", 0, 0, {}]]], "name": "normal_bn_1_1"}, {"class_name": "Activation", "config": {"activation": "relu", "trainable": true, "name": "activation_142"}, "inbound_nodes": [[["normal_bn_1_1", 0, 0, {}]]], "name": "activation_142"}, {"class_name": "Activation", "config": {"activation": "relu", "trainable": true, "name": "activation_144"}, "inbound_nodes": [[["stem_bn1", 0, 0, {}]]], "name": "activation_144"}, {"class_name": "Activation", "config": {"activation": "relu", "trainable": true, "name": "activation_146"}, "inbound_nodes": [[["stem_bn1", 0, 0, {}]]], "name": "activation_146"}, {"class_name": "Activation", "config": {"activation": "relu", "trainable": true, "name": "activation_148"}, "inbound_nodes": [[["stem_bn1", 0, 0, {}]]], "name": "activation_148"}, {"class_name": "Activation", "config": {"activation": "relu", "trainable": true, "name": "activation_150"}, "inbound_nodes": [[["normal_bn_1_1", 0, 0, {}]]], "name": "activation_150"}, {"class_name": "SeparableConv2D", "config": {"kernel_size": [5, 5], "dilation_rate": [1, 1], "filters": 32, "bias_initializer": {"class_name": "Zeros", "config": {}}, "depthwise_regularizer": null, "strides": [1, 1], "data_format": "channels_last", "trainable": true, "bias_constraint": null, "name": "separable_conv_1_normal_left1_1", "depth_multiplier": 1, "pointwise_initializer": {"class_name": "VarianceScaling", "config": {"scale": 1.0, "mode": "fan_avg", "distribution": "uniform", "seed": null}}, "padding": "same", "pointwise_regularizer": null, "bias_regularizer": null, "depthwise_constraint": null, "activation": "linear", "use_bias": false, "pointwise_constraint": null, "depthwise_initializer": {"class_name": "VarianceScaling", "config": {"scale": 1.0, "mode": "fan_avg", "distribution": "uniform", "seed": null}}, "activity_regularizer": null}, "inbound_nodes": [[["activation_142", 0, 0, {}]]], "name": "separable_conv_1_normal_left1_1"}, {"class_name": "SeparableConv2D", "config": {"kernel_size": [3, 3], "dilation_rate": [1, 1], "filters": 32, "bias_initializer": {"class_name": "Zeros", "config": {}}, "depthwise_regularizer": null, "strides": [1, 1], "data_format": "channels_last", "trainable": true, "bias_constraint": null, "name": "separable_conv_1_normal_right1_1", "depth_multiplier": 1, "pointwise_initializer": {"class_name": "VarianceScaling", "config": {"scale": 1.0, "mode": "fan_avg", "distribution": "uniform", "seed": null}}, "padding": "same", "pointwise_regularizer": null, "bias_regularizer": null, "depthwise_constraint": null, "activation": "linear", "use_bias": false, "pointwise_constraint": null, "depthwise_initializer": {"class_name": "VarianceScaling", "config": {"scale": 1.0, "mode": "fan_avg", "distribution": "uniform", "seed": null}}, "activity_regularizer": null}, "inbound_nodes": [[["activation_144", 0, 0, {}]]], "name": "separable_conv_1_normal_right1_1"}, {"class_name": "SeparableConv2D", "config": {"kernel_size": [5, 5], "dilation_rate": [1, 1], "filters": 32, "bias_initializer": {"class_name": "Zeros", "config": {}}, "depthwise_regularizer": null, "strides": [1, 1], "data_format": "channels_last", "trainable": true, "bias_constraint": null, "name": "separable_conv_1_normal_left2_1", "depth_multiplier": 1, "pointwise_initializer": {"class_name": "VarianceScaling", "config": {"scale": 1.0, "mode": "fan_avg", "distribution": "uniform", "seed": null}}, "padding": "same", "pointwise_regularizer": null, "bias_regularizer": null, "depthwise_constraint": null, "activation": "linear", "use_bias": false, "pointwise_constraint": null, "depthwise_initializer": {"class_name": "VarianceScaling", "config": {"scale": 1.0, "mode": "fan_avg", "distribution": "uniform", "seed": null}}, "activity_regularizer": null}, "inbound_nodes": [[["activation_146", 0, 0, {}]]], "name": "separable_conv_1_normal_left2_1"}, {"class_name": "SeparableConv2D", "config": {"kernel_size": [3, 3], "dilation_rate": [1, 1], "filters": 32, "bias_initializer": {"class_name": "Zeros", "config": {}}, "depthwise_regularizer": null, "strides": [1, 1], "data_format": "channels_last", "trainable": true, "bias_constraint": null, "name": "separable_conv_1_normal_right2_1", "depth_multiplier": 1, "pointwise_initializer": {"class_name": "VarianceScaling", "config": {"scale": 1.0, "mode": "fan_avg", "distribution": "uniform", "seed": null}}, "padding": "same", "pointwise_regularizer": null, "bias_regularizer": null, "depthwise_constraint": null, "activation": "linear", "use_bias": false, "pointwise_constraint": null, "depthwise_initializer": {"class_name": "VarianceScaling", "config": {"scale": 1.0, "mode": "fan_avg", "distribution": "uniform", "seed": null}}, "activity_regularizer": null}, "inbound_nodes": [[["activation_148", 0, 0, {}]]], "name": "separable_conv_1_normal_right2_1"}, {"class_name": "SeparableConv2D", "config": {"kernel_size": [3, 3], "dilation_rate": [1, 1], "filters": 32, "bias_initializer": {"class_name": "Zeros", "config": {}}, "depthwise_regularizer": null, "strides": [1, 1], "data_format": "channels_last", "trainable": true, "bias_constraint": null, "name": "separable_conv_1_normal_left5_1", "depth_multiplier": 1, "pointwise_initializer": {"class_name": "VarianceScaling", "config": {"scale": 1.0, "mode": "fan_avg", "distribution": "uniform", "seed": null}}, "padding": "same", "pointwise_regularizer": null, "bias_regularizer": null, "depthwise_constraint": null, "activation": "linear", "use_bias": false, "pointwise_constraint": null, "depthwise_initializer": {"class_name": "VarianceScaling", "config": {"scale": 1.0, "mode": "fan_avg", "distribution": "uniform", "seed": null}}, "activity_regularizer": null}, "inbound_nodes": [[["activation_150", 0, 0, {}]]], "name": "separable_conv_1_normal_left5_1"}, {"class_name": "BatchNormalization", "config": {"beta_regularizer": null, "center": true, "trainable": true, "gamma_constraint": null, "axis": -1, "gamma_initializer": {"class_name": "Ones", "config": {}}, "moving_variance_initializer": {"class_name": "Ones", "config": {}}, "moving_mean_initializer": {"class_name": "Zeros", "config": {}}, "epsilon": 1e-05, "gamma_regularizer": null, "scale": true, "beta_constraint": null, "beta_initializer": {"class_name": "Zeros", "config": {}}, "momentum": 0.9, "name": "separable_conv_1_bn_normal_left1_1"}, "inbound_nodes": [[["separable_conv_1_normal_left1_1", 0, 0, {}]]], "name": "separable_conv_1_bn_normal_left1_1"}, {"class_name": "BatchNormalization", "config": {"beta_regularizer": null, "center": true, "trainable": true, "gamma_constraint": null, "axis": -1, "gamma_initializer": {"class_name": "Ones", "config": {}}, "moving_variance_initializer": {"class_name": "Ones", "config": {}}, "moving_mean_initializer": {"class_name": "Zeros", "config": {}}, "epsilon": 1e-05, "gamma_regularizer": null, "scale": true, "beta_constraint": null, "beta_initializer": {"class_name": "Zeros", "config": {}}, "momentum": 0.9, "name": "separable_conv_1_bn_normal_right1_1"}, "inbound_nodes": [[["separable_conv_1_normal_right1_1", 0, 0, {}]]], "name": "separable_conv_1_bn_normal_right1_1"}, {"class_name": "BatchNormalization", "config": {"beta_regularizer": null, "center": true, "trainable": true, "gamma_constraint": null, "axis": -1, "gamma_initializer": {"class_name": "Ones", "config": {}}, "moving_variance_initializer": {"class_name": "Ones", "config": {}}, "moving_mean_initializer": {"class_name": "Zeros", "config": {}}, "epsilon": 1e-05, "gamma_regularizer": null, "scale": true, "beta_constraint": null, "beta_initializer": {"class_name": "Zeros", "config": {}}, "momentum": 0.9, "name": "separable_conv_1_bn_normal_left2_1"}, "inbound_nodes": [[["separable_conv_1_normal_left2_1", 0, 0, {}]]], "name": "separable_conv_1_bn_normal_left2_1"}, {"class_name": "BatchNormalization", "config": {"beta_regularizer": null, "center": true, "trainable": true, "gamma_constraint": null, "axis": -1, "gamma_initializer": {"class_name": "Ones", "config": {}}, "moving_variance_initializer": {"class_name": "Ones", "config": {}}, "moving_mean_initializer": {"class_name": "Zeros", "config": {}}, "epsilon": 1e-05, "gamma_regularizer": null, "scale": true, "beta_constraint": null, "beta_initializer": {"class_name": "Zeros", "config": {}}, "momentum": 0.9, "name": "separable_conv_1_bn_normal_right2_1"}, "inbound_nodes": [[["separable_conv_1_normal_right2_1", 0, 0, {}]]], "name": "separable_conv_1_bn_normal_right2_1"}, {"class_name": "BatchNormalization", "config": {"beta_regularizer": null, "center": true, "trainable": true, "gamma_constraint": null, "axis": -1, "gamma_initializer": {"class_name": "Ones", "config": {}}, "moving_variance_initializer": {"class_name": "Ones", "config": {}}, "moving_mean_initializer": {"class_name": "Zeros", "config": {}}, "epsilon": 1e-05, "gamma_regularizer": null, "scale": true, "beta_constraint": null, "beta_initializer": {"class_name": "Zeros", "config": {}}, "momentum": 0.9, "name": "separable_conv_1_bn_normal_left5_1"}, "inbound_nodes": [[["separable_conv_1_normal_left5_1", 0, 0, {}]]], "name": "separable_conv_1_bn_normal_left5_1"}, {"class_name": "Activation", "config": {"activation": "relu", "trainable": true, "name": "activation_143"}, "inbound_nodes": [[["separable_conv_1_bn_normal_left1_1", 0, 0, {}]]], "name": "activation_143"}, {"class_name": "Activation", "config": {"activation": "relu", "trainable": true, "name": "activation_145"}, "inbound_nodes": [[["separable_conv_1_bn_normal_right1_1", 0, 0, {}]]], "name": "activation_145"}, {"class_name": "Activation", "config": {"activation": "relu", "trainable": true, "name": "activation_147"}, "inbound_nodes": [[["separable_conv_1_bn_normal_left2_1", 0, 0, {}]]], "name": "activation_147"}, {"class_name": "Activation", "config": {"activation": "relu", "trainable": true, "name": "activation_149"}, "inbound_nodes": [[["separable_conv_1_bn_normal_right2_1", 0, 0, {}]]], "name": "activation_149"}, {"class_name": "Activation", "config": {"activation": "relu", "trainable": true, "name": "activation_151"}, "inbound_nodes": [[["separable_conv_1_bn_normal_left5_1", 0, 0, {}]]], "name": "activation_151"}, {"class_name": "SeparableConv2D", "config": {"kernel_size": [5, 5], "dilation_rate": [1, 1], "filters": 32, "bias_initializer": {"class_name": "Zeros", "config": {}}, "depthwise_regularizer": null, "strides": [1, 1], "data_format": "channels_last", "trainable": true, "bias_constraint": null, "name": "separable_conv_2_normal_left1_1", "depth_multiplier": 1, "pointwise_initializer": {"class_name": "VarianceScaling", "config": {"scale": 1.0, "mode": "fan_avg", "distribution": "uniform", "seed": null}}, "padding": "same", "pointwise_regularizer": null, "bias_regularizer": null, "depthwise_constraint": null, "activation": "linear", "use_bias": false, "pointwise_constraint": null, "depthwise_initializer": {"class_name": "VarianceScaling", "config": {"scale": 1.0, "mode": "fan_avg", "distribution": "uniform", "seed": null}}, "activity_regularizer": null}, "inbound_nodes": [[["activation_143", 0, 0, {}]]], "name": "separable_conv_2_normal_left1_1"}, {"class_name": "SeparableConv2D", "config": {"kernel_size": [3, 3], "dilation_rate": [1, 1], "filters": 32, "bias_initializer": {"class_name": "Zeros", "config": {}}, "depthwise_regularizer": null, "strides": [1, 1], "data_format": "channels_last", "trainable": true, "bias_constraint": null, "name": "separable_conv_2_normal_right1_1", "depth_multiplier": 1, "pointwise_initializer": {"class_name": "VarianceScaling", "config": {"scale": 1.0, "mode": "fan_avg", "distribution": "uniform", "seed": null}}, "padding": "same", "pointwise_regularizer": null, "bias_regularizer": null, "depthwise_constraint": null, "activation": "linear", "use_bias": false, "pointwise_constraint": null, "depthwise_initializer": {"class_name": "VarianceScaling", "config": {"scale": 1.0, "mode": "fan_avg", "distribution": "uniform", "seed": null}}, "activity_regularizer": null}, "inbound_nodes": [[["activation_145", 0, 0, {}]]], "name": "separable_conv_2_normal_right1_1"}, {"class_name": "SeparableConv2D", "config": {"kernel_size": [5, 5], "dilation_rate": [1, 1], "filters": 32, "bias_initializer": {"class_name": "Zeros", "config": {}}, "depthwise_regularizer": null, "strides": [1, 1], "data_format": "channels_last", "trainable": true, "bias_constraint": null, "name": "separable_conv_2_normal_left2_1", "depth_multiplier": 1, "pointwise_initializer": {"class_name": "VarianceScaling", "config": {"scale": 1.0, "mode": "fan_avg", "distribution": "uniform", "seed": null}}, "padding": "same", "pointwise_regularizer": null, "bias_regularizer": null, "depthwise_constraint": null, "activation": "linear", "use_bias": false, "pointwise_constraint": null, "depthwise_initializer": {"class_name": "VarianceScaling", "config": {"scale": 1.0, "mode": "fan_avg", "distribution": "uniform", "seed": null}}, "activity_regularizer": null}, "inbound_nodes": [[["activation_147", 0, 0, {}]]], "name": "separable_conv_2_normal_left2_1"}, {"class_name": "SeparableConv2D", "config": {"kernel_size": [3, 3], "dilation_rate": [1, 1], "filters": 32, "bias_initializer": {"class_name": "Zeros", "config": {}}, "depthwise_regularizer": null, "strides": [1, 1], "data_format": "channels_last", "trainable": true, "bias_constraint": null, "name": "separable_conv_2_normal_right2_1", "depth_multiplier": 1, "pointwise_initializer": {"class_name": "VarianceScaling", "config": {"scale": 1.0, "mode": "fan_avg", "distribution": "uniform", "seed": null}}, "padding": "same", "pointwise_regularizer": null, "bias_regularizer": null, "depthwise_constraint": null, "activation": "linear", "use_bias": false, "pointwise_constraint": null, "depthwise_initializer": {"class_name": "VarianceScaling", "config": {"scale": 1.0, "mode": "fan_avg", "distribution": "uniform", "seed": null}}, "activity_regularizer": null}, "inbound_nodes": [[["activation_149", 0, 0, {}]]], "name": "separable_conv_2_normal_right2_1"}, {"class_name": "SeparableConv2D", "config": {"kernel_size": [3, 3], "dilation_rate": [1, 1], "filters": 32, "bias_initializer": {"class_name": "Zeros", "config": {}}, "depthwise_regularizer": null, "strides": [1, 1], "data_format": "channels_last", "trainable": true, "bias_constraint": null, "name": "separable_conv_2_normal_left5_1", "depth_multiplier": 1, "pointwise_initializer": {"class_name": "VarianceScaling", "config": {"scale": 1.0, "mode": "fan_avg", "distribution": "uniform", "seed": null}}, "padding": "same", "pointwise_regularizer": null, "bias_regularizer": null, "depthwise_constraint": null, "activation": "linear", "use_bias": false, "pointwise_constraint": null, "depthwise_initializer": {"class_name": "VarianceScaling", "config": {"scale": 1.0, "mode": "fan_avg", "distribution": "uniform", "seed": null}}, "activity_regularizer": null}, "inbound_nodes": [[["activation_151", 0, 0, {}]]], "name": "separable_conv_2_normal_left5_1"}, {"class_name": "BatchNormalization", "config": {"beta_regularizer": null, "center": true, "trainable": true, "gamma_constraint": null, "axis": -1, "gamma_initializer": {"class_name": "Ones", "config": {}}, "moving_variance_initializer": {"class_name": "Ones", "config": {}}, "moving_mean_initializer": {"class_name": "Zeros", "config": {}}, "epsilon": 1e-05, "gamma_regularizer": null, "scale": true, "beta_constraint": null, "beta_initializer": {"class_name": "Zeros", "config": {}}, "momentum": 0.9, "name": "separable_conv_2_bn_normal_left1_1"}, "inbound_nodes": [[["separable_conv_2_normal_left1_1", 0, 0, {}]]], "name": "separable_conv_2_bn_normal_left1_1"}, {"class_name": "BatchNormalization", "config": {"beta_regularizer": null, "center": true, "trainable": true, "gamma_constraint": null, "axis": -1, "gamma_initializer": {"class_name": "Ones", "config": {}}, "moving_variance_initializer": {"class_name": "Ones", "config": {}}, "moving_mean_initializer": {"class_name": "Zeros", "config": {}}, "epsilon": 1e-05, "gamma_regularizer": null, "scale": true, "beta_constraint": null, "beta_initializer": {"class_name": "Zeros", "config": {}}, "momentum": 0.9, "name": "separable_conv_2_bn_normal_right1_1"}, "inbound_nodes": [[["separable_conv_2_normal_right1_1", 0, 0, {}]]], "name": "separable_conv_2_bn_normal_right1_1"}, {"class_name": "BatchNormalization", "config": {"beta_regularizer": null, "center": true, "trainable": true, "gamma_constraint": null, "axis": -1, "gamma_initializer": {"class_name": "Ones", "config": {}}, "moving_variance_initializer": {"class_name": "Ones", "config": {}}, "moving_mean_initializer": {"class_name": "Zeros", "config": {}}, "epsilon": 1e-05, "gamma_regularizer": null, "scale": true, "beta_constraint": null, "beta_initializer": {"class_name": "Zeros", "config": {}}, "momentum": 0.9, "name": "separable_conv_2_bn_normal_left2_1"}, "inbound_nodes": [[["separable_conv_2_normal_left2_1", 0, 0, {}]]], "name": "separable_conv_2_bn_normal_left2_1"}, {"class_name": "BatchNormalization", "config": {"beta_regularizer": null, "center": true, "trainable": true, "gamma_constraint": null, "axis": -1, "gamma_initializer": {"class_name": "Ones", "config": {}}, "moving_variance_initializer": {"class_name": "Ones", "config": {}}, "moving_mean_initializer": {"class_name": "Zeros", "config": {}}, "epsilon": 1e-05, "gamma_regularizer": null, "scale": true, "beta_constraint": null, "beta_initializer": {"class_name": "Zeros", "config": {}}, "momentum": 0.9, "name": "separable_conv_2_bn_normal_right2_1"}, "inbound_nodes": [[["separable_conv_2_normal_right2_1", 0, 0, {}]]], "name": "separable_conv_2_bn_normal_right2_1"}, {"class_name": "AveragePooling2D", "config": {"padding": "same", "data_format": "channels_last", "pool_size": [3, 3], "trainable": true, "strides": [1, 1], "name": "normal_left3_1"}, "inbound_nodes": [[["normal_bn_1_1", 0, 0, {}]]], "name": "normal_left3_1"}, {"class_name": "AveragePooling2D", "config": {"padding": "same", "data_format": "channels_last", "pool_size": [3, 3], "trainable": true, "strides": [1, 1], "name": "normal_left4_1"}, "inbound_nodes": [[["stem_bn1", 0, 0, {}]]], "name": "normal_left4_1"}, {"class_name": "AveragePooling2D", "config": {"padding": "same", "data_format": "channels_last", "pool_size": [3, 3], "trainable": true, "strides": [1, 1], "name": "normal_right4_1"}, "inbound_nodes": [[["stem_bn1", 0, 0, {}]]], "name": "normal_right4_1"}, {"class_name": "BatchNormalization", "config": {"beta_regularizer": null, "center": true, "trainable": true, "gamma_constraint": null, "axis": -1, "gamma_initializer": {"class_name": "Ones", "config": {}}, "moving_variance_initializer": {"class_name": "Ones", "config": {}}, "moving_mean_initializer": {"class_name": "Zeros", "config": {}}, "epsilon": 1e-05, "gamma_regularizer": null, "scale": true, "beta_constraint": null, "beta_initializer": {"class_name": "Zeros", "config": {}}, "momentum": 0.9, "name": "separable_conv_2_bn_normal_left5_1"}, "inbound_nodes": [[["separable_conv_2_normal_left5_1", 0, 0, {}]]], "name": "separable_conv_2_bn_normal_left5_1"}, {"class_name": "Add", "config": {"trainable": true, "name": "normal_add_1_1"}, "inbound_nodes": [[["separable_conv_2_bn_normal_left1_1", 0, 0, {}], ["separable_conv_2_bn_normal_right1_1", 0, 0, {}]]], "name": "normal_add_1_1"}, {"class_name": "Add", "config": {"trainable": true, "name": "normal_add_2_1"}, "inbound_nodes": [[["separable_conv_2_bn_normal_left2_1", 0, 0, {}], ["separable_conv_2_bn_normal_right2_1", 0, 0, {}]]], "name": "normal_add_2_1"}, {"class_name": "Add", "config": {"trainable": true, "name": "normal_add_3_1"}, "inbound_nodes": [[["normal_left3_1", 0, 0, {}], ["stem_bn1", 0, 0, {}]]], "name": "normal_add_3_1"}, {"class_name": "Add", "config": {"trainable": true, "name": "normal_add_4_1"}, "inbound_nodes": [[["normal_left4_1", 0, 0, {}], ["normal_right4_1", 0, 0, {}]]], "name": "normal_add_4_1"}, {"class_name": "Add", "config": {"trainable": true, "name": "normal_add_5_1"}, "inbound_nodes": [[["separable_conv_2_bn_normal_left5_1", 0, 0, {}], ["normal_bn_1_1", 0, 0, {}]]], "name": "normal_add_5_1"}, {"class_name": "Concatenate", "config": {"axis": -1, "trainable": true, "name": "normal_concat_1"}, "inbound_nodes": [[["stem_bn1", 0, 0, {}], ["normal_add_1_1", 0, 0, {}], ["normal_add_2_1", 0, 0, {}], ["normal_add_3_1", 0, 0, {}], ["normal_add_4_1", 0, 0, {}], ["normal_add_5_1", 0, 0, {}]]], "name": "normal_concat_1"}, {"class_name": "Activation", "config": {"activation": "relu", "trainable": true, "name": "activation_153"}, "inbound_nodes": [[["normal_concat_1", 0, 0, {}]]], "name": "activation_153"}, {"class_name": "Activation", "config": {"activation": "relu", "trainable": true, "name": "activation_152"}, "inbound_nodes": [[["normal_concat_0", 0, 0, {}]]], "name": "activation_152"}, {"class_name": "Conv2D", "config": {"kernel_size": [1, 1], "dilation_rate": [1, 1], "filters": 64, "padding": "same", "bias_initializer": {"class_name": "Zeros", "config": {}}, "name": "reduction_conv_1_reduce_2", "strides": [1, 1], "kernel_initializer": {"class_name": "VarianceScaling", "config": {"scale": 2.0, "mode": "fan_in", "distribution": "normal", "seed": null}}, "trainable": true, "bias_constraint": null, "data_format": "channels_last", "activation": "linear", "use_bias": false, "kernel_regularizer": {"class_name": "L1L2", "config": {"l1": 0.0, "l2": 0.0005000000237487257}}, "kernel_constraint": null, "bias_regularizer": null, "activity_regularizer": null}, "inbound_nodes": [[["activation_153", 0, 0, {}]]], "name": "reduction_conv_1_reduce_2"}, {"class_name": "Conv2D", "config": {"kernel_size": [1, 1], "dilation_rate": [1, 1], "filters": 64, "padding": "same", "bias_initializer": {"class_name": "Zeros", "config": {}}, "name": "adjust_conv_projection_reduce_2", "strides": [1, 1], "kernel_initializer": {"class_name": "VarianceScaling", "config": {"scale": 2.0, "mode": "fan_in", "distribution": "normal", "seed": null}}, "trainable": true, "bias_constraint": null, "data_format": "channels_last", "activation": "linear", "use_bias": false, "kernel_regularizer": {"class_name": "L1L2", "config": {"l1": 0.0, "l2": 0.0005000000237487257}}, "kernel_constraint": null, "bias_regularizer": null, "activity_regularizer": null}, "inbound_nodes": [[["activation_152", 0, 0, {}]]], "name": "adjust_conv_projection_reduce_2"}, {"class_name": "BatchNormalization", "config": {"beta_regularizer": null, "center": true, "trainable": true, "gamma_constraint": null, "axis": -1, "gamma_initializer": {"class_name": "Ones", "config": {}}, "moving_variance_initializer": {"class_name": "Ones", "config": {}}, "moving_mean_initializer": {"class_name": "Zeros", "config": {}}, "epsilon": 1e-05, "gamma_regularizer": null, "scale": true, "beta_constraint": null, "beta_initializer": {"class_name": "Zeros", "config": {}}, "momentum": 0.9, "name": "reduction_bn_1_reduce_2"}, "inbound_nodes": [[["reduction_conv_1_reduce_2", 0, 0, {}]]], "name": "reduction_bn_1_reduce_2"}, {"class_name": "BatchNormalization", "config": {"beta_regularizer": null, "center": true, "trainable": true, "gamma_constraint": null, "axis": -1, "gamma_initializer": {"class_name": "Ones", "config": {}}, "moving_variance_initializer": {"class_name": "Ones", "config": {}}, "moving_mean_initializer": {"class_name": "Zeros", "config": {}}, "epsilon": 1e-05, "gamma_regularizer": null, "scale": true, "beta_constraint": null, "beta_initializer": {"class_name": "Zeros", "config": {}}, "momentum": 0.9, "name": "adjust_bn_reduce_2"}, "inbound_nodes": [[["adjust_conv_projection_reduce_2", 0, 0, {}]]], "name": "adjust_bn_reduce_2"}, {"class_name": "Activation", "config": {"activation": "relu", "trainable": true, "name": "activation_154"}, "inbound_nodes": [[["reduction_bn_1_reduce_2", 0, 0, {}]]], "name": "activation_154"}, {"class_name": "Activation", "config": {"activation": "relu", "trainable": true, "name": "activation_156"}, "inbound_nodes": [[["adjust_bn_reduce_2", 0, 0, {}]]], "name": "activation_156"}, {"class_name": "SeparableConv2D", "config": {"kernel_size": [5, 5], "dilation_rate": [1, 1], "filters": 64, "bias_initializer": {"class_name": "Zeros", "config": {}}, "depthwise_regularizer": null, "strides": [2, 2], "data_format": "channels_last", "trainable": true, "bias_constraint": null, "name": "separable_conv_1_reduction_left1_reduce_2", "depth_multiplier": 1, "pointwise_initializer": {"class_name": "VarianceScaling", "config": {"scale": 1.0, "mode": "fan_avg", "distribution": "uniform", "seed": null}}, "padding": "same", "pointwise_regularizer": null, "bias_regularizer": null, "depthwise_constraint": null, "activation": "linear", "use_bias": false, "pointwise_constraint": null, "depthwise_initializer": {"class_name": "VarianceScaling", "config": {"scale": 1.0, "mode": "fan_avg", "distribution": "uniform", "seed": null}}, "activity_regularizer": null}, "inbound_nodes": [[["activation_154", 0, 0, {}]]], "name": "separable_conv_1_reduction_left1_reduce_2"}, {"class_name": "SeparableConv2D", "config": {"kernel_size": [7, 7], "dilation_rate": [1, 1], "filters": 64, "bias_initializer": {"class_name": "Zeros", "config": {}}, "depthwise_regularizer": null, "strides": [2, 2], "data_format": "channels_last", "trainable": true, "bias_constraint": null, "name": "separable_conv_1_reduction_1_reduce_2", "depth_multiplier": 1, "pointwise_initializer": {"class_name": "VarianceScaling", "config": {"scale": 1.0, "mode": "fan_avg", "distribution": "uniform", "seed": null}}, "padding": "same", "pointwise_regularizer": null, "bias_regularizer": null, "depthwise_constraint": null, "activation": "linear", "use_bias": false, "pointwise_constraint": null, "depthwise_initializer": {"class_name": "VarianceScaling", "config": {"scale": 1.0, "mode": "fan_avg", "distribution": "uniform", "seed": null}}, "activity_regularizer": null}, "inbound_nodes": [[["activation_156", 0, 0, {}]]], "name": "separable_conv_1_reduction_1_reduce_2"}, {"class_name": "BatchNormalization", "config": {"beta_regularizer": null, "center": true, "trainable": true, "gamma_constraint": null, "axis": -1, "gamma_initializer": {"class_name": "Ones", "config": {}}, "moving_variance_initializer": {"class_name": "Ones", "config": {}}, "moving_mean_initializer": {"class_name": "Zeros", "config": {}}, "epsilon": 1e-05, "gamma_regularizer": null, "scale": true, "beta_constraint": null, "beta_initializer": {"class_name": "Zeros", "config": {}}, "momentum": 0.9, "name": "separable_conv_1_bn_reduction_left1_reduce_2"}, "inbound_nodes": [[["separable_conv_1_reduction_left1_reduce_2", 0, 0, {}]]], "name": "separable_conv_1_bn_reduction_left1_reduce_2"}, {"class_name": "BatchNormalization", "config": {"beta_regularizer": null, "center": true, "trainable": true, "gamma_constraint": null, "axis": -1, "gamma_initializer": {"class_name": "Ones", "config": {}}, "moving_variance_initializer": {"class_name": "Ones", "config": {}}, "moving_mean_initializer": {"class_name": "Zeros", "config": {}}, "epsilon": 1e-05, "gamma_regularizer": null, "scale": true, "beta_constraint": null, "beta_initializer": {"class_name": "Zeros", "config": {}}, "momentum": 0.9, "name": "separable_conv_1_bn_reduction_1_reduce_2"}, "inbound_nodes": [[["separable_conv_1_reduction_1_reduce_2", 0, 0, {}]]], "name": "separable_conv_1_bn_reduction_1_reduce_2"}, {"class_name": "Activation", "config": {"activation": "relu", "trainable": true, "name": "activation_155"}, "inbound_nodes": [[["separable_conv_1_bn_reduction_left1_reduce_2", 0, 0, {}]]], "name": "activation_155"}, {"class_name": "Activation", "config": {"activation": "relu", "trainable": true, "name": "activation_157"}, "inbound_nodes": [[["separable_conv_1_bn_reduction_1_reduce_2", 0, 0, {}]]], "name": "activation_157"}, {"class_name": "SeparableConv2D", "config": {"kernel_size": [5, 5], "dilation_rate": [1, 1], "filters": 64, "bias_initializer": {"class_name": "Zeros", "config": {}}, "depthwise_regularizer": null, "strides": [1, 1], "data_format": "channels_last", "trainable": true, "bias_constraint": null, "name": "separable_conv_2_reduction_left1_reduce_2", "depth_multiplier": 1, "pointwise_initializer": {"class_name": "VarianceScaling", "config": {"scale": 1.0, "mode": "fan_avg", "distribution": "uniform", "seed": null}}, "padding": "same", "pointwise_regularizer": null, "bias_regularizer": null, "depthwise_constraint": null, "activation": "linear", "use_bias": false, "pointwise_constraint": null, "depthwise_initializer": {"class_name": "VarianceScaling", "config": {"scale": 1.0, "mode": "fan_avg", "distribution": "uniform", "seed": null}}, "activity_regularizer": null}, "inbound_nodes": [[["activation_155", 0, 0, {}]]], "name": "separable_conv_2_reduction_left1_reduce_2"}, {"class_name": "SeparableConv2D", "config": {"kernel_size": [7, 7], "dilation_rate": [1, 1], "filters": 64, "bias_initializer": {"class_name": "Zeros", "config": {}}, "depthwise_regularizer": null, "strides": [1, 1], "data_format": "channels_last", "trainable": true, "bias_constraint": null, "name": "separable_conv_2_reduction_1_reduce_2", "depth_multiplier": 1, "pointwise_initializer": {"class_name": "VarianceScaling", "config": {"scale": 1.0, "mode": "fan_avg", "distribution": "uniform", "seed": null}}, "padding": "same", "pointwise_regularizer": null, "bias_regularizer": null, "depthwise_constraint": null, "activation": "linear", "use_bias": false, "pointwise_constraint": null, "depthwise_initializer": {"class_name": "VarianceScaling", "config": {"scale": 1.0, "mode": "fan_avg", "distribution": "uniform", "seed": null}}, "activity_regularizer": null}, "inbound_nodes": [[["activation_157", 0, 0, {}]]], "name": "separable_conv_2_reduction_1_reduce_2"}, {"class_name": "BatchNormalization", "config": {"beta_regularizer": null, "center": true, "trainable": true, "gamma_constraint": null, "axis": -1, "gamma_initializer": {"class_name": "Ones", "config": {}}, "moving_variance_initializer": {"class_name": "Ones", "config": {}}, "moving_mean_initializer": {"class_name": "Zeros", "config": {}}, "epsilon": 1e-05, "gamma_regularizer": null, "scale": true, "beta_constraint": null, "beta_initializer": {"class_name": "Zeros", "config": {}}, "momentum": 0.9, "name": "separable_conv_2_bn_reduction_left1_reduce_2"}, "inbound_nodes": [[["separable_conv_2_reduction_left1_reduce_2", 0, 0, {}]]], "name": "separable_conv_2_bn_reduction_left1_reduce_2"}, {"class_name": "BatchNormalization", "config": {"beta_regularizer": null, "center": true, "trainable": true, "gamma_constraint": null, "axis": -1, "gamma_initializer": {"class_name": "Ones", "config": {}}, "moving_variance_initializer": {"class_name": "Ones", "config": {}}, "moving_mean_initializer": {"class_name": "Zeros", "config": {}}, "epsilon": 1e-05, "gamma_regularizer": null, "scale": true, "beta_constraint": null, "beta_initializer": {"class_name": "Zeros", "config": {}}, "momentum": 0.9, "name": "separable_conv_2_bn_reduction_1_reduce_2"}, "inbound_nodes": [[["separable_conv_2_reduction_1_reduce_2", 0, 0, {}]]], "name": "separable_conv_2_bn_reduction_1_reduce_2"}, {"class_name": "Activation", "config": {"activation": "relu", "trainable": true, "name": "activation_158"}, "inbound_nodes": [[["adjust_bn_reduce_2", 0, 0, {}]]], "name": "activation_158"}, {"class_name": "Add", "config": {"trainable": true, "name": "reduction_add_1_reduce_2"}, "inbound_nodes": [[["separable_conv_2_bn_reduction_left1_reduce_2", 0, 0, {}], ["separable_conv_2_bn_reduction_1_reduce_2", 0, 0, {}]]], "name": "reduction_add_1_reduce_2"}, {"class_name": "SeparableConv2D", "config": {"kernel_size": [7, 7], "dilation_rate": [1, 1], "filters": 64, "bias_initializer": {"class_name": "Zeros", "config": {}}, "depthwise_regularizer": null, "strides": [2, 2], "data_format": "channels_last", "trainable": true, "bias_constraint": null, "name": "separable_conv_1_reduction_right2_reduce_2", "depth_multiplier": 1, "pointwise_initializer": {"class_name": "VarianceScaling", "config": {"scale": 1.0, "mode": "fan_avg", "distribution": "uniform", "seed": null}}, "padding": "same", "pointwise_regularizer": null, "bias_regularizer": null, "depthwise_constraint": null, "activation": "linear", "use_bias": false, "pointwise_constraint": null, "depthwise_initializer": {"class_name": "VarianceScaling", "config": {"scale": 1.0, "mode": "fan_avg", "distribution": "uniform", "seed": null}}, "activity_regularizer": null}, "inbound_nodes": [[["activation_158", 0, 0, {}]]], "name": "separable_conv_1_reduction_right2_reduce_2"}, {"class_name": "Activation", "config": {"activation": "relu", "trainable": true, "name": "activation_160"}, "inbound_nodes": [[["adjust_bn_reduce_2", 0, 0, {}]]], "name": "activation_160"}, {"class_name": "Activation", "config": {"activation": "relu", "trainable": true, "name": "activation_162"}, "inbound_nodes": [[["reduction_add_1_reduce_2", 0, 0, {}]]], "name": "activation_162"}, {"class_name": "BatchNormalization", "config": {"beta_regularizer": null, "center": true, "trainable": true, "gamma_constraint": null, "axis": -1, "gamma_initializer": {"class_name": "Ones", "config": {}}, "moving_variance_initializer": {"class_name": "Ones", "config": {}}, "moving_mean_initializer": {"class_name": "Zeros", "config": {}}, "epsilon": 1e-05, "gamma_regularizer": null, "scale": true, "beta_constraint": null, "beta_initializer": {"class_name": "Zeros", "config": {}}, "momentum": 0.9, "name": "separable_conv_1_bn_reduction_right2_reduce_2"}, "inbound_nodes": [[["separable_conv_1_reduction_right2_reduce_2", 0, 0, {}]]], "name": "separable_conv_1_bn_reduction_right2_reduce_2"}, {"class_name": "SeparableConv2D", "config": {"kernel_size": [5, 5], "dilation_rate": [1, 1], "filters": 64, "bias_initializer": {"class_name": "Zeros", "config": {}}, "depthwise_regularizer": null, "strides": [2, 2], "data_format": "channels_last", "trainable": true, "bias_constraint": null, "name": "separable_conv_1_reduction_right3_reduce_2", "depth_multiplier": 1, "pointwise_initializer": {"class_name": "VarianceScaling", "config": {"scale": 1.0, "mode": "fan_avg", "distribution": "uniform", "seed": null}}, "padding": "same", "pointwise_regularizer": null, "bias_regularizer": null, "depthwise_constraint": null, "activation": "linear", "use_bias": false, "pointwise_constraint": null, "depthwise_initializer": {"class_name": "VarianceScaling", "config": {"scale": 1.0, "mode": "fan_avg", "distribution": "uniform", "seed": null}}, "activity_regularizer": null}, "inbound_nodes": [[["activation_160", 0, 0, {}]]], "name": "separable_conv_1_reduction_right3_reduce_2"}, {"class_name": "SeparableConv2D", "config": {"kernel_size": [3, 3], "dilation_rate": [1, 1], "filters": 64, "bias_initializer": {"class_name": "Zeros", "config": {}}, "depthwise_regularizer": null, "strides": [1, 1], "data_format": "channels_last", "trainable": true, "bias_constraint": null, "name": "separable_conv_1_reduction_left4_reduce_2", "depth_multiplier": 1, "pointwise_initializer": {"class_name": "VarianceScaling", "config": {"scale": 1.0, "mode": "fan_avg", "distribution": "uniform", "seed": null}}, "padding": "same", "pointwise_regularizer": null, "bias_regularizer": null, "depthwise_constraint": null, "activation": "linear", "use_bias": false, "pointwise_constraint": null, "depthwise_initializer": {"class_name": "VarianceScaling", "config": {"scale": 1.0, "mode": "fan_avg", "distribution": "uniform", "seed": null}}, "activity_regularizer": null}, "inbound_nodes": [[["activation_162", 0, 0, {}]]], "name": "separable_conv_1_reduction_left4_reduce_2"}, {"class_name": "Activation", "config": {"activation": "relu", "trainable": true, "name": "activation_159"}, "inbound_nodes": [[["separable_conv_1_bn_reduction_right2_reduce_2", 0, 0, {}]]], "name": "activation_159"}, {"class_name": "BatchNormalization", "config": {"beta_regularizer": null, "center": true, "trainable": true, "gamma_constraint": null, "axis": -1, "gamma_initializer": {"class_name": "Ones", "config": {}}, "moving_variance_initializer": {"class_name": "Ones", "config": {}}, "moving_mean_initializer": {"class_name": "Zeros", "config": {}}, "epsilon": 1e-05, "gamma_regularizer": null, "scale": true, "beta_constraint": null, "beta_initializer": {"class_name": "Zeros", "config": {}}, "momentum": 0.9, "name": "separable_conv_1_bn_reduction_right3_reduce_2"}, "inbound_nodes": [[["separable_conv_1_reduction_right3_reduce_2", 0, 0, {}]]], "name": "separable_conv_1_bn_reduction_right3_reduce_2"}, {"class_name": "BatchNormalization", "config": {"beta_regularizer": null, "center": true, "trainable": true, "gamma_constraint": null, "axis": -1, "gamma_initializer": {"class_name": "Ones", "config": {}}, "moving_variance_initializer": {"class_name": "Ones", "config": {}}, "moving_mean_initializer": {"class_name": "Zeros", "config": {}}, "epsilon": 1e-05, "gamma_regularizer": null, "scale": true, "beta_constraint": null, "beta_initializer": {"class_name": "Zeros", "config": {}}, "momentum": 0.9, "name": "separable_conv_1_bn_reduction_left4_reduce_2"}, "inbound_nodes": [[["separable_conv_1_reduction_left4_reduce_2", 0, 0, {}]]], "name": "separable_conv_1_bn_reduction_left4_reduce_2"}, {"class_name": "SeparableConv2D", "config": {"kernel_size": [7, 7], "dilation_rate": [1, 1], "filters": 64, "bias_initializer": {"class_name": "Zeros", "config": {}}, "depthwise_regularizer": null, "strides": [1, 1], "data_format": "channels_last", "trainable": true, "bias_constraint": null, "name": "separable_conv_2_reduction_right2_reduce_2", "depth_multiplier": 1, "pointwise_initializer": {"class_name": "VarianceScaling", "config": {"scale": 1.0, "mode": "fan_avg", "distribution": "uniform", "seed": null}}, "padding": "same", "pointwise_regularizer": null, "bias_regularizer": null, "depthwise_constraint": null, "activation": "linear", "use_bias": false, "pointwise_constraint": null, "depthwise_initializer": {"class_name": "VarianceScaling", "config": {"scale": 1.0, "mode": "fan_avg", "distribution": "uniform", "seed": null}}, "activity_regularizer": null}, "inbound_nodes": [[["activation_159", 0, 0, {}]]], "name": "separable_conv_2_reduction_right2_reduce_2"}, {"class_name": "Activation", "config": {"activation": "relu", "trainable": true, "name": "activation_161"}, "inbound_nodes": [[["separable_conv_1_bn_reduction_right3_reduce_2", 0, 0, {}]]], "name": "activation_161"}, {"class_name": "Activation", "config": {"activation": "relu", "trainable": true, "name": "activation_163"}, "inbound_nodes": [[["separable_conv_1_bn_reduction_left4_reduce_2", 0, 0, {}]]], "name": "activation_163"}, {"class_name": "Activation", "config": {"activation": "relu", "trainable": true, "name": "adjust_relu_1_3"}, "inbound_nodes": [[["normal_concat_1", 0, 0, {}]]], "name": "adjust_relu_1_3"}, {"class_name": "MaxPooling2D", "config": {"padding": "same", "data_format": "channels_last", "pool_size": [3, 3], "trainable": true, "strides": [2, 2], "name": "reduction_left2_reduce_2"}, "inbound_nodes": [[["reduction_bn_1_reduce_2", 0, 0, {}]]], "name": "reduction_left2_reduce_2"}, {"class_name": "BatchNormalization", "config": {"beta_regularizer": null, "center": true, "trainable": true, "gamma_constraint": null, "axis": -1, "gamma_initializer": {"class_name": "Ones", "config": {}}, "moving_variance_initializer": {"class_name": "Ones", "config": {}}, "moving_mean_initializer": {"class_name": "Zeros", "config": {}}, "epsilon": 1e-05, "gamma_regularizer": null, "scale": true, "beta_constraint": null, "beta_initializer": {"class_name": "Zeros", "config": {}}, "momentum": 0.9, "name": "separable_conv_2_bn_reduction_right2_reduce_2"}, "inbound_nodes": [[["separable_conv_2_reduction_right2_reduce_2", 0, 0, {}]]], "name": "separable_conv_2_bn_reduction_right2_reduce_2"}, {"class_name": "SeparableConv2D", "config": {"kernel_size": [5, 5], "dilation_rate": [1, 1], "filters": 64, "bias_initializer": {"class_name": "Zeros", "config": {}}, "depthwise_regularizer": null, "strides": [1, 1], "data_format": "channels_last", "trainable": true, "bias_constraint": null, "name": "separable_conv_2_reduction_right3_reduce_2", "depth_multiplier": 1, "pointwise_initializer": {"class_name": "VarianceScaling", "config": {"scale": 1.0, "mode": "fan_avg", "distribution": "uniform", "seed": null}}, "padding": "same", "pointwise_regularizer": null, "bias_regularizer": null, "depthwise_constraint": null, "activation": "linear", "use_bias": false, "pointwise_constraint": null, "depthwise_initializer": {"class_name": "VarianceScaling", "config": {"scale": 1.0, "mode": "fan_avg", "distribution": "uniform", "seed": null}}, "activity_regularizer": null}, "inbound_nodes": [[["activation_161", 0, 0, {}]]], "name": "separable_conv_2_reduction_right3_reduce_2"}, {"class_name": "SeparableConv2D", "config": {"kernel_size": [3, 3], "dilation_rate": [1, 1], "filters": 64, "bias_initializer": {"class_name": "Zeros", "config": {}}, "depthwise_regularizer": null, "strides": [1, 1], "data_format": "channels_last", "trainable": true, "bias_constraint": null, "name": "separable_conv_2_reduction_left4_reduce_2", "depth_multiplier": 1, "pointwise_initializer": {"class_name": "VarianceScaling", "config": {"scale": 1.0, "mode": "fan_avg", "distribution": "uniform", "seed": null}}, "padding": "same", "pointwise_regularizer": null, "bias_regularizer": null, "depthwise_constraint": null, "activation": "linear", "use_bias": false, "pointwise_constraint": null, "depthwise_initializer": {"class_name": "VarianceScaling", "config": {"scale": 1.0, "mode": "fan_avg", "distribution": "uniform", "seed": null}}, "activity_regularizer": null}, "inbound_nodes": [[["activation_163", 0, 0, {}]]], "name": "separable_conv_2_reduction_left4_reduce_2"}, {"class_name": "ZeroPadding2D", "config": {"name": "zero_padding2d_3", "trainable": true, "padding": [[0, 1], [0, 1]], "data_format": "channels_last"}, "inbound_nodes": [[["adjust_relu_1_3", 0, 0, {}]]], "name": "zero_padding2d_3"}, {"class_name": "Add", "config": {"trainable": true, "name": "reduction_add_2_reduce_2"}, "inbound_nodes": [[["reduction_left2_reduce_2", 0, 0, {}], ["separable_conv_2_bn_reduction_right2_reduce_2", 0, 0, {}]]], "name": "reduction_add_2_reduce_2"}, {"class_name": "AveragePooling2D", "config": {"padding": "same", "data_format": "channels_last", "pool_size": [3, 3], "trainable": true, "strides": [2, 2], "name": "reduction_left3_reduce_2"}, "inbound_nodes": [[["reduction_bn_1_reduce_2", 0, 0, {}]]], "name": "reduction_left3_reduce_2"}, {"class_name": "BatchNormalization", "config": {"beta_regularizer": null, "center": true, "trainable": true, "gamma_constraint": null, "axis": -1, "gamma_initializer": {"class_name": "Ones", "config": {}}, "moving_variance_initializer": {"class_name": "Ones", "config": {}}, "moving_mean_initializer": {"class_name": "Zeros", "config": {}}, "epsilon": 1e-05, "gamma_regularizer": null, "scale": true, "beta_constraint": null, "beta_initializer": {"class_name": "Zeros", "config": {}}, "momentum": 0.9, "name": "separable_conv_2_bn_reduction_right3_reduce_2"}, "inbound_nodes": [[["separable_conv_2_reduction_right3_reduce_2", 0, 0, {}]]], "name": "separable_conv_2_bn_reduction_right3_reduce_2"}, {"class_name": "AveragePooling2D", "config": {"padding": "same", "data_format": "channels_last", "pool_size": [3, 3], "trainable": true, "strides": [1, 1], "name": "reduction_left4_reduce_2"}, "inbound_nodes": [[["reduction_add_1_reduce_2", 0, 0, {}]]], "name": "reduction_left4_reduce_2"}, {"class_name": "BatchNormalization", "config": {"beta_regularizer": null, "center": true, "trainable": true, "gamma_constraint": null, "axis": -1, "gamma_initializer": {"class_name": "Ones", "config": {}}, "moving_variance_initializer": {"class_name": "Ones", "config": {}}, "moving_mean_initializer": {"class_name": "Zeros", "config": {}}, "epsilon": 1e-05, "gamma_regularizer": null, "scale": true, "beta_constraint": null, "beta_initializer": {"class_name": "Zeros", "config": {}}, "momentum": 0.9, "name": "separable_conv_2_bn_reduction_left4_reduce_2"}, "inbound_nodes": [[["separable_conv_2_reduction_left4_reduce_2", 0, 0, {}]]], "name": "separable_conv_2_bn_reduction_left4_reduce_2"}, {"class_name": "MaxPooling2D", "config": {"padding": "same", "data_format": "channels_last", "pool_size": [3, 3], "trainable": true, "strides": [2, 2], "name": "reduction_right5_reduce_2"}, "inbound_nodes": [[["reduction_bn_1_reduce_2", 0, 0, {}]]], "name": "reduction_right5_reduce_2"}, {"class_name": "Cropping2D", "config": {"name": "cropping2d_3", "trainable": true, "cropping": [[1, 0], [1, 0]], "data_format": "channels_last"}, "inbound_nodes": [[["zero_padding2d_3", 0, 0, {}]]], "name": "cropping2d_3"}, {"class_name": "Add", "config": {"trainable": true, "name": "reduction_add3_reduce_2"}, "inbound_nodes": [[["reduction_left3_reduce_2", 0, 0, {}], ["separable_conv_2_bn_reduction_right3_reduce_2", 0, 0, {}]]], "name": "reduction_add3_reduce_2"}, {"class_name": "Add", "config": {"trainable": true, "name": "add_3"}, "inbound_nodes": [[["reduction_add_2_reduce_2", 0, 0, {}], ["reduction_left4_reduce_2", 0, 0, {}]]], "name": "add_3"}, {"class_name": "Add", "config": {"trainable": true, "name": "reduction_add4_reduce_2"}, "inbound_nodes": [[["separable_conv_2_bn_reduction_left4_reduce_2", 0, 0, {}], ["reduction_right5_reduce_2", 0, 0, {}]]], "name": "reduction_add4_reduce_2"}, {"class_name": "AveragePooling2D", "config": {"padding": "valid", "data_format": "channels_last", "pool_size": [1, 1], "trainable": true, "strides": [2, 2], "name": "adjust_avg_pool_1_3"}, "inbound_nodes": [[["adjust_relu_1_3", 0, 0, {}]]], "name": "adjust_avg_pool_1_3"}, {"class_name": "AveragePooling2D", "config": {"padding": "valid", "data_format": "channels_last", "pool_size": [1, 1], "trainable": true, "strides": [2, 2], "name": "adjust_avg_pool_2_3"}, "inbound_nodes": [[["cropping2d_3", 0, 0, {}]]], "name": "adjust_avg_pool_2_3"}, {"class_name": "Concatenate", "config": {"axis": -1, "trainable": true, "name": "reduction_concat_reduce_2"}, "inbound_nodes": [[["reduction_add_2_reduce_2", 0, 0, {}], ["reduction_add3_reduce_2", 0, 0, {}], ["add_3", 0, 0, {}], ["reduction_add4_reduce_2", 0, 0, {}]]], "name": "reduction_concat_reduce_2"}, {"class_name": "Conv2D", "config": {"kernel_size": [1, 1], "dilation_rate": [1, 1], "filters": 32, "padding": "same", "bias_initializer": {"class_name": "Zeros", "config": {}}, "name": "adjust_conv_1_3", "strides": [1, 1], "kernel_initializer": {"class_name": "VarianceScaling", "config": {"scale": 2.0, "mode": "fan_in", "distribution": "normal", "seed": null}}, "trainable": true, "bias_constraint": null, "data_format": "channels_last", "activation": "linear", "use_bias": false, "kernel_regularizer": {"class_name": "L1L2", "config": {"l1": 0.0, "l2": 0.0005000000237487257}}, "kernel_constraint": null, "bias_regularizer": null, "activity_regularizer": null}, "inbound_nodes": [[["adjust_avg_pool_1_3", 0, 0, {}]]], "name": "adjust_conv_1_3"}, {"class_name": "Conv2D", "config": {"kernel_size": [1, 1], "dilation_rate": [1, 1], "filters": 32, "padding": "same", "bias_initializer": {"class_name": "Zeros", "config": {}}, "name": "adjust_conv_2_3", "strides": [1, 1], "kernel_initializer": {"class_name": "VarianceScaling", "config": {"scale": 2.0, "mode": "fan_in", "distribution": "normal", "seed": null}}, "trainable": true, "bias_constraint": null, "data_format": "channels_last", "activation": "linear", "use_bias": false, "kernel_regularizer": {"class_name": "L1L2", "config": {"l1": 0.0, "l2": 0.0005000000237487257}}, "kernel_constraint": null, "bias_regularizer": null, "activity_regularizer": null}, "inbound_nodes": [[["adjust_avg_pool_2_3", 0, 0, {}]]], "name": "adjust_conv_2_3"}, {"class_name": "Activation", "config": {"activation": "relu", "trainable": true, "name": "activation_164"}, "inbound_nodes": [[["reduction_concat_reduce_2", 0, 0, {}]]], "name": "activation_164"}, {"class_name": "Concatenate", "config": {"axis": -1, "trainable": true, "name": "concatenate_3"}, "inbound_nodes": [[["adjust_conv_1_3", 0, 0, {}], ["adjust_conv_2_3", 0, 0, {}]]], "name": "concatenate_3"}, {"class_name": "Conv2D", "config": {"kernel_size": [1, 1], "dilation_rate": [1, 1], "filters": 64, "padding": "same", "bias_initializer": {"class_name": "Zeros", "config": {}}, "name": "normal_conv_1_3", "strides": [1, 1], "kernel_initializer": {"class_name": "VarianceScaling", "config": {"scale": 2.0, "mode": "fan_in", "distribution": "normal", "seed": null}}, "trainable": true, "bias_constraint": null, "data_format": "channels_last", "activation": "linear", "use_bias": false, "kernel_regularizer": {"class_name": "L1L2", "config": {"l1": 0.0, "l2": 0.0005000000237487257}}, "kernel_constraint": null, "bias_regularizer": null, "activity_regularizer": null}, "inbound_nodes": [[["activation_164", 0, 0, {}]]], "name": "normal_conv_1_3"}, {"class_name": "BatchNormalization", "config": {"beta_regularizer": null, "center": true, "trainable": true, "gamma_constraint": null, "axis": -1, "gamma_initializer": {"class_name": "Ones", "config": {}}, "moving_variance_initializer": {"class_name": "Ones", "config": {}}, "moving_mean_initializer": {"class_name": "Zeros", "config": {}}, "epsilon": 1e-05, "gamma_regularizer": null, "scale": true, "beta_constraint": null, "beta_initializer": {"class_name": "Zeros", "config": {}}, "momentum": 0.9, "name": "adjust_bn_3"}, "inbound_nodes": [[["concatenate_3", 0, 0, {}]]], "name": "adjust_bn_3"}, {"class_name": "BatchNormalization", "config": {"beta_regularizer": null, "center": true, "trainable": true, "gamma_constraint": null, "axis": -1, "gamma_initializer": {"class_name": "Ones", "config": {}}, "moving_variance_initializer": {"class_name": "Ones", "config": {}}, "moving_mean_initializer": {"class_name": "Zeros", "config": {}}, "epsilon": 1e-05, "gamma_regularizer": null, "scale": true, "beta_constraint": null, "beta_initializer": {"class_name": "Zeros", "config": {}}, "momentum": 0.9, "name": "normal_bn_1_3"}, "inbound_nodes": [[["normal_conv_1_3", 0, 0, {}]]], "name": "normal_bn_1_3"}, {"class_name": "Activation", "config": {"activation": "relu", "trainable": true, "name": "activation_165"}, "inbound_nodes": [[["normal_bn_1_3", 0, 0, {}]]], "name": "activation_165"}, {"class_name": "Activation", "config": {"activation": "relu", "trainable": true, "name": "activation_167"}, "inbound_nodes": [[["adjust_bn_3", 0, 0, {}]]], "name": "activation_167"}, {"class_name": "Activation", "config": {"activation": "relu", "trainable": true, "name": "activation_169"}, "inbound_nodes": [[["adjust_bn_3", 0, 0, {}]]], "name": "activation_169"}, {"class_name": "Activation", "config": {"activation": "relu", "trainable": true, "name": "activation_171"}, "inbound_nodes": [[["adjust_bn_3", 0, 0, {}]]], "name": "activation_171"}, {"class_name": "Activation", "config": {"activation": "relu", "trainable": true, "name": "activation_173"}, "inbound_nodes": [[["normal_bn_1_3", 0, 0, {}]]], "name": "activation_173"}, {"class_name": "SeparableConv2D", "config": {"kernel_size": [5, 5], "dilation_rate": [1, 1], "filters": 64, "bias_initializer": {"class_name": "Zeros", "config": {}}, "depthwise_regularizer": null, "strides": [1, 1], "data_format": "channels_last", "trainable": true, "bias_constraint": null, "name": "separable_conv_1_normal_left1_3", "depth_multiplier": 1, "pointwise_initializer": {"class_name": "VarianceScaling", "config": {"scale": 1.0, "mode": "fan_avg", "distribution": "uniform", "seed": null}}, "padding": "same", "pointwise_regularizer": null, "bias_regularizer": null, "depthwise_constraint": null, "activation": "linear", "use_bias": false, "pointwise_constraint": null, "depthwise_initializer": {"class_name": "VarianceScaling", "config": {"scale": 1.0, "mode": "fan_avg", "distribution": "uniform", "seed": null}}, "activity_regularizer": null}, "inbound_nodes": [[["activation_165", 0, 0, {}]]], "name": "separable_conv_1_normal_left1_3"}, {"class_name": "SeparableConv2D", "config": {"kernel_size": [3, 3], "dilation_rate": [1, 1], "filters": 64, "bias_initializer": {"class_name": "Zeros", "config": {}}, "depthwise_regularizer": null, "strides": [1, 1], "data_format": "channels_last", "trainable": true, "bias_constraint": null, "name": "separable_conv_1_normal_right1_3", "depth_multiplier": 1, "pointwise_initializer": {"class_name": "VarianceScaling", "config": {"scale": 1.0, "mode": "fan_avg", "distribution": "uniform", "seed": null}}, "padding": "same", "pointwise_regularizer": null, "bias_regularizer": null, "depthwise_constraint": null, "activation": "linear", "use_bias": false, "pointwise_constraint": null, "depthwise_initializer": {"class_name": "VarianceScaling", "config": {"scale": 1.0, "mode": "fan_avg", "distribution": "uniform", "seed": null}}, "activity_regularizer": null}, "inbound_nodes": [[["activation_167", 0, 0, {}]]], "name": "separable_conv_1_normal_right1_3"}, {"class_name": "SeparableConv2D", "config": {"kernel_size": [5, 5], "dilation_rate": [1, 1], "filters": 64, "bias_initializer": {"class_name": "Zeros", "config": {}}, "depthwise_regularizer": null, "strides": [1, 1], "data_format": "channels_last", "trainable": true, "bias_constraint": null, "name": "separable_conv_1_normal_left2_3", "depth_multiplier": 1, "pointwise_initializer": {"class_name": "VarianceScaling", "config": {"scale": 1.0, "mode": "fan_avg", "distribution": "uniform", "seed": null}}, "padding": "same", "pointwise_regularizer": null, "bias_regularizer": null, "depthwise_constraint": null, "activation": "linear", "use_bias": false, "pointwise_constraint": null, "depthwise_initializer": {"class_name": "VarianceScaling", "config": {"scale": 1.0, "mode": "fan_avg", "distribution": "uniform", "seed": null}}, "activity_regularizer": null}, "inbound_nodes": [[["activation_169", 0, 0, {}]]], "name": "separable_conv_1_normal_left2_3"}, {"class_name": "SeparableConv2D", "config": {"kernel_size": [3, 3], "dilation_rate": [1, 1], "filters": 64, "bias_initializer": {"class_name": "Zeros", "config": {}}, "depthwise_regularizer": null, "strides": [1, 1], "data_format": "channels_last", "trainable": true, "bias_constraint": null, "name": "separable_conv_1_normal_right2_3", "depth_multiplier": 1, "pointwise_initializer": {"class_name": "VarianceScaling", "config": {"scale": 1.0, "mode": "fan_avg", "distribution": "uniform", "seed": null}}, "padding": "same", "pointwise_regularizer": null, "bias_regularizer": null, "depthwise_constraint": null, "activation": "linear", "use_bias": false, "pointwise_constraint": null, "depthwise_initializer": {"class_name": "VarianceScaling", "config": {"scale": 1.0, "mode": "fan_avg", "distribution": "uniform", "seed": null}}, "activity_regularizer": null}, "inbound_nodes": [[["activation_171", 0, 0, {}]]], "name": "separable_conv_1_normal_right2_3"}, {"class_name": "SeparableConv2D", "config": {"kernel_size": [3, 3], "dilation_rate": [1, 1], "filters": 64, "bias_initializer": {"class_name": "Zeros", "config": {}}, "depthwise_regularizer": null, "strides": [1, 1], "data_format": "channels_last", "trainable": true, "bias_constraint": null, "name": "separable_conv_1_normal_left5_3", "depth_multiplier": 1, "pointwise_initializer": {"class_name": "VarianceScaling", "config": {"scale": 1.0, "mode": "fan_avg", "distribution": "uniform", "seed": null}}, "padding": "same", "pointwise_regularizer": null, "bias_regularizer": null, "depthwise_constraint": null, "activation": "linear", "use_bias": false, "pointwise_constraint": null, "depthwise_initializer": {"class_name": "VarianceScaling", "config": {"scale": 1.0, "mode": "fan_avg", "distribution": "uniform", "seed": null}}, "activity_regularizer": null}, "inbound_nodes": [[["activation_173", 0, 0, {}]]], "name": "separable_conv_1_normal_left5_3"}, {"class_name": "BatchNormalization", "config": {"beta_regularizer": null, "center": true, "trainable": true, "gamma_constraint": null, "axis": -1, "gamma_initializer": {"class_name": "Ones", "config": {}}, "moving_variance_initializer": {"class_name": "Ones", "config": {}}, "moving_mean_initializer": {"class_name": "Zeros", "config": {}}, "epsilon": 1e-05, "gamma_regularizer": null, "scale": true, "beta_constraint": null, "beta_initializer": {"class_name": "Zeros", "config": {}}, "momentum": 0.9, "name": "separable_conv_1_bn_normal_left1_3"}, "inbound_nodes": [[["separable_conv_1_normal_left1_3", 0, 0, {}]]], "name": "separable_conv_1_bn_normal_left1_3"}, {"class_name": "BatchNormalization", "config": {"beta_regularizer": null, "center": true, "trainable": true, "gamma_constraint": null, "axis": -1, "gamma_initializer": {"class_name": "Ones", "config": {}}, "moving_variance_initializer": {"class_name": "Ones", "config": {}}, "moving_mean_initializer": {"class_name": "Zeros", "config": {}}, "epsilon": 1e-05, "gamma_regularizer": null, "scale": true, "beta_constraint": null, "beta_initializer": {"class_name": "Zeros", "config": {}}, "momentum": 0.9, "name": "separable_conv_1_bn_normal_right1_3"}, "inbound_nodes": [[["separable_conv_1_normal_right1_3", 0, 0, {}]]], "name": "separable_conv_1_bn_normal_right1_3"}, {"class_name": "BatchNormalization", "config": {"beta_regularizer": null, "center": true, "trainable": true, "gamma_constraint": null, "axis": -1, "gamma_initializer": {"class_name": "Ones", "config": {}}, "moving_variance_initializer": {"class_name": "Ones", "config": {}}, "moving_mean_initializer": {"class_name": "Zeros", "config": {}}, "epsilon": 1e-05, "gamma_regularizer": null, "scale": true, "beta_constraint": null, "beta_initializer": {"class_name": "Zeros", "config": {}}, "momentum": 0.9, "name": "separable_conv_1_bn_normal_left2_3"}, "inbound_nodes": [[["separable_conv_1_normal_left2_3", 0, 0, {}]]], "name": "separable_conv_1_bn_normal_left2_3"}, {"class_name": "BatchNormalization", "config": {"beta_regularizer": null, "center": true, "trainable": true, "gamma_constraint": null, "axis": -1, "gamma_initializer": {"class_name": "Ones", "config": {}}, "moving_variance_initializer": {"class_name": "Ones", "config": {}}, "moving_mean_initializer": {"class_name": "Zeros", "config": {}}, "epsilon": 1e-05, "gamma_regularizer": null, "scale": true, "beta_constraint": null, "beta_initializer": {"class_name": "Zeros", "config": {}}, "momentum": 0.9, "name": "separable_conv_1_bn_normal_right2_3"}, "inbound_nodes": [[["separable_conv_1_normal_right2_3", 0, 0, {}]]], "name": "separable_conv_1_bn_normal_right2_3"}, {"class_name": "BatchNormalization", "config": {"beta_regularizer": null, "center": true, "trainable": true, "gamma_constraint": null, "axis": -1, "gamma_initializer": {"class_name": "Ones", "config": {}}, "moving_variance_initializer": {"class_name": "Ones", "config": {}}, "moving_mean_initializer": {"class_name": "Zeros", "config": {}}, "epsilon": 1e-05, "gamma_regularizer": null, "scale": true, "beta_constraint": null, "beta_initializer": {"class_name": "Zeros", "config": {}}, "momentum": 0.9, "name": "separable_conv_1_bn_normal_left5_3"}, "inbound_nodes": [[["separable_conv_1_normal_left5_3", 0, 0, {}]]], "name": "separable_conv_1_bn_normal_left5_3"}, {"class_name": "Activation", "config": {"activation": "relu", "trainable": true, "name": "activation_166"}, "inbound_nodes": [[["separable_conv_1_bn_normal_left1_3", 0, 0, {}]]], "name": "activation_166"}, {"class_name": "Activation", "config": {"activation": "relu", "trainable": true, "name": "activation_168"}, "inbound_nodes": [[["separable_conv_1_bn_normal_right1_3", 0, 0, {}]]], "name": "activation_168"}, {"class_name": "Activation", "config": {"activation": "relu", "trainable": true, "name": "activation_170"}, "inbound_nodes": [[["separable_conv_1_bn_normal_left2_3", 0, 0, {}]]], "name": "activation_170"}, {"class_name": "Activation", "config": {"activation": "relu", "trainable": true, "name": "activation_172"}, "inbound_nodes": [[["separable_conv_1_bn_normal_right2_3", 0, 0, {}]]], "name": "activation_172"}, {"class_name": "Activation", "config": {"activation": "relu", "trainable": true, "name": "activation_174"}, "inbound_nodes": [[["separable_conv_1_bn_normal_left5_3", 0, 0, {}]]], "name": "activation_174"}, {"class_name": "SeparableConv2D", "config": {"kernel_size": [5, 5], "dilation_rate": [1, 1], "filters": 64, "bias_initializer": {"class_name": "Zeros", "config": {}}, "depthwise_regularizer": null, "strides": [1, 1], "data_format": "channels_last", "trainable": true, "bias_constraint": null, "name": "separable_conv_2_normal_left1_3", "depth_multiplier": 1, "pointwise_initializer": {"class_name": "VarianceScaling", "config": {"scale": 1.0, "mode": "fan_avg", "distribution": "uniform", "seed": null}}, "padding": "same", "pointwise_regularizer": null, "bias_regularizer": null, "depthwise_constraint": null, "activation": "linear", "use_bias": false, "pointwise_constraint": null, "depthwise_initializer": {"class_name": "VarianceScaling", "config": {"scale": 1.0, "mode": "fan_avg", "distribution": "uniform", "seed": null}}, "activity_regularizer": null}, "inbound_nodes": [[["activation_166", 0, 0, {}]]], "name": "separable_conv_2_normal_left1_3"}, {"class_name": "SeparableConv2D", "config": {"kernel_size": [3, 3], "dilation_rate": [1, 1], "filters": 64, "bias_initializer": {"class_name": "Zeros", "config": {}}, "depthwise_regularizer": null, "strides": [1, 1], "data_format": "channels_last", "trainable": true, "bias_constraint": null, "name": "separable_conv_2_normal_right1_3", "depth_multiplier": 1, "pointwise_initializer": {"class_name": "VarianceScaling", "config": {"scale": 1.0, "mode": "fan_avg", "distribution": "uniform", "seed": null}}, "padding": "same", "pointwise_regularizer": null, "bias_regularizer": null, "depthwise_constraint": null, "activation": "linear", "use_bias": false, "pointwise_constraint": null, "depthwise_initializer": {"class_name": "VarianceScaling", "config": {"scale": 1.0, "mode": "fan_avg", "distribution": "uniform", "seed": null}}, "activity_regularizer": null}, "inbound_nodes": [[["activation_168", 0, 0, {}]]], "name": "separable_conv_2_normal_right1_3"}, {"class_name": "SeparableConv2D", "config": {"kernel_size": [5, 5], "dilation_rate": [1, 1], "filters": 64, "bias_initializer": {"class_name": "Zeros", "config": {}}, "depthwise_regularizer": null, "strides": [1, 1], "data_format": "channels_last", "trainable": true, "bias_constraint": null, "name": "separable_conv_2_normal_left2_3", "depth_multiplier": 1, "pointwise_initializer": {"class_name": "VarianceScaling", "config": {"scale": 1.0, "mode": "fan_avg", "distribution": "uniform", "seed": null}}, "padding": "same", "pointwise_regularizer": null, "bias_regularizer": null, "depthwise_constraint": null, "activation": "linear", "use_bias": false, "pointwise_constraint": null, "depthwise_initializer": {"class_name": "VarianceScaling", "config": {"scale": 1.0, "mode": "fan_avg", "distribution": "uniform", "seed": null}}, "activity_regularizer": null}, "inbound_nodes": [[["activation_170", 0, 0, {}]]], "name": "separable_conv_2_normal_left2_3"}, {"class_name": "SeparableConv2D", "config": {"kernel_size": [3, 3], "dilation_rate": [1, 1], "filters": 64, "bias_initializer": {"class_name": "Zeros", "config": {}}, "depthwise_regularizer": null, "strides": [1, 1], "data_format": "channels_last", "trainable": true, "bias_constraint": null, "name": "separable_conv_2_normal_right2_3", "depth_multiplier": 1, "pointwise_initializer": {"class_name": "VarianceScaling", "config": {"scale": 1.0, "mode": "fan_avg", "distribution": "uniform", "seed": null}}, "padding": "same", "pointwise_regularizer": null, "bias_regularizer": null, "depthwise_constraint": null, "activation": "linear", "use_bias": false, "pointwise_constraint": null, "depthwise_initializer": {"class_name": "VarianceScaling", "config": {"scale": 1.0, "mode": "fan_avg", "distribution": "uniform", "seed": null}}, "activity_regularizer": null}, "inbound_nodes": [[["activation_172", 0, 0, {}]]], "name": "separable_conv_2_normal_right2_3"}, {"class_name": "SeparableConv2D", "config": {"kernel_size": [3, 3], "dilation_rate": [1, 1], "filters": 64, "bias_initializer": {"class_name": "Zeros", "config": {}}, "depthwise_regularizer": null, "strides": [1, 1], "data_format": "channels_last", "trainable": true, "bias_constraint": null, "name": "separable_conv_2_normal_left5_3", "depth_multiplier": 1, "pointwise_initializer": {"class_name": "VarianceScaling", "config": {"scale": 1.0, "mode": "fan_avg", "distribution": "uniform", "seed": null}}, "padding": "same", "pointwise_regularizer": null, "bias_regularizer": null, "depthwise_constraint": null, "activation": "linear", "use_bias": false, "pointwise_constraint": null, "depthwise_initializer": {"class_name": "VarianceScaling", "config": {"scale": 1.0, "mode": "fan_avg", "distribution": "uniform", "seed": null}}, "activity_regularizer": null}, "inbound_nodes": [[["activation_174", 0, 0, {}]]], "name": "separable_conv_2_normal_left5_3"}, {"class_name": "BatchNormalization", "config": {"beta_regularizer": null, "center": true, "trainable": true, "gamma_constraint": null, "axis": -1, "gamma_initializer": {"class_name": "Ones", "config": {}}, "moving_variance_initializer": {"class_name": "Ones", "config": {}}, "moving_mean_initializer": {"class_name": "Zeros", "config": {}}, "epsilon": 1e-05, "gamma_regularizer": null, "scale": true, "beta_constraint": null, "beta_initializer": {"class_name": "Zeros", "config": {}}, "momentum": 0.9, "name": "separable_conv_2_bn_normal_left1_3"}, "inbound_nodes": [[["separable_conv_2_normal_left1_3", 0, 0, {}]]], "name": "separable_conv_2_bn_normal_left1_3"}, {"class_name": "BatchNormalization", "config": {"beta_regularizer": null, "center": true, "trainable": true, "gamma_constraint": null, "axis": -1, "gamma_initializer": {"class_name": "Ones", "config": {}}, "moving_variance_initializer": {"class_name": "Ones", "config": {}}, "moving_mean_initializer": {"class_name": "Zeros", "config": {}}, "epsilon": 1e-05, "gamma_regularizer": null, "scale": true, "beta_constraint": null, "beta_initializer": {"class_name": "Zeros", "config": {}}, "momentum": 0.9, "name": "separable_conv_2_bn_normal_right1_3"}, "inbound_nodes": [[["separable_conv_2_normal_right1_3", 0, 0, {}]]], "name": "separable_conv_2_bn_normal_right1_3"}, {"class_name": "BatchNormalization", "config": {"beta_regularizer": null, "center": true, "trainable": true, "gamma_constraint": null, "axis": -1, "gamma_initializer": {"class_name": "Ones", "config": {}}, "moving_variance_initializer": {"class_name": "Ones", "config": {}}, "moving_mean_initializer": {"class_name": "Zeros", "config": {}}, "epsilon": 1e-05, "gamma_regularizer": null, "scale": true, "beta_constraint": null, "beta_initializer": {"class_name": "Zeros", "config": {}}, "momentum": 0.9, "name": "separable_conv_2_bn_normal_left2_3"}, "inbound_nodes": [[["separable_conv_2_normal_left2_3", 0, 0, {}]]], "name": "separable_conv_2_bn_normal_left2_3"}, {"class_name": "BatchNormalization", "config": {"beta_regularizer": null, "center": true, "trainable": true, "gamma_constraint": null, "axis": -1, "gamma_initializer": {"class_name": "Ones", "config": {}}, "moving_variance_initializer": {"class_name": "Ones", "config": {}}, "moving_mean_initializer": {"class_name": "Zeros", "config": {}}, "epsilon": 1e-05, "gamma_regularizer": null, "scale": true, "beta_constraint": null, "beta_initializer": {"class_name": "Zeros", "config": {}}, "momentum": 0.9, "name": "separable_conv_2_bn_normal_right2_3"}, "inbound_nodes": [[["separable_conv_2_normal_right2_3", 0, 0, {}]]], "name": "separable_conv_2_bn_normal_right2_3"}, {"class_name": "AveragePooling2D", "config": {"padding": "same", "data_format": "channels_last", "pool_size": [3, 3], "trainable": true, "strides": [1, 1], "name": "normal_left3_3"}, "inbound_nodes": [[["normal_bn_1_3", 0, 0, {}]]], "name": "normal_left3_3"}, {"class_name": "AveragePooling2D", "config": {"padding": "same", "data_format": "channels_last", "pool_size": [3, 3], "trainable": true, "strides": [1, 1], "name": "normal_left4_3"}, "inbound_nodes": [[["adjust_bn_3", 0, 0, {}]]], "name": "normal_left4_3"}, {"class_name": "AveragePooling2D", "config": {"padding": "same", "data_format": "channels_last", "pool_size": [3, 3], "trainable": true, "strides": [1, 1], "name": "normal_right4_3"}, "inbound_nodes": [[["adjust_bn_3", 0, 0, {}]]], "name": "normal_right4_3"}, {"class_name": "BatchNormalization", "config": {"beta_regularizer": null, "center": true, "trainable": true, "gamma_constraint": null, "axis": -1, "gamma_initializer": {"class_name": "Ones", "config": {}}, "moving_variance_initializer": {"class_name": "Ones", "config": {}}, "moving_mean_initializer": {"class_name": "Zeros", "config": {}}, "epsilon": 1e-05, "gamma_regularizer": null, "scale": true, "beta_constraint": null, "beta_initializer": {"class_name": "Zeros", "config": {}}, "momentum": 0.9, "name": "separable_conv_2_bn_normal_left5_3"}, "inbound_nodes": [[["separable_conv_2_normal_left5_3", 0, 0, {}]]], "name": "separable_conv_2_bn_normal_left5_3"}, {"class_name": "Add", "config": {"trainable": true, "name": "normal_add_1_3"}, "inbound_nodes": [[["separable_conv_2_bn_normal_left1_3", 0, 0, {}], ["separable_conv_2_bn_normal_right1_3", 0, 0, {}]]], "name": "normal_add_1_3"}, {"class_name": "Add", "config": {"trainable": true, "name": "normal_add_2_3"}, "inbound_nodes": [[["separable_conv_2_bn_normal_left2_3", 0, 0, {}], ["separable_conv_2_bn_normal_right2_3", 0, 0, {}]]], "name": "normal_add_2_3"}, {"class_name": "Add", "config": {"trainable": true, "name": "normal_add_3_3"}, "inbound_nodes": [[["normal_left3_3", 0, 0, {}], ["adjust_bn_3", 0, 0, {}]]], "name": "normal_add_3_3"}, {"class_name": "Add", "config": {"trainable": true, "name": "normal_add_4_3"}, "inbound_nodes": [[["normal_left4_3", 0, 0, {}], ["normal_right4_3", 0, 0, {}]]], "name": "normal_add_4_3"}, {"class_name": "Add", "config": {"trainable": true, "name": "normal_add_5_3"}, "inbound_nodes": [[["separable_conv_2_bn_normal_left5_3", 0, 0, {}], ["normal_bn_1_3", 0, 0, {}]]], "name": "normal_add_5_3"}, {"class_name": "Concatenate", "config": {"axis": -1, "trainable": true, "name": "normal_concat_3"}, "inbound_nodes": [[["adjust_bn_3", 0, 0, {}], ["normal_add_1_3", 0, 0, {}], ["normal_add_2_3", 0, 0, {}], ["normal_add_3_3", 0, 0, {}], ["normal_add_4_3", 0, 0, {}], ["normal_add_5_3", 0, 0, {}]]], "name": "normal_concat_3"}, {"class_name": "Activation", "config": {"activation": "relu", "trainable": true, "name": "activation_175"}, "inbound_nodes": [[["reduction_concat_reduce_2", 0, 0, {}]]], "name": "activation_175"}, {"class_name": "Activation", "config": {"activation": "relu", "trainable": true, "name": "activation_176"}, "inbound_nodes": [[["normal_concat_3", 0, 0, {}]]], "name": "activation_176"}, {"class_name": "Conv2D", "config": {"kernel_size": [1, 1], "dilation_rate": [1, 1], "filters": 64, "padding": "same", "bias_initializer": {"class_name": "Zeros", "config": {}}, "name": "adjust_conv_projection_4", "strides": [1, 1], "kernel_initializer": {"class_name": "VarianceScaling", "config": {"scale": 2.0, "mode": "fan_in", "distribution": "normal", "seed": null}}, "trainable": true, "bias_constraint": null, "data_format": "channels_last", "activation": "linear", "use_bias": false, "kernel_regularizer": {"class_name": "L1L2", "config": {"l1": 0.0, "l2": 0.0005000000237487257}}, "kernel_constraint": null, "bias_regularizer": null, "activity_regularizer": null}, "inbound_nodes": [[["activation_175", 0, 0, {}]]], "name": "adjust_conv_projection_4"}, {"class_name": "Conv2D", "config": {"kernel_size": [1, 1], "dilation_rate": [1, 1], "filters": 64, "padding": "same", "bias_initializer": {"class_name": "Zeros", "config": {}}, "name": "normal_conv_1_4", "strides": [1, 1], "kernel_initializer": {"class_name": "VarianceScaling", "config": {"scale": 2.0, "mode": "fan_in", "distribution": "normal", "seed": null}}, "trainable": true, "bias_constraint": null, "data_format": "channels_last", "activation": "linear", "use_bias": false, "kernel_regularizer": {"class_name": "L1L2", "config": {"l1": 0.0, "l2": 0.0005000000237487257}}, "kernel_constraint": null, "bias_regularizer": null, "activity_regularizer": null}, "inbound_nodes": [[["activation_176", 0, 0, {}]]], "name": "normal_conv_1_4"}, {"class_name": "BatchNormalization", "config": {"beta_regularizer": null, "center": true, "trainable": true, "gamma_constraint": null, "axis": -1, "gamma_initializer": {"class_name": "Ones", "config": {}}, "moving_variance_initializer": {"class_name": "Ones", "config": {}}, "moving_mean_initializer": {"class_name": "Zeros", "config": {}}, "epsilon": 1e-05, "gamma_regularizer": null, "scale": true, "beta_constraint": null, "beta_initializer": {"class_name": "Zeros", "config": {}}, "momentum": 0.9, "name": "adjust_bn_4"}, "inbound_nodes": [[["adjust_conv_projection_4", 0, 0, {}]]], "name": "adjust_bn_4"}, {"class_name": "BatchNormalization", "config": {"beta_regularizer": null, "center": true, "trainable": true, "gamma_constraint": null, "axis": -1, "gamma_initializer": {"class_name": "Ones", "config": {}}, "moving_variance_initializer": {"class_name": "Ones", "config": {}}, "moving_mean_initializer": {"class_name": "Zeros", "config": {}}, "epsilon": 1e-05, "gamma_regularizer": null, "scale": true, "beta_constraint": null, "beta_initializer": {"class_name": "Zeros", "config": {}}, "momentum": 0.9, "name": "normal_bn_1_4"}, "inbound_nodes": [[["normal_conv_1_4", 0, 0, {}]]], "name": "normal_bn_1_4"}, {"class_name": "Activation", "config": {"activation": "relu", "trainable": true, "name": "activation_177"}, "inbound_nodes": [[["normal_bn_1_4", 0, 0, {}]]], "name": "activation_177"}, {"class_name": "Activation", "config": {"activation": "relu", "trainable": true, "name": "activation_179"}, "inbound_nodes": [[["adjust_bn_4", 0, 0, {}]]], "name": "activation_179"}, {"class_name": "Activation", "config": {"activation": "relu", "trainable": true, "name": "activation_181"}, "inbound_nodes": [[["adjust_bn_4", 0, 0, {}]]], "name": "activation_181"}, {"class_name": "Activation", "config": {"activation": "relu", "trainable": true, "name": "activation_183"}, "inbound_nodes": [[["adjust_bn_4", 0, 0, {}]]], "name": "activation_183"}, {"class_name": "Activation", "config": {"activation": "relu", "trainable": true, "name": "activation_185"}, "inbound_nodes": [[["normal_bn_1_4", 0, 0, {}]]], "name": "activation_185"}, {"class_name": "SeparableConv2D", "config": {"kernel_size": [5, 5], "dilation_rate": [1, 1], "filters": 64, "bias_initializer": {"class_name": "Zeros", "config": {}}, "depthwise_regularizer": null, "strides": [1, 1], "data_format": "channels_last", "trainable": true, "bias_constraint": null, "name": "separable_conv_1_normal_left1_4", "depth_multiplier": 1, "pointwise_initializer": {"class_name": "VarianceScaling", "config": {"scale": 1.0, "mode": "fan_avg", "distribution": "uniform", "seed": null}}, "padding": "same", "pointwise_regularizer": null, "bias_regularizer": null, "depthwise_constraint": null, "activation": "linear", "use_bias": false, "pointwise_constraint": null, "depthwise_initializer": {"class_name": "VarianceScaling", "config": {"scale": 1.0, "mode": "fan_avg", "distribution": "uniform", "seed": null}}, "activity_regularizer": null}, "inbound_nodes": [[["activation_177", 0, 0, {}]]], "name": "separable_conv_1_normal_left1_4"}, {"class_name": "SeparableConv2D", "config": {"kernel_size": [3, 3], "dilation_rate": [1, 1], "filters": 64, "bias_initializer": {"class_name": "Zeros", "config": {}}, "depthwise_regularizer": null, "strides": [1, 1], "data_format": "channels_last", "trainable": true, "bias_constraint": null, "name": "separable_conv_1_normal_right1_4", "depth_multiplier": 1, "pointwise_initializer": {"class_name": "VarianceScaling", "config": {"scale": 1.0, "mode": "fan_avg", "distribution": "uniform", "seed": null}}, "padding": "same", "pointwise_regularizer": null, "bias_regularizer": null, "depthwise_constraint": null, "activation": "linear", "use_bias": false, "pointwise_constraint": null, "depthwise_initializer": {"class_name": "VarianceScaling", "config": {"scale": 1.0, "mode": "fan_avg", "distribution": "uniform", "seed": null}}, "activity_regularizer": null}, "inbound_nodes": [[["activation_179", 0, 0, {}]]], "name": "separable_conv_1_normal_right1_4"}, {"class_name": "SeparableConv2D", "config": {"kernel_size": [5, 5], "dilation_rate": [1, 1], "filters": 64, "bias_initializer": {"class_name": "Zeros", "config": {}}, "depthwise_regularizer": null, "strides": [1, 1], "data_format": "channels_last", "trainable": true, "bias_constraint": null, "name": "separable_conv_1_normal_left2_4", "depth_multiplier": 1, "pointwise_initializer": {"class_name": "VarianceScaling", "config": {"scale": 1.0, "mode": "fan_avg", "distribution": "uniform", "seed": null}}, "padding": "same", "pointwise_regularizer": null, "bias_regularizer": null, "depthwise_constraint": null, "activation": "linear", "use_bias": false, "pointwise_constraint": null, "depthwise_initializer": {"class_name": "VarianceScaling", "config": {"scale": 1.0, "mode": "fan_avg", "distribution": "uniform", "seed": null}}, "activity_regularizer": null}, "inbound_nodes": [[["activation_181", 0, 0, {}]]], "name": "separable_conv_1_normal_left2_4"}, {"class_name": "SeparableConv2D", "config": {"kernel_size": [3, 3], "dilation_rate": [1, 1], "filters": 64, "bias_initializer": {"class_name": "Zeros", "config": {}}, "depthwise_regularizer": null, "strides": [1, 1], "data_format": "channels_last", "trainable": true, "bias_constraint": null, "name": "separable_conv_1_normal_right2_4", "depth_multiplier": 1, "pointwise_initializer": {"class_name": "VarianceScaling", "config": {"scale": 1.0, "mode": "fan_avg", "distribution": "uniform", "seed": null}}, "padding": "same", "pointwise_regularizer": null, "bias_regularizer": null, "depthwise_constraint": null, "activation": "linear", "use_bias": false, "pointwise_constraint": null, "depthwise_initializer": {"class_name": "VarianceScaling", "config": {"scale": 1.0, "mode": "fan_avg", "distribution": "uniform", "seed": null}}, "activity_regularizer": null}, "inbound_nodes": [[["activation_183", 0, 0, {}]]], "name": "separable_conv_1_normal_right2_4"}, {"class_name": "SeparableConv2D", "config": {"kernel_size": [3, 3], "dilation_rate": [1, 1], "filters": 64, "bias_initializer": {"class_name": "Zeros", "config": {}}, "depthwise_regularizer": null, "strides": [1, 1], "data_format": "channels_last", "trainable": true, "bias_constraint": null, "name": "separable_conv_1_normal_left5_4", "depth_multiplier": 1, "pointwise_initializer": {"class_name": "VarianceScaling", "config": {"scale": 1.0, "mode": "fan_avg", "distribution": "uniform", "seed": null}}, "padding": "same", "pointwise_regularizer": null, "bias_regularizer": null, "depthwise_constraint": null, "activation": "linear", "use_bias": false, "pointwise_constraint": null, "depthwise_initializer": {"class_name": "VarianceScaling", "config": {"scale": 1.0, "mode": "fan_avg", "distribution": "uniform", "seed": null}}, "activity_regularizer": null}, "inbound_nodes": [[["activation_185", 0, 0, {}]]], "name": "separable_conv_1_normal_left5_4"}, {"class_name": "BatchNormalization", "config": {"beta_regularizer": null, "center": true, "trainable": true, "gamma_constraint": null, "axis": -1, "gamma_initializer": {"class_name": "Ones", "config": {}}, "moving_variance_initializer": {"class_name": "Ones", "config": {}}, "moving_mean_initializer": {"class_name": "Zeros", "config": {}}, "epsilon": 1e-05, "gamma_regularizer": null, "scale": true, "beta_constraint": null, "beta_initializer": {"class_name": "Zeros", "config": {}}, "momentum": 0.9, "name": "separable_conv_1_bn_normal_left1_4"}, "inbound_nodes": [[["separable_conv_1_normal_left1_4", 0, 0, {}]]], "name": "separable_conv_1_bn_normal_left1_4"}, {"class_name": "BatchNormalization", "config": {"beta_regularizer": null, "center": true, "trainable": true, "gamma_constraint": null, "axis": -1, "gamma_initializer": {"class_name": "Ones", "config": {}}, "moving_variance_initializer": {"class_name": "Ones", "config": {}}, "moving_mean_initializer": {"class_name": "Zeros", "config": {}}, "epsilon": 1e-05, "gamma_regularizer": null, "scale": true, "beta_constraint": null, "beta_initializer": {"class_name": "Zeros", "config": {}}, "momentum": 0.9, "name": "separable_conv_1_bn_normal_right1_4"}, "inbound_nodes": [[["separable_conv_1_normal_right1_4", 0, 0, {}]]], "name": "separable_conv_1_bn_normal_right1_4"}, {"class_name": "BatchNormalization", "config": {"beta_regularizer": null, "center": true, "trainable": true, "gamma_constraint": null, "axis": -1, "gamma_initializer": {"class_name": "Ones", "config": {}}, "moving_variance_initializer": {"class_name": "Ones", "config": {}}, "moving_mean_initializer": {"class_name": "Zeros", "config": {}}, "epsilon": 1e-05, "gamma_regularizer": null, "scale": true, "beta_constraint": null, "beta_initializer": {"class_name": "Zeros", "config": {}}, "momentum": 0.9, "name": "separable_conv_1_bn_normal_left2_4"}, "inbound_nodes": [[["separable_conv_1_normal_left2_4", 0, 0, {}]]], "name": "separable_conv_1_bn_normal_left2_4"}, {"class_name": "BatchNormalization", "config": {"beta_regularizer": null, "center": true, "trainable": true, "gamma_constraint": null, "axis": -1, "gamma_initializer": {"class_name": "Ones", "config": {}}, "moving_variance_initializer": {"class_name": "Ones", "config": {}}, "moving_mean_initializer": {"class_name": "Zeros", "config": {}}, "epsilon": 1e-05, "gamma_regularizer": null, "scale": true, "beta_constraint": null, "beta_initializer": {"class_name": "Zeros", "config": {}}, "momentum": 0.9, "name": "separable_conv_1_bn_normal_right2_4"}, "inbound_nodes": [[["separable_conv_1_normal_right2_4", 0, 0, {}]]], "name": "separable_conv_1_bn_normal_right2_4"}, {"class_name": "BatchNormalization", "config": {"beta_regularizer": null, "center": true, "trainable": true, "gamma_constraint": null, "axis": -1, "gamma_initializer": {"class_name": "Ones", "config": {}}, "moving_variance_initializer": {"class_name": "Ones", "config": {}}, "moving_mean_initializer": {"class_name": "Zeros", "config": {}}, "epsilon": 1e-05, "gamma_regularizer": null, "scale": true, "beta_constraint": null, "beta_initializer": {"class_name": "Zeros", "config": {}}, "momentum": 0.9, "name": "separable_conv_1_bn_normal_left5_4"}, "inbound_nodes": [[["separable_conv_1_normal_left5_4", 0, 0, {}]]], "name": "separable_conv_1_bn_normal_left5_4"}, {"class_name": "Activation", "config": {"activation": "relu", "trainable": true, "name": "activation_178"}, "inbound_nodes": [[["separable_conv_1_bn_normal_left1_4", 0, 0, {}]]], "name": "activation_178"}, {"class_name": "Activation", "config": {"activation": "relu", "trainable": true, "name": "activation_180"}, "inbound_nodes": [[["separable_conv_1_bn_normal_right1_4", 0, 0, {}]]], "name": "activation_180"}, {"class_name": "Activation", "config": {"activation": "relu", "trainable": true, "name": "activation_182"}, "inbound_nodes": [[["separable_conv_1_bn_normal_left2_4", 0, 0, {}]]], "name": "activation_182"}, {"class_name": "Activation", "config": {"activation": "relu", "trainable": true, "name": "activation_184"}, "inbound_nodes": [[["separable_conv_1_bn_normal_right2_4", 0, 0, {}]]], "name": "activation_184"}, {"class_name": "Activation", "config": {"activation": "relu", "trainable": true, "name": "activation_186"}, "inbound_nodes": [[["separable_conv_1_bn_normal_left5_4", 0, 0, {}]]], "name": "activation_186"}, {"class_name": "SeparableConv2D", "config": {"kernel_size": [5, 5], "dilation_rate": [1, 1], "filters": 64, "bias_initializer": {"class_name": "Zeros", "config": {}}, "depthwise_regularizer": null, "strides": [1, 1], "data_format": "channels_last", "trainable": true, "bias_constraint": null, "name": "separable_conv_2_normal_left1_4", "depth_multiplier": 1, "pointwise_initializer": {"class_name": "VarianceScaling", "config": {"scale": 1.0, "mode": "fan_avg", "distribution": "uniform", "seed": null}}, "padding": "same", "pointwise_regularizer": null, "bias_regularizer": null, "depthwise_constraint": null, "activation": "linear", "use_bias": false, "pointwise_constraint": null, "depthwise_initializer": {"class_name": "VarianceScaling", "config": {"scale": 1.0, "mode": "fan_avg", "distribution": "uniform", "seed": null}}, "activity_regularizer": null}, "inbound_nodes": [[["activation_178", 0, 0, {}]]], "name": "separable_conv_2_normal_left1_4"}, {"class_name": "SeparableConv2D", "config": {"kernel_size": [3, 3], "dilation_rate": [1, 1], "filters": 64, "bias_initializer": {"class_name": "Zeros", "config": {}}, "depthwise_regularizer": null, "strides": [1, 1], "data_format": "channels_last", "trainable": true, "bias_constraint": null, "name": "separable_conv_2_normal_right1_4", "depth_multiplier": 1, "pointwise_initializer": {"class_name": "VarianceScaling", "config": {"scale": 1.0, "mode": "fan_avg", "distribution": "uniform", "seed": null}}, "padding": "same", "pointwise_regularizer": null, "bias_regularizer": null, "depthwise_constraint": null, "activation": "linear", "use_bias": false, "pointwise_constraint": null, "depthwise_initializer": {"class_name": "VarianceScaling", "config": {"scale": 1.0, "mode": "fan_avg", "distribution": "uniform", "seed": null}}, "activity_regularizer": null}, "inbound_nodes": [[["activation_180", 0, 0, {}]]], "name": "separable_conv_2_normal_right1_4"}, {"class_name": "SeparableConv2D", "config": {"kernel_size": [5, 5], "dilation_rate": [1, 1], "filters": 64, "bias_initializer": {"class_name": "Zeros", "config": {}}, "depthwise_regularizer": null, "strides": [1, 1], "data_format": "channels_last", "trainable": true, "bias_constraint": null, "name": "separable_conv_2_normal_left2_4", "depth_multiplier": 1, "pointwise_initializer": {"class_name": "VarianceScaling", "config": {"scale": 1.0, "mode": "fan_avg", "distribution": "uniform", "seed": null}}, "padding": "same", "pointwise_regularizer": null, "bias_regularizer": null, "depthwise_constraint": null, "activation": "linear", "use_bias": false, "pointwise_constraint": null, "depthwise_initializer": {"class_name": "VarianceScaling", "config": {"scale": 1.0, "mode": "fan_avg", "distribution": "uniform", "seed": null}}, "activity_regularizer": null}, "inbound_nodes": [[["activation_182", 0, 0, {}]]], "name": "separable_conv_2_normal_left2_4"}, {"class_name": "SeparableConv2D", "config": {"kernel_size": [3, 3], "dilation_rate": [1, 1], "filters": 64, "bias_initializer": {"class_name": "Zeros", "config": {}}, "depthwise_regularizer": null, "strides": [1, 1], "data_format": "channels_last", "trainable": true, "bias_constraint": null, "name": "separable_conv_2_normal_right2_4", "depth_multiplier": 1, "pointwise_initializer": {"class_name": "VarianceScaling", "config": {"scale": 1.0, "mode": "fan_avg", "distribution": "uniform", "seed": null}}, "padding": "same", "pointwise_regularizer": null, "bias_regularizer": null, "depthwise_constraint": null, "activation": "linear", "use_bias": false, "pointwise_constraint": null, "depthwise_initializer": {"class_name": "VarianceScaling", "config": {"scale": 1.0, "mode": "fan_avg", "distribution": "uniform", "seed": null}}, "activity_regularizer": null}, "inbound_nodes": [[["activation_184", 0, 0, {}]]], "name": "separable_conv_2_normal_right2_4"}, {"class_name": "SeparableConv2D", "config": {"kernel_size": [3, 3], "dilation_rate": [1, 1], "filters": 64, "bias_initializer": {"class_name": "Zeros", "config": {}}, "depthwise_regularizer": null, "strides": [1, 1], "data_format": "channels_last", "trainable": true, "bias_constraint": null, "name": "separable_conv_2_normal_left5_4", "depth_multiplier": 1, "pointwise_initializer": {"class_name": "VarianceScaling", "config": {"scale": 1.0, "mode": "fan_avg", "distribution": "uniform", "seed": null}}, "padding": "same", "pointwise_regularizer": null, "bias_regularizer": null, "depthwise_constraint": null, "activation": "linear", "use_bias": false, "pointwise_constraint": null, "depthwise_initializer": {"class_name": "VarianceScaling", "config": {"scale": 1.0, "mode": "fan_avg", "distribution": "uniform", "seed": null}}, "activity_regularizer": null}, "inbound_nodes": [[["activation_186", 0, 0, {}]]], "name": "separable_conv_2_normal_left5_4"}, {"class_name": "BatchNormalization", "config": {"beta_regularizer": null, "center": true, "trainable": true, "gamma_constraint": null, "axis": -1, "gamma_initializer": {"class_name": "Ones", "config": {}}, "moving_variance_initializer": {"class_name": "Ones", "config": {}}, "moving_mean_initializer": {"class_name": "Zeros", "config": {}}, "epsilon": 1e-05, "gamma_regularizer": null, "scale": true, "beta_constraint": null, "beta_initializer": {"class_name": "Zeros", "config": {}}, "momentum": 0.9, "name": "separable_conv_2_bn_normal_left1_4"}, "inbound_nodes": [[["separable_conv_2_normal_left1_4", 0, 0, {}]]], "name": "separable_conv_2_bn_normal_left1_4"}, {"class_name": "BatchNormalization", "config": {"beta_regularizer": null, "center": true, "trainable": true, "gamma_constraint": null, "axis": -1, "gamma_initializer": {"class_name": "Ones", "config": {}}, "moving_variance_initializer": {"class_name": "Ones", "config": {}}, "moving_mean_initializer": {"class_name": "Zeros", "config": {}}, "epsilon": 1e-05, "gamma_regularizer": null, "scale": true, "beta_constraint": null, "beta_initializer": {"class_name": "Zeros", "config": {}}, "momentum": 0.9, "name": "separable_conv_2_bn_normal_right1_4"}, "inbound_nodes": [[["separable_conv_2_normal_right1_4", 0, 0, {}]]], "name": "separable_conv_2_bn_normal_right1_4"}, {"class_name": "BatchNormalization", "config": {"beta_regularizer": null, "center": true, "trainable": true, "gamma_constraint": null, "axis": -1, "gamma_initializer": {"class_name": "Ones", "config": {}}, "moving_variance_initializer": {"class_name": "Ones", "config": {}}, "moving_mean_initializer": {"class_name": "Zeros", "config": {}}, "epsilon": 1e-05, "gamma_regularizer": null, "scale": true, "beta_constraint": null, "beta_initializer": {"class_name": "Zeros", "config": {}}, "momentum": 0.9, "name": "separable_conv_2_bn_normal_left2_4"}, "inbound_nodes": [[["separable_conv_2_normal_left2_4", 0, 0, {}]]], "name": "separable_conv_2_bn_normal_left2_4"}, {"class_name": "BatchNormalization", "config": {"beta_regularizer": null, "center": true, "trainable": true, "gamma_constraint": null, "axis": -1, "gamma_initializer": {"class_name": "Ones", "config": {}}, "moving_variance_initializer": {"class_name": "Ones", "config": {}}, "moving_mean_initializer": {"class_name": "Zeros", "config": {}}, "epsilon": 1e-05, "gamma_regularizer": null, "scale": true, "beta_constraint": null, "beta_initializer": {"class_name": "Zeros", "config": {}}, "momentum": 0.9, "name": "separable_conv_2_bn_normal_right2_4"}, "inbound_nodes": [[["separable_conv_2_normal_right2_4", 0, 0, {}]]], "name": "separable_conv_2_bn_normal_right2_4"}, {"class_name": "AveragePooling2D", "config": {"padding": "same", "data_format": "channels_last", "pool_size": [3, 3], "trainable": true, "strides": [1, 1], "name": "normal_left3_4"}, "inbound_nodes": [[["normal_bn_1_4", 0, 0, {}]]], "name": "normal_left3_4"}, {"class_name": "AveragePooling2D", "config": {"padding": "same", "data_format": "channels_last", "pool_size": [3, 3], "trainable": true, "strides": [1, 1], "name": "normal_left4_4"}, "inbound_nodes": [[["adjust_bn_4", 0, 0, {}]]], "name": "normal_left4_4"}, {"class_name": "AveragePooling2D", "config": {"padding": "same", "data_format": "channels_last", "pool_size": [3, 3], "trainable": true, "strides": [1, 1], "name": "normal_right4_4"}, "inbound_nodes": [[["adjust_bn_4", 0, 0, {}]]], "name": "normal_right4_4"}, {"class_name": "BatchNormalization", "config": {"beta_regularizer": null, "center": true, "trainable": true, "gamma_constraint": null, "axis": -1, "gamma_initializer": {"class_name": "Ones", "config": {}}, "moving_variance_initializer": {"class_name": "Ones", "config": {}}, "moving_mean_initializer": {"class_name": "Zeros", "config": {}}, "epsilon": 1e-05, "gamma_regularizer": null, "scale": true, "beta_constraint": null, "beta_initializer": {"class_name": "Zeros", "config": {}}, "momentum": 0.9, "name": "separable_conv_2_bn_normal_left5_4"}, "inbound_nodes": [[["separable_conv_2_normal_left5_4", 0, 0, {}]]], "name": "separable_conv_2_bn_normal_left5_4"}, {"class_name": "Add", "config": {"trainable": true, "name": "normal_add_1_4"}, "inbound_nodes": [[["separable_conv_2_bn_normal_left1_4", 0, 0, {}], ["separable_conv_2_bn_normal_right1_4", 0, 0, {}]]], "name": "normal_add_1_4"}, {"class_name": "Add", "config": {"trainable": true, "name": "normal_add_2_4"}, "inbound_nodes": [[["separable_conv_2_bn_normal_left2_4", 0, 0, {}], ["separable_conv_2_bn_normal_right2_4", 0, 0, {}]]], "name": "normal_add_2_4"}, {"class_name": "Add", "config": {"trainable": true, "name": "normal_add_3_4"}, "inbound_nodes": [[["normal_left3_4", 0, 0, {}], ["adjust_bn_4", 0, 0, {}]]], "name": "normal_add_3_4"}, {"class_name": "Add", "config": {"trainable": true, "name": "normal_add_4_4"}, "inbound_nodes": [[["normal_left4_4", 0, 0, {}], ["normal_right4_4", 0, 0, {}]]], "name": "normal_add_4_4"}, {"class_name": "Add", "config": {"trainable": true, "name": "normal_add_5_4"}, "inbound_nodes": [[["separable_conv_2_bn_normal_left5_4", 0, 0, {}], ["normal_bn_1_4", 0, 0, {}]]], "name": "normal_add_5_4"}, {"class_name": "Concatenate", "config": {"axis": -1, "trainable": true, "name": "normal_concat_4"}, "inbound_nodes": [[["adjust_bn_4", 0, 0, {}], ["normal_add_1_4", 0, 0, {}], ["normal_add_2_4", 0, 0, {}], ["normal_add_3_4", 0, 0, {}], ["normal_add_4_4", 0, 0, {}], ["normal_add_5_4", 0, 0, {}]]], "name": "normal_concat_4"}, {"class_name": "Activation", "config": {"activation": "relu", "trainable": true, "name": "activation_187"}, "inbound_nodes": [[["normal_concat_3", 0, 0, {}]]], "name": "activation_187"}, {"class_name": "Activation", "config": {"activation": "relu", "trainable": true, "name": "activation_188"}, "inbound_nodes": [[["normal_concat_4", 0, 0, {}]]], "name": "activation_188"}, {"class_name": "Conv2D", "config": {"kernel_size": [1, 1], "dilation_rate": [1, 1], "filters": 64, "padding": "same", "bias_initializer": {"class_name": "Zeros", "config": {}}, "name": "adjust_conv_projection_5", "strides": [1, 1], "kernel_initializer": {"class_name": "VarianceScaling", "config": {"scale": 2.0, "mode": "fan_in", "distribution": "normal", "seed": null}}, "trainable": true, "bias_constraint": null, "data_format": "channels_last", "activation": "linear", "use_bias": false, "kernel_regularizer": {"class_name": "L1L2", "config": {"l1": 0.0, "l2": 0.0005000000237487257}}, "kernel_constraint": null, "bias_regularizer": null, "activity_regularizer": null}, "inbound_nodes": [[["activation_187", 0, 0, {}]]], "name": "adjust_conv_projection_5"}, {"class_name": "Conv2D", "config": {"kernel_size": [1, 1], "dilation_rate": [1, 1], "filters": 64, "padding": "same", "bias_initializer": {"class_name": "Zeros", "config": {}}, "name": "normal_conv_1_5", "strides": [1, 1], "kernel_initializer": {"class_name": "VarianceScaling", "config": {"scale": 2.0, "mode": "fan_in", "distribution": "normal", "seed": null}}, "trainable": true, "bias_constraint": null, "data_format": "channels_last", "activation": "linear", "use_bias": false, "kernel_regularizer": {"class_name": "L1L2", "config": {"l1": 0.0, "l2": 0.0005000000237487257}}, "kernel_constraint": null, "bias_regularizer": null, "activity_regularizer": null}, "inbound_nodes": [[["activation_188", 0, 0, {}]]], "name": "normal_conv_1_5"}, {"class_name": "BatchNormalization", "config": {"beta_regularizer": null, "center": true, "trainable": true, "gamma_constraint": null, "axis": -1, "gamma_initializer": {"class_name": "Ones", "config": {}}, "moving_variance_initializer": {"class_name": "Ones", "config": {}}, "moving_mean_initializer": {"class_name": "Zeros", "config": {}}, "epsilon": 1e-05, "gamma_regularizer": null, "scale": true, "beta_constraint": null, "beta_initializer": {"class_name": "Zeros", "config": {}}, "momentum": 0.9, "name": "adjust_bn_5"}, "inbound_nodes": [[["adjust_conv_projection_5", 0, 0, {}]]], "name": "adjust_bn_5"}, {"class_name": "BatchNormalization", "config": {"beta_regularizer": null, "center": true, "trainable": true, "gamma_constraint": null, "axis": -1, "gamma_initializer": {"class_name": "Ones", "config": {}}, "moving_variance_initializer": {"class_name": "Ones", "config": {}}, "moving_mean_initializer": {"class_name": "Zeros", "config": {}}, "epsilon": 1e-05, "gamma_regularizer": null, "scale": true, "beta_constraint": null, "beta_initializer": {"class_name": "Zeros", "config": {}}, "momentum": 0.9, "name": "normal_bn_1_5"}, "inbound_nodes": [[["normal_conv_1_5", 0, 0, {}]]], "name": "normal_bn_1_5"}, {"class_name": "Activation", "config": {"activation": "relu", "trainable": true, "name": "activation_189"}, "inbound_nodes": [[["normal_bn_1_5", 0, 0, {}]]], "name": "activation_189"}, {"class_name": "Activation", "config": {"activation": "relu", "trainable": true, "name": "activation_191"}, "inbound_nodes": [[["adjust_bn_5", 0, 0, {}]]], "name": "activation_191"}, {"class_name": "Activation", "config": {"activation": "relu", "trainable": true, "name": "activation_193"}, "inbound_nodes": [[["adjust_bn_5", 0, 0, {}]]], "name": "activation_193"}, {"class_name": "Activation", "config": {"activation": "relu", "trainable": true, "name": "activation_195"}, "inbound_nodes": [[["adjust_bn_5", 0, 0, {}]]], "name": "activation_195"}, {"class_name": "Activation", "config": {"activation": "relu", "trainable": true, "name": "activation_197"}, "inbound_nodes": [[["normal_bn_1_5", 0, 0, {}]]], "name": "activation_197"}, {"class_name": "SeparableConv2D", "config": {"kernel_size": [5, 5], "dilation_rate": [1, 1], "filters": 64, "bias_initializer": {"class_name": "Zeros", "config": {}}, "depthwise_regularizer": null, "strides": [1, 1], "data_format": "channels_last", "trainable": true, "bias_constraint": null, "name": "separable_conv_1_normal_left1_5", "depth_multiplier": 1, "pointwise_initializer": {"class_name": "VarianceScaling", "config": {"scale": 1.0, "mode": "fan_avg", "distribution": "uniform", "seed": null}}, "padding": "same", "pointwise_regularizer": null, "bias_regularizer": null, "depthwise_constraint": null, "activation": "linear", "use_bias": false, "pointwise_constraint": null, "depthwise_initializer": {"class_name": "VarianceScaling", "config": {"scale": 1.0, "mode": "fan_avg", "distribution": "uniform", "seed": null}}, "activity_regularizer": null}, "inbound_nodes": [[["activation_189", 0, 0, {}]]], "name": "separable_conv_1_normal_left1_5"}, {"class_name": "SeparableConv2D", "config": {"kernel_size": [3, 3], "dilation_rate": [1, 1], "filters": 64, "bias_initializer": {"class_name": "Zeros", "config": {}}, "depthwise_regularizer": null, "strides": [1, 1], "data_format": "channels_last", "trainable": true, "bias_constraint": null, "name": "separable_conv_1_normal_right1_5", "depth_multiplier": 1, "pointwise_initializer": {"class_name": "VarianceScaling", "config": {"scale": 1.0, "mode": "fan_avg", "distribution": "uniform", "seed": null}}, "padding": "same", "pointwise_regularizer": null, "bias_regularizer": null, "depthwise_constraint": null, "activation": "linear", "use_bias": false, "pointwise_constraint": null, "depthwise_initializer": {"class_name": "VarianceScaling", "config": {"scale": 1.0, "mode": "fan_avg", "distribution": "uniform", "seed": null}}, "activity_regularizer": null}, "inbound_nodes": [[["activation_191", 0, 0, {}]]], "name": "separable_conv_1_normal_right1_5"}, {"class_name": "SeparableConv2D", "config": {"kernel_size": [5, 5], "dilation_rate": [1, 1], "filters": 64, "bias_initializer": {"class_name": "Zeros", "config": {}}, "depthwise_regularizer": null, "strides": [1, 1], "data_format": "channels_last", "trainable": true, "bias_constraint": null, "name": "separable_conv_1_normal_left2_5", "depth_multiplier": 1, "pointwise_initializer": {"class_name": "VarianceScaling", "config": {"scale": 1.0, "mode": "fan_avg", "distribution": "uniform", "seed": null}}, "padding": "same", "pointwise_regularizer": null, "bias_regularizer": null, "depthwise_constraint": null, "activation": "linear", "use_bias": false, "pointwise_constraint": null, "depthwise_initializer": {"class_name": "VarianceScaling", "config": {"scale": 1.0, "mode": "fan_avg", "distribution": "uniform", "seed": null}}, "activity_regularizer": null}, "inbound_nodes": [[["activation_193", 0, 0, {}]]], "name": "separable_conv_1_normal_left2_5"}, {"class_name": "SeparableConv2D", "config": {"kernel_size": [3, 3], "dilation_rate": [1, 1], "filters": 64, "bias_initializer": {"class_name": "Zeros", "config": {}}, "depthwise_regularizer": null, "strides": [1, 1], "data_format": "channels_last", "trainable": true, "bias_constraint": null, "name": "separable_conv_1_normal_right2_5", "depth_multiplier": 1, "pointwise_initializer": {"class_name": "VarianceScaling", "config": {"scale": 1.0, "mode": "fan_avg", "distribution": "uniform", "seed": null}}, "padding": "same", "pointwise_regularizer": null, "bias_regularizer": null, "depthwise_constraint": null, "activation": "linear", "use_bias": false, "pointwise_constraint": null, "depthwise_initializer": {"class_name": "VarianceScaling", "config": {"scale": 1.0, "mode": "fan_avg", "distribution": "uniform", "seed": null}}, "activity_regularizer": null}, "inbound_nodes": [[["activation_195", 0, 0, {}]]], "name": "separable_conv_1_normal_right2_5"}, {"class_name": "SeparableConv2D", "config": {"kernel_size": [3, 3], "dilation_rate": [1, 1], "filters": 64, "bias_initializer": {"class_name": "Zeros", "config": {}}, "depthwise_regularizer": null, "strides": [1, 1], "data_format": "channels_last", "trainable": true, "bias_constraint": null, "name": "separable_conv_1_normal_left5_5", "depth_multiplier": 1, "pointwise_initializer": {"class_name": "VarianceScaling", "config": {"scale": 1.0, "mode": "fan_avg", "distribution": "uniform", "seed": null}}, "padding": "same", "pointwise_regularizer": null, "bias_regularizer": null, "depthwise_constraint": null, "activation": "linear", "use_bias": false, "pointwise_constraint": null, "depthwise_initializer": {"class_name": "VarianceScaling", "config": {"scale": 1.0, "mode": "fan_avg", "distribution": "uniform", "seed": null}}, "activity_regularizer": null}, "inbound_nodes": [[["activation_197", 0, 0, {}]]], "name": "separable_conv_1_normal_left5_5"}, {"class_name": "BatchNormalization", "config": {"beta_regularizer": null, "center": true, "trainable": true, "gamma_constraint": null, "axis": -1, "gamma_initializer": {"class_name": "Ones", "config": {}}, "moving_variance_initializer": {"class_name": "Ones", "config": {}}, "moving_mean_initializer": {"class_name": "Zeros", "config": {}}, "epsilon": 1e-05, "gamma_regularizer": null, "scale": true, "beta_constraint": null, "beta_initializer": {"class_name": "Zeros", "config": {}}, "momentum": 0.9, "name": "separable_conv_1_bn_normal_left1_5"}, "inbound_nodes": [[["separable_conv_1_normal_left1_5", 0, 0, {}]]], "name": "separable_conv_1_bn_normal_left1_5"}, {"class_name": "BatchNormalization", "config": {"beta_regularizer": null, "center": true, "trainable": true, "gamma_constraint": null, "axis": -1, "gamma_initializer": {"class_name": "Ones", "config": {}}, "moving_variance_initializer": {"class_name": "Ones", "config": {}}, "moving_mean_initializer": {"class_name": "Zeros", "config": {}}, "epsilon": 1e-05, "gamma_regularizer": null, "scale": true, "beta_constraint": null, "beta_initializer": {"class_name": "Zeros", "config": {}}, "momentum": 0.9, "name": "separable_conv_1_bn_normal_right1_5"}, "inbound_nodes": [[["separable_conv_1_normal_right1_5", 0, 0, {}]]], "name": "separable_conv_1_bn_normal_right1_5"}, {"class_name": "BatchNormalization", "config": {"beta_regularizer": null, "center": true, "trainable": true, "gamma_constraint": null, "axis": -1, "gamma_initializer": {"class_name": "Ones", "config": {}}, "moving_variance_initializer": {"class_name": "Ones", "config": {}}, "moving_mean_initializer": {"class_name": "Zeros", "config": {}}, "epsilon": 1e-05, "gamma_regularizer": null, "scale": true, "beta_constraint": null, "beta_initializer": {"class_name": "Zeros", "config": {}}, "momentum": 0.9, "name": "separable_conv_1_bn_normal_left2_5"}, "inbound_nodes": [[["separable_conv_1_normal_left2_5", 0, 0, {}]]], "name": "separable_conv_1_bn_normal_left2_5"}, {"class_name": "BatchNormalization", "config": {"beta_regularizer": null, "center": true, "trainable": true, "gamma_constraint": null, "axis": -1, "gamma_initializer": {"class_name": "Ones", "config": {}}, "moving_variance_initializer": {"class_name": "Ones", "config": {}}, "moving_mean_initializer": {"class_name": "Zeros", "config": {}}, "epsilon": 1e-05, "gamma_regularizer": null, "scale": true, "beta_constraint": null, "beta_initializer": {"class_name": "Zeros", "config": {}}, "momentum": 0.9, "name": "separable_conv_1_bn_normal_right2_5"}, "inbound_nodes": [[["separable_conv_1_normal_right2_5", 0, 0, {}]]], "name": "separable_conv_1_bn_normal_right2_5"}, {"class_name": "BatchNormalization", "config": {"beta_regularizer": null, "center": true, "trainable": true, "gamma_constraint": null, "axis": -1, "gamma_initializer": {"class_name": "Ones", "config": {}}, "moving_variance_initializer": {"class_name": "Ones", "config": {}}, "moving_mean_initializer": {"class_name": "Zeros", "config": {}}, "epsilon": 1e-05, "gamma_regularizer": null, "scale": true, "beta_constraint": null, "beta_initializer": {"class_name": "Zeros", "config": {}}, "momentum": 0.9, "name": "separable_conv_1_bn_normal_left5_5"}, "inbound_nodes": [[["separable_conv_1_normal_left5_5", 0, 0, {}]]], "name": "separable_conv_1_bn_normal_left5_5"}, {"class_name": "Activation", "config": {"activation": "relu", "trainable": true, "name": "activation_190"}, "inbound_nodes": [[["separable_conv_1_bn_normal_left1_5", 0, 0, {}]]], "name": "activation_190"}, {"class_name": "Activation", "config": {"activation": "relu", "trainable": true, "name": "activation_192"}, "inbound_nodes": [[["separable_conv_1_bn_normal_right1_5", 0, 0, {}]]], "name": "activation_192"}, {"class_name": "Activation", "config": {"activation": "relu", "trainable": true, "name": "activation_194"}, "inbound_nodes": [[["separable_conv_1_bn_normal_left2_5", 0, 0, {}]]], "name": "activation_194"}, {"class_name": "Activation", "config": {"activation": "relu", "trainable": true, "name": "activation_196"}, "inbound_nodes": [[["separable_conv_1_bn_normal_right2_5", 0, 0, {}]]], "name": "activation_196"}, {"class_name": "Activation", "config": {"activation": "relu", "trainable": true, "name": "activation_198"}, "inbound_nodes": [[["separable_conv_1_bn_normal_left5_5", 0, 0, {}]]], "name": "activation_198"}, {"class_name": "SeparableConv2D", "config": {"kernel_size": [5, 5], "dilation_rate": [1, 1], "filters": 64, "bias_initializer": {"class_name": "Zeros", "config": {}}, "depthwise_regularizer": null, "strides": [1, 1], "data_format": "channels_last", "trainable": true, "bias_constraint": null, "name": "separable_conv_2_normal_left1_5", "depth_multiplier": 1, "pointwise_initializer": {"class_name": "VarianceScaling", "config": {"scale": 1.0, "mode": "fan_avg", "distribution": "uniform", "seed": null}}, "padding": "same", "pointwise_regularizer": null, "bias_regularizer": null, "depthwise_constraint": null, "activation": "linear", "use_bias": false, "pointwise_constraint": null, "depthwise_initializer": {"class_name": "VarianceScaling", "config": {"scale": 1.0, "mode": "fan_avg", "distribution": "uniform", "seed": null}}, "activity_regularizer": null}, "inbound_nodes": [[["activation_190", 0, 0, {}]]], "name": "separable_conv_2_normal_left1_5"}, {"class_name": "SeparableConv2D", "config": {"kernel_size": [3, 3], "dilation_rate": [1, 1], "filters": 64, "bias_initializer": {"class_name": "Zeros", "config": {}}, "depthwise_regularizer": null, "strides": [1, 1], "data_format": "channels_last", "trainable": true, "bias_constraint": null, "name": "separable_conv_2_normal_right1_5", "depth_multiplier": 1, "pointwise_initializer": {"class_name": "VarianceScaling", "config": {"scale": 1.0, "mode": "fan_avg", "distribution": "uniform", "seed": null}}, "padding": "same", "pointwise_regularizer": null, "bias_regularizer": null, "depthwise_constraint": null, "activation": "linear", "use_bias": false, "pointwise_constraint": null, "depthwise_initializer": {"class_name": "VarianceScaling", "config": {"scale": 1.0, "mode": "fan_avg", "distribution": "uniform", "seed": null}}, "activity_regularizer": null}, "inbound_nodes": [[["activation_192", 0, 0, {}]]], "name": "separable_conv_2_normal_right1_5"}, {"class_name": "SeparableConv2D", "config": {"kernel_size": [5, 5], "dilation_rate": [1, 1], "filters": 64, "bias_initializer": {"class_name": "Zeros", "config": {}}, "depthwise_regularizer": null, "strides": [1, 1], "data_format": "channels_last", "trainable": true, "bias_constraint": null, "name": "separable_conv_2_normal_left2_5", "depth_multiplier": 1, "pointwise_initializer": {"class_name": "VarianceScaling", "config": {"scale": 1.0, "mode": "fan_avg", "distribution": "uniform", "seed": null}}, "padding": "same", "pointwise_regularizer": null, "bias_regularizer": null, "depthwise_constraint": null, "activation": "linear", "use_bias": false, "pointwise_constraint": null, "depthwise_initializer": {"class_name": "VarianceScaling", "config": {"scale": 1.0, "mode": "fan_avg", "distribution": "uniform", "seed": null}}, "activity_regularizer": null}, "inbound_nodes": [[["activation_194", 0, 0, {}]]], "name": "separable_conv_2_normal_left2_5"}, {"class_name": "SeparableConv2D", "config": {"kernel_size": [3, 3], "dilation_rate": [1, 1], "filters": 64, "bias_initializer": {"class_name": "Zeros", "config": {}}, "depthwise_regularizer": null, "strides": [1, 1], "data_format": "channels_last", "trainable": true, "bias_constraint": null, "name": "separable_conv_2_normal_right2_5", "depth_multiplier": 1, "pointwise_initializer": {"class_name": "VarianceScaling", "config": {"scale": 1.0, "mode": "fan_avg", "distribution": "uniform", "seed": null}}, "padding": "same", "pointwise_regularizer": null, "bias_regularizer": null, "depthwise_constraint": null, "activation": "linear", "use_bias": false, "pointwise_constraint": null, "depthwise_initializer": {"class_name": "VarianceScaling", "config": {"scale": 1.0, "mode": "fan_avg", "distribution": "uniform", "seed": null}}, "activity_regularizer": null}, "inbound_nodes": [[["activation_196", 0, 0, {}]]], "name": "separable_conv_2_normal_right2_5"}, {"class_name": "SeparableConv2D", "config": {"kernel_size": [3, 3], "dilation_rate": [1, 1], "filters": 64, "bias_initializer": {"class_name": "Zeros", "config": {}}, "depthwise_regularizer": null, "strides": [1, 1], "data_format": "channels_last", "trainable": true, "bias_constraint": null, "name": "separable_conv_2_normal_left5_5", "depth_multiplier": 1, "pointwise_initializer": {"class_name": "VarianceScaling", "config": {"scale": 1.0, "mode": "fan_avg", "distribution": "uniform", "seed": null}}, "padding": "same", "pointwise_regularizer": null, "bias_regularizer": null, "depthwise_constraint": null, "activation": "linear", "use_bias": false, "pointwise_constraint": null, "depthwise_initializer": {"class_name": "VarianceScaling", "config": {"scale": 1.0, "mode": "fan_avg", "distribution": "uniform", "seed": null}}, "activity_regularizer": null}, "inbound_nodes": [[["activation_198", 0, 0, {}]]], "name": "separable_conv_2_normal_left5_5"}, {"class_name": "BatchNormalization", "config": {"beta_regularizer": null, "center": true, "trainable": true, "gamma_constraint": null, "axis": -1, "gamma_initializer": {"class_name": "Ones", "config": {}}, "moving_variance_initializer": {"class_name": "Ones", "config": {}}, "moving_mean_initializer": {"class_name": "Zeros", "config": {}}, "epsilon": 1e-05, "gamma_regularizer": null, "scale": true, "beta_constraint": null, "beta_initializer": {"class_name": "Zeros", "config": {}}, "momentum": 0.9, "name": "separable_conv_2_bn_normal_left1_5"}, "inbound_nodes": [[["separable_conv_2_normal_left1_5", 0, 0, {}]]], "name": "separable_conv_2_bn_normal_left1_5"}, {"class_name": "BatchNormalization", "config": {"beta_regularizer": null, "center": true, "trainable": true, "gamma_constraint": null, "axis": -1, "gamma_initializer": {"class_name": "Ones", "config": {}}, "moving_variance_initializer": {"class_name": "Ones", "config": {}}, "moving_mean_initializer": {"class_name": "Zeros", "config": {}}, "epsilon": 1e-05, "gamma_regularizer": null, "scale": true, "beta_constraint": null, "beta_initializer": {"class_name": "Zeros", "config": {}}, "momentum": 0.9, "name": "separable_conv_2_bn_normal_right1_5"}, "inbound_nodes": [[["separable_conv_2_normal_right1_5", 0, 0, {}]]], "name": "separable_conv_2_bn_normal_right1_5"}, {"class_name": "BatchNormalization", "config": {"beta_regularizer": null, "center": true, "trainable": true, "gamma_constraint": null, "axis": -1, "gamma_initializer": {"class_name": "Ones", "config": {}}, "moving_variance_initializer": {"class_name": "Ones", "config": {}}, "moving_mean_initializer": {"class_name": "Zeros", "config": {}}, "epsilon": 1e-05, "gamma_regularizer": null, "scale": true, "beta_constraint": null, "beta_initializer": {"class_name": "Zeros", "config": {}}, "momentum": 0.9, "name": "separable_conv_2_bn_normal_left2_5"}, "inbound_nodes": [[["separable_conv_2_normal_left2_5", 0, 0, {}]]], "name": "separable_conv_2_bn_normal_left2_5"}, {"class_name": "BatchNormalization", "config": {"beta_regularizer": null, "center": true, "trainable": true, "gamma_constraint": null, "axis": -1, "gamma_initializer": {"class_name": "Ones", "config": {}}, "moving_variance_initializer": {"class_name": "Ones", "config": {}}, "moving_mean_initializer": {"class_name": "Zeros", "config": {}}, "epsilon": 1e-05, "gamma_regularizer": null, "scale": true, "beta_constraint": null, "beta_initializer": {"class_name": "Zeros", "config": {}}, "momentum": 0.9, "name": "separable_conv_2_bn_normal_right2_5"}, "inbound_nodes": [[["separable_conv_2_normal_right2_5", 0, 0, {}]]], "name": "separable_conv_2_bn_normal_right2_5"}, {"class_name": "AveragePooling2D", "config": {"padding": "same", "data_format": "channels_last", "pool_size": [3, 3], "trainable": true, "strides": [1, 1], "name": "normal_left3_5"}, "inbound_nodes": [[["normal_bn_1_5", 0, 0, {}]]], "name": "normal_left3_5"}, {"class_name": "AveragePooling2D", "config": {"padding": "same", "data_format": "channels_last", "pool_size": [3, 3], "trainable": true, "strides": [1, 1], "name": "normal_left4_5"}, "inbound_nodes": [[["adjust_bn_5", 0, 0, {}]]], "name": "normal_left4_5"}, {"class_name": "AveragePooling2D", "config": {"padding": "same", "data_format": "channels_last", "pool_size": [3, 3], "trainable": true, "strides": [1, 1], "name": "normal_right4_5"}, "inbound_nodes": [[["adjust_bn_5", 0, 0, {}]]], "name": "normal_right4_5"}, {"class_name": "BatchNormalization", "config": {"beta_regularizer": null, "center": true, "trainable": true, "gamma_constraint": null, "axis": -1, "gamma_initializer": {"class_name": "Ones", "config": {}}, "moving_variance_initializer": {"class_name": "Ones", "config": {}}, "moving_mean_initializer": {"class_name": "Zeros", "config": {}}, "epsilon": 1e-05, "gamma_regularizer": null, "scale": true, "beta_constraint": null, "beta_initializer": {"class_name": "Zeros", "config": {}}, "momentum": 0.9, "name": "separable_conv_2_bn_normal_left5_5"}, "inbound_nodes": [[["separable_conv_2_normal_left5_5", 0, 0, {}]]], "name": "separable_conv_2_bn_normal_left5_5"}, {"class_name": "Add", "config": {"trainable": true, "name": "normal_add_1_5"}, "inbound_nodes": [[["separable_conv_2_bn_normal_left1_5", 0, 0, {}], ["separable_conv_2_bn_normal_right1_5", 0, 0, {}]]], "name": "normal_add_1_5"}, {"class_name": "Add", "config": {"trainable": true, "name": "normal_add_2_5"}, "inbound_nodes": [[["separable_conv_2_bn_normal_left2_5", 0, 0, {}], ["separable_conv_2_bn_normal_right2_5", 0, 0, {}]]], "name": "normal_add_2_5"}, {"class_name": "Add", "config": {"trainable": true, "name": "normal_add_3_5"}, "inbound_nodes": [[["normal_left3_5", 0, 0, {}], ["adjust_bn_5", 0, 0, {}]]], "name": "normal_add_3_5"}, {"class_name": "Add", "config": {"trainable": true, "name": "normal_add_4_5"}, "inbound_nodes": [[["normal_left4_5", 0, 0, {}], ["normal_right4_5", 0, 0, {}]]], "name": "normal_add_4_5"}, {"class_name": "Add", "config": {"trainable": true, "name": "normal_add_5_5"}, "inbound_nodes": [[["separable_conv_2_bn_normal_left5_5", 0, 0, {}], ["normal_bn_1_5", 0, 0, {}]]], "name": "normal_add_5_5"}, {"class_name": "Concatenate", "config": {"axis": -1, "trainable": true, "name": "normal_concat_5"}, "inbound_nodes": [[["adjust_bn_5", 0, 0, {}], ["normal_add_1_5", 0, 0, {}], ["normal_add_2_5", 0, 0, {}], ["normal_add_3_5", 0, 0, {}], ["normal_add_4_5", 0, 0, {}], ["normal_add_5_5", 0, 0, {}]]], "name": "normal_concat_5"}, {"class_name": "Activation", "config": {"activation": "relu", "trainable": true, "name": "activation_200"}, "inbound_nodes": [[["normal_concat_5", 0, 0, {}]]], "name": "activation_200"}, {"class_name": "Activation", "config": {"activation": "relu", "trainable": true, "name": "activation_199"}, "inbound_nodes": [[["normal_concat_4", 0, 0, {}]]], "name": "activation_199"}, {"class_name": "Conv2D", "config": {"kernel_size": [1, 1], "dilation_rate": [1, 1], "filters": 128, "padding": "same", "bias_initializer": {"class_name": "Zeros", "config": {}}, "name": "reduction_conv_1_reduce_5", "strides": [1, 1], "kernel_initializer": {"class_name": "VarianceScaling", "config": {"scale": 2.0, "mode": "fan_in", "distribution": "normal", "seed": null}}, "trainable": true, "bias_constraint": null, "data_format": "channels_last", "activation": "linear", "use_bias": false, "kernel_regularizer": {"class_name": "L1L2", "config": {"l1": 0.0, "l2": 0.0005000000237487257}}, "kernel_constraint": null, "bias_regularizer": null, "activity_regularizer": null}, "inbound_nodes": [[["activation_200", 0, 0, {}]]], "name": "reduction_conv_1_reduce_5"}, {"class_name": "Conv2D", "config": {"kernel_size": [1, 1], "dilation_rate": [1, 1], "filters": 128, "padding": "same", "bias_initializer": {"class_name": "Zeros", "config": {}}, "name": "adjust_conv_projection_reduce_5", "strides": [1, 1], "kernel_initializer": {"class_name": "VarianceScaling", "config": {"scale": 2.0, "mode": "fan_in", "distribution": "normal", "seed": null}}, "trainable": true, "bias_constraint": null, "data_format": "channels_last", "activation": "linear", "use_bias": false, "kernel_regularizer": {"class_name": "L1L2", "config": {"l1": 0.0, "l2": 0.0005000000237487257}}, "kernel_constraint": null, "bias_regularizer": null, "activity_regularizer": null}, "inbound_nodes": [[["activation_199", 0, 0, {}]]], "name": "adjust_conv_projection_reduce_5"}, {"class_name": "BatchNormalization", "config": {"beta_regularizer": null, "center": true, "trainable": true, "gamma_constraint": null, "axis": -1, "gamma_initializer": {"class_name": "Ones", "config": {}}, "moving_variance_initializer": {"class_name": "Ones", "config": {}}, "moving_mean_initializer": {"class_name": "Zeros", "config": {}}, "epsilon": 1e-05, "gamma_regularizer": null, "scale": true, "beta_constraint": null, "beta_initializer": {"class_name": "Zeros", "config": {}}, "momentum": 0.9, "name": "reduction_bn_1_reduce_5"}, "inbound_nodes": [[["reduction_conv_1_reduce_5", 0, 0, {}]]], "name": "reduction_bn_1_reduce_5"}, {"class_name": "BatchNormalization", "config": {"beta_regularizer": null, "center": true, "trainable": true, "gamma_constraint": null, "axis": -1, "gamma_initializer": {"class_name": "Ones", "config": {}}, "moving_variance_initializer": {"class_name": "Ones", "config": {}}, "moving_mean_initializer": {"class_name": "Zeros", "config": {}}, "epsilon": 1e-05, "gamma_regularizer": null, "scale": true, "beta_constraint": null, "beta_initializer": {"class_name": "Zeros", "config": {}}, "momentum": 0.9, "name": "adjust_bn_reduce_5"}, "inbound_nodes": [[["adjust_conv_projection_reduce_5", 0, 0, {}]]], "name": "adjust_bn_reduce_5"}, {"class_name": "Activation", "config": {"activation": "relu", "trainable": true, "name": "activation_201"}, "inbound_nodes": [[["reduction_bn_1_reduce_5", 0, 0, {}]]], "name": "activation_201"}, {"class_name": "Activation", "config": {"activation": "relu", "trainable": true, "name": "activation_203"}, "inbound_nodes": [[["adjust_bn_reduce_5", 0, 0, {}]]], "name": "activation_203"}, {"class_name": "SeparableConv2D", "config": {"kernel_size": [5, 5], "dilation_rate": [1, 1], "filters": 128, "bias_initializer": {"class_name": "Zeros", "config": {}}, "depthwise_regularizer": null, "strides": [2, 2], "data_format": "channels_last", "trainable": true, "bias_constraint": null, "name": "separable_conv_1_reduction_left1_reduce_5", "depth_multiplier": 1, "pointwise_initializer": {"class_name": "VarianceScaling", "config": {"scale": 1.0, "mode": "fan_avg", "distribution": "uniform", "seed": null}}, "padding": "same", "pointwise_regularizer": null, "bias_regularizer": null, "depthwise_constraint": null, "activation": "linear", "use_bias": false, "pointwise_constraint": null, "depthwise_initializer": {"class_name": "VarianceScaling", "config": {"scale": 1.0, "mode": "fan_avg", "distribution": "uniform", "seed": null}}, "activity_regularizer": null}, "inbound_nodes": [[["activation_201", 0, 0, {}]]], "name": "separable_conv_1_reduction_left1_reduce_5"}, {"class_name": "SeparableConv2D", "config": {"kernel_size": [7, 7], "dilation_rate": [1, 1], "filters": 128, "bias_initializer": {"class_name": "Zeros", "config": {}}, "depthwise_regularizer": null, "strides": [2, 2], "data_format": "channels_last", "trainable": true, "bias_constraint": null, "name": "separable_conv_1_reduction_1_reduce_5", "depth_multiplier": 1, "pointwise_initializer": {"class_name": "VarianceScaling", "config": {"scale": 1.0, "mode": "fan_avg", "distribution": "uniform", "seed": null}}, "padding": "same", "pointwise_regularizer": null, "bias_regularizer": null, "depthwise_constraint": null, "activation": "linear", "use_bias": false, "pointwise_constraint": null, "depthwise_initializer": {"class_name": "VarianceScaling", "config": {"scale": 1.0, "mode": "fan_avg", "distribution": "uniform", "seed": null}}, "activity_regularizer": null}, "inbound_nodes": [[["activation_203", 0, 0, {}]]], "name": "separable_conv_1_reduction_1_reduce_5"}, {"class_name": "BatchNormalization", "config": {"beta_regularizer": null, "center": true, "trainable": true, "gamma_constraint": null, "axis": -1, "gamma_initializer": {"class_name": "Ones", "config": {}}, "moving_variance_initializer": {"class_name": "Ones", "config": {}}, "moving_mean_initializer": {"class_name": "Zeros", "config": {}}, "epsilon": 1e-05, "gamma_regularizer": null, "scale": true, "beta_constraint": null, "beta_initializer": {"class_name": "Zeros", "config": {}}, "momentum": 0.9, "name": "separable_conv_1_bn_reduction_left1_reduce_5"}, "inbound_nodes": [[["separable_conv_1_reduction_left1_reduce_5", 0, 0, {}]]], "name": "separable_conv_1_bn_reduction_left1_reduce_5"}, {"class_name": "BatchNormalization", "config": {"beta_regularizer": null, "center": true, "trainable": true, "gamma_constraint": null, "axis": -1, "gamma_initializer": {"class_name": "Ones", "config": {}}, "moving_variance_initializer": {"class_name": "Ones", "config": {}}, "moving_mean_initializer": {"class_name": "Zeros", "config": {}}, "epsilon": 1e-05, "gamma_regularizer": null, "scale": true, "beta_constraint": null, "beta_initializer": {"class_name": "Zeros", "config": {}}, "momentum": 0.9, "name": "separable_conv_1_bn_reduction_1_reduce_5"}, "inbound_nodes": [[["separable_conv_1_reduction_1_reduce_5", 0, 0, {}]]], "name": "separable_conv_1_bn_reduction_1_reduce_5"}, {"class_name": "Activation", "config": {"activation": "relu", "trainable": true, "name": "activation_202"}, "inbound_nodes": [[["separable_conv_1_bn_reduction_left1_reduce_5", 0, 0, {}]]], "name": "activation_202"}, {"class_name": "Activation", "config": {"activation": "relu", "trainable": true, "name": "activation_204"}, "inbound_nodes": [[["separable_conv_1_bn_reduction_1_reduce_5", 0, 0, {}]]], "name": "activation_204"}, {"class_name": "SeparableConv2D", "config": {"kernel_size": [5, 5], "dilation_rate": [1, 1], "filters": 128, "bias_initializer": {"class_name": "Zeros", "config": {}}, "depthwise_regularizer": null, "strides": [1, 1], "data_format": "channels_last", "trainable": true, "bias_constraint": null, "name": "separable_conv_2_reduction_left1_reduce_5", "depth_multiplier": 1, "pointwise_initializer": {"class_name": "VarianceScaling", "config": {"scale": 1.0, "mode": "fan_avg", "distribution": "uniform", "seed": null}}, "padding": "same", "pointwise_regularizer": null, "bias_regularizer": null, "depthwise_constraint": null, "activation": "linear", "use_bias": false, "point…
": "reduction_add4_reduce_5"}, {"class_name": "Cropping2D", "config": {"name": "cropping2d_4", "trainable": true, "cropping": [[1, 0], [1, 0]], "data_format": "channels_last"}, "inbound_nodes": [[["zero_padding2d_4", 0, 0, {}]]], "name": "cropping2d_4"}, {"class_name": "Concatenate", "config": {"axis": -1, "trainable": true, "name": "reduction_concat_reduce_5"}, "inbound_nodes": [[["reduction_add_2_reduce_5", 0, 0, {}], ["reduction_add3_reduce_5", 0, 0, {}], ["add_4", 0, 0, {}], ["reduction_add4_reduce_5", 0, 0, {}]]], "name": "reduction_concat_reduce_5"}, {"class_name": "AveragePooling2D", "config": {"padding": "valid", "data_format": "channels_last", "pool_size": [1, 1], "trainable": true, "strides": [2, 2], "name": "adjust_avg_pool_1_6"}, "inbound_nodes": [[["adjust_relu_1_6", 0, 0, {}]]], "name": "adjust_avg_pool_1_6"}, {"class_name": "AveragePooling2D", "config": {"padding": "valid", "data_format": "channels_last", "pool_size": [1, 1], "trainable": true, "strides": [2, 2], "name": "adjust_avg_pool_2_6"}, "inbound_nodes": [[["cropping2d_4", 0, 0, {}]]], "name": "adjust_avg_pool_2_6"}, {"class_name": "Conv2D", "config": {"kernel_size": [1, 1], "dilation_rate": [1, 1], "filters": 64, "padding": "same", "bias_initializer": {"class_name": "Zeros", "config": {}}, "name": "adjust_conv_1_6", "strides": [1, 1], "kernel_initializer": {"class_name": "VarianceScaling", "config": {"scale": 2.0, "mode": "fan_in", "distribution": "normal", "seed": null}}, "trainable": true, "bias_constraint": null, "data_format": "channels_last", "activation": "linear", "use_bias": false, "kernel_regularizer": {"class_name": "L1L2", "config": {"l1": 0.0, "l2": 0.0005000000237487257}}, "kernel_constraint": null, "bias_regularizer": null, "activity_regularizer": null}, "inbound_nodes": [[["adjust_avg_pool_1_6", 0, 0, {}]]], "name": "adjust_conv_1_6"}, {"class_name": "Conv2D", "config": {"kernel_size": [1, 1], "dilation_rate": [1, 1], "filters": 64, "padding": "same", "bias_initializer": {"class_name": "Zeros", "config": {}}, "name": "adjust_conv_2_6", "strides": [1, 1], "kernel_initializer": {"class_name": "VarianceScaling", "config": {"scale": 2.0, "mode": "fan_in", "distribution": "normal", "seed": null}}, "trainable": true, "bias_constraint": null, "data_format": "channels_last", "activation": "linear", "use_bias": false, "kernel_regularizer": {"class_name": "L1L2", "config": {"l1": 0.0, "l2": 0.0005000000237487257}}, "kernel_constraint": null, "bias_regularizer": null, "activity_regularizer": null}, "inbound_nodes": [[["adjust_avg_pool_2_6", 0, 0, {}]]], "name": "adjust_conv_2_6"}, {"class_name": "Activation", "config": {"activation": "relu", "trainable": true, "name": "activation_211"}, "inbound_nodes": [[["reduction_concat_reduce_5", 0, 0, {}]]], "name": "activation_211"}, {"class_name": "Concatenate", "config": {"axis": -1, "trainable": true, "name": "concatenate_4"}, "inbound_nodes": [[["adjust_conv_1_6", 0, 0, {}], ["adjust_conv_2_6", 0, 0, {}]]], "name": "concatenate_4"}, {"class_name": "Conv2D", "config": {"kernel_size": [1, 1], "dilation_rate": [1, 1], "filters": 128, "padding": "same", "bias_initializer": {"class_name": "Zeros", "config": {}}, "name": "normal_conv_1_6", "strides": [1, 1], "kernel_initializer": {"class_name": "VarianceScaling", "config": {"scale": 2.0, "mode": "fan_in", "distribution": "normal", "seed": null}}, "trainable": true, "bias_constraint": null, "data_format": "channels_last", "activation": "linear", "use_bias": false, "kernel_regularizer": {"class_name": "L1L2", "config": {"l1": 0.0, "l2": 0.0005000000237487257}}, "kernel_constraint": null, "bias_regularizer": null, "activity_regularizer": null}, "inbound_nodes": [[["activation_211", 0, 0, {}]]], "name": "normal_conv_1_6"}, {"class_name": "BatchNormalization", "config": {"beta_regularizer": null, "center": true, "trainable": true, "gamma_constraint": null, "axis": -1, "gamma_initializer": {"class_name": "Ones", "config": {}}, "moving_variance_initializer": {"class_name": "Ones", "config": {}}, "moving_mean_initializer": {"class_name": "Zeros", "config": {}}, "epsilon": 1e-05, "gamma_regularizer": null, "scale": true, "beta_constraint": null, "beta_initializer": {"class_name": "Zeros", "config": {}}, "momentum": 0.9, "name": "adjust_bn_6"}, "inbound_nodes": [[["concatenate_4", 0, 0, {}]]], "name": "adjust_bn_6"}, {"class_name": "BatchNormalization", "config": {"beta_regularizer": null, "center": true, "trainable": true, "gamma_constraint": null, "axis": -1, "gamma_initializer": {"class_name": "Ones", "config": {}}, "moving_variance_initializer": {"class_name": "Ones", "config": {}}, "moving_mean_initializer": {"class_name": "Zeros", "config": {}}, "epsilon": 1e-05, "gamma_regularizer": null, "scale": true, "beta_constraint": null, "beta_initializer": {"class_name": "Zeros", "config": {}}, "momentum": 0.9, "name": "normal_bn_1_6"}, "inbound_nodes": [[["normal_conv_1_6", 0, 0, {}]]], "name": "normal_bn_1_6"}, {"class_name": "Activation", "config": {"activation": "relu", "trainable": true, "name": "activation_212"}, "inbound_nodes": [[["normal_bn_1_6", 0, 0, {}]]], "name": "activation_212"}, {"class_name": "Activation", "config": {"activation": "relu", "trainable": true, "name": "activation_214"}, "inbound_nodes": [[["adjust_bn_6", 0, 0, {}]]], "name": "activation_214"}, {"class_name": "Activation", "config": {"activation": "relu", "trainable": true, "name": "activation_216"}, "inbound_nodes": [[["adjust_bn_6", 0, 0, {}]]], "name": "activation_216"}, {"class_name": "Activation", "config": {"activation": "relu", "trainable": true, "name": "activation_218"}, "inbound_nodes": [[["adjust_bn_6", 0, 0, {}]]], "name": "activation_218"}, {"class_name": "Activation", "config": {"activation": "relu", "trainable": true, "name": "activation_220"}, "inbound_nodes": [[["normal_bn_1_6", 0, 0, {}]]], "name": "activation_220"}, {"class_name": "SeparableConv2D", "config": {"kernel_size": [5, 5], "dilation_rate": [1, 1], "filters": 128, "bias_initializer": {"class_name": "Zeros", "config": {}}, "depthwise_regularizer": null, "strides": [1, 1], "data_format": "channels_last", "trainable": true, "bias_constraint": null, "name": "separable_conv_1_normal_left1_6", "depth_multiplier": 1, "pointwise_initializer": {"class_name": "VarianceScaling", "config": {"scale": 1.0, "mode": "fan_avg", "distribution": "uniform", "seed": null}}, "padding": "same", "pointwise_regularizer": null, "bias_regularizer": null, "depthwise_constraint": null, "activation": "linear", "use_bias": false, "pointwise_constraint": null, "depthwise_initializer": {"class_name": "VarianceScaling", "config": {"scale": 1.0, "mode": "fan_avg", "distribution": "uniform", "seed": null}}, "activity_regularizer": null}, "inbound_nodes": [[["activation_212", 0, 0, {}]]], "name": "separable_conv_1_normal_left1_6"}, {"class_name": "SeparableConv2D", "config": {"kernel_size": [3, 3], "dilation_rate": [1, 1], "filters": 128, "bias_initializer": {"class_name": "Zeros", "config": {}}, "depthwise_regularizer": null, "strides": [1, 1], "data_format": "channels_last", "trainable": true, "bias_constraint": null, "name": "separable_conv_1_normal_right1_6", "depth_multiplier": 1, "pointwise_initializer": {"class_name": "VarianceScaling", "config": {"scale": 1.0, "mode": "fan_avg", "distribution": "uniform", "seed": null}}, "padding": "same", "pointwise_regularizer": null, "bias_regularizer": null, "depthwise_constraint": null, "activation": "linear", "use_bias": false, "pointwise_constraint": null, "depthwise_initializer": {"class_name": "VarianceScaling", "config": {"scale": 1.0, "mode": "fan_avg", "distribution": "uniform", "seed": null}}, "activity_regularizer": null}, "inbound_nodes": [[["activation_214", 0, 0, {}]]], "name": "separable_conv_1_normal_right1_6"}, {"class_name": "SeparableConv2D", "config": {"kernel_size": [5, 5], "dilation_rate": [1, 1], "filters": 128, "bias_initializer": {"class_name": "Zeros", "config": {}}, "depthwise_regularizer": null, "strides": [1, 1], "data_format": "channels_last", "trainable": true, "bias_constraint": null, "name": "separable_conv_1_normal_left2_6", "depth_multiplier": 1, "pointwise_initializer": {"class_name": "VarianceScaling", "config": {"scale": 1.0, "mode": "fan_avg", "distribution": "uniform", "seed": null}}, "padding": "same", "pointwise_regularizer": null, "bias_regularizer": null, "depthwise_constraint": null, "activation": "linear", "use_bias": false, "pointwise_constraint": null, "depthwise_initializer": {"class_name": "VarianceScaling", "config": {"scale": 1.0, "mode": "fan_avg", "distribution": "uniform", "seed": null}}, "activity_regularizer": null}, "inbound_nodes": [[["activation_216", 0, 0, {}]]], "name": "separable_conv_1_normal_left2_6"}, {"class_name": "SeparableConv2D", "config": {"kernel_size": [3, 3], "dilation_rate": [1, 1], "filters": 128, "bias_initializer": {"class_name": "Zeros", "config": {}}, "depthwise_regularizer": null, "strides": [1, 1], "data_format": "channels_last", "trainable": true, "bias_constraint": null, "name": "separable_conv_1_normal_right2_6", "depth_multiplier": 1, "pointwise_initializer": {"class_name": "VarianceScaling", "config": {"scale": 1.0, "mode": "fan_avg", "distribution": "uniform", "seed": null}}, "padding": "same", "pointwise_regularizer": null, "bias_regularizer": null, "depthwise_constraint": null, "activation": "linear", "use_bias": false, "pointwise_constraint": null, "depthwise_initializer": {"class_name": "VarianceScaling", "config": {"scale": 1.0, "mode": "fan_avg", "distribution": "uniform", "seed": null}}, "activity_regularizer": null}, "inbound_nodes": [[["activation_218", 0, 0, {}]]], "name": "separable_conv_1_normal_right2_6"}, {"class_name": "SeparableConv2D", "config": {"kernel_size": [3, 3], "dilation_rate": [1, 1], "filters": 128, "bias_initializer": {"class_name": "Zeros", "config": {}}, "depthwise_regularizer": null, "strides": [1, 1], "data_format": "channels_last", "trainable": true, "bias_constraint": null, "name": "separable_conv_1_normal_left5_6", "depth_multiplier": 1, "pointwise_initializer": {"class_name": "VarianceScaling", "config": {"scale": 1.0, "mode": "fan_avg", "distribution": "uniform", "seed": null}}, "padding": "same", "pointwise_regularizer": null, "bias_regularizer": null, "depthwise_constraint": null, "activation": "linear", "use_bias": false, "pointwise_constraint": null, "depthwise_initializer": {"class_name": "VarianceScaling", "config": {"scale": 1.0, "mode": "fan_avg", "distribution": "uniform", "seed": null}}, "activity_regularizer": null}, "inbound_nodes": [[["activation_220", 0, 0, {}]]], "name": "separable_conv_1_normal_left5_6"}, {"class_name": "BatchNormalization", "config": {"beta_regularizer": null, "center": true, "trainable": true, "gamma_constraint": null, "axis": -1, "gamma_initializer": {"class_name": "Ones", "config": {}}, "moving_variance_initializer": {"class_name": "Ones", "config": {}}, "moving_mean_initializer": {"class_name": "Zeros", "config": {}}, "epsilon": 1e-05, "gamma_regularizer": null, "scale": true, "beta_constraint": null, "beta_initializer": {"class_name": "Zeros", "config": {}}, "momentum": 0.9, "name": "separable_conv_1_bn_normal_left1_6"}, "inbound_nodes": [[["separable_conv_1_normal_left1_6", 0, 0, {}]]], "name": "separable_conv_1_bn_normal_left1_6"}, {"class_name": "BatchNormalization", "config": {"beta_regularizer": null, "center": true, "trainable": true, "gamma_constraint": null, "axis": -1, "gamma_initializer": {"class_name": "Ones", "config": {}}, "moving_variance_initializer": {"class_name": "Ones", "config": {}}, "moving_mean_initializer": {"class_name": "Zeros", "config": {}}, "epsilon": 1e-05, "gamma_regularizer": null, "scale": true, "beta_constraint": null, "beta_initializer": {"class_name": "Zeros", "config": {}}, "momentum": 0.9, "name": "separable_conv_1_bn_normal_right1_6"}, "inbound_nodes": [[["separable_conv_1_normal_right1_6", 0, 0, {}]]], "name": "separable_conv_1_bn_normal_right1_6"}, {"class_name": "BatchNormalization", "config": {"beta_regularizer": null, "center": true, "trainable": true, "gamma_constraint": null, "axis": -1, "gamma_initializer": {"class_name": "Ones", "config": {}}, "moving_variance_initializer": {"class_name": "Ones", "config": {}}, "moving_mean_initializer": {"class_name": "Zeros", "config": {}}, "epsilon": 1e-05, "gamma_regularizer": null, "scale": true, "beta_constraint": null, "beta_initializer": {"class_name": "Zeros", "config": {}}, "momentum": 0.9, "name": "separable_conv_1_bn_normal_left2_6"}, "inbound_nodes": [[["separable_conv_1_normal_left2_6", 0, 0, {}]]], "name": "separable_conv_1_bn_normal_left2_6"}, {"class_name": "BatchNormalization", "config": {"beta_regularizer": null, "center": true, "trainable": true, "gamma_constraint": null, "axis": -1, "gamma_initializer": {"class_name": "Ones", "config": {}}, "moving_variance_initializer": {"class_name": "Ones", "config": {}}, "moving_mean_initializer": {"class_name": "Zeros", "config": {}}, "epsilon": 1e-05, "gamma_regularizer": null, "scale": true, "beta_constraint": null, "beta_initializer": {"class_name": "Zeros", "config": {}}, "momentum": 0.9, "name": "separable_conv_1_bn_normal_right2_6"}, "inbound_nodes": [[["separable_conv_1_normal_right2_6", 0, 0, {}]]], "name": "separable_conv_1_bn_normal_right2_6"}, {"class_name": "BatchNormalization", "config": {"beta_regularizer": null, "center": true, "trainable": true, "gamma_constraint": null, "axis": -1, "gamma_initializer": {"class_name": "Ones", "config": {}}, "moving_variance_initializer": {"class_name": "Ones", "config": {}}, "moving_mean_initializer": {"class_name": "Zeros", "config": {}}, "epsilon": 1e-05, "gamma_regularizer": null, "scale": true, "beta_constraint": null, "beta_initializer": {"class_name": "Zeros", "config": {}}, "momentum": 0.9, "name": "separable_conv_1_bn_normal_left5_6"}, "inbound_nodes": [[["separable_conv_1_normal_left5_6", 0, 0, {}]]], "name": "separable_conv_1_bn_normal_left5_6"}, {"class_name": "Activation", "config": {"activation": "relu", "trainable": true, "name": "activation_213"}, "inbound_nodes": [[["separable_conv_1_bn_normal_left1_6", 0, 0, {}]]], "name": "activation_213"}, {"class_name": "Activation", "config": {"activation": "relu", "trainable": true, "name": "activation_215"}, "inbound_nodes": [[["separable_conv_1_bn_normal_right1_6", 0, 0, {}]]], "name": "activation_215"}, {"class_name": "Activation", "config": {"activation": "relu", "trainable": true, "name": "activation_217"}, "inbound_nodes": [[["separable_conv_1_bn_normal_left2_6", 0, 0, {}]]], "name": "activation_217"}, {"class_name": "Activation", "config": {"activation": "relu", "trainable": true, "name": "activation_219"}, "inbound_nodes": [[["separable_conv_1_bn_normal_right2_6", 0, 0, {}]]], "name": "activation_219"}, {"class_name": "Activation", "config": {"activation": "relu", "trainable": true, "name": "activation_221"}, "inbound_nodes": [[["separable_conv_1_bn_normal_left5_6", 0, 0, {}]]], "name": "activation_221"}, {"class_name": "SeparableConv2D", "config": {"kernel_size": [5, 5], "dilation_rate": [1, 1], "filters": 128, "bias_initializer": {"class_name": "Zeros", "config": {}}, "depthwise_regularizer": null, "strides": [1, 1], "data_format": "channels_last", "trainable": true, "bias_constraint": null, "name": "separable_conv_2_normal_left1_6", "depth_multiplier": 1, "pointwise_initializer": {"class_name": "VarianceScaling", "config": {"scale": 1.0, "mode": "fan_avg", "distribution": "uniform", "seed": null}}, "padding": "same", "pointwise_regularizer": null, "bias_regularizer": null, "depthwise_constraint": null, "activation": "linear", "use_bias": false, "pointwise_constraint": null, "depthwise_initializer": {"class_name": "VarianceScaling", "config": {"scale": 1.0, "mode": "fan_avg", "distribution": "uniform", "seed": null}}, "activity_regularizer": null}, "inbound_nodes": [[["activation_213", 0, 0, {}]]], "name": "separable_conv_2_normal_left1_6"}, {"class_name": "SeparableConv2D", "config": {"kernel_size": [3, 3], "dilation_rate": [1, 1], "filters": 128, "bias_initializer": {"class_name": "Zeros", "config": {}}, "depthwise_regularizer": null, "strides": [1, 1], "data_format": "channels_last", "trainable": true, "bias_constraint": null, "name": "separable_conv_2_normal_right1_6", "depth_multiplier": 1, "pointwise_initializer": {"class_name": "VarianceScaling", "config": {"scale": 1.0, "mode": "fan_avg", "distribution": "uniform", "seed": null}}, "padding": "same", "pointwise_regularizer": null, "bias_regularizer": null, "depthwise_constraint": null, "activation": "linear", "use_bias": false, "pointwise_constraint": null, "depthwise_initializer": {"class_name": "VarianceScaling", "config": {"scale": 1.0, "mode": "fan_avg", "distribution": "uniform", "seed": null}}, "activity_regularizer": null}, "inbound_nodes": [[["activation_215", 0, 0, {}]]], "name": "separable_conv_2_normal_right1_6"}, {"class_name": "SeparableConv2D", "config": {"kernel_size": [5, 5], "dilation_rate": [1, 1], "filters": 128, "bias_initializer": {"class_name": "Zeros", "config": {}}, "depthwise_regularizer": null, "strides": [1, 1], "data_format": "channels_last", "trainable": true, "bias_constraint": null, "name": "separable_conv_2_normal_left2_6", "depth_multiplier": 1, "pointwise_initializer": {"class_name": "VarianceScaling", "config": {"scale": 1.0, "mode": "fan_avg", "distribution": "uniform", "seed": null}}, "padding": "same", "pointwise_regularizer": null, "bias_regularizer": null, "depthwise_constraint": null, "activation": "linear", "use_bias": false, "pointwise_constraint": null, "depthwise_initializer": {"class_name": "VarianceScaling", "config": {"scale": 1.0, "mode": "fan_avg", "distribution": "uniform", "seed": null}}, "activity_regularizer": null}, "inbound_nodes": [[["activation_217", 0, 0, {}]]], "name": "separable_conv_2_normal_left2_6"}, {"class_name": "SeparableConv2D", "config": {"kernel_size": [3, 3], "dilation_rate": [1, 1], "filters": 128, "bias_initializer": {"class_name": "Zeros", "config": {}}, "depthwise_regularizer": null, "strides": [1, 1], "data_format": "channels_last", "trainable": true, "bias_constraint": null, "name": "separable_conv_2_normal_right2_6", "depth_multiplier": 1, "pointwise_initializer": {"class_name": "VarianceScaling", "config": {"scale": 1.0, "mode": "fan_avg", "distribution": "uniform", "seed": null}}, "padding": "same", "pointwise_regularizer": null, "bias_regularizer": null, "depthwise_constraint": null, "activation": "linear", "use_bias": false, "pointwise_constraint": null, "depthwise_initializer": {"class_name": "VarianceScaling", "config": {"scale": 1.0, "mode": "fan_avg", "distribution": "uniform", "seed": null}}, "activity_regularizer": null}, "inbound_nodes": [[["activation_219", 0, 0, {}]]], "name": "separable_conv_2_normal_right2_6"}, {"class_name": "SeparableConv2D", "config": {"kernel_size": [3, 3], "dilation_rate": [1, 1], "filters": 128, "bias_initializer": {"class_name": "Zeros", "config": {}}, "depthwise_regularizer": null, "strides": [1, 1], "data_format": "channels_last", "trainable": true, "bias_constraint": null, "name": "separable_conv_2_normal_left5_6", "depth_multiplier": 1, "pointwise_initializer": {"class_name": "VarianceScaling", "config": {"scale": 1.0, "mode": "fan_avg", "distribution": "uniform", "seed": null}}, "padding": "same", "pointwise_regularizer": null, "bias_regularizer": null, "depthwise_constraint": null, "activation": "linear", "use_bias": false, "pointwise_constraint": null, "depthwise_initializer": {"class_name": "VarianceScaling", "config": {"scale": 1.0, "mode": "fan_avg", "distribution": "uniform", "seed": null}}, "activity_regularizer": null}, "inbound_nodes": [[["activation_221", 0, 0, {}]]], "name": "separable_conv_2_normal_left5_6"}, {"class_name": "BatchNormalization", "config": {"beta_regularizer": null, "center": true, "trainable": true, "gamma_constraint": null, "axis": -1, "gamma_initializer": {"class_name": "Ones", "config": {}}, "moving_variance_initializer": {"class_name": "Ones", "config": {}}, "moving_mean_initializer": {"class_name": "Zeros", "config": {}}, "epsilon": 1e-05, "gamma_regularizer": null, "scale": true, "beta_constraint": null, "beta_initializer": {"class_name": "Zeros", "config": {}}, "momentum": 0.9, "name": "separable_conv_2_bn_normal_left1_6"}, "inbound_nodes": [[["separable_conv_2_normal_left1_6", 0, 0, {}]]], "name": "separable_conv_2_bn_normal_left1_6"}, {"class_name": "BatchNormalization", "config": {"beta_regularizer": null, "center": true, "trainable": true, "gamma_constraint": null, "axis": -1, "gamma_initializer": {"class_name": "Ones", "config": {}}, "moving_variance_initializer": {"class_name": "Ones", "config": {}}, "moving_mean_initializer": {"class_name": "Zeros", "config": {}}, "epsilon": 1e-05, "gamma_regularizer": null, "scale": true, "beta_constraint": null, "beta_initializer": {"class_name": "Zeros", "config": {}}, "momentum": 0.9, "name": "separable_conv_2_bn_normal_right1_6"}, "inbound_nodes": [[["separable_conv_2_normal_right1_6", 0, 0, {}]]], "name": "separable_conv_2_bn_normal_right1_6"}, {"class_name": "BatchNormalization", "config": {"beta_regularizer": null, "center": true, "trainable": true, "gamma_constraint": null, "axis": -1, "gamma_initializer": {"class_name": "Ones", "config": {}}, "moving_variance_initializer": {"class_name": "Ones", "config": {}}, "moving_mean_initializer": {"class_name": "Zeros", "config": {}}, "epsilon": 1e-05, "gamma_regularizer": null, "scale": true, "beta_constraint": null, "beta_initializer": {"class_name": "Zeros", "config": {}}, "momentum": 0.9, "name": "separable_conv_2_bn_normal_left2_6"}, "inbound_nodes": [[["separable_conv_2_normal_left2_6", 0, 0, {}]]], "name": "separable_conv_2_bn_normal_left2_6"}, {"class_name": "BatchNormalization", "config": {"beta_regularizer": null, "center": true, "trainable": true, "gamma_constraint": null, "axis": -1, "gamma_initializer": {"class_name": "Ones", "config": {}}, "moving_variance_initializer": {"class_name": "Ones", "config": {}}, "moving_mean_initializer": {"class_name": "Zeros", "config": {}}, "epsilon": 1e-05, "gamma_regularizer": null, "scale": true, "beta_constraint": null, "beta_initializer": {"class_name": "Zeros", "config": {}}, "momentum": 0.9, "name": "separable_conv_2_bn_normal_right2_6"}, "inbound_nodes": [[["separable_conv_2_normal_right2_6", 0, 0, {}]]], "name": "separable_conv_2_bn_normal_right2_6"}, {"class_name": "AveragePooling2D", "config": {"padding": "same", "data_format": "channels_last", "pool_size": [3, 3], "trainable": true, "strides": [1, 1], "name": "normal_left3_6"}, "inbound_nodes": [[["normal_bn_1_6", 0, 0, {}]]], "name": "normal_left3_6"}, {"class_name": "AveragePooling2D", "config": {"padding": "same", "data_format": "channels_last", "pool_size": [3, 3], "trainable": true, "strides": [1, 1], "name": "normal_left4_6"}, "inbound_nodes": [[["adjust_bn_6", 0, 0, {}]]], "name": "normal_left4_6"}, {"class_name": "AveragePooling2D", "config": {"padding": "same", "data_format": "channels_last", "pool_size": [3, 3], "trainable": true, "strides": [1, 1], "name": "normal_right4_6"}, "inbound_nodes": [[["adjust_bn_6", 0, 0, {}]]], "name": "normal_right4_6"}, {"class_name": "BatchNormalization", "config": {"beta_regularizer": null, "center": true, "trainable": true, "gamma_constraint": null, "axis": -1, "gamma_initializer": {"class_name": "Ones", "config": {}}, "moving_variance_initializer": {"class_name": "Ones", "config": {}}, "moving_mean_initializer": {"class_name": "Zeros", "config": {}}, "epsilon": 1e-05, "gamma_regularizer": null, "scale": true, "beta_constraint": null, "beta_initializer": {"class_name": "Zeros", "config": {}}, "momentum": 0.9, "name": "separable_conv_2_bn_normal_left5_6"}, "inbound_nodes": [[["separable_conv_2_normal_left5_6", 0, 0, {}]]], "name": "separable_conv_2_bn_normal_left5_6"}, {"class_name": "Add", "config": {"trainable": true, "name": "normal_add_1_6"}, "inbound_nodes": [[["separable_conv_2_bn_normal_left1_6", 0, 0, {}], ["separable_conv_2_bn_normal_right1_6", 0, 0, {}]]], "name": "normal_add_1_6"}, {"class_name": "Add", "config": {"trainable": true, "name": "normal_add_2_6"}, "inbound_nodes": [[["separable_conv_2_bn_normal_left2_6", 0, 0, {}], ["separable_conv_2_bn_normal_right2_6", 0, 0, {}]]], "name": "normal_add_2_6"}, {"class_name": "Add", "config": {"trainable": true, "name": "normal_add_3_6"}, "inbound_nodes": [[["normal_left3_6", 0, 0, {}], ["adjust_bn_6", 0, 0, {}]]], "name": "normal_add_3_6"}, {"class_name": "Add", "config": {"trainable": true, "name": "normal_add_4_6"}, "inbound_nodes": [[["normal_left4_6", 0, 0, {}], ["normal_right4_6", 0, 0, {}]]], "name": "normal_add_4_6"}, {"class_name": "Add", "config": {"trainable": true, "name": "normal_add_5_6"}, "inbound_nodes": [[["separable_conv_2_bn_normal_left5_6", 0, 0, {}], ["normal_bn_1_6", 0, 0, {}]]], "name": "normal_add_5_6"}, {"class_name": "Concatenate", "config": {"axis": -1, "trainable": true, "name": "normal_concat_6"}, "inbound_nodes": [[["adjust_bn_6", 0, 0, {}], ["normal_add_1_6", 0, 0, {}], ["normal_add_2_6", 0, 0, {}], ["normal_add_3_6", 0, 0, {}], ["normal_add_4_6", 0, 0, {}], ["normal_add_5_6", 0, 0, {}]]], "name": "normal_concat_6"}, {"class_name": "Activation", "config": {"activation": "relu", "trainable": true, "name": "activation_222"}, "inbound_nodes": [[["reduction_concat_reduce_5", 0, 0, {}]]], "name": "activation_222"}, {"class_name": "Activation", "config": {"activation": "relu", "trainable": true, "name": "activation_223"}, "inbound_nodes": [[["normal_concat_6", 0, 0, {}]]], "name": "activation_223"}, {"class_name": "Conv2D", "config": {"kernel_size": [1, 1], "dilation_rate": [1, 1], "filters": 128, "padding": "same", "bias_initializer": {"class_name": "Zeros", "config": {}}, "name": "adjust_conv_projection_7", "strides": [1, 1], "kernel_initializer": {"class_name": "VarianceScaling", "config": {"scale": 2.0, "mode": "fan_in", "distribution": "normal", "seed": null}}, "trainable": true, "bias_constraint": null, "data_format": "channels_last", "activation": "linear", "use_bias": false, "kernel_regularizer": {"class_name": "L1L2", "config": {"l1": 0.0, "l2": 0.0005000000237487257}}, "kernel_constraint": null, "bias_regularizer": null, "activity_regularizer": null}, "inbound_nodes": [[["activation_222", 0, 0, {}]]], "name": "adjust_conv_projection_7"}, {"class_name": "Conv2D", "config": {"kernel_size": [1, 1], "dilation_rate": [1, 1], "filters": 128, "padding": "same", "bias_initializer": {"class_name": "Zeros", "config": {}}, "name": "normal_conv_1_7", "strides": [1, 1], "kernel_initializer": {"class_name": "VarianceScaling", "config": {"scale": 2.0, "mode": "fan_in", "distribution": "normal", "seed": null}}, "trainable": true, "bias_constraint": null, "data_format": "channels_last", "activation": "linear", "use_bias": false, "kernel_regularizer": {"class_name": "L1L2", "config": {"l1": 0.0, "l2": 0.0005000000237487257}}, "kernel_constraint": null, "bias_regularizer": null, "activity_regularizer": null}, "inbound_nodes": [[["activation_223", 0, 0, {}]]], "name": "normal_conv_1_7"}, {"class_name": "BatchNormalization", "config": {"beta_regularizer": null, "center": true, "trainable": true, "gamma_constraint": null, "axis": -1, "gamma_initializer": {"class_name": "Ones", "config": {}}, "moving_variance_initializer": {"class_name": "Ones", "config": {}}, "moving_mean_initializer": {"class_name": "Zeros", "config": {}}, "epsilon": 1e-05, "gamma_regularizer": null, "scale": true, "beta_constraint": null, "beta_initializer": {"class_name": "Zeros", "config": {}}, "momentum": 0.9, "name": "adjust_bn_7"}, "inbound_nodes": [[["adjust_conv_projection_7", 0, 0, {}]]], "name": "adjust_bn_7"}, {"class_name": "BatchNormalization", "config": {"beta_regularizer": null, "center": true, "trainable": true, "gamma_constraint": null, "axis": -1, "gamma_initializer": {"class_name": "Ones", "config": {}}, "moving_variance_initializer": {"class_name": "Ones", "config": {}}, "moving_mean_initializer": {"class_name": "Zeros", "config": {}}, "epsilon": 1e-05, "gamma_regularizer": null, "scale": true, "beta_constraint": null, "beta_initializer": {"class_name": "Zeros", "config": {}}, "momentum": 0.9, "name": "normal_bn_1_7"}, "inbound_nodes": [[["normal_conv_1_7", 0, 0, {}]]], "name": "normal_bn_1_7"}, {"class_name": "Activation", "config": {"activation": "relu", "trainable": true, "name": "activation_224"}, "inbound_nodes": [[["normal_bn_1_7", 0, 0, {}]]], "name": "activation_224"}, {"class_name": "Activation", "config": {"activation": "relu", "trainable": true, "name": "activation_226"}, "inbound_nodes": [[["adjust_bn_7", 0, 0, {}]]], "name": "activation_226"}, {"class_name": "Activation", "config": {"activation": "relu", "trainable": true, "name": "activation_228"}, "inbound_nodes": [[["adjust_bn_7", 0, 0, {}]]], "name": "activation_228"}, {"class_name": "Activation", "config": {"activation": "relu", "trainable": true, "name": "activation_230"}, "inbound_nodes": [[["adjust_bn_7", 0, 0, {}]]], "name": "activation_230"}, {"class_name": "Activation", "config": {"activation": "relu", "trainable": true, "name": "activation_232"}, "inbound_nodes": [[["normal_bn_1_7", 0, 0, {}]]], "name": "activation_232"}, {"class_name": "SeparableConv2D", "config": {"kernel_size": [5, 5], "dilation_rate": [1, 1], "filters": 128, "bias_initializer": {"class_name": "Zeros", "config": {}}, "depthwise_regularizer": null, "strides": [1, 1], "data_format": "channels_last", "trainable": true, "bias_constraint": null, "name": "separable_conv_1_normal_left1_7", "depth_multiplier": 1, "pointwise_initializer": {"class_name": "VarianceScaling", "config": {"scale": 1.0, "mode": "fan_avg", "distribution": "uniform", "seed": null}}, "padding": "same", "pointwise_regularizer": null, "bias_regularizer": null, "depthwise_constraint": null, "activation": "linear", "use_bias": false, "pointwise_constraint": null, "depthwise_initializer": {"class_name": "VarianceScaling", "config": {"scale": 1.0, "mode": "fan_avg", "distribution": "uniform", "seed": null}}, "activity_regularizer": null}, "inbound_nodes": [[["activation_224", 0, 0, {}]]], "name": "separable_conv_1_normal_left1_7"}, {"class_name": "SeparableConv2D", "config": {"kernel_size": [3, 3], "dilation_rate": [1, 1], "filters": 128, "bias_initializer": {"class_name": "Zeros", "config": {}}, "depthwise_regularizer": null, "strides": [1, 1], "data_format": "channels_last", "trainable": true, "bias_constraint": null, "name": "separable_conv_1_normal_right1_7", "depth_multiplier": 1, "pointwise_initializer": {"class_name": "VarianceScaling", "config": {"scale": 1.0, "mode": "fan_avg", "distribution": "uniform", "seed": null}}, "padding": "same", "pointwise_regularizer": null, "bias_regularizer": null, "depthwise_constraint": null, "activation": "linear", "use_bias": false, "pointwise_constraint": null, "depthwise_initializer": {"class_name": "VarianceScaling", "config": {"scale": 1.0, "mode": "fan_avg", "distribution": "uniform", "seed": null}}, "activity_regularizer": null}, "inbound_nodes": [[["activation_226", 0, 0, {}]]], "name": "separable_conv_1_normal_right1_7"}, {"class_name": "SeparableConv2D", "config": {"kernel_size": [5, 5], "dilation_rate": [1, 1], "filters": 128, "bias_initializer": {"class_name": "Zeros", "config": {}}, "depthwise_regularizer": null, "strides": [1, 1], "data_format": "channels_last", "trainable": true, "bias_constraint": null, "name": "separable_conv_1_normal_left2_7", "depth_multiplier": 1, "pointwise_initializer": {"class_name": "VarianceScaling", "config": {"scale": 1.0, "mode": "fan_avg", "distribution": "uniform", "seed": null}}, "padding": "same", "pointwise_regularizer": null, "bias_regularizer": null, "depthwise_constraint": null, "activation": "linear", "use_bias": false, "pointwise_constraint": null, "depthwise_initializer": {"class_name": "VarianceScaling", "config": {"scale": 1.0, "mode": "fan_avg", "distribution": "uniform", "seed": null}}, "activity_regularizer": null}, "inbound_nodes": [[["activation_228", 0, 0, {}]]], "name": "separable_conv_1_normal_left2_7"}, {"class_name": "SeparableConv2D", "config": {"kernel_size": [3, 3], "dilation_rate": [1, 1], "filters": 128, "bias_initializer": {"class_name": "Zeros", "config": {}}, "depthwise_regularizer": null, "strides": [1, 1], "data_format": "channels_last", "trainable": true, "bias_constraint": null, "name": "separable_conv_1_normal_right2_7", "depth_multiplier": 1, "pointwise_initializer": {"class_name": "VarianceScaling", "config": {"scale": 1.0, "mode": "fan_avg", "distribution": "uniform", "seed": null}}, "padding": "same", "pointwise_regularizer": null, "bias_regularizer": null, "depthwise_constraint": null, "activation": "linear", "use_bias": false, "pointwise_constraint": null, "depthwise_initializer": {"class_name": "VarianceScaling", "config": {"scale": 1.0, "mode": "fan_avg", "distribution": "uniform", "seed": null}}, "activity_regularizer": null}, "inbound_nodes": [[["activation_230", 0, 0, {}]]], "name": "separable_conv_1_normal_right2_7"}, {"class_name": "SeparableConv2D", "config": {"kernel_size": [3, 3], "dilation_rate": [1, 1], "filters": 128, "bias_initializer": {"class_name": "Zeros", "config": {}}, "depthwise_regularizer": null, "strides": [1, 1], "data_format": "channels_last", "trainable": true, "bias_constraint": null, "name": "separable_conv_1_normal_left5_7", "depth_multiplier": 1, "pointwise_initializer": {"class_name": "VarianceScaling", "config": {"scale": 1.0, "mode": "fan_avg", "distribution": "uniform", "seed": null}}, "padding": "same", "pointwise_regularizer": null, "bias_regularizer": null, "depthwise_constraint": null, "activation": "linear", "use_bias": false, "pointwise_constraint": null, "depthwise_initializer": {"class_name": "VarianceScaling", "config": {"scale": 1.0, "mode": "fan_avg", "distribution": "uniform", "seed": null}}, "activity_regularizer": null}, "inbound_nodes": [[["activation_232", 0, 0, {}]]], "name": "separable_conv_1_normal_left5_7"}, {"class_name": "BatchNormalization", "config": {"beta_regularizer": null, "center": true, "trainable": true, "gamma_constraint": null, "axis": -1, "gamma_initializer": {"class_name": "Ones", "config": {}}, "moving_variance_initializer": {"class_name": "Ones", "config": {}}, "moving_mean_initializer": {"class_name": "Zeros", "config": {}}, "epsilon": 1e-05, "gamma_regularizer": null, "scale": true, "beta_constraint": null, "beta_initializer": {"class_name": "Zeros", "config": {}}, "momentum": 0.9, "name": "separable_conv_1_bn_normal_left1_7"}, "inbound_nodes": [[["separable_conv_1_normal_left1_7", 0, 0, {}]]], "name": "separable_conv_1_bn_normal_left1_7"}, {"class_name": "BatchNormalization", "config": {"beta_regularizer": null, "center": true, "trainable": true, "gamma_constraint": null, "axis": -1, "gamma_initializer": {"class_name": "Ones", "config": {}}, "moving_variance_initializer": {"class_name": "Ones", "config": {}}, "moving_mean_initializer": {"class_name": "Zeros", "config": {}}, "epsilon": 1e-05, "gamma_regularizer": null, "scale": true, "beta_constraint": null, "beta_initializer": {"class_name": "Zeros", "config": {}}, "momentum": 0.9, "name": "separable_conv_1_bn_normal_right1_7"}, "inbound_nodes": [[["separable_conv_1_normal_right1_7", 0, 0, {}]]], "name": "separable_conv_1_bn_normal_right1_7"}, {"class_name": "BatchNormalization", "config": {"beta_regularizer": null, "center": true, "trainable": true, "gamma_constraint": null, "axis": -1, "gamma_initializer": {"class_name": "Ones", "config": {}}, "moving_variance_initializer": {"class_name": "Ones", "config": {}}, "moving_mean_initializer": {"class_name": "Zeros", "config": {}}, "epsilon": 1e-05, "gamma_regularizer": null, "scale": true, "beta_constraint": null, "beta_initializer": {"class_name": "Zeros", "config": {}}, "momentum": 0.9, "name": "separable_conv_1_bn_normal_left2_7"}, "inbound_nodes": [[["separable_conv_1_normal_left2_7", 0, 0, {}]]], "name": "separable_conv_1_bn_normal_left2_7"}, {"class_name": "BatchNormalization", "config": {"beta_regularizer": null, "center": true, "trainable": true, "gamma_constraint": null, "axis": -1, "gamma_initializer": {"class_name": "Ones", "config": {}}, "moving_variance_initializer": {"class_name": "Ones", "config": {}}, "moving_mean_initializer": {"class_name": "Zeros", "config": {}}, "epsilon": 1e-05, "gamma_regularizer": null, "scale": true, "beta_constraint": null, "beta_initializer": {"class_name": "Zeros", "config": {}}, "momentum": 0.9, "name": "separable_conv_1_bn_normal_right2_7"}, "inbound_nodes": [[["separable_conv_1_normal_right2_7", 0, 0, {}]]], "name": "separable_conv_1_bn_normal_right2_7"}, {"class_name": "BatchNormalization", "config": {"beta_regularizer": null, "center": true, "trainable": true, "gamma_constraint": null, "axis": -1, "gamma_initializer": {"class_name": "Ones", "config": {}}, "moving_variance_initializer": {"class_name": "Ones", "config": {}}, "moving_mean_initializer": {"class_name": "Zeros", "config": {}}, "epsilon": 1e-05, "gamma_regularizer": null, "scale": true, "beta_constraint": null, "beta_initializer": {"class_name": "Zeros", "config": {}}, "momentum": 0.9, "name": "separable_conv_1_bn_normal_left5_7"}, "inbound_nodes": [[["separable_conv_1_normal_left5_7", 0, 0, {}]]], "name": "separable_conv_1_bn_normal_left5_7"}, {"class_name": "Activation", "config": {"activation": "relu", "trainable": true, "name": "activation_225"}, "inbound_nodes": [[["separable_conv_1_bn_normal_left1_7", 0, 0, {}]]], "name": "activation_225"}, {"class_name": "Activation", "config": {"activation": "relu", "trainable": true, "name": "activation_227"}, "inbound_nodes": [[["separable_conv_1_bn_normal_right1_7", 0, 0, {}]]], "name": "activation_227"}, {"class_name": "Activation", "config": {"activation": "relu", "trainable": true, "name": "activation_229"}, "inbound_nodes": [[["separable_conv_1_bn_normal_left2_7", 0, 0, {}]]], "name": "activation_229"}, {"class_name": "Activation", "config": {"activation": "relu", "trainable": true, "name": "activation_231"}, "inbound_nodes": [[["separable_conv_1_bn_normal_right2_7", 0, 0, {}]]], "name": "activation_231"}, {"class_name": "Activation", "config": {"activation": "relu", "trainable": true, "name": "activation_233"}, "inbound_nodes": [[["separable_conv_1_bn_normal_left5_7", 0, 0, {}]]], "name": "activation_233"}, {"class_name": "SeparableConv2D", "config": {"kernel_size": [5, 5], "dilation_rate": [1, 1], "filters": 128, "bias_initializer": {"class_name": "Zeros", "config": {}}, "depthwise_regularizer": null, "strides": [1, 1], "data_format": "channels_last", "trainable": true, "bias_constraint": null, "name": "separable_conv_2_normal_left1_7", "depth_multiplier": 1, "pointwise_initializer": {"class_name": "VarianceScaling", "config": {"scale": 1.0, "mode": "fan_avg", "distribution": "uniform", "seed": null}}, "padding": "same", "pointwise_regularizer": null, "bias_regularizer": null, "depthwise_constraint": null, "activation": "linear", "use_bias": false, "pointwise_constraint": null, "depthwise_initializer": {"class_name": "VarianceScaling", "config": {"scale": 1.0, "mode": "fan_avg", "distribution": "uniform", "seed": null}}, "activity_regularizer": null}, "inbound_nodes": [[["activation_225", 0, 0, {}]]], "name": "separable_conv_2_normal_left1_7"}, {"class_name": "SeparableConv2D", "config": {"kernel_size": [3, 3], "dilation_rate": [1, 1], "filters": 128, "bias_initializer": {"class_name": "Zeros", "config": {}}, "depthwise_regularizer": null, "strides": [1, 1], "data_format": "channels_last", "trainable": true, "bias_constraint": null, "name": "separable_conv_2_normal_right1_7", "depth_multiplier": 1, "pointwise_initializer": {"class_name": "VarianceScaling", "config": {"scale": 1.0, "mode": "fan_avg", "distribution": "uniform", "seed": null}}, "padding": "same", "pointwise_regularizer": null, "bias_regularizer": null, "depthwise_constraint": null, "activation": "linear", "use_bias": false, "pointwise_constraint": null, "depthwise_initializer": {"class_name": "VarianceScaling", "config": {"scale": 1.0, "mode": "fan_avg", "distribution": "uniform", "seed": null}}, "activity_regularizer": null}, "inbound_nodes": [[["activation_227", 0, 0, {}]]], "name": "separable_conv_2_normal_right1_7"}, {"class_name": "SeparableConv2D", "config": {"kernel_size": [5, 5], "dilation_rate": [1, 1], "filters": 128, "bias_initializer": {"class_name": "Zeros", "config": {}}, "depthwise_regularizer": null, "strides": [1, 1], "data_format": "channels_last", "trainable": true, "bias_constraint": null, "name": "separable_conv_2_normal_left2_7", "depth_multiplier": 1, "pointwise_initializer": {"class_name": "VarianceScaling", "config": {"scale": 1.0, "mode": "fan_avg", "distribution": "uniform", "seed": null}}, "padding": "same", "pointwise_regularizer": null, "bias_regularizer": null, "depthwise_constraint": null, "activation": "linear", "use_bias": false, "pointwise_constraint": null, "depthwise_initializer": {"class_name": "VarianceScaling", "config": {"scale": 1.0, "mode": "fan_avg", "distribution": "uniform", "seed": null}}, "activity_regularizer": null}, "inbound_nodes": [[["activation_229", 0, 0, {}]]], "name": "separable_conv_2_normal_left2_7"}, {"class_name": "SeparableConv2D", "config": {"kernel_size": [3, 3], "dilation_rate": [1, 1], "filters": 128, "bias_initializer": {"class_name": "Zeros", "config": {}}, "depthwise_regularizer": null, "strides": [1, 1], "data_format": "channels_last", "trainable": true, "bias_constraint": null, "name": "separable_conv_2_normal_right2_7", "depth_multiplier": 1, "pointwise_initializer": {"class_name": "VarianceScaling", "config": {"scale": 1.0, "mode": "fan_avg", "distribution": "uniform", "seed": null}}, "padding": "same", "pointwise_regularizer": null, "bias_regularizer": null, "depthwise_constraint": null, "activation": "linear", "use_bias": false, "pointwise_constraint": null, "depthwise_initializer": {"class_name": "VarianceScaling", "config": {"scale": 1.0, "mode": "fan_avg", "distribution": "uniform", "seed": null}}, "activity_regularizer": null}, "inbound_nodes": [[["activation_231", 0, 0, {}]]], "name": "separable_conv_2_normal_right2_7"}, {"class_name": "SeparableConv2D", "config": {"kernel_size": [3, 3], "dilation_rate": [1, 1], "filters": 128, "bias_initializer": {"class_name": "Zeros", "config": {}}, "depthwise_regularizer": null, "strides": [1, 1], "data_format": "channels_last", "trainable": true, "bias_constraint": null, "name": "separable_conv_2_normal_left5_7", "depth_multiplier": 1, "pointwise_initializer": {"class_name": "VarianceScaling", "config": {"scale": 1.0, "mode": "fan_avg", "distribution": "uniform", "seed": null}}, "padding": "same", "pointwise_regularizer": null, "bias_regularizer": null, "depthwise_constraint": null, "activation": "linear", "use_bias": false, "pointwise_constraint": null, "depthwise_initializer": {"class_name": "VarianceScaling", "config": {"scale": 1.0, "mode": "fan_avg", "distribution": "uniform", "seed": null}}, "activity_regularizer": null}, "inbound_nodes": [[["activation_233", 0, 0, {}]]], "name": "separable_conv_2_normal_left5_7"}, {"class_name": "BatchNormalization", "config": {"beta_regularizer": null, "center": true, "trainable": true, "gamma_constraint": null, "axis": -1, "gamma_initializer": {"class_name": "Ones", "config": {}}, "moving_variance_initializer": {"class_name": "Ones", "config": {}}, "moving_mean_initializer": {"class_name": "Zeros", "config": {}}, "epsilon": 1e-05, "gamma_regularizer": null, "scale": true, "beta_constraint": null, "beta_initializer": {"class_name": "Zeros", "config": {}}, "momentum": 0.9, "name": "separable_conv_2_bn_normal_left1_7"}, "inbound_nodes": [[["separable_conv_2_normal_left1_7", 0, 0, {}]]], "name": "separable_conv_2_bn_normal_left1_7"}, {"class_name": "BatchNormalization", "config": {"beta_regularizer": null, "center": true, "trainable": true, "gamma_constraint": null, "axis": -1, "gamma_initializer": {"class_name": "Ones", "config": {}}, "moving_variance_initializer": {"class_name": "Ones", "config": {}}, "moving_mean_initializer": {"class_name": "Zeros", "config": {}}, "epsilon": 1e-05, "gamma_regularizer": null, "scale": true, "beta_constraint": null, "beta_initializer": {"class_name": "Zeros", "config": {}}, "momentum": 0.9, "name": "separable_conv_2_bn_normal_right1_7"}, "inbound_nodes": [[["separable_conv_2_normal_right1_7", 0, 0, {}]]], "name": "separable_conv_2_bn_normal_right1_7"}, {"class_name": "BatchNormalization", "config": {"beta_regularizer": null, "center": true, "trainable": true, "gamma_constraint": null, "axis": -1, "gamma_initializer": {"class_name": "Ones", "config": {}}, "moving_variance_initializer": {"class_name": "Ones", "config": {}}, "moving_mean_initializer": {"class_name": "Zeros", "config": {}}, "epsilon": 1e-05, "gamma_regularizer": null, "scale": true, "beta_constraint": null, "beta_initializer": {"class_name": "Zeros", "config": {}}, "momentum": 0.9, "name": "separable_conv_2_bn_normal_left2_7"}, "inbound_nodes": [[["separable_conv_2_normal_left2_7", 0, 0, {}]]], "name": "separable_conv_2_bn_normal_left2_7"}, {"class_name": "BatchNormalization", "config": {"beta_regularizer": null, "center": true, "trainable": true, "gamma_constraint": null, "axis": -1, "gamma_initializer": {"class_name": "Ones", "config": {}}, "moving_variance_initializer": {"class_name": "Ones", "config": {}}, "moving_mean_initializer": {"class_name": "Zeros", "config": {}}, "epsilon": 1e-05, "gamma_regularizer": null, "scale": true, "beta_constraint": null, "beta_initializer": {"class_name": "Zeros", "config": {}}, "momentum": 0.9, "name": "separable_conv_2_bn_normal_right2_7"}, "inbound_nodes": [[["separable_conv_2_normal_right2_7", 0, 0, {}]]], "name": "separable_conv_2_bn_normal_right2_7"}, {"class_name": "AveragePooling2D", "config": {"padding": "same", "data_format": "channels_last", "pool_size": [3, 3], "trainable": true, "strides": [1, 1], "name": "normal_left3_7"}, "inbound_nodes": [[["normal_bn_1_7", 0, 0, {}]]], "name": "normal_left3_7"}, {"class_name": "AveragePooling2D", "config": {"padding": "same", "data_format": "channels_last", "pool_size": [3, 3], "trainable": true, "strides": [1, 1], "name": "normal_left4_7"}, "inbound_nodes": [[["adjust_bn_7", 0, 0, {}]]], "name": "normal_left4_7"}, {"class_name": "AveragePooling2D", "config": {"padding": "same", "data_format": "channels_last", "pool_size": [3, 3], "trainable": true, "strides": [1, 1], "name": "normal_right4_7"}, "inbound_nodes": [[["adjust_bn_7", 0, 0, {}]]], "name": "normal_right4_7"}, {"class_name": "BatchNormalization", "config": {"beta_regularizer": null, "center": true, "trainable": true, "gamma_constraint": null, "axis": -1, "gamma_initializer": {"class_name": "Ones", "config": {}}, "moving_variance_initializer": {"class_name": "Ones", "config": {}}, "moving_mean_initializer": {"class_name": "Zeros", "config": {}}, "epsilon": 1e-05, "gamma_regularizer": null, "scale": true, "beta_constraint": null, "beta_initializer": {"class_name": "Zeros", "config": {}}, "momentum": 0.9, "name": "separable_conv_2_bn_normal_left5_7"}, "inbound_nodes": [[["separable_conv_2_normal_left5_7", 0, 0, {}]]], "name": "separable_conv_2_bn_normal_left5_7"}, {"class_name": "Add", "config": {"trainable": true, "name": "normal_add_1_7"}, "inbound_nodes": [[["separable_conv_2_bn_normal_left1_7", 0, 0, {}], ["separable_conv_2_bn_normal_right1_7", 0, 0, {}]]], "name": "normal_add_1_7"}, {"class_name": "Add", "config": {"trainable": true, "name": "normal_add_2_7"}, "inbound_nodes": [[["separable_conv_2_bn_normal_left2_7", 0, 0, {}], ["separable_conv_2_bn_normal_right2_7", 0, 0, {}]]], "name": "normal_add_2_7"}, {"class_name": "Add", "config": {"trainable": true, "name": "normal_add_3_7"}, "inbound_nodes": [[["normal_left3_7", 0, 0, {}], ["adjust_bn_7", 0, 0, {}]]], "name": "normal_add_3_7"}, {"class_name": "Add", "config": {"trainable": true, "name": "normal_add_4_7"}, "inbound_nodes": [[["normal_left4_7", 0, 0, {}], ["normal_right4_7", 0, 0, {}]]], "name": "normal_add_4_7"}, {"class_name": "Add", "config": {"trainable": true, "name": "normal_add_5_7"}, "inbound_nodes": [[["separable_conv_2_bn_normal_left5_7", 0, 0, {}], ["normal_bn_1_7", 0, 0, {}]]], "name": "normal_add_5_7"}, {"class_name": "Concatenate", "config": {"axis": -1, "trainable": true, "name": "normal_concat_7"}, "inbound_nodes": [[["adjust_bn_7", 0, 0, {}], ["normal_add_1_7", 0, 0, {}], ["normal_add_2_7", 0, 0, {}], ["normal_add_3_7", 0, 0, {}], ["normal_add_4_7", 0, 0, {}], ["normal_add_5_7", 0, 0, {}]]], "name": "normal_concat_7"}, {"class_name": "Activation", "config": {"activation": "relu", "trainable": true, "name": "activation_234"}, "inbound_nodes": [[["normal_concat_7", 0, 0, {}]]], "name": "activation_234"}, {"class_name": "GlobalAveragePooling2D", "config": {"name": "global_average_pooling2d_2", "trainable": true, "data_format": "channels_last"}, "inbound_nodes": [[["activation_234", 0, 0, {}]]], "name": "global_average_pooling2d_2"}, {"class_name": "Dropout", "config": {"rate": 0.0, "noise_shape": null, "trainable": true, "seed": null, "name": "dropout_2"}, "inbound_nodes": [[["global_average_pooling2d_2", 0, 0, {}]]], "name": "dropout_2"}, {"class_name": "Dense", "config": {"bias_constraint": null, "bias_initializer": {"class_name": "Zeros", "config": {}}, "bias_regularizer": null, "name": "predictions", "trainable": true, "units": 10, "kernel_initializer": {"class_name": "VarianceScaling", "config": {"scale": 1.0, "mode": "fan_avg", "distribution": "uniform", "seed": null}}, "activation": "softmax", "use_bias": true, "kernel_regularizer": {"class_name": "L1L2", "config": {"l1": 0.0, "l2": 0.0005000000237487257}}, "kernel_constraint": null, "activity_regularizer": null}, "inbound_nodes": [[["dropout_2", 0, 0, {}]]], "name": "predictions"}]}, "backend": "tensorflow", "keras_version": "2.1.2"}