{"class_name": "Model", "config": {"input_layers": [["input_8", 0, 0]], "name": "NASNet", "output_layers": [["predictions", 0, 0]], "layers": [{"class_name": "InputLayer", "config": {"batch_input_shape": [null, 32, 32, 3], "sparse": false, "dtype": "float32", "name": "input_8"}, "inbound_nodes": [], "name": "input_8"}, {"class_name": "Conv2D", "config": {"kernel_size": [3, 3], "dilation_rate": [1, 1], "filters": 32, "padding": "same", "bias_initializer": {"class_name": "Zeros", "config": {}}, "name": "stem_conv1", "strides": [1, 1], "kernel_initializer": {"class_name": "VarianceScaling", "config": {"scale": 2.0, "mode": "fan_in", "distribution": "normal", "seed": null}}, "trainable": true, "bias_constraint": null, "data_format": "channels_last", "activation": "linear", "use_bias": false, "kernel_regularizer": {"class_name": "L1L2", "config": {"l1": 0.0, "l2": 0.0005000000237487257}}, "kernel_constraint": null, "bias_regularizer": null, "activity_regularizer": null}, "inbound_nodes": [[["input_8", 0, 0, {}]]], "name": "stem_conv1"}, {"class_name": "BatchNormalization", "config": {"beta_regularizer": null, "center": true, "trainable": true, "gamma_constraint": null, "axis": -1, "gamma_initializer": {"class_name": "Ones", "config": {}}, "moving_variance_initializer": {"class_name": "Ones", "config": {}}, "moving_mean_initializer": {"class_name": "Zeros", "config": {}}, "epsilon": 1e-05, "gamma_regularizer": null, "scale": true, "beta_constraint": null, "beta_initializer": {"class_name": "Zeros", "config": {}}, "momentum": 0.9, "name": "stem_bn1"}, "inbound_nodes": [[["stem_conv1", 0, 0, {}]]], "name": "stem_bn1"}, {"class_name": "Activation", "config": {"activation": "relu", "trainable": true, "name": "activation_940"}, "inbound_nodes": [[["stem_bn1", 0, 0, {}]]], "name": "activation_940"}, {"class_name": "Conv2D", "config": {"kernel_size": [1, 1], "dilation_rate": [1, 1], "filters": 32, "padding": "same", "bias_initializer": {"class_name": "Zeros", "config": {}}, "name": "normal_conv_1_0", "strides": [1, 1], "kernel_initializer": {"class_name": "VarianceScaling", "config": {"scale": 2.0, "mode": "fan_in", "distribution": "normal", "seed": null}}, "trainable": true, "bias_constraint": null, "data_format": "channels_last", "activation": "linear", "use_bias": false, "kernel_regularizer": {"class_name": "L1L2", "config": {"l1": 0.0, "l2": 0.0005000000237487257}}, "kernel_constraint": null, "bias_regularizer": null, "activity_regularizer": null}, "inbound_nodes": [[["activation_940", 0, 0, {}]]], "name": "normal_conv_1_0"}, {"class_name": "BatchNormalization", "config": {"beta_regularizer": null, "center": true, "trainable": true, "gamma_constraint": null, "axis": -1, "gamma_initializer": {"class_name": "Ones", "config": {}}, "moving_variance_initializer": {"class_name": "Ones", "config": {}}, "moving_mean_initializer": {"class_name": "Zeros", "config": {}}, "epsilon": 1e-05, "gamma_regularizer": null, "scale": true, "beta_constraint": null, "beta_initializer": {"class_name": "Zeros", "config": {}}, "momentum": 0.9, "name": "normal_bn_1_0"}, "inbound_nodes": [[["normal_conv_1_0", 0, 0, {}]]], "name": "normal_bn_1_0"}, {"class_name": "Activation", "config": {"activation": "relu", "trainable": true, "name": "activation_941"}, "inbound_nodes": [[["normal_bn_1_0", 0, 0, {}]]], "name": "activation_941"}, {"class_name": "Activation", "config": {"activation": "relu", "trainable": true, "name": "activation_943"}, "inbound_nodes": [[["stem_bn1", 0, 0, {}]]], "name": "activation_943"}, {"class_name": "Activation", "config": {"activation": "relu", "trainable": true, "name": "activation_945"}, "inbound_nodes": [[["stem_bn1", 0, 0, {}]]], "name": "activation_945"}, {"class_name": "Activation", "config": {"activation": "relu", "trainable": true, "name": "activation_947"}, "inbound_nodes": [[["stem_bn1", 0, 0, {}]]], "name": "activation_947"}, {"class_name": "Activation", "config": {"activation": "relu", "trainable": true, "name": "activation_949"}, "inbound_nodes": [[["normal_bn_1_0", 0, 0, {}]]], "name": "activation_949"}, {"class_name": "SeparableConv2D", "config": {"kernel_size": [5, 5], "dilation_rate": [1, 1], "filters": 32, "bias_initializer": {"class_name": "Zeros", "config": {}}, "depthwise_regularizer": null, "strides": [1, 1], "data_format": "channels_last", "trainable": true, "bias_constraint": null, "name": "separable_conv_1_normal_left1_0", "depth_multiplier": 1, "pointwise_initializer": {"class_name": "VarianceScaling", "config": {"scale": 1.0, "mode": "fan_avg", "distribution": "uniform", "seed": null}}, "padding": "same", "pointwise_regularizer": null, "bias_regularizer": null, "depthwise_constraint": null, "activation": "linear", "use_bias": false, "pointwise_constraint": null, "depthwise_initializer": {"class_name": "VarianceScaling", "config": {"scale": 1.0, "mode": "fan_avg", "distribution": "uniform", "seed": null}}, "activity_regularizer": null}, "inbound_nodes": [[["activation_941", 0, 0, {}]]], "name": "separable_conv_1_normal_left1_0"}, {"class_name": "SeparableConv2D", "config": {"kernel_size": [3, 3], "dilation_rate": [1, 1], "filters": 32, "bias_initializer": {"class_name": "Zeros", "config": {}}, "depthwise_regularizer": null, "strides": [1, 1], "data_format": "channels_last", "trainable": true, "bias_constraint": null, "name": "separable_conv_1_normal_right1_0", "depth_multiplier": 1, "pointwise_initializer": {"class_name": "VarianceScaling", "config": {"scale": 1.0, "mode": "fan_avg", "distribution": "uniform", "seed": null}}, "padding": "same", "pointwise_regularizer": null, "bias_regularizer": null, "depthwise_constraint": null, "activation": "linear", "use_bias": false, "pointwise_constraint": null, "depthwise_initializer": {"class_name": "VarianceScaling", "config": {"scale": 1.0, "mode": "fan_avg", "distribution": "uniform", "seed": null}}, "activity_regularizer": null}, "inbound_nodes": [[["activation_943", 0, 0, {}]]], "name": "separable_conv_1_normal_right1_0"}, {"class_name": "SeparableConv2D", "config": {"kernel_size": [5, 5], "dilation_rate": [1, 1], "filters": 32, "bias_initializer": {"class_name": "Zeros", "config": {}}, "depthwise_regularizer": null, "strides": [1, 1], "data_format": "channels_last", "trainable": true, "bias_constraint": null, "name": "separable_conv_1_normal_left2_0", "depth_multiplier": 1, "pointwise_initializer": {"class_name": "VarianceScaling", "config": {"scale": 1.0, "mode": "fan_avg", "distribution": "uniform", "seed": null}}, "padding": "same", "pointwise_regularizer": null, "bias_regularizer": null, "depthwise_constraint": null, "activation": "linear", "use_bias": false, "pointwise_constraint": null, "depthwise_initializer": {"class_name": "VarianceScaling", "config": {"scale": 1.0, "mode": "fan_avg", "distribution": "uniform", "seed": null}}, "activity_regularizer": null}, "inbound_nodes": [[["activation_945", 0, 0, {}]]], "name": "separable_conv_1_normal_left2_0"}, {"class_name": "SeparableConv2D", "config": {"kernel_size": [3, 3], "dilation_rate": [1, 1], "filters": 32, "bias_initializer": {"class_name": "Zeros", "config": {}}, "depthwise_regularizer": null, "strides": [1, 1], "data_format": "channels_last", "trainable": true, "bias_constraint": null, "name": "separable_conv_1_normal_right2_0", "depth_multiplier": 1, "pointwise_initializer": {"class_name": "VarianceScaling", "config": {"scale": 1.0, "mode": "fan_avg", "distribution": "uniform", "seed": null}}, "padding": "same", "pointwise_regularizer": null, "bias_regularizer": null, "depthwise_constraint": null, "activation": "linear", "use_bias": false, "pointwise_constraint": null, "depthwise_initializer": {"class_name": "VarianceScaling", "config": {"scale": 1.0, "mode": "fan_avg", "distribution": "uniform", "seed": null}}, "activity_regularizer": null}, "inbound_nodes": [[["activation_947", 0, 0, {}]]], "name": "separable_conv_1_normal_right2_0"}, {"class_name": "SeparableConv2D", "config": {"kernel_size": [3, 3], "dilation_rate": [1, 1], "filters": 32, "bias_initializer": {"class_name": "Zeros", "config": {}}, "depthwise_regularizer": null, "strides": [1, 1], "data_format": "channels_last", "trainable": true, "bias_constraint": null, "name": "separable_conv_1_normal_left5_0", "depth_multiplier": 1, "pointwise_initializer": {"class_name": "VarianceScaling", "config": {"scale": 1.0, "mode": "fan_avg", "distribution": "uniform", "seed": null}}, "padding": "same", "pointwise_regularizer": null, "bias_regularizer": null, "depthwise_constraint": null, "activation": "linear", "use_bias": false, "pointwise_constraint": null, "depthwise_initializer": {"class_name": "VarianceScaling", "config": {"scale": 1.0, "mode": "fan_avg", "distribution": "uniform", "seed": null}}, "activity_regularizer": null}, "inbound_nodes": [[["activation_949", 0, 0, {}]]], "name": "separable_conv_1_normal_left5_0"}, {"class_name": "BatchNormalization", "config": {"beta_regularizer": null, "center": true, "trainable": true, "gamma_constraint": null, "axis": -1, "gamma_initializer": {"class_name": "Ones", "config": {}}, "moving_variance_initializer": {"class_name": "Ones", "config": {}}, "moving_mean_initializer": {"class_name": "Zeros", "config": {}}, "epsilon": 1e-05, "gamma_regularizer": null, "scale": true, "beta_constraint": null, "beta_initializer": {"class_name": "Zeros", "config": {}}, "momentum": 0.9, "name": "separable_conv_1_bn_normal_left1_0"}, "inbound_nodes": [[["separable_conv_1_normal_left1_0", 0, 0, {}]]], "name": "separable_conv_1_bn_normal_left1_0"}, {"class_name": "BatchNormalization", "config": {"beta_regularizer": null, "center": true, "trainable": true, "gamma_constraint": null, "axis": -1, "gamma_initializer": {"class_name": "Ones", "config": {}}, "moving_variance_initializer": {"class_name": "Ones", "config": {}}, "moving_mean_initializer": {"class_name": "Zeros", "config": {}}, "epsilon": 1e-05, "gamma_regularizer": null, "scale": true, "beta_constraint": null, "beta_initializer": {"class_name": "Zeros", "config": {}}, "momentum": 0.9, "name": "separable_conv_1_bn_normal_right1_0"}, "inbound_nodes": [[["separable_conv_1_normal_right1_0", 0, 0, {}]]], "name": "separable_conv_1_bn_normal_right1_0"}, {"class_name": "BatchNormalization", "config": {"beta_regularizer": null, "center": true, "trainable": true, "gamma_constraint": null, "axis": -1, "gamma_initializer": {"class_name": "Ones", "config": {}}, "moving_variance_initializer": {"class_name": "Ones", "config": {}}, "moving_mean_initializer": {"class_name": "Zeros", "config": {}}, "epsilon": 1e-05, "gamma_regularizer": null, "scale": true, "beta_constraint": null, "beta_initializer": {"class_name": "Zeros", "config": {}}, "momentum": 0.9, "name": "separable_conv_1_bn_normal_left2_0"}, "inbound_nodes": [[["separable_conv_1_normal_left2_0", 0, 0, {}]]], "name": "separable_conv_1_bn_normal_left2_0"}, {"class_name": "BatchNormalization", "config": {"beta_regularizer": null, "center": true, "trainable": true, "gamma_constraint": null, "axis": -1, "gamma_initializer": {"class_name": "Ones", "config": {}}, "moving_variance_initializer": {"class_name": "Ones", "config": {}}, "moving_mean_initializer": {"class_name": "Zeros", "config": {}}, "epsilon": 1e-05, "gamma_regularizer": null, "scale": true, "beta_constraint": null, "beta_initializer": {"class_name": "Zeros", "config": {}}, "momentum": 0.9, "name": "separable_conv_1_bn_normal_right2_0"}, "inbound_nodes": [[["separable_conv_1_normal_right2_0", 0, 0, {}]]], "name": "separable_conv_1_bn_normal_right2_0"}, {"class_name": "BatchNormalization", "config": {"beta_regularizer": null, "center": true, "trainable": true, "gamma_constraint": null, "axis": -1, "gamma_initializer": {"class_name": "Ones", "config": {}}, "moving_variance_initializer": {"class_name": "Ones", "config": {}}, "moving_mean_initializer": {"class_name": "Zeros", "config": {}}, "epsilon": 1e-05, "gamma_regularizer": null, "scale": true, "beta_constraint": null, "beta_initializer": {"class_name": "Zeros", "config": {}}, "momentum": 0.9, "name": "separable_conv_1_bn_normal_left5_0"}, "inbound_nodes": [[["separable_conv_1_normal_left5_0", 0, 0, {}]]], "name": "separable_conv_1_bn_normal_left5_0"}, {"class_name": "Activation", "config": {"activation": "relu", "trainable": true, "name": "activation_942"}, "inbound_nodes": [[["separable_conv_1_bn_normal_left1_0", 0, 0, {}]]], "name": "activation_942"}, {"class_name": "Activation", "config": {"activation": "relu", "trainable": true, "name": "activation_944"}, "inbound_nodes": [[["separable_conv_1_bn_normal_right1_0", 0, 0, {}]]], "name": "activation_944"}, {"class_name": "Activation", "config": {"activation": "relu", "trainable": true, "name": "activation_946"}, "inbound_nodes": [[["separable_conv_1_bn_normal_left2_0", 0, 0, {}]]], "name": "activation_946"}, {"class_name": "Activation", "config": {"activation": "relu", "trainable": true, "name": "activation_948"}, "inbound_nodes": [[["separable_conv_1_bn_normal_right2_0", 0, 0, {}]]], "name": "activation_948"}, {"class_name": "Activation", "config": {"activation": "relu", "trainable": true, "name": "activation_950"}, "inbound_nodes": [[["separable_conv_1_bn_normal_left5_0", 0, 0, {}]]], "name": "activation_950"}, {"class_name": "SeparableConv2D", "config": {"kernel_size": [5, 5], "dilation_rate": [1, 1], "filters": 32, "bias_initializer": {"class_name": "Zeros", "config": {}}, "depthwise_regularizer": null, "strides": [1, 1], "data_format": "channels_last", "trainable": true, "bias_constraint": null, "name": "separable_conv_2_normal_left1_0", "depth_multiplier": 1, "pointwise_initializer": {"class_name": "VarianceScaling", "config": {"scale": 1.0, "mode": "fan_avg", "distribution": "uniform", "seed": null}}, "padding": "same", "pointwise_regularizer": null, "bias_regularizer": null, "depthwise_constraint": null, "activation": "linear", "use_bias": false, "pointwise_constraint": null, "depthwise_initializer": {"class_name": "VarianceScaling", "config": {"scale": 1.0, "mode": "fan_avg", "distribution": "uniform", "seed": null}}, "activity_regularizer": null}, "inbound_nodes": [[["activation_942", 0, 0, {}]]], "name": "separable_conv_2_normal_left1_0"}, {"class_name": "SeparableConv2D", "config": {"kernel_size": [3, 3], "dilation_rate": [1, 1], "filters": 32, "bias_initializer": {"class_name": "Zeros", "config": {}}, "depthwise_regularizer": null, "strides": [1, 1], "data_format": "channels_last", "trainable": true, "bias_constraint": null, "name": "separable_conv_2_normal_right1_0", "depth_multiplier": 1, "pointwise_initializer": {"class_name": "VarianceScaling", "config": {"scale": 1.0, "mode": "fan_avg", "distribution": "uniform", "seed": null}}, "padding": "same", "pointwise_regularizer": null, "bias_regularizer": null, "depthwise_constraint": null, "activation": "linear", "use_bias": false, "pointwise_constraint": null, "depthwise_initializer": {"class_name": "VarianceScaling", "config": {"scale": 1.0, "mode": "fan_avg", "distribution": "uniform", "seed": null}}, "activity_regularizer": null}, "inbound_nodes": [[["activation_944", 0, 0, {}]]], "name": "separable_conv_2_normal_right1_0"}, {"class_name": "SeparableConv2D", "config": {"kernel_size": [5, 5], "dilation_rate": [1, 1], "filters": 32, "bias_initializer": {"class_name": "Zeros", "config": {}}, "depthwise_regularizer": null, "strides": [1, 1], "data_format": "channels_last", "trainable": true, "bias_constraint": null, "name": "separable_conv_2_normal_left2_0", "depth_multiplier": 1, "pointwise_initializer": {"class_name": "VarianceScaling", "config": {"scale": 1.0, "mode": "fan_avg", "distribution": "uniform", "seed": null}}, "padding": "same", "pointwise_regularizer": null, "bias_regularizer": null, "depthwise_constraint": null, "activation": "linear", "use_bias": false, "pointwise_constraint": null, "depthwise_initializer": {"class_name": "VarianceScaling", "config": {"scale": 1.0, "mode": "fan_avg", "distribution": "uniform", "seed": null}}, "activity_regularizer": null}, "inbound_nodes": [[["activation_946", 0, 0, {}]]], "name": "separable_conv_2_normal_left2_0"}, {"class_name": "SeparableConv2D", "config": {"kernel_size": [3, 3], "dilation_rate": [1, 1], "filters": 32, "bias_initializer": {"class_name": "Zeros", "config": {}}, "depthwise_regularizer": null, "strides": [1, 1], "data_format": "channels_last", "trainable": true, "bias_constraint": null, "name": "separable_conv_2_normal_right2_0", "depth_multiplier": 1, "pointwise_initializer": {"class_name": "VarianceScaling", "config": {"scale": 1.0, "mode": "fan_avg", "distribution": "uniform", "seed": null}}, "padding": "same", "pointwise_regularizer": null, "bias_regularizer": null, "depthwise_constraint": null, "activation": "linear", "use_bias": false, "pointwise_constraint": null, "depthwise_initializer": {"class_name": "VarianceScaling", "config": {"scale": 1.0, "mode": "fan_avg", "distribution": "uniform", "seed": null}}, "activity_regularizer": null}, "inbound_nodes": [[["activation_948", 0, 0, {}]]], "name": "separable_conv_2_normal_right2_0"}, {"class_name": "SeparableConv2D", "config": {"kernel_size": [3, 3], "dilation_rate": [1, 1], "filters": 32, "bias_initializer": {"class_name": "Zeros", "config": {}}, "depthwise_regularizer": null, "strides": [1, 1], "data_format": "channels_last", "trainable": true, "bias_constraint": null, "name": "separable_conv_2_normal_left5_0", "depth_multiplier": 1, "pointwise_initializer": {"class_name": "VarianceScaling", "config": {"scale": 1.0, "mode": "fan_avg", "distribution": "uniform", "seed": null}}, "padding": "same", "pointwise_regularizer": null, "bias_regularizer": null, "depthwise_constraint": null, "activation": "linear", "use_bias": false, "pointwise_constraint": null, "depthwise_initializer": {"class_name": "VarianceScaling", "config": {"scale": 1.0, "mode": "fan_avg", "distribution": "uniform", "seed": null}}, "activity_regularizer": null}, "inbound_nodes": [[["activation_950", 0, 0, {}]]], "name": "separable_conv_2_normal_left5_0"}, {"class_name": "BatchNormalization", "config": {"beta_regularizer": null, "center": true, "trainable": true, "gamma_constraint": null, "axis": -1, "gamma_initializer": {"class_name": "Ones", "config": {}}, "moving_variance_initializer": {"class_name": "Ones", "config": {}}, "moving_mean_initializer": {"class_name": "Zeros", "config": {}}, "epsilon": 1e-05, "gamma_regularizer": null, "scale": true, "beta_constraint": null, "beta_initializer": {"class_name": "Zeros", "config": {}}, "momentum": 0.9, "name": "separable_conv_2_bn_normal_left1_0"}, "inbound_nodes": [[["separable_conv_2_normal_left1_0", 0, 0, {}]]], "name": "separable_conv_2_bn_normal_left1_0"}, {"class_name": "BatchNormalization", "config": {"beta_regularizer": null, "center": true, "trainable": true, "gamma_constraint": null, "axis": -1, "gamma_initializer": {"class_name": "Ones", "config": {}}, "moving_variance_initializer": {"class_name": "Ones", "config": {}}, "moving_mean_initializer": {"class_name": "Zeros", "config": {}}, "epsilon": 1e-05, "gamma_regularizer": null, "scale": true, "beta_constraint": null, "beta_initializer": {"class_name": "Zeros", "config": {}}, "momentum": 0.9, "name": "separable_conv_2_bn_normal_right1_0"}, "inbound_nodes": [[["separable_conv_2_normal_right1_0", 0, 0, {}]]], "name": "separable_conv_2_bn_normal_right1_0"}, {"class_name": "BatchNormalization", "config": {"beta_regularizer": null, "center": true, "trainable": true, "gamma_constraint": null, "axis": -1, "gamma_initializer": {"class_name": "Ones", "config": {}}, "moving_variance_initializer": {"class_name": "Ones", "config": {}}, "moving_mean_initializer": {"class_name": "Zeros", "config": {}}, "epsilon": 1e-05, "gamma_regularizer": null, "scale": true, "beta_constraint": null, "beta_initializer": {"class_name": "Zeros", "config": {}}, "momentum": 0.9, "name": "separable_conv_2_bn_normal_left2_0"}, "inbound_nodes": [[["separable_conv_2_normal_left2_0", 0, 0, {}]]], "name": "separable_conv_2_bn_normal_left2_0"}, {"class_name": "BatchNormalization", "config": {"beta_regularizer": null, "center": true, "trainable": true, "gamma_constraint": null, "axis": -1, "gamma_initializer": {"class_name": "Ones", "config": {}}, "moving_variance_initializer": {"class_name": "Ones", "config": {}}, "moving_mean_initializer": {"class_name": "Zeros", "config": {}}, "epsilon": 1e-05, "gamma_regularizer": null, "scale": true, "beta_constraint": null, "beta_initializer": {"class_name": "Zeros", "config": {}}, "momentum": 0.9, "name": "separable_conv_2_bn_normal_right2_0"}, "inbound_nodes": [[["separable_conv_2_normal_right2_0", 0, 0, {}]]], "name": "separable_conv_2_bn_normal_right2_0"}, {"class_name": "AveragePooling2D", "config": {"padding": "same", "data_format": "channels_last", "pool_size": [3, 3], "trainable": true, "strides": [1, 1], "name": "normal_left3_0"}, "inbound_nodes": [[["normal_bn_1_0", 0, 0, {}]]], "name": "normal_left3_0"}, {"class_name": "AveragePooling2D", "config": {"padding": "same", "data_format": "channels_last", "pool_size": [3, 3], "trainable": true, "strides": [1, 1], "name": "normal_left4_0"}, "inbound_nodes": [[["stem_bn1", 0, 0, {}]]], "name": "normal_left4_0"}, {"class_name": "AveragePooling2D", "config": {"padding": "same", "data_format": "channels_last", "pool_size": [3, 3], "trainable": true, "strides": [1, 1], "name": "normal_right4_0"}, "inbound_nodes": [[["stem_bn1", 0, 0, {}]]], "name": "normal_right4_0"}, {"class_name": "BatchNormalization", "config": {"beta_regularizer": null, "center": true, "trainable": true, "gamma_constraint": null, "axis": -1, "gamma_initializer": {"class_name": "Ones", "config": {}}, "moving_variance_initializer": {"class_name": "Ones", "config": {}}, "moving_mean_initializer": {"class_name": "Zeros", "config": {}}, "epsilon": 1e-05, "gamma_regularizer": null, "scale": true, "beta_constraint": null, "beta_initializer": {"class_name": "Zeros", "config": {}}, "momentum": 0.9, "name": "separable_conv_2_bn_normal_left5_0"}, "inbound_nodes": [[["separable_conv_2_normal_left5_0", 0, 0, {}]]], "name": "separable_conv_2_bn_normal_left5_0"}, {"class_name": "Add", "config": {"trainable": true, "name": "normal_add_1_0"}, "inbound_nodes": [[["separable_conv_2_bn_normal_left1_0", 0, 0, {}], ["separable_conv_2_bn_normal_right1_0", 0, 0, {}]]], "name": "normal_add_1_0"}, {"class_name": "Add", "config": {"trainable": true, "name": "normal_add_2_0"}, "inbound_nodes": [[["separable_conv_2_bn_normal_left2_0", 0, 0, {}], ["separable_conv_2_bn_normal_right2_0", 0, 0, {}]]], "name": "normal_add_2_0"}, {"class_name": "Add", "config": {"trainable": true, "name": "normal_add_3_0"}, "inbound_nodes": [[["normal_left3_0", 0, 0, {}], ["stem_bn1", 0, 0, {}]]], "name": "normal_add_3_0"}, {"class_name": "Add", "config": {"trainable": true, "name": "normal_add_4_0"}, "inbound_nodes": [[["normal_left4_0", 0, 0, {}], ["normal_right4_0", 0, 0, {}]]], "name": "normal_add_4_0"}, {"class_name": "Add", "config": {"trainable": true, "name": "normal_add_5_0"}, "inbound_nodes": [[["separable_conv_2_bn_normal_left5_0", 0, 0, {}], ["normal_bn_1_0", 0, 0, {}]]], "name": "normal_add_5_0"}, {"class_name": "Concatenate", "config": {"axis": -1, "trainable": true, "name": "normal_concat_0"}, "inbound_nodes": [[["stem_bn1", 0, 0, {}], ["normal_add_1_0", 0, 0, {}], ["normal_add_2_0", 0, 0, {}], ["normal_add_3_0", 0, 0, {}], ["normal_add_4_0", 0, 0, {}], ["normal_add_5_0", 0, 0, {}]]], "name": "normal_concat_0"}, {"class_name": "Activation", "config": {"activation": "relu", "trainable": true, "name": "activation_951"}, "inbound_nodes": [[["normal_concat_0", 0, 0, {}]]], "name": "activation_951"}, {"class_name": "Conv2D", "config": {"kernel_size": [1, 1], "dilation_rate": [1, 1], "filters": 32, "padding": "same", "bias_initializer": {"class_name": "Zeros", "config": {}}, "name": "normal_conv_1_1", "strides": [1, 1], "kernel_initializer": {"class_name": "VarianceScaling", "config": {"scale": 2.0, "mode": "fan_in", "distribution": "normal", "seed": null}}, "trainable": true, "bias_constraint": null, "data_format": "channels_last", "activation": "linear", "use_bias": false, "kernel_regularizer": {"class_name": "L1L2", "config": {"l1": 0.0, "l2": 0.0005000000237487257}}, "kernel_constraint": null, "bias_regularizer": null, "activity_regularizer": null}, "inbound_nodes": [[["activation_951", 0, 0, {}]]], "name": "normal_conv_1_1"}, {"class_name": "BatchNormalization", "config": {"beta_regularizer": null, "center": true, "trainable": true, "gamma_constraint": null, "axis": -1, "gamma_initializer": {"class_name": "Ones", "config": {}}, "moving_variance_initializer": {"class_name": "Ones", "config": {}}, "moving_mean_initializer": {"class_name": "Zeros", "config": {}}, "epsilon": 1e-05, "gamma_regularizer": null, "scale": true, "beta_constraint": null, "beta_initializer": {"class_name": "Zeros", "config": {}}, "momentum": 0.9, "name": "normal_bn_1_1"}, "inbound_nodes": [[["normal_conv_1_1", 0, 0, {}]]], "name": "normal_bn_1_1"}, {"class_name": "Activation", "config": {"activation": "relu", "trainable": true, "name": "activation_952"}, "inbound_nodes": [[["normal_bn_1_1", 0, 0, {}]]], "name": "activation_952"}, {"class_name": "Activation", "config": {"activation": "relu", "trainable": true, "name": "activation_954"}, "inbound_nodes": [[["stem_bn1", 0, 0, {}]]], "name": "activation_954"}, {"class_name": "Activation", "config": {"activation": "relu", "trainable": true, "name": "activation_956"}, "inbound_nodes": [[["stem_bn1", 0, 0, {}]]], "name": "activation_956"}, {"class_name": "Activation", "config": {"activation": "relu", "trainable": true, "name": "activation_958"}, "inbound_nodes": [[["stem_bn1", 0, 0, {}]]], "name": "activation_958"}, {"class_name": "Activation", "config": {"activation": "relu", "trainable": true, "name": "activation_960"}, "inbound_nodes": [[["normal_bn_1_1", 0, 0, {}]]], "name": "activation_960"}, {"class_name": "SeparableConv2D", "config": {"kernel_size": [5, 5], "dilation_rate": [1, 1], "filters": 32, "bias_initializer": {"class_name": "Zeros", "config": {}}, "depthwise_regularizer": null, "strides": [1, 1], "data_format": "channels_last", "trainable": true, "bias_constraint": null, "name": "separable_conv_1_normal_left1_1", "depth_multiplier": 1, "pointwise_initializer": {"class_name": "VarianceScaling", "config": {"scale": 1.0, "mode": "fan_avg", "distribution": "uniform", "seed": null}}, "padding": "same", "pointwise_regularizer": null, "bias_regularizer": null, "depthwise_constraint": null, "activation": "linear", "use_bias": false, "pointwise_constraint": null, "depthwise_initializer": {"class_name": "VarianceScaling", "config": {"scale": 1.0, "mode": "fan_avg", "distribution": "uniform", "seed": null}}, "activity_regularizer": null}, "inbound_nodes": [[["activation_952", 0, 0, {}]]], "name": "separable_conv_1_normal_left1_1"}, {"class_name": "SeparableConv2D", "config": {"kernel_size": [3, 3], "dilation_rate": [1, 1], "filters": 32, "bias_initializer": {"class_name": "Zeros", "config": {}}, "depthwise_regularizer": null, "strides": [1, 1], "data_format": "channels_last", "trainable": true, "bias_constraint": null, "name": "separable_conv_1_normal_right1_1", "depth_multiplier": 1, "pointwise_initializer": {"class_name": "VarianceScaling", "config": {"scale": 1.0, "mode": "fan_avg", "distribution": "uniform", "seed": null}}, "padding": "same", "pointwise_regularizer": null, "bias_regularizer": null, "depthwise_constraint": null, "activation": "linear", "use_bias": false, "pointwise_constraint": null, "depthwise_initializer": {"class_name": "VarianceScaling", "config": {"scale": 1.0, "mode": "fan_avg", "distribution": "uniform", "seed": null}}, "activity_regularizer": null}, "inbound_nodes": [[["activation_954", 0, 0, {}]]], "name": "separable_conv_1_normal_right1_1"}, {"class_name": "SeparableConv2D", "config": {"kernel_size": [5, 5], "dilation_rate": [1, 1], "filters": 32, "bias_initializer": {"class_name": "Zeros", "config": {}}, "depthwise_regularizer": null, "strides": [1, 1], "data_format": "channels_last", "trainable": true, "bias_constraint": null, "name": "separable_conv_1_normal_left2_1", "depth_multiplier": 1, "pointwise_initializer": {"class_name": "VarianceScaling", "config": {"scale": 1.0, "mode": "fan_avg", "distribution": "uniform", "seed": null}}, "padding": "same", "pointwise_regularizer": null, "bias_regularizer": null, "depthwise_constraint": null, "activation": "linear", "use_bias": false, "pointwise_constraint": null, "depthwise_initializer": {"class_name": "VarianceScaling", "config": {"scale": 1.0, "mode": "fan_avg", "distribution": "uniform", "seed": null}}, "activity_regularizer": null}, "inbound_nodes": [[["activation_956", 0, 0, {}]]], "name": "separable_conv_1_normal_left2_1"}, {"class_name": "SeparableConv2D", "config": {"kernel_size": [3, 3], "dilation_rate": [1, 1], "filters": 32, "bias_initializer": {"class_name": "Zeros", "config": {}}, "depthwise_regularizer": null, "strides": [1, 1], "data_format": "channels_last", "trainable": true, "bias_constraint": null, "name": "separable_conv_1_normal_right2_1", "depth_multiplier": 1, "pointwise_initializer": {"class_name": "VarianceScaling", "config": {"scale": 1.0, "mode": "fan_avg", "distribution": "uniform", "seed": null}}, "padding": "same", "pointwise_regularizer": null, "bias_regularizer": null, "depthwise_constraint": null, "activation": "linear", "use_bias": false, "pointwise_constraint": null, "depthwise_initializer": {"class_name": "VarianceScaling", "config": {"scale": 1.0, "mode": "fan_avg", "distribution": "uniform", "seed": null}}, "activity_regularizer": null}, "inbound_nodes": [[["activation_958", 0, 0, {}]]], "name": "separable_conv_1_normal_right2_1"}, {"class_name": "SeparableConv2D", "config": {"kernel_size": [3, 3], "dilation_rate": [1, 1], "filters": 32, "bias_initializer": {"class_name": "Zeros", "config": {}}, "depthwise_regularizer": null, "strides": [1, 1], "data_format": "channels_last", "trainable": true, "bias_constraint": null, "name": "separable_conv_1_normal_left5_1", "depth_multiplier": 1, "pointwise_initializer": {"class_name": "VarianceScaling", "config": {"scale": 1.0, "mode": "fan_avg", "distribution": "uniform", "seed": null}}, "padding": "same", "pointwise_regularizer": null, "bias_regularizer": null, "depthwise_constraint": null, "activation": "linear", "use_bias": false, "pointwise_constraint": null, "depthwise_initializer": {"class_name": "VarianceScaling", "config": {"scale": 1.0, "mode": "fan_avg", "distribution": "uniform", "seed": null}}, "activity_regularizer": null}, "inbound_nodes": [[["activation_960", 0, 0, {}]]], "name": "separable_conv_1_normal_left5_1"}, {"class_name": "BatchNormalization", "config": {"beta_regularizer": null, "center": true, "trainable": true, "gamma_constraint": null, "axis": -1, "gamma_initializer": {"class_name": "Ones", "config": {}}, "moving_variance_initializer": {"class_name": "Ones", "config": {}}, "moving_mean_initializer": {"class_name": "Zeros", "config": {}}, "epsilon": 1e-05, "gamma_regularizer": null, "scale": true, "beta_constraint": null, "beta_initializer": {"class_name": "Zeros", "config": {}}, "momentum": 0.9, "name": "separable_conv_1_bn_normal_left1_1"}, "inbound_nodes": [[["separable_conv_1_normal_left1_1", 0, 0, {}]]], "name": "separable_conv_1_bn_normal_left1_1"}, {"class_name": "BatchNormalization", "config": {"beta_regularizer": null, "center": true, "trainable": true, "gamma_constraint": null, "axis": -1, "gamma_initializer": {"class_name": "Ones", "config": {}}, "moving_variance_initializer": {"class_name": "Ones", "config": {}}, "moving_mean_initializer": {"class_name": "Zeros", "config": {}}, "epsilon": 1e-05, "gamma_regularizer": null, "scale": true, "beta_constraint": null, "beta_initializer": {"class_name": "Zeros", "config": {}}, "momentum": 0.9, "name": "separable_conv_1_bn_normal_right1_1"}, "inbound_nodes": [[["separable_conv_1_normal_right1_1", 0, 0, {}]]], "name": "separable_conv_1_bn_normal_right1_1"}, {"class_name": "BatchNormalization", "config": {"beta_regularizer": null, "center": true, "trainable": true, "gamma_constraint": null, "axis": -1, "gamma_initializer": {"class_name": "Ones", "config": {}}, "moving_variance_initializer": {"class_name": "Ones", "config": {}}, "moving_mean_initializer": {"class_name": "Zeros", "config": {}}, "epsilon": 1e-05, "gamma_regularizer": null, "scale": true, "beta_constraint": null, "beta_initializer": {"class_name": "Zeros", "config": {}}, "momentum": 0.9, "name": "separable_conv_1_bn_normal_left2_1"}, "inbound_nodes": [[["separable_conv_1_normal_left2_1", 0, 0, {}]]], "name": "separable_conv_1_bn_normal_left2_1"}, {"class_name": "BatchNormalization", "config": {"beta_regularizer": null, "center": true, "trainable": true, "gamma_constraint": null, "axis": -1, "gamma_initializer": {"class_name": "Ones", "config": {}}, "moving_variance_initializer": {"class_name": "Ones", "config": {}}, "moving_mean_initializer": {"class_name": "Zeros", "config": {}}, "epsilon": 1e-05, "gamma_regularizer": null, "scale": true, "beta_constraint": null, "beta_initializer": {"class_name": "Zeros", "config": {}}, "momentum": 0.9, "name": "separable_conv_1_bn_normal_right2_1"}, "inbound_nodes": [[["separable_conv_1_normal_right2_1", 0, 0, {}]]], "name": "separable_conv_1_bn_normal_right2_1"}, {"class_name": "BatchNormalization", "config": {"beta_regularizer": null, "center": true, "trainable": true, "gamma_constraint": null, "axis": -1, "gamma_initializer": {"class_name": "Ones", "config": {}}, "moving_variance_initializer": {"class_name": "Ones", "config": {}}, "moving_mean_initializer": {"class_name": "Zeros", "config": {}}, "epsilon": 1e-05, "gamma_regularizer": null, "scale": true, "beta_constraint": null, "beta_initializer": {"class_name": "Zeros", "config": {}}, "momentum": 0.9, "name": "separable_conv_1_bn_normal_left5_1"}, "inbound_nodes": [[["separable_conv_1_normal_left5_1", 0, 0, {}]]], "name": "separable_conv_1_bn_normal_left5_1"}, {"class_name": "Activation", "config": {"activation": "relu", "trainable": true, "name": "activation_953"}, "inbound_nodes": [[["separable_conv_1_bn_normal_left1_1", 0, 0, {}]]], "name": "activation_953"}, {"class_name": "Activation", "config": {"activation": "relu", "trainable": true, "name": "activation_955"}, "inbound_nodes": [[["separable_conv_1_bn_normal_right1_1", 0, 0, {}]]], "name": "activation_955"}, {"class_name": "Activation", "config": {"activation": "relu", "trainable": true, "name": "activation_957"}, "inbound_nodes": [[["separable_conv_1_bn_normal_left2_1", 0, 0, {}]]], "name": "activation_957"}, {"class_name": "Activation", "config": {"activation": "relu", "trainable": true, "name": "activation_959"}, "inbound_nodes": [[["separable_conv_1_bn_normal_right2_1", 0, 0, {}]]], "name": "activation_959"}, {"class_name": "Activation", "config": {"activation": "relu", "trainable": true, "name": "activation_961"}, "inbound_nodes": [[["separable_conv_1_bn_normal_left5_1", 0, 0, {}]]], "name": "activation_961"}, {"class_name": "SeparableConv2D", "config": {"kernel_size": [5, 5], "dilation_rate": [1, 1], "filters": 32, "bias_initializer": {"class_name": "Zeros", "config": {}}, "depthwise_regularizer": null, "strides": [1, 1], "data_format": "channels_last", "trainable": true, "bias_constraint": null, "name": "separable_conv_2_normal_left1_1", "depth_multiplier": 1, "pointwise_initializer": {"class_name": "VarianceScaling", "config": {"scale": 1.0, "mode": "fan_avg", "distribution": "uniform", "seed": null}}, "padding": "same", "pointwise_regularizer": null, "bias_regularizer": null, "depthwise_constraint": null, "activation": "linear", "use_bias": false, "pointwise_constraint": null, "depthwise_initializer": {"class_name": "VarianceScaling", "config": {"scale": 1.0, "mode": "fan_avg", "distribution": "uniform", "seed": null}}, "activity_regularizer": null}, "inbound_nodes": [[["activation_953", 0, 0, {}]]], "name": "separable_conv_2_normal_left1_1"}, {"class_name": "SeparableConv2D", "config": {"kernel_size": [3, 3], "dilation_rate": [1, 1], "filters": 32, "bias_initializer": {"class_name": "Zeros", "config": {}}, "depthwise_regularizer": null, "strides": [1, 1], "data_format": "channels_last", "trainable": true, "bias_constraint": null, "name": "separable_conv_2_normal_right1_1", "depth_multiplier": 1, "pointwise_initializer": {"class_name": "VarianceScaling", "config": {"scale": 1.0, "mode": "fan_avg", "distribution": "uniform", "seed": null}}, "padding": "same", "pointwise_regularizer": null, "bias_regularizer": null, "depthwise_constraint": null, "activation": "linear", "use_bias": false, "pointwise_constraint": null, "depthwise_initializer": {"class_name": "VarianceScaling", "config": {"scale": 1.0, "mode": "fan_avg", "distribution": "uniform", "seed": null}}, "activity_regularizer": null}, "inbound_nodes": [[["activation_955", 0, 0, {}]]], "name": "separable_conv_2_normal_right1_1"}, {"class_name": "SeparableConv2D", "config": {"kernel_size": [5, 5], "dilation_rate": [1, 1], "filters": 32, "bias_initializer": {"class_name": "Zeros", "config": {}}, "depthwise_regularizer": null, "strides": [1, 1], "data_format": "channels_last", "trainable": true, "bias_constraint": null, "name": "separable_conv_2_normal_left2_1", "depth_multiplier": 1, "pointwise_initializer": {"class_name": "VarianceScaling", "config": {"scale": 1.0, "mode": "fan_avg", "distribution": "uniform", "seed": null}}, "padding": "same", "pointwise_regularizer": null, "bias_regularizer": null, "depthwise_constraint": null, "activation": "linear", "use_bias": false, "pointwise_constraint": null, "depthwise_initializer": {"class_name": "VarianceScaling", "config": {"scale": 1.0, "mode": "fan_avg", "distribution": "uniform", "seed": null}}, "activity_regularizer": null}, "inbound_nodes": [[["activation_957", 0, 0, {}]]], "name": "separable_conv_2_normal_left2_1"}, {"class_name": "SeparableConv2D", "config": {"kernel_size": [3, 3], "dilation_rate": [1, 1], "filters": 32, "bias_initializer": {"class_name": "Zeros", "config": {}}, "depthwise_regularizer": null, "strides": [1, 1], "data_format": "channels_last", "trainable": true, "bias_constraint": null, "name": "separable_conv_2_normal_right2_1", "depth_multiplier": 1, "pointwise_initializer": {"class_name": "VarianceScaling", "config": {"scale": 1.0, "mode": "fan_avg", "distribution": "uniform", "seed": null}}, "padding": "same", "pointwise_regularizer": null, "bias_regularizer": null, "depthwise_constraint": null, "activation": "linear", "use_bias": false, "pointwise_constraint": null, "depthwise_initializer": {"class_name": "VarianceScaling", "config": {"scale": 1.0, "mode": "fan_avg", "distribution": "uniform", "seed": null}}, "activity_regularizer": null}, "inbound_nodes": [[["activation_959", 0, 0, {}]]], "name": "separable_conv_2_normal_right2_1"}, {"class_name": "SeparableConv2D", "config": {"kernel_size": [3, 3], "dilation_rate": [1, 1], "filters": 32, "bias_initializer": {"class_name": "Zeros", "config": {}}, "depthwise_regularizer": null, "strides": [1, 1], "data_format": "channels_last", "trainable": true, "bias_constraint": null, "name": "separable_conv_2_normal_left5_1", "depth_multiplier": 1, "pointwise_initializer": {"class_name": "VarianceScaling", "config": {"scale": 1.0, "mode": "fan_avg", "distribution": "uniform", "seed": null}}, "padding": "same", "pointwise_regularizer": null, "bias_regularizer": null, "depthwise_constraint": null, "activation": "linear", "use_bias": false, "pointwise_constraint": null, "depthwise_initializer": {"class_name": "VarianceScaling", "config": {"scale": 1.0, "mode": "fan_avg", "distribution": "uniform", "seed": null}}, "activity_regularizer": null}, "inbound_nodes": [[["activation_961", 0, 0, {}]]], "name": "separable_conv_2_normal_left5_1"}, {"class_name": "BatchNormalization", "config": {"beta_regularizer": null, "center": true, "trainable": true, "gamma_constraint": null, "axis": -1, "gamma_initializer": {"class_name": "Ones", "config": {}}, "moving_variance_initializer": {"class_name": "Ones", "config": {}}, "moving_mean_initializer": {"class_name": "Zeros", "config": {}}, "epsilon": 1e-05, "gamma_regularizer": null, "scale": true, "beta_constraint": null, "beta_initializer": {"class_name": "Zeros", "config": {}}, "momentum": 0.9, "name": "separable_conv_2_bn_normal_left1_1"}, "inbound_nodes": [[["separable_conv_2_normal_left1_1", 0, 0, {}]]], "name": "separable_conv_2_bn_normal_left1_1"}, {"class_name": "BatchNormalization", "config": {"beta_regularizer": null, "center": true, "trainable": true, "gamma_constraint": null, "axis": -1, "gamma_initializer": {"class_name": "Ones", "config": {}}, "moving_variance_initializer": {"class_name": "Ones", "config": {}}, "moving_mean_initializer": {"class_name": "Zeros", "config": {}}, "epsilon": 1e-05, "gamma_regularizer": null, "scale": true, "beta_constraint": null, "beta_initializer": {"class_name": "Zeros", "config": {}}, "momentum": 0.9, "name": "separable_conv_2_bn_normal_right1_1"}, "inbound_nodes": [[["separable_conv_2_normal_right1_1", 0, 0, {}]]], "name": "separable_conv_2_bn_normal_right1_1"}, {"class_name": "BatchNormalization", "config": {"beta_regularizer": null, "center": true, "trainable": true, "gamma_constraint": null, "axis": -1, "gamma_initializer": {"class_name": "Ones", "config": {}}, "moving_variance_initializer": {"class_name": "Ones", "config": {}}, "moving_mean_initializer": {"class_name": "Zeros", "config": {}}, "epsilon": 1e-05, "gamma_regularizer": null, "scale": true, "beta_constraint": null, "beta_initializer": {"class_name": "Zeros", "config": {}}, "momentum": 0.9, "name": "separable_conv_2_bn_normal_left2_1"}, "inbound_nodes": [[["separable_conv_2_normal_left2_1", 0, 0, {}]]], "name": "separable_conv_2_bn_normal_left2_1"}, {"class_name": "BatchNormalization", "config": {"beta_regularizer": null, "center": true, "trainable": true, "gamma_constraint": null, "axis": -1, "gamma_initializer": {"class_name": "Ones", "config": {}}, "moving_variance_initializer": {"class_name": "Ones", "config": {}}, "moving_mean_initializer": {"class_name": "Zeros", "config": {}}, "epsilon": 1e-05, "gamma_regularizer": null, "scale": true, "beta_constraint": null, "beta_initializer": {"class_name": "Zeros", "config": {}}, "momentum": 0.9, "name": "separable_conv_2_bn_normal_right2_1"}, "inbound_nodes": [[["separable_conv_2_normal_right2_1", 0, 0, {}]]], "name": "separable_conv_2_bn_normal_right2_1"}, {"class_name": "AveragePooling2D", "config": {"padding": "same", "data_format": "channels_last", "pool_size": [3, 3], "trainable": true, "strides": [1, 1], "name": "normal_left3_1"}, "inbound_nodes": [[["normal_bn_1_1", 0, 0, {}]]], "name": "normal_left3_1"}, {"class_name": "AveragePooling2D", "config": {"padding": "same", "data_format": "channels_last", "pool_size": [3, 3], "trainable": true, "strides": [1, 1], "name": "normal_left4_1"}, "inbound_nodes": [[["stem_bn1", 0, 0, {}]]], "name": "normal_left4_1"}, {"class_name": "AveragePooling2D", "config": {"padding": "same", "data_format": "channels_last", "pool_size": [3, 3], "trainable": true, "strides": [1, 1], "name": "normal_right4_1"}, "inbound_nodes": [[["stem_bn1", 0, 0, {}]]], "name": "normal_right4_1"}, {"class_name": "BatchNormalization", "config": {"beta_regularizer": null, "center": true, "trainable": true, "gamma_constraint": null, "axis": -1, "gamma_initializer": {"class_name": "Ones", "config": {}}, "moving_variance_initializer": {"class_name": "Ones", "config": {}}, "moving_mean_initializer": {"class_name": "Zeros", "config": {}}, "epsilon": 1e-05, "gamma_regularizer": null, "scale": true, "beta_constraint": null, "beta_initializer": {"class_name": "Zeros", "config": {}}, "momentum": 0.9, "name": "separable_conv_2_bn_normal_left5_1"}, "inbound_nodes": [[["separable_conv_2_normal_left5_1", 0, 0, {}]]], "name": "separable_conv_2_bn_normal_left5_1"}, {"class_name": "Add", "config": {"trainable": true, "name": "normal_add_1_1"}, "inbound_nodes": [[["separable_conv_2_bn_normal_left1_1", 0, 0, {}], ["separable_conv_2_bn_normal_right1_1", 0, 0, {}]]], "name": "normal_add_1_1"}, {"class_name": "Add", "config": {"trainable": true, "name": "normal_add_2_1"}, "inbound_nodes": [[["separable_conv_2_bn_normal_left2_1", 0, 0, {}], ["separable_conv_2_bn_normal_right2_1", 0, 0, {}]]], "name": "normal_add_2_1"}, {"class_name": "Add", "config": {"trainable": true, "name": "normal_add_3_1"}, "inbound_nodes": [[["normal_left3_1", 0, 0, {}], ["stem_bn1", 0, 0, {}]]], "name": "normal_add_3_1"}, {"class_name": "Add", "config": {"trainable": true, "name": "normal_add_4_1"}, "inbound_nodes": [[["normal_left4_1", 0, 0, {}], ["normal_right4_1", 0, 0, {}]]], "name": "normal_add_4_1"}, {"class_name": "Add", "config": {"trainable": true, "name": "normal_add_5_1"}, "inbound_nodes": [[["separable_conv_2_bn_normal_left5_1", 0, 0, {}], ["normal_bn_1_1", 0, 0, {}]]], "name": "normal_add_5_1"}, {"class_name": "Concatenate", "config": {"axis": -1, "trainable": true, "name": "normal_concat_1"}, "inbound_nodes": [[["stem_bn1", 0, 0, {}], ["normal_add_1_1", 0, 0, {}], ["normal_add_2_1", 0, 0, {}], ["normal_add_3_1", 0, 0, {}], ["normal_add_4_1", 0, 0, {}], ["normal_add_5_1", 0, 0, {}]]], "name": "normal_concat_1"}, {"class_name": "Activation", "config": {"activation": "relu", "trainable": true, "name": "activation_962"}, "inbound_nodes": [[["normal_concat_0", 0, 0, {}]]], "name": "activation_962"}, {"class_name": "Activation", "config": {"activation": "relu", "trainable": true, "name": "activation_963"}, "inbound_nodes": [[["normal_concat_1", 0, 0, {}]]], "name": "activation_963"}, {"class_name": "Conv2D", "config": {"kernel_size": [1, 1], "dilation_rate": [1, 1], "filters": 32, "padding": "same", "bias_initializer": {"class_name": "Zeros", "config": {}}, "name": "adjust_conv_projection_2", "strides": [1, 1], "kernel_initializer": {"class_name": "VarianceScaling", "config": {"scale": 2.0, "mode": "fan_in", "distribution": "normal", "seed": null}}, "trainable": true, "bias_constraint": null, "data_format": "channels_last", "activation": "linear", "use_bias": false, "kernel_regularizer": {"class_name": "L1L2", "config": {"l1": 0.0, "l2": 0.0005000000237487257}}, "kernel_constraint": null, "bias_regularizer": null, "activity_regularizer": null}, "inbound_nodes": [[["activation_962", 0, 0, {}]]], "name": "adjust_conv_projection_2"}, {"class_name": "Conv2D", "config": {"kernel_size": [1, 1], "dilation_rate": [1, 1], "filters": 32, "padding": "same", "bias_initializer": {"class_name": "Zeros", "config": {}}, "name": "normal_conv_1_2", "strides": [1, 1], "kernel_initializer": {"class_name": "VarianceScaling", "config": {"scale": 2.0, "mode": "fan_in", "distribution": "normal", "seed": null}}, "trainable": true, "bias_constraint": null, "data_format": "channels_last", "activation": "linear", "use_bias": false, "kernel_regularizer": {"class_name": "L1L2", "config": {"l1": 0.0, "l2": 0.0005000000237487257}}, "kernel_constraint": null, "bias_regularizer": null, "activity_regularizer": null}, "inbound_nodes": [[["activation_963", 0, 0, {}]]], "name": "normal_conv_1_2"}, {"class_name": "BatchNormalization", "config": {"beta_regularizer": null, "center": true, "trainable": true, "gamma_constraint": null, "axis": -1, "gamma_initializer": {"class_name": "Ones", "config": {}}, "moving_variance_initializer": {"class_name": "Ones", "config": {}}, "moving_mean_initializer": {"class_name": "Zeros", "config": {}}, "epsilon": 1e-05, "gamma_regularizer": null, "scale": true, "beta_constraint": null, "beta_initializer": {"class_name": "Zeros", "config": {}}, "momentum": 0.9, "name": "adjust_bn_2"}, "inbound_nodes": [[["adjust_conv_projection_2", 0, 0, {}]]], "name": "adjust_bn_2"}, {"class_name": "BatchNormalization", "config": {"beta_regularizer": null, "center": true, "trainable": true, "gamma_constraint": null, "axis": -1, "gamma_initializer": {"class_name": "Ones", "config": {}}, "moving_variance_initializer": {"class_name": "Ones", "config": {}}, "moving_mean_initializer": {"class_name": "Zeros", "config": {}}, "epsilon": 1e-05, "gamma_regularizer": null, "scale": true, "beta_constraint": null, "beta_initializer": {"class_name": "Zeros", "config": {}}, "momentum": 0.9, "name": "normal_bn_1_2"}, "inbound_nodes": [[["normal_conv_1_2", 0, 0, {}]]], "name": "normal_bn_1_2"}, {"class_name": "Activation", "config": {"activation": "relu", "trainable": true, "name": "activation_964"}, "inbound_nodes": [[["normal_bn_1_2", 0, 0, {}]]], "name": "activation_964"}, {"class_name": "Activation", "config": {"activation": "relu", "trainable": true, "name": "activation_966"}, "inbound_nodes": [[["adjust_bn_2", 0, 0, {}]]], "name": "activation_966"}, {"class_name": "Activation", "config": {"activation": "relu", "trainable": true, "name": "activation_968"}, "inbound_nodes": [[["adjust_bn_2", 0, 0, {}]]], "name": "activation_968"}, {"class_name": "Activation", "config": {"activation": "relu", "trainable": true, "name": "activation_970"}, "inbound_nodes": [[["adjust_bn_2", 0, 0, {}]]], "name": "activation_970"}, {"class_name": "Activation", "config": {"activation": "relu", "trainable": true, "name": "activation_972"}, "inbound_nodes": [[["normal_bn_1_2", 0, 0, {}]]], "name": "activation_972"}, {"class_name": "SeparableConv2D", "config": {"kernel_size": [5, 5], "dilation_rate": [1, 1], "filters": 32, "bias_initializer": {"class_name": "Zeros", "config": {}}, "depthwise_regularizer": null, "strides": [1, 1], "data_format": "channels_last", "trainable": true, "bias_constraint": null, "name": "separable_conv_1_normal_left1_2", "depth_multiplier": 1, "pointwise_initializer": {"class_name": "VarianceScaling", "config": {"scale": 1.0, "mode": "fan_avg", "distribution": "uniform", "seed": null}}, "padding": "same", "pointwise_regularizer": null, "bias_regularizer": null, "depthwise_constraint": null, "activation": "linear", "use_bias": false, "pointwise_constraint": null, "depthwise_initializer": {"class_name": "VarianceScaling", "config": {"scale": 1.0, "mode": "fan_avg", "distribution": "uniform", "seed": null}}, "activity_regularizer": null}, "inbound_nodes": [[["activation_964", 0, 0, {}]]], "name": "separable_conv_1_normal_left1_2"}, {"class_name": "SeparableConv2D", "config": {"kernel_size": [3, 3], "dilation_rate": [1, 1], "filters": 32, "bias_initializer": {"class_name": "Zeros", "config": {}}, "depthwise_regularizer": null, "strides": [1, 1], "data_format": "channels_last", "trainable": true, "bias_constraint": null, "name": "separable_conv_1_normal_right1_2", "depth_multiplier": 1, "pointwise_initializer": {"class_name": "VarianceScaling", "config": {"scale": 1.0, "mode": "fan_avg", "distribution": "uniform", "seed": null}}, "padding": "same", "pointwise_regularizer": null, "bias_regularizer": null, "depthwise_constraint": null, "activation": "linear", "use_bias": false, "pointwise_constraint": null, "depthwise_initializer": {"class_name": "VarianceScaling", "config": {"scale": 1.0, "mode": "fan_avg", "distribution": "uniform", "seed": null}}, "activity_regularizer": null}, "inbound_nodes": [[["activation_966", 0, 0, {}]]], "name": "separable_conv_1_normal_right1_2"}, {"class_name": "SeparableConv2D", "config": {"kernel_size": [5, 5], "dilation_rate": [1, 1], "filters": 32, "bias_initializer": {"class_name": "Zeros", "config": {}}, "depthwise_regularizer": null, "strides": [1, 1], "data_format": "channels_last", "trainable": true, "bias_constraint": null, "name": "separable_conv_1_normal_left2_2", "depth_multiplier": 1, "pointwise_initializer": {"class_name": "VarianceScaling", "config": {"scale": 1.0, "mode": "fan_avg", "distribution": "uniform", "seed": null}}, "padding": "same", "pointwise_regularizer": null, "bias_regularizer": null, "depthwise_constraint": null, "activation": "linear", "use_bias": false, "pointwise_constraint": null, "depthwise_initializer": {"class_name": "VarianceScaling", "config": {"scale": 1.0, "mode": "fan_avg", "distribution": "uniform", "seed": null}}, "activity_regularizer": null}, "inbound_nodes": [[["activation_968", 0, 0, {}]]], "name": "separable_conv_1_normal_left2_2"}, {"class_name": "SeparableConv2D", "config": {"kernel_size": [3, 3], "dilation_rate": [1, 1], "filters": 32, "bias_initializer": {"class_name": "Zeros", "config": {}}, "depthwise_regularizer": null, "strides": [1, 1], "data_format": "channels_last", "trainable": true, "bias_constraint": null, "name": "separable_conv_1_normal_right2_2", "depth_multiplier": 1, "pointwise_initializer": {"class_name": "VarianceScaling", "config": {"scale": 1.0, "mode": "fan_avg", "distribution": "uniform", "seed": null}}, "padding": "same", "pointwise_regularizer": null, "bias_regularizer": null, "depthwise_constraint": null, "activation": "linear", "use_bias": false, "pointwise_constraint": null, "depthwise_initializer": {"class_name": "VarianceScaling", "config": {"scale": 1.0, "mode": "fan_avg", "distribution": "uniform", "seed": null}}, "activity_regularizer": null}, "inbound_nodes": [[["activation_970", 0, 0, {}]]], "name": "separable_conv_1_normal_right2_2"}, {"class_name": "SeparableConv2D", "config": {"kernel_size": [3, 3], "dilation_rate": [1, 1], "filters": 32, "bias_initializer": {"class_name": "Zeros", "config": {}}, "depthwise_regularizer": null, "strides": [1, 1], "data_format": "channels_last", "trainable": true, "bias_constraint": null, "name": "separable_conv_1_normal_left5_2", "depth_multiplier": 1, "pointwise_initializer": {"class_name": "VarianceScaling", "config": {"scale": 1.0, "mode": "fan_avg", "distribution": "uniform", "seed": null}}, "padding": "same", "pointwise_regularizer": null, "bias_regularizer": null, "depthwise_constraint": null, "activation": "linear", "use_bias": false, "pointwise_constraint": null, "depthwise_initializer": {"class_name": "VarianceScaling", "config": {"scale": 1.0, "mode": "fan_avg", "distribution": "uniform", "seed": null}}, "activity_regularizer": null}, "inbound_nodes": [[["activation_972", 0, 0, {}]]], "name": "separable_conv_1_normal_left5_2"}, {"class_name": "BatchNormalization", "config": {"beta_regularizer": null, "center": true, "trainable": true, "gamma_constraint": null, "axis": -1, "gamma_initializer": {"class_name": "Ones", "config": {}}, "moving_variance_initializer": {"class_name": "Ones", "config": {}}, "moving_mean_initializer": {"class_name": "Zeros", "config": {}}, "epsilon": 1e-05, "gamma_regularizer": null, "scale": true, "beta_constraint": null, "beta_initializer": {"class_name": "Zeros", "config": {}}, "momentum": 0.9, "name": "separable_conv_1_bn_normal_left1_2"}, "inbound_nodes": [[["separable_conv_1_normal_left1_2", 0, 0, {}]]], "name": "separable_conv_1_bn_normal_left1_2"}, {"class_name": "BatchNormalization", "config": {"beta_regularizer": null, "center": true, "trainable": true, "gamma_constraint": null, "axis": -1, "gamma_initializer": {"class_name": "Ones", "config": {}}, "moving_variance_initializer": {"class_name": "Ones", "config": {}}, "moving_mean_initializer": {"class_name": "Zeros", "config": {}}, "epsilon": 1e-05, "gamma_regularizer": null, "scale": true, "beta_constraint": null, "beta_initializer": {"class_name": "Zeros", "config": {}}, "momentum": 0.9, "name": "separable_conv_1_bn_normal_right1_2"}, "inbound_nodes": [[["separable_conv_1_normal_right1_2", 0, 0, {}]]], "name": "separable_conv_1_bn_normal_right1_2"}, {"class_name": "BatchNormalization", "config": {"beta_regularizer": null, "center": true, "trainable": true, "gamma_constraint": null, "axis": -1, "gamma_initializer": {"class_name": "Ones", "config": {}}, "moving_variance_initializer": {"class_name": "Ones", "config": {}}, "moving_mean_initializer": {"class_name": "Zeros", "config": {}}, "epsilon": 1e-05, "gamma_regularizer": null, "scale": true, "beta_constraint": null, "beta_initializer": {"class_name": "Zeros", "config": {}}, "momentum": 0.9, "name": "separable_conv_1_bn_normal_left2_2"}, "inbound_nodes": [[["separable_conv_1_normal_left2_2", 0, 0, {}]]], "name": "separable_conv_1_bn_normal_left2_2"}, {"class_name": "BatchNormalization", "config": {"beta_regularizer": null, "center": true, "trainable": true, "gamma_constraint": null, "axis": -1, "gamma_initializer": {"class_name": "Ones", "config": {}}, "moving_variance_initializer": {"class_name": "Ones", "config": {}}, "moving_mean_initializer": {"class_name": "Zeros", "config": {}}, "epsilon": 1e-05, "gamma_regularizer": null, "scale": true, "beta_constraint": null, "beta_initializer": {"class_name": "Zeros", "config": {}}, "momentum": 0.9, "name": "separable_conv_1_bn_normal_right2_2"}, "inbound_nodes": [[["separable_conv_1_normal_right2_2", 0, 0, {}]]], "name": "separable_conv_1_bn_normal_right2_2"}, {"class_name": "BatchNormalization", "config": {"beta_regularizer": null, "center": true, "trainable": true, "gamma_constraint": null, "axis": -1, "gamma_initializer": {"class_name": "Ones", "config": {}}, "moving_variance_initializer": {"class_name": "Ones", "config": {}}, "moving_mean_initializer": {"class_name": "Zeros", "config": {}}, "epsilon": 1e-05, "gamma_regularizer": null, "scale": true, "beta_constraint": null, "beta_initializer": {"class_name": "Zeros", "config": {}}, "momentum": 0.9, "name": "separable_conv_1_bn_normal_left5_2"}, "inbound_nodes": [[["separable_conv_1_normal_left5_2", 0, 0, {}]]], "name": "separable_conv_1_bn_normal_left5_2"}, {"class_name": "Activation", "config": {"activation": "relu", "trainable": true, "name": "activation_965"}, "inbound_nodes": [[["separable_conv_1_bn_normal_left1_2", 0, 0, {}]]], "name": "activation_965"}, {"class_name": "Activation", "config": {"activation": "relu", "trainable": true, "name": "activation_967"}, "inbound_nodes": [[["separable_conv_1_bn_normal_right1_2", 0, 0, {}]]], "name": "activation_967"}, {"class_name": "Activation", "config": {"activation": "relu", "trainable": true, "name": "activation_969"}, "inbound_nodes": [[["separable_conv_1_bn_normal_left2_2", 0, 0, {}]]], "name": "activation_969"}, {"class_name": "Activation", "config": {"activation": "relu", "trainable": true, "name": "activation_971"}, "inbound_nodes": [[["separable_conv_1_bn_normal_right2_2", 0, 0, {}]]], "name": "activation_971"}, {"class_name": "Activation", "config": {"activation": "relu", "trainable": true, "name": "activation_973"}, "inbound_nodes": [[["separable_conv_1_bn_normal_left5_2", 0, 0, {}]]], "name": "activation_973"}, {"class_name": "SeparableConv2D", "config": {"kernel_size": [5, 5], "dilation_rate": [1, 1], "filters": 32, "bias_initializer": {"class_name": "Zeros", "config": {}}, "depthwise_regularizer": null, "strides": [1, 1], "data_format": "channels_last", "trainable": true, "bias_constraint": null, "name": "separable_conv_2_normal_left1_2", "depth_multiplier": 1, "pointwise_initializer": {"class_name": "VarianceScaling", "config": {"scale": 1.0, "mode": "fan_avg", "distribution": "uniform", "seed": null}}, "padding": "same", "pointwise_regularizer": null, "bias_regularizer": null, "depthwise_constraint": null, "activation": "linear", "use_bias": false, "pointwise_constraint": null, "depthwise_initializer": {"class_name": "VarianceScaling", "config": {"scale": 1.0, "mode": "fan_avg", "distribution": "uniform", "seed": null}}, "activity_regularizer": null}, "inbound_nodes": [[["activation_965", 0, 0, {}]]], "name": "separable_conv_2_normal_left1_2"}, {"class_name": "SeparableConv2D", "config": {"kernel_size": [3, 3], "dilation_rate": [1, 1], "filters": 32, "bias_initializer": {"class_name": "Zeros", "config": {}}, "depthwise_regularizer": null, "strides": [1, 1], "data_format": "channels_last", "trainable": true, "bias_constraint": null, "name": "separable_conv_2_normal_right1_2", "depth_multiplier": 1, "pointwise_initializer": {"class_name": "VarianceScaling", "config": {"scale": 1.0, "mode": "fan_avg", "distribution": "uniform", "seed": null}}, "padding": "same", "pointwise_regularizer": null, "bias_regularizer": null, "depthwise_constraint": null, "activation": "linear", "use_bias": false, "pointwise_constraint": null, "depthwise_initializer": {"class_name": "VarianceScaling", "config": {"scale": 1.0, "mode": "fan_avg", "distribution": "uniform", "seed": null}}, "activity_regularizer": null}, "inbound_nodes": [[["activation_967", 0, 0, {}]]], "name": "separable_conv_2_normal_right1_2"}, {"class_name": "SeparableConv2D", "config": {"kernel_size": [5, 5], "dilation_rate": [1, 1], "filters": 32, "bias_initializer": {"class_name": "Zeros", "config": {}}, "depthwise_regularizer": null, "strides": [1, 1], "data_format": "channels_last", "trainable": true, "bias_constraint": null, "name": "separable_conv_2_normal_left2_2", "depth_multiplier": 1, "pointwise_initializer": {"class_name": "VarianceScaling", "config": {"scale": 1.0, "mode": "fan_avg", "distribution": "uniform", "seed": null}}, "padding": "same", "pointwise_regularizer": null, "bias_regularizer": null, "depthwise_constraint": null, "activation": "linear", "use_bias": false, "pointwise_constraint": null, "depthwise_initializer": {"class_name": "VarianceScaling", "config": {"scale": 1.0, "mode": "fan_avg", "distribution": "uniform", "seed": null}}, "activity_regularizer": null}, "inbound_nodes": [[["activation_969", 0, 0, {}]]], "name": "separable_conv_2_normal_left2_2"}, {"class_name": "SeparableConv2D", "config": {"kernel_size": [3, 3], "dilation_rate": [1, 1], "filters": 32, "bias_initializer": {"class_name": "Zeros", "config": {}}, "depthwise_regularizer": null, "strides": [1, 1], "data_format": "channels_last", "trainable": true, "bias_constraint": null, "name": "separable_conv_2_normal_right2_2", "depth_multiplier": 1, "pointwise_initializer": {"class_name": "VarianceScaling", "config": {"scale": 1.0, "mode": "fan_avg", "distribution": "uniform", "seed": null}}, "padding": "same", "pointwise_regularizer": null, "bias_regularizer": null, "depthwise_constraint": null, "activation": "linear", "use_bias": false, "pointwise_constraint": null, "depthwise_initializer": {"class_name": "VarianceScaling", "config": {"scale": 1.0, "mode": "fan_avg", "distribution": "uniform", "seed": null}}, "activity_regularizer": null}, "inbound_nodes": [[["activation_971", 0, 0, {}]]], "name": "separable_conv_2_normal_right2_2"}, {"class_name": "SeparableConv2D", "config": {"kernel_size": [3, 3], "dilation_rate": [1, 1], "filters": 32, "bias_initializer": {"class_name": "Zeros", "config": {}}, "depthwise_regularizer": null, "strides": [1, 1], "data_format": "channels_last", "trainable": true, "bias_constraint": null, "name": "separable_conv_2_normal_left5_2", "depth_multiplier": 1, "pointwise_initializer": {"class_name": "VarianceScaling", "config": {"scale": 1.0, "mode": "fan_avg", "distribution": "uniform", "seed": null}}, "padding": "same", "pointwise_regularizer": null, "bias_regularizer": null, "depthwise_constraint": null, "activation": "linear", "use_bias": false, "pointwise_constraint": null, "depthwise_initializer": {"class_name": "VarianceScaling", "config": {"scale": 1.0, "mode": "fan_avg", "distribution": "uniform", "seed": null}}, "activity_regularizer": null}, "inbound_nodes": [[["activation_973", 0, 0, {}]]], "name": "separable_conv_2_normal_left5_2"}, {"class_name": "BatchNormalization", "config": {"beta_regularizer": null, "center": true, "trainable": true, "gamma_constraint": null, "axis": -1, "gamma_initializer": {"class_name": "Ones", "config": {}}, "moving_variance_initializer": {"class_name": "Ones", "config": {}}, "moving_mean_initializer": {"class_name": "Zeros", "config": {}}, "epsilon": 1e-05, "gamma_regularizer": null, "scale": true, "beta_constraint": null, "beta_initializer": {"class_name": "Zeros", "config": {}}, "momentum": 0.9, "name": "separable_conv_2_bn_normal_left1_2"}, "inbound_nodes": [[["separable_conv_2_normal_left1_2", 0, 0, {}]]], "name": "separable_conv_2_bn_normal_left1_2"}, {"class_name": "BatchNormalization", "config": {"beta_regularizer": null, "center": true, "trainable": true, "gamma_constraint": null, "axis": -1, "gamma_initializer": {"class_name": "Ones", "config": {}}, "moving_variance_initializer": {"class_name": "Ones", "config": {}}, "moving_mean_initializer": {"class_name": "Zeros", "config": {}}, "epsilon": 1e-05, "gamma_regularizer": null, "scale": true, "beta_constraint": null, "beta_initializer": {"class_name": "Zeros", "config": {}}, "momentum": 0.9, "name": "separable_conv_2_bn_normal_right1_2"}, "inbound_nodes": [[["separable_conv_2_normal_right1_2", 0, 0, {}]]], "name": "separable_conv_2_bn_normal_right1_2"}, {"class_name": "BatchNormalization", "config": {"beta_regularizer": null, "center": true, "trainable": true, "gamma_constraint": null, "axis": -1, "gamma_initializer": {"class_name": "Ones", "config": {}}, "moving_variance_initializer": {"class_name": "Ones", "config": {}}, "moving_mean_initializer": {"class_name": "Zeros", "config": {}}, "epsilon": 1e-05, "gamma_regularizer": null, "scale": true, "beta_constraint": null, "beta_initializer": {"class_name": "Zeros", "config": {}}, "momentum": 0.9, "name": "separable_conv_2_bn_normal_left2_2"}, "inbound_nodes": [[["separable_conv_2_normal_left2_2", 0, 0, {}]]], "name": "separable_conv_2_bn_normal_left2_2"}, {"class_name": "BatchNormalization", "config": {"beta_regularizer": null, "center": true, "trainable": true, "gamma_constraint": null, "axis": -1, "gamma_initializer": {"class_name": "Ones", "config": {}}, "moving_variance_initializer": {"class_name": "Ones", "config": {}}, "moving_mean_initializer": {"class_name": "Zeros", "config": {}}, "epsilon": 1e-05, "gamma_regularizer": null, "scale": true, "beta_constraint": null, "beta_initializer": {"class_name": "Zeros", "config": {}}, "momentum": 0.9, "name": "separable_conv_2_bn_normal_right2_2"}, "inbound_nodes": [[["separable_conv_2_normal_right2_2", 0, 0, {}]]], "name": "separable_conv_2_bn_normal_right2_2"}, {"class_name": "AveragePooling2D", "config": {"padding": "same", "data_format": "channels_last", "pool_size": [3, 3], "trainable": true, "strides": [1, 1], "name": "normal_left3_2"}, "inbound_nodes": [[["normal_bn_1_2", 0, 0, {}]]], "name": "normal_left3_2"}, {"class_name": "AveragePooling2D", "config": {"padding": "same", "data_format": "channels_last", "pool_size": [3, 3], "trainable": true, "strides": [1, 1], "name": "normal_left4_2"}, "inbound_nodes": [[["adjust_bn_2", 0, 0, {}]]], "name": "normal_left4_2"}, {"class_name": "AveragePooling2D", "config": {"padding": "same", "data_format": "channels_last", "pool_size": [3, 3], "trainable": true, "strides": [1, 1], "name": "normal_right4_2"}, "inbound_nodes": [[["adjust_bn_2", 0, 0, {}]]], "name": "normal_right4_2"}, {"class_name": "BatchNormalization", "config": {"beta_regularizer": null, "center": true, "trainable": true, "gamma_constraint": null, "axis": -1, "gamma_initializer": {"class_name": "Ones", "config": {}}, "moving_variance_initializer": {"class_name": "Ones", "config": {}}, "moving_mean_initializer": {"class_name": "Zeros", "config": {}}, "epsilon": 1e-05, "gamma_regularizer": null, "scale": true, "beta_constraint": null, "beta_initializer": {"class_name": "Zeros", "config": {}}, "momentum": 0.9, "name": "separable_conv_2_bn_normal_left5_2"}, "inbound_nodes": [[["separable_conv_2_normal_left5_2", 0, 0, {}]]], "name": "separable_conv_2_bn_normal_left5_2"}, {"class_name": "Add", "config": {"trainable": true, "name": "normal_add_1_2"}, "inbound_nodes": [[["separable_conv_2_bn_normal_left1_2", 0, 0, {}], ["separable_conv_2_bn_normal_right1_2", 0, 0, {}]]], "name": "normal_add_1_2"}, {"class_name": "Add", "config": {"trainable": true, "name": "normal_add_2_2"}, "inbound_nodes": [[["separable_conv_2_bn_normal_left2_2", 0, 0, {}], ["separable_conv_2_bn_normal_right2_2", 0, 0, {}]]], "name": "normal_add_2_2"}, {"class_name": "Add", "config": {"trainable": true, "name": "normal_add_3_2"}, "inbound_nodes": [[["normal_left3_2", 0, 0, {}], ["adjust_bn_2", 0, 0, {}]]], "name": "normal_add_3_2"}, {"class_name": "Add", "config": {"trainable": true, "name": "normal_add_4_2"}, "inbound_nodes": [[["normal_left4_2", 0, 0, {}], ["normal_right4_2", 0, 0, {}]]], "name": "normal_add_4_2"}, {"class_name": "Add", "config": {"trainable": true, "name": "normal_add_5_2"}, "inbound_nodes": [[["separable_conv_2_bn_normal_left5_2", 0, 0, {}], ["normal_bn_1_2", 0, 0, {}]]], "name": "normal_add_5_2"}, {"class_name": "Concatenate", "config": {"axis": -1, "trainable": true, "name": "normal_concat_2"}, "inbound_nodes": [[["adjust_bn_2", 0, 0, {}], ["normal_add_1_2", 0, 0, {}], ["normal_add_2_2", 0, 0, {}], ["normal_add_3_2", 0, 0, {}], ["normal_add_4_2", 0, 0, {}], ["normal_add_5_2", 0, 0, {}]]], "name": "normal_concat_2"}, {"class_name": "Activation", "config": {"activation": "relu", "trainable": true, "name": "activation_974"}, "inbound_nodes": [[["normal_concat_1", 0, 0, {}]]], "name": "activation_974"}, {"class_name": "Activation", "config": {"activation": "relu", "trainable": true, "name": "activation_975"}, "inbound_nodes": [[["normal_concat_2", 0, 0, {}]]], "name": "activation_975"}, {"class_name": "Conv2D", "config": {"kernel_size": [1, 1], "dilation_rate": [1, 1], "filters": 32, "padding": "same", "bias_initializer": {"class_name": "Zeros", "config": {}}, "name": "adjust_conv_projection_3", "strides": [1, 1], "kernel_initializer": {"class_name": "VarianceScaling", "config": {"scale": 2.0, "mode": "fan_in", "distribution": "normal", "seed": null}}, "trainable": true, "bias_constraint": null, "data_format": "channels_last", "activation": "linear", "use_bias": false, "kernel_regularizer": {"class_name": "L1L2", "config": {"l1": 0.0, "l2": 0.0005000000237487257}}, "kernel_constraint": null, "bias_regularizer": null, "activity_regularizer": null}, "inbound_nodes": [[["activation_974", 0, 0, {}]]], "name": "adjust_conv_projection_3"}, {"class_name": "Conv2D", "config": {"kernel_size": [1, 1], "dilation_rate": [1, 1], "filters": 32, "padding": "same", "bias_initializer": {"class_name": "Zeros", "config": {}}, "name": "normal_conv_1_3", "strides": [1, 1], "kernel_initializer": {"class_name": "VarianceScaling", "config": {"scale": 2.0, "mode": "fan_in", "distribution": "normal", "seed": null}}, "trainable": true, "bias_constraint": null, "data_format": "channels_last", "activation": "linear", "use_bias": false, "kernel_regularizer": {"class_name": "L1L2", "config": {"l1": 0.0, "l2": 0.0005000000237487257}}, "kernel_constraint": null, "bias_regularizer": null, "activity_regularizer": null}, "inbound_nodes": [[["activation_975", 0, 0, {}]]], "name": "normal_conv_1_3"}, {"class_name": "BatchNormalization", "config": {"beta_regularizer": null, "center": true, "trainable": true, "gamma_constraint": null, "axis": -1, "gamma_initializer": {"class_name": "Ones", "config": {}}, "moving_variance_initializer": {"class_name": "Ones", "config": {}}, "moving_mean_initializer": {"class_name": "Zeros", "config": {}}, "epsilon": 1e-05, "gamma_regularizer": null, "scale": true, "beta_constraint": null, "beta_initializer": {"class_name": "Zeros", "config": {}}, "momentum": 0.9, "name": "adjust_bn_3"}, "inbound_nodes": [[["adjust_conv_projection_3", 0, 0, {}]]], "name": "adjust_bn_3"}, {"class_name": "BatchNormalization", "config": {"beta_regularizer": null, "center": true, "trainable": true, "gamma_constraint": null, "axis": -1, "gamma_initializer": {"class_name": "Ones", "config": {}}, "moving_variance_initializer": {"class_name": "Ones", "config": {}}, "moving_mean_initializer": {"class_name": "Zeros", "config": {}}, "epsilon": 1e-05, "gamma_regularizer": null, "scale": true, "beta_constraint": null, "beta_initializer": {"class_name": "Zeros", "config": {}}, "momentum": 0.9, "name": "normal_bn_1_3"}, "inbound_nodes": [[["normal_conv_1_3", 0, 0, {}]]], "name": "normal_bn_1_3"}, {"class_name": "Activation", "config": {"activation": "relu", "trainable": true, "name": "activation_976"}, "inbound_nodes": [[["normal_bn_1_3", 0, 0, {}]]], "name": "activation_976"}, {"class_name": "Activation", "config": {"activation": "relu", "trainable": true, "name": "activation_978"}, "inbound_nodes": [[["adjust_bn_3", 0, 0, {}]]], "name": "activation_978"}, {"class_name": "Activation", "config": {"activation": "relu", "trainable": true, "name": "activation_980"}, "inbound_nodes": [[["adjust_bn_3", 0, 0, {}]]], "name": "activation_980"}, {"class_name": "Activation", "config": {"activation": "relu", "trainable": true, "name": "activation_982"}, "inbound_nodes": [[["adjust_bn_3", 0, 0, {}]]], "name": "activation_982"}, {"class_name": "Activation", "config": {"activation": "relu", "trainable": true, "name": "activation_984"}, "inbound_nodes": [[["normal_bn_1_3", 0, 0, {}]]], "name": "activation_984"}, {"class_name": "SeparableConv2D", "config": {"kernel_size": [5, 5], "dilation_rate": [1, 1], "filters": 32, "bias_initializer": {"class_name": "Zeros", "config": {}}, "depthwise_regularizer": null, "strides": [1, 1], "data_format": "channels_last", "trainable": true, "bias_constraint": null, "name": "separable_conv_1_normal_left1_3", "depth_multiplier": 1, "pointwise_initializer": {"class_name": "VarianceScaling", "config": {"scale": 1.0, "mode": "fan_avg", "distribution": "uniform", "seed": null}}, "padding": "same", "pointwise_regularizer": null, "bias_regularizer": null, "depthwise_constraint": null, "activation": "linear", "use_bias": false, "pointwise_constraint": null, "depthwise_initializer": {"class_name": "VarianceScaling", "config": {"scale": 1.0, "mode": "fan_avg", "distribution": "uniform", "seed": null}}, "activity_regularizer": null}, "inbound_nodes": [[["activation_976", 0, 0, {}]]], "name": "separable_conv_1_normal_left1_3"}, {"class_name": "SeparableConv2D", "config": {"kernel_size": [3, 3], "dilation_rate": [1, 1], "filters": 32, "bias_initializer": {"class_name": "Zeros", "config": {}}, "depthwise_regularizer": null, "strides": [1, 1], "data_format": "channels_last", "trainable": true, "bias_constraint": null, "name": "separable_conv_1_normal_right1_3", "depth_multiplier": 1, "pointwise_initializer": {"class_name": "VarianceScaling", "config": {"scale": 1.0, "mode": "fan_avg", "distribution": "uniform", "seed": null}}, "padding": "same", "pointwise_regularizer": null, "bias_regularizer": null, "depthwise_constraint": null, "activation": "linear", "use_bias": false, "pointwise_constraint": null, "depthwise_initializer": {"class_name": "VarianceScaling", "config": {"scale": 1.0, "mode": "fan_avg", "distribution": "uniform", "seed": null}}, "activity_regularizer": null}, "inbound_nodes": [[["activation_978", 0, 0, {}]]], "name": "separable_conv_1_normal_right1_3"}, {"class_name": "SeparableConv2D", "config": {"kernel_size": [5, 5], "dilation_rate": [1, 1], "filters": 32, "bias_initializer": {"class_name": "Zeros", "config": {}}, "depthwise_regularizer": null, "strides": [1, 1], "data_format": "channels_last", "trainable": true, "bias_constraint": null, "name": "separable_conv_1_normal_left2_3", "depth_multiplier": 1, "pointwise_initializer": {"class_name": "VarianceScaling", "config": {"scale": 1.0, "mode": "fan_avg", "distribution": "uniform", "seed": null}}, "padding": "same", "pointwise_regularizer": null, "bias_regularizer": null, "depthwise_constraint": null, "activation": "linear", "use_bias": false, "pointwise_constraint": null, "depthwise_initializer": {"class_name": "VarianceScaling", "config": {"scale": 1.0, "mode": "fan_avg", "distribution": "uniform", "seed": null}}, "activity_regularizer": null}, "inbound_nodes": [[["activation_980", 0, 0, {}]]], "name": "separable_conv_1_normal_left2_3"}, {"class_name": "SeparableConv2D", "config": {"kernel_size": [3, 3], "dilation_rate": [1, 1], "filters": 32, "bias_initializer": {"class_name": "Zeros", "config": {}}, "depthwise_regularizer": null, "strides": [1, 1], "data_format": "channels_last", "trainable": true, "bias_constraint": null, "name": "separable_conv_1_normal_right2_3", "depth_multiplier": 1, "pointwise_initializer": {"class_name": "VarianceScaling", "config": {"scale": 1.0, "mode": "fan_avg", "distribution": "uniform", "seed": null}}, "padding": "same", "pointwise_regularizer": null, "bias_regularizer": null, "depthwise_constraint": null, "activation": "linear", "use_bias": false, "pointwise_constraint": null, "depthwise_initializer": {"class_name": "VarianceScaling", "config": {"scale": 1.0, "mode": "fan_avg", "distribution": "uniform", "seed": null}}, "activity_regularizer": null}, "inbound_nodes": [[["activation_982", 0, 0, {}]]], "name": "separable_conv_1_normal_right2_3"}, {"class_name": "SeparableConv2D", "config": {"kernel_size": [3, 3], "dilation_rate": [1, 1], "filters": 32, "bias_initializer": {"class_name": "Zeros", "config": {}}, "depthwise_regularizer": null, "strides": [1, 1], "data_format": "channels_last", "trainable": true, "bias_constraint": null, "name": "separable_conv_1_normal_left5_3", "depth_multiplier": 1, "pointwise_initializer": {"class_name": "VarianceScaling", "config": {"scale": 1.0, "mode": "fan_avg", "distribution": "uniform", "seed": null}}, "padding": "same", "pointwise_regularizer": null, "bias_regularizer": null, "depthwise_constraint": null, "activation": "linear", "use_bias": false, "pointwise_constraint": null, "depthwise_initializer": {"class_name": "VarianceScaling", "config": {"scale": 1.0, "mode": "fan_avg", "distribution": "uniform", "seed": null}}, "activity_regularizer": null}, "inbound_nodes": [[["activation_984", 0, 0, {}]]], "name": "separable_conv_1_normal_left5_3"}, {"class_name": "BatchNormalization", "config": {"beta_regularizer": null, "center": true, "trainable": true, "gamma_constraint": null, "axis": -1, "gamma_initializer": {"class_name": "Ones", "config": {}}, "moving_variance_initializer": {"class_name": "Ones", "config": {}}, "moving_mean_initializer": {"class_name": "Zeros", "config": {}}, "epsilon": 1e-05, "gamma_regularizer": null, "scale": true, "beta_constraint": null, "beta_initializer": {"class_name": "Zeros", "config": {}}, "momentum": 0.9, "name": "separable_conv_1_bn_normal_left1_3"}, "inbound_nodes": [[["separable_conv_1_normal_left1_3", 0, 0, {}]]], "name": "separable_conv_1_bn_normal_left1_3"}, {"class_name": "BatchNormalization", "config": {"beta_regularizer": null, "center": true, "trainable": true, "gamma_constraint": null, "axis": -1, "gamma_initializer": {"class_name": "Ones", "config": {}}, "moving_variance_initializer": {"class_name": "Ones", "config": {}}, "moving_mean_initializer": {"class_name": "Zeros", "config": {}}, "epsilon": 1e-05, "gamma_regularizer": null, "scale": true, "beta_constraint": null, "beta_initializer": {"class_name": "Zeros", "config": {}}, "momentum": 0.9, "name": "separable_conv_1_bn_normal_right1_3"}, "inbound_nodes": [[["separable_conv_1_normal_right1_3", 0, 0, {}]]], "name": "separable_conv_1_bn_normal_right1_3"}, {"class_name": "BatchNormalization", "config": {"beta_regularizer": null, "center": true, "trainable": true, "gamma_constraint": null, "axis": -1, "gamma_initializer": {"class_name": "Ones", "config": {}}, "moving_variance_initializer": {"class_name": "Ones", "config": {}}, "moving_mean_initializer": {"class_name": "Zeros", "config": {}}, "epsilon": 1e-05, "gamma_regularizer": null, "scale": true, "beta_constraint": null, "beta_initializer": {"class_name": "Zeros", "config": {}}, "momentum": 0.9, "name": "separable_conv_1_bn_normal_left2_3"}, "inbound_nodes": [[["separable_conv_1_normal_left2_3", 0, 0, {}]]], "name": "separable_conv_1_bn_normal_left2_3"}, {"class_name": "BatchNormalization", "config": {"beta_regularizer": null, "center": true, "trainable": true, "gamma_constraint": null, "axis": -1, "gamma_initializer": {"class_name": "Ones", "config": {}}, "moving_variance_initializer": {"class_name": "Ones", "config": {}}, "moving_mean_initializer": {"class_name": "Zeros", "config": {}}, "epsilon": 1e-05, "gamma_regularizer": null, "scale": true, "beta_constraint": null, "beta_initializer": {"class_name": "Zeros", "config": {}}, "momentum": 0.9, "name": "separable_conv_1_bn_normal_right2_3"}, "inbound_nodes": [[["separable_conv_1_normal_right2_3", 0, 0, {}]]], "name": "separable_conv_1_bn_normal_right2_3"}, {"class_name": "BatchNormalization", "config": {"beta_regularizer": null, "center": true, "trainable": true, "gamma_constraint": null, "axis": -1, "gamma_initializer": {"class_name": "Ones", "config": {}}, "moving_variance_initializer": {"class_name": "Ones", "config": {}}, "moving_mean_initializer": {"class_name": "Zeros", "config": {}}, "epsilon": 1e-05, "gamma_regularizer": null, "scale": true, "beta_constraint": null, "beta_initializer": {"class_name": "Zeros", "config": {}}, "momentum": 0.9, "name": "separable_conv_1_bn_normal_left5_3"}, "inbound_nodes": [[["separable_conv_1_normal_left5_3", 0, 0, {}]]], "name": "separable_conv_1_bn_normal_left5_3"}, {"class_name": "Activation", "config": {"activation": "relu", "trainable": true, "name": "activation_977"}, "inbound_nodes": [[["separable_conv_1_bn_normal_left1_3", 0, 0, {}]]], "name": "activation_977"}, {"class_name": "Activation", "config": {"activation": "relu", "trainable": true, "name": "activation_979"}, "inbound_nodes": [[["separable_conv_1_bn_normal_right1_3", 0, 0, {}]]], "name": "activation_979"}, {"class_name": "Activation", "config": {"activation": "relu", "trainable": true, "name": "activation_981"}, "inbound_nodes": [[["separable_conv_1_bn_normal_left2_3", 0, 0, {}]]], "name": "activation_981"}, {"class_name": "Activation", "config": {"activation": "relu", "trainable": true, "name": "activation_983"}, "inbound_nodes": [[["separable_conv_1_bn_normal_right2_3", 0, 0, {}]]], "name": "activation_983"}, {"class_name": "Activation", "config": {"activation": "relu", "trainable": true, "name": "activation_985"}, "inbound_nodes": [[["separable_conv_1_bn_normal_left5_3", 0, 0, {}]]], "name": "activation_985"}, {"class_name": "SeparableConv2D", "config": {"kernel_size": [5, 5], "dilation_rate": [1, 1], "filters": 32, "bias_initializer": {"class_name": "Zeros", "config": {}}, "depthwise_regularizer": null, "strides": [1, 1], "data_format": "channels_last", "trainable": true, "bias_constraint": null, "name": "separable_conv_2_normal_left1_3", "depth_multiplier": 1, "pointwise_initializer": {"class_name": "VarianceScaling", "config": {"scale": 1.0, "mode": "fan_avg", "distribution": "uniform", "seed": null}}, "padding": "same", "pointwise_regularizer": null, "bias_regularizer": null, "depthwise_constraint": null, "activation": "linear", "use_bias": false, "pointwise_constraint": null, "depthwise_initializer": {"class_name": "VarianceScaling", "config": {"scale": 1.0, "mode": "fan_avg", "distribution": "uniform", "seed": null}}, "activity_regularizer": null}, "inbound_nodes": [[["activation_977", 0, 0, {}]]], "name": "separable_conv_2_normal_left1_3"}, {"class_name": "SeparableConv2D", "config": {"kernel_size": [3, 3], "dilation_rate": [1, 1], "filters": 32, "bias_initializer": {"class_name": "Zeros", "config": {}}, "depthwise_regularizer": null, "strides": [1, 1], "data_format": "channels_last", "trainable": true, "bias_constraint": null, "name": "separable_conv_2_normal_right1_3", "depth_multiplier": 1, "pointwise_initializer": {"class_name": "VarianceScaling", "config": {"scale": 1.0, "mode": "fan_avg", "distribution": "uniform", "seed": null}}, "padding": "same", "pointwise_regularizer": null, "bias_regularizer": null, "depthwise_constraint": null, "activation": "linear", "use_bias": false, "pointwise_constraint": null, "depthwise_initializer": {"class_name": "VarianceScaling", "config": {"scale": 1.0, "mode": "fan_avg", "distribution": "uniform", "seed": null}}, "activity_regularizer": null}, "inbound_nodes": [[["activation_979", 0, 0, {}]]], "name": "separable_conv_2_normal_right1_3"}, {"class_name": "SeparableConv2D", "config": {"kernel_size": [5, 5], "dilation_rate": [1, 1], "filters": 32, "bias_initializer": {"class_name": "Zeros", "config": {}}, "depthwise_regularizer": null, "strides": [1, 1], "data_format": "channels_last", "trainable": true, "bias_constraint": null, "name": "separable_conv_2_normal_left2_3", "depth_multiplier": 1, "pointwise_initializer": {"class_name": "VarianceScaling", "config": {"scale": 1.0, "mode": "fan_avg", "distribution": "uniform", "seed": null}}, "padding": "same", "pointwise_regularizer": null, "bias_regularizer": null, "depthwise_constraint": null, "activation": "linear", "use_bias": false, "pointwise_constraint": null, "depthwise_initializer": {"class_name": "VarianceScaling", "config": {"scale": 1.0, "mode": "fan_avg", "distribution": "uniform", "seed": null}}, "activity_regularizer": null}, "inbound_nodes": [[["activation_981", 0, 0, {}]]], "name": "separable_conv_2_normal_left2_3"}, {"class_name": "SeparableConv2D", "config": {"kernel_size": [3, 3], "dilation_rate": [1, 1], "filters": 32, "bias_initializer": {"class_name": "Zeros", "config": {}}, "depthwise_regularizer": null, "strides": [1, 1], "data_format": "channels_last", "trainable": true, "bias_constraint": null, "name": "separable_conv_2_normal_right2_3", "depth_multiplier": 1, "pointwise_initializer": {"class_name": "VarianceScaling", "config": {"scale": 1.0, "mode": "fan_avg", "distribution": "uniform", "seed": null}}, "padding": "same", "pointwise_regularizer": null, "bias_regularizer": null, "depthwise_constraint": null, "activation": "linear", "use_bias": false, "pointwise_constraint": null, "depthwise_initializer": {"class_name": "VarianceScaling", "config": {"scale": 1.0, "mode": "fan_avg", "distribution": "uniform", "seed": null}}, "activity_regularizer": null}, "inbound_nodes": [[["activation_983", 0, 0, {}]]], "name": "separable_conv_2_normal_right2_3"}, {"class_name": "SeparableConv2D", "config": {"kernel_size": [3, 3], "dilation_rate": [1, 1], "filters": 32, "bias_initializer": {"class_name": "Zeros", "config": {}}, "depthwise_regularizer": null, "strides": [1, 1], "data_format": "channels_last", "trainable": true, "bias_constraint": null, "name": "separable_conv_2_normal_left5_3", "depth_multiplier": 1, "pointwise_initializer": {"class_name": "VarianceScaling", "config": {"scale": 1.0, "mode": "fan_avg", "distribution": "uniform", "seed": null}}, "padding": "same", "pointwise_regularizer": null, "bias_regularizer": null, "depthwise_constraint": null, "activation": "linear", "use_bias": false, "pointwise_constraint": null, "depthwise_initializer": {"class_name": "VarianceScaling", "config": {"scale": 1.0, "mode": "fan_avg", "distribution": "uniform", "seed": null}}, "activity_regularizer": null}, "inbound_nodes": [[["activation_985", 0, 0, {}]]], "name": "separable_conv_2_normal_left5_3"}, {"class_name": "BatchNormalization", "config": {"beta_regularizer": null, "center": true, "trainable": true, "gamma_constraint": null, "axis": -1, "gamma_initializer": {"class_name": "Ones", "config": {}}, "moving_variance_initializer": {"class_name": "Ones", "config": {}}, "moving_mean_initializer": {"class_name": "Zeros", "config": {}}, "epsilon": 1e-05, "gamma_regularizer": null, "scale": true, "beta_constraint": null, "beta_initializer": {"class_name": "Zeros", "config": {}}, "momentum": 0.9, "name": "separable_conv_2_bn_normal_left1_3"}, "inbound_nodes": [[["separable_conv_2_normal_left1_3", 0, 0, {}]]], "name": "separable_conv_2_bn_normal_left1_3"}, {"class_name": "BatchNormalization", "config": {"beta_regularizer": null, "center": true, "trainable": true, "gamma_constraint": null, "axis": -1, "gamma_initializer": {"class_name": "Ones", "config": {}}, "moving_variance_initializer": {"class_name": "Ones", "config": {}}, "moving_mean_initializer": {"class_name": "Zeros", "config": {}}, "epsilon": 1e-05, "gamma_regularizer": null, "scale": true, "beta_constraint": null, "beta_initializer": {"class_name": "Zeros", "config": {}}, "momentum": 0.9, "name": "separable_conv_2_bn_normal_right1_3"}, "inbound_nodes": [[["separable_conv_2_normal_right1_3", 0, 0, {}]]], "name": "separable_conv_2_bn_normal_right1_3"}, {"class_name": "BatchNormalization", "config": {"beta_regularizer": null, "center": true, "trainable": true, "gamma_constraint": null, "axis": -1, "gamma_initializer": {"class_name": "Ones", "config": {}}, "moving_variance_initializer": {"class_name": "Ones", "config": {}}, "moving_mean_initializer": {"class_name": "Zeros", "config": {}}, "epsilon": 1e-05, "gamma_regularizer": null, "scale": true, "beta_constraint": null, "beta_initializer": {"class_name": "Zeros", "config": {}}, "momentum": 0.9, "name": "separable_conv_2_bn_normal_left2_3"}, "inbound_nodes": [[["separable_conv_2_normal_left2_3", 0, 0, {}]]], "name": "separable_conv_2_bn_normal_left2_3"}, {"class_name": "BatchNormalization", "config": {"beta_regularizer": null, "center": true, "trainable": true, "gamma_constraint": null, "axis": -1, "gamma_initializer": {"class_name": "Ones", "config": {}}, "moving_variance_initializer": {"class_name": "Ones", "config": {}}, "moving_mean_initializer": {"class_name": "Zeros", "config": {}}, "epsilon": 1e-05, "gamma_regularizer": null, "scale": true, "beta_constraint": null, "beta_initializer": {"class_name": "Zeros", "config": {}}, "momentum": 0.9, "name": "separable_conv_2_bn_normal_right2_3"}, "inbound_nodes": [[["separable_conv_2_normal_right2_3", 0, 0, {}]]], "name": "separable_conv_2_bn_normal_right2_3"}, {"class_name": "AveragePooling2D", "config": {"padding": "same", "data_format": "channels_last", "pool_size": [3, 3], "trainable": true, "strides": [1, 1], "name": "normal_left3_3"}, "inbound_nodes": [[["normal_bn_1_3", 0, 0, {}]]], "name": "normal_left3_3"}, {"class_name": "AveragePooling2D", "config": {"padding": "same", "data_format": "channels_last", "pool_size": [3, 3], "trainable": true, "strides": [1, 1], "name": "normal_left4_3"}, "inbound_nodes": [[["adjust_bn_3", 0, 0, {}]]], "name": "normal_left4_3"}, {"class_name": "AveragePooling2D", "config": {"padding": "same", "data_format": "channels_last", "pool_size": [3, 3], "trainable": true, "strides": [1, 1], "name": "normal_right4_3"}, "inbound_nodes": [[["adjust_bn_3", 0, 0, {}]]], "name": "normal_right4_3"}, {"class_name": "BatchNormalization", "config": {"beta_regularizer": null, "center": true, "trainable": true, "gamma_constraint": null, "axis": -1, "gamma_initializer": {"class_name": "Ones", "config": {}}, "moving_variance_initializer": {"class_name": "Ones", "config": {}}, "moving_mean_initializer": {"class_name": "Zeros", "config": {}}, "epsilon": 1e-05, "gamma_regularizer": null, "scale": true, "beta_constraint": null, "beta_initializer": {"class_name": "Zeros", "config": {}}, "momentum": 0.9, "name": "separable_conv_2_bn_normal_left5_3"}, "inbound_nodes": [[["separable_conv_2_normal_left5_3", 0, 0, {}]]], "name": "separable_conv_2_bn_normal_left5_3"}, {"class_name": "Add", "config": {"trainable": true, "name": "normal_add_1_3"}, "inbound_nodes": [[["separable_conv_2_bn_normal_left1_3", 0, 0, {}], ["separable_conv_2_bn_normal_right1_3", 0, 0, {}]]], "name": "normal_add_1_3"}, {"class_name": "Add", "config": {"trainable": true, "name": "normal_add_2_3"}, "inbound_nodes": [[["separable_conv_2_bn_normal_left2_3", 0, 0, {}], ["separable_conv_2_bn_normal_right2_3", 0, 0, {}]]], "name": "normal_add_2_3"}, {"class_name": "Add", "config": {"trainable": true, "name": "normal_add_3_3"}, "inbound_nodes": [[["normal_left3_3", 0, 0, {}], ["adjust_bn_3", 0, 0, {}]]], "name": "normal_add_3_3"}, {"class_name": "Add", "config": {"trainable": true, "name": "normal_add_4_3"}, "inbound_nodes": [[["normal_left4_3", 0, 0, {}], ["normal_right4_3", 0, 0, {}]]], "name": "normal_add_4_3"}, {"class_name": "Add", "config": {"trainable": true, "name": "normal_add_5_3"}, "inbound_nodes": [[["separable_conv_2_bn_normal_left5_3", 0, 0, {}], ["normal_bn_1_3", 0, 0, {}]]], "name": "normal_add_5_3"}, {"class_name": "Concatenate", "config": {"axis": -1, "trainable": true, "name": "normal_concat_3"}, "inbound_nodes": [[["adjust_bn_3", 0, 0, {}], ["normal_add_1_3", 0, 0, {}], ["normal_add_2_3", 0, 0, {}], ["normal_add_3_3", 0, 0, {}], ["normal_add_4_3", 0, 0, {}], ["normal_add_5_3", 0, 0, {}]]], "name": "normal_concat_3"}, {"class_name": "Activation", "config": {"activation": "relu", "trainable": true, "name": "activation_987"}, "inbound_nodes": [[["normal_concat_3", 0, 0, {}]]], "name": "activation_987"}, {"class_name": "Activation", "config": {"activation": "relu", "trainable": true, "name": "activation_986"}, "inbound_nodes": [[["normal_concat_2", 0, 0, {}]]], "name": "activation_986"}, {"class_name": "Conv2D", "config": {"kernel_size": [1, 1], "dilation_rate": [1, 1], "filters": 64, "padding": "same", "bias_initializer": {"class_name": "Zeros", "config": {}}, "name": "reduction_conv_1_reduce_4", "strides": [1, 1], "kernel_initializer": {"class_name": "VarianceScaling", "config": {"scale": 2.0, "mode": "fan_in", "distribution": "normal", "seed": null}}, "trainable": true, "bias_constraint": null, "data_format": "channels_last", "activation": "linear", "use_bias": false, "kernel_regularizer": {"class_name": "L1L2", "config": {"l1": 0.0, "l2": 0.0005000000237487257}}, "kernel_constraint": null, "bias_regularizer": null, "activity_regularizer": null}, "inbound_nodes": [[["activation_987", 0, 0, {}]]], "name": "reduction_conv_1_reduce_4"}, {"class_name": "Conv2D", "config": {"kernel_size": [1, 1], "dilation_rate": [1, 1], "filters": 64, "padding": "same", "bias_initializer": {"class_name": "Zeros", "config": {}}, "name": "adjust_conv_projection_reduce_4", "strides": [1, 1], "kernel_initializer": {"class_name": "VarianceScaling", "config": {"scale": 2.0, "mode": "fan_in", "distribution": "normal", "seed": null}}, "trainable": true, "bias_constraint": null, "data_format": "channels_last", "activation": "linear", "use_bias": false, "kernel_regularizer": {"class_name": "L1L2", "config": {"l1": 0.0, "l2": 0.0005000000237487257}}, "kernel_constraint": null, "bias_regularizer": null, "activity_regularizer": null}, "inbound_nodes": [[["activation_986", 0, 0, {}]]], "name": "adjust_conv_projection_reduce_4"}, {"class_name": "BatchNormalization", "config": {"beta_regularizer": null, "center": true, "trainable": true, "gamma_constraint": null, "axis": -1, "gamma_initializer": {"class_name": "Ones", "config": {}}, "moving_variance_initializer": {"class_name": "Ones", "config": {}}, "moving_mean_initializer": {"class_name": "Zeros", "config": {}}, "epsilon": 1e-05, "gamma_regularizer": null, "scale": true, "beta_constraint": null, "beta_initializer": {"class_name": "Zeros", "config": {}}, "momentum": 0.9, "name": "reduction_bn_1_reduce_4"}, "inbound_nodes": [[["reduction_conv_1_reduce_4", 0, 0, {}]]], "name": "reduction_bn_1_reduce_4"}, {"class_name": "BatchNormalization", "config": {"beta_regularizer": null, "center": true, "trainable": true, "gamma_constraint": null, "axis": -1, "gamma_initializer": {"class_name": "Ones", "config": {}}, "moving_variance_initializer": {"class_name": "Ones", "config": {}}, "moving_mean_initializer": {"class_name": "Zeros", "config": {}}, "epsilon": 1e-05, "gamma_regularizer": null, "scale": true, "beta_constraint": null, "beta_initializer": {"class_name": "Zeros", "config": {}}, "momentum": 0.9, "name": "adjust_bn_reduce_4"}, "inbound_nodes": [[["adjust_conv_projection_reduce_4", 0, 0, {}]]], "name": "adjust_bn_reduce_4"}, {"class_name": "Activation", "config": {"activation": "relu", "trainable": true, "name": "activation_988"}, "inbound_nodes": [[["reduction_bn_1_reduce_4", 0, 0, {}]]], "name": "activation_988"}, {"class_name": "Activation", "config": {"activation": "relu", "trainable": true, "name": "activation_990"}, "inbound_nodes": [[["adjust_bn_reduce_4", 0, 0, {}]]], "name": "activation_990"}, {"class_name": "SeparableConv2D", "config": {"kernel_size": [5, 5], "dilation_rate": [1, 1], "filters": 64, "bias_initializer": {"class_name": "Zeros", "config": {}}, "depthwise_regularizer": null, "strides": [2, 2], "data_format": "channels_last", "trainable": true, "bias_constraint": null, "name": "separable_conv_1_reduction_left1_reduce_4", "depth_multiplier": 1, "pointwise_initializer": {"class_name": "VarianceScaling", "config": {"scale": 1.0, "mode": "fan_avg", "distribution": "uniform", "seed": null}}, "padding": "same", "pointwise_regularizer": null, "bias_regularizer": null, "depthwise_constraint": null, "activation": "linear", "use_bias": false, "pointwise_constraint": null, "depthwise_initializer": {"class_name": "VarianceScaling", "config": {"scale": 1.0, "mode": "fan_avg", "distribution": "uniform", "seed": null}}, "activity_regularizer": null}, "inbound_nodes": [[["activation_988", 0, 0, {}]]], "name": "separable_conv_1_reduction_left1_reduce_4"}, {"class_name": "SeparableConv2D", "config": {"kernel_size": [7, 7], "dilation_rate": [1, 1], "filters": 64, "bias_initializer": {"class_name": "Zeros", "config": {}}, "depthwise_regularizer": null, "strides": [2, 2], "data_format": "channels_last", "trainable": true, "bias_constraint": null, "name": "separable_conv_1_reduction_1_reduce_4", "depth_multiplier": 1, "pointwise_initializer": {"class_name": "VarianceScaling", "config": {"scale": 1.0, "mode": "fan_avg", "distribution": "uniform", "seed": null}}, "padding": "same", "pointwise_regularizer": null, "bias_regularizer": null, "depthwise_constraint": null, "activation": "linear", "use_bias": false, "pointwise_constraint": null, "depthwise_initializer": {"class_name": "VarianceScaling", "config": {"scale": 1.0, "mode": "fan_avg", "distribution": "uniform", "seed": null}}, "activity_regularizer": null}, "inbound_nodes": [[["activation_990", 0, 0, {}]]], "name": "separable_conv_1_reduction_1_reduce_4"}, {"class_name": "BatchNormalization", "config": {"beta_regularizer": null, "center": true, "trainable": true, "gamma_constraint": null, "axis": -1, "gamma_initializer": {"class_name": "Ones", "config": {}}, "moving_variance_initializer": {"class_name": "Ones", "config": {}}, "moving_mean_initializer": {"class_name": "Zeros", "config": {}}, "epsilon": 1e-05, "gamma_regularizer": null, "scale": true, "beta_constraint": null, "beta_initializer": {"class_name": "Zeros", "config": {}}, "momentum": 0.9, "name": "separable_conv_1_bn_reduction_left1_reduce_4"}, "inbound_nodes": [[["separable_conv_1_reduction_left1_reduce_4", 0, 0, {}]]], "name": "separable_conv_1_bn_reduction_left1_reduce_4"}, {"class_name": "BatchNormalization", "config": {"beta_regularizer": null, "center": true, "trainable": true, "gamma_constraint": null, "axis": -1, "gamma_initializer": {"class_name": "Ones", "config": {}}, "moving_variance_initializer": {"class_name": "Ones", "config": {}}, "moving_mean_initializer": {"class_name": "Zeros", "config": {}}, "epsilon": 1e-05, "gamma_regularizer": null, "scale": true, "beta_constraint": null, "beta_initializer": {"class_name": "Zeros", "config": {}}, "momentum": 0.9, "name": "separable_conv_1_bn_reduction_1_reduce_4"}, "inbound_nodes": [[["separable_conv_1_reduction_1_reduce_4", 0, 0, {}]]], "name": "separable_conv_1_bn_reduction_1_reduce_4"}, {"class_name": "Activation", "config": {"activation": "relu", "trainable": true, "name": "activation_989"}, "inbound_nodes": [[["separable_conv_1_bn_reduction_left1_reduce_4", 0, 0, {}]]], "name": "activation_989"}, {"class_name": "Activation", "config": {"activation": "relu", "trainable": true, "name": "activation_991"}, "inbound_nodes": [[["separable_conv_1_bn_reduction_1_reduce_4", 0, 0, {}]]], "name": "activation_991"}, {"class_name": "SeparableConv2D", "config": {"kernel_size": [5, 5], "dilation_rate": [1, 1], "filters": 64, "bias_initializer": {"class_name": "Zeros", "config": {}}, "depthwise_regularizer": null, "strides": [1, 1], "data_format": "channels_last", "trainable": true, "bias_constraint": null, "name": "separable_conv_2_reduction_left1_reduce_4", "depth_multiplier": 1, "pointwise_initializer": {"class_name": "VarianceScaling", "config": {"scale": 1.0, "mode": "fan_avg", "distribution": "uniform", "seed": null}}, "padding": "same", "pointwise_regularizer": null, "bias_regularizer": null, "depthwise_constraint": null, "activation": "linear", "use_bias": false, "pointwise_constraint": null, "depthwise_initializer": {"class_name": "VarianceScaling", "config": {"scale": 1.0, "mode": "fan_avg", "distribution": "uniform", "seed": null}}, "activity_regularizer": null}, "inbound_nodes": [[["activation_989", 0, 0, {}]]], "name": "separable_conv_2_reduction_left1_reduce_4"}, {"class_name": "SeparableConv2D", "config": {"kernel_size": [7, 7], "dilation_rate": [1, 1], "filters": 64, "bias_initializer": {"class_name": "Zeros", "config": {}}, "depthwise_regularizer": null, "strides": [1, 1], "data_format": "channels_last", "trainable": true, "bias_constraint": null, "name": "separable_conv_2_reduction_1_reduce_4", "depth_multiplier": 1, "pointwise_initializer": {"class_name": "VarianceScaling", "config": {"scale": 1.0, "mode": "fan_avg", "distribution": "uniform", "seed": null}}, "padding": "same", "pointwise_regularizer": null, "bias_regularizer": null, "depthwise_constraint": null, "activation": "linear", "use_bias": false, "pointwise_constraint": null, "depthwise_initializer": {"class_name": "VarianceScaling", "config": {"scale": 1.0, "mode": "fan_avg", "distribution": "uniform", "seed": null}}, "activity_regularizer": null}, "inbound_nodes": [[["activation_991", 0, 0, {}]]], "name": "separable_conv_2_reduction_1_reduce_4"}, {"class_name": "BatchNormalization", "config": {"beta_regularizer": null, "center": true, "trainable": true, "gamma_constraint": null, "axis": -1, "gamma_initializer": {"class_name": "Ones", "config": {}}, "moving_variance_initializer": {"class_name": "Ones", "config": {}}, "moving_mean_initializer": {"class_name": "Zeros", "config": {}}, "epsilon": 1e-05, "gamma_regularizer": null, "scale": true, "beta_constraint": null, "beta_initializer": {"class_name": "Zeros", "config": {}}, "momentum": 0.9, "name": "separable_conv_2_bn_reduction_left1_reduce_4"}, "inbound_nodes": [[["separable_conv_2_reduction_left1_reduce_4", 0, 0, {}]]], "name": "separable_conv_2_bn_reduction_left1_reduce_4"}, {"class_name": "BatchNormalization", "config": {"beta_regularizer": null, "center": true, "trainable": true, "gamma_constraint": null, "axis": -1, "gamma_initializer": {"class_name": "Ones", "config": {}}, "moving_variance_initializer": {"class_name": "Ones", "config": {}}, "moving_mean_initializer": {"class_name": "Zeros", "config": {}}, "epsilon": 1e-05, "gamma_regularizer": null, "scale": true, "beta_constraint": null, "beta_initializer": {"class_name": "Zeros", "config": {}}, "momentum": 0.9, "name": "separable_conv_2_bn_reduction_1_reduce_4"}, "inbound_nodes": [[["separable_conv_2_reduction_1_reduce_4", 0, 0, {}]]], "name": "separable_conv_2_bn_reduction_1_reduce_4"}, {"class_name": "Activation", "config": {"activation": "relu", "trainable": true, "name": "activation_992"}, "inbound_nodes": [[["adjust_bn_reduce_4", 0, 0, {}]]], "name": "activation_992"}, {"class_name": "Add", "config": {"trainable": true, "name": "reduction_add_1_reduce_4"}, "inbound_nodes": [[["separable_conv_2_bn_reduction_left1_reduce_4", 0, 0, {}], ["separable_conv_2_bn_reduction_1_reduce_4", 0, 0, {}]]], "name": "reduction_add_1_reduce_4"}, {"class_name": "SeparableConv2D", "config": {"kernel_size": [7, 7], "dilation_rate": [1, 1], "filters": 64, "bias_initializer": {"class_name": "Zeros", "config": {}}, "depthwise_regularizer": null, "strides": [2, 2], "data_format": "channels_last", "trainable": true, "bias_constraint": null, "name": "separable_conv_1_reduction_right2_reduce_4", "depth_multiplier": 1, "pointwise_initializer": {"class_name": "VarianceScaling", "config": {"scale": 1.0, "mode": "fan_avg", "distribution": "uniform", "seed": null}}, "padding": "same", "pointwise_regularizer": null, "bias_regularizer": null, "depthwise_constraint": null, "activation": "linear", "use_bias": false, "pointwise_constraint": null, "depthwise_initializer": {"class_name": "VarianceScaling", "config": {"scale": 1.0, "mode": "fan_avg", "distribution": "uniform", "seed": null}}, "activity_regularizer": null}, "inbound_nodes": [[["activation_992", 0, 0, {}]]], "name": "separable_conv_1_reduction_right2_reduce_4"}, {"class_name": "Activation", "config": {"activation": "relu", "trainable": true, "name": "activation_994"}, "inbound_nodes": [[["adjust_bn_reduce_4", 0, 0, {}]]], "name": "activation_994"}, {"class_name": "Activation", "config": {"activation": "relu", "trainable": true, "name": "activation_996"}, "inbound_nodes": [[["reduction_add_1_reduce_4", 0, 0, {}]]], "name": "activation_996"}, {"class_name": "BatchNormalization", "config": {"beta_regularizer": null, "center": true, "trainable": true, "gamma_constraint": null, "axis": -1, "gamma_initializer": {"class_name": "Ones", "config": {}}, "moving_variance_initializer": {"class_name": "Ones", "config": {}}, "moving_mean_initializer": {"class_name": "Zeros", "config": {}}, "epsilon": 1e-05, "gamma_regularizer": null, "scale": true, "beta_constraint": null, "beta_initializer": {"class_name": "Zeros", "config": {}}, "momentum": 0.9, "name": "separable_conv_1_bn_reduction_right2_reduce_4"}, "inbound_nodes": [[["separable_conv_1_reduction_right2_reduce_4", 0, 0, {}]]], "name": "separable_conv_1_bn_reduction_right2_reduce_4"}, {"class_name": "SeparableConv2D", "config": {"kernel_size": [5, 5], "dilation_rate": [1, 1], "filters": 64, "bias_initializer": {"class_name": "Zeros", "config": {}}, "depthwise_regularizer": null, "strides": [2, 2], "data_format": "channels_last", "trainable": true, "bias_constraint": null, "name": "separable_conv_1_reduction_right3_reduce_4", "depth_multiplier": 1, "pointwise_initializer": {"class_name": "VarianceScaling", "config": {"scale": 1.0, "mode": "fan_avg", "distribution": "uniform", "seed": null}}, "padding": "same", "pointwise_regularizer": null, "bias_regularizer": null, "depthwise_constraint": null, "activation": "linear", "use_bias": false, "pointwise_constraint": null, "depthwise_initializer": {"class_name": "VarianceScaling", "config": {"scale": 1.0, "mode": "fan_avg", "distribution": "uniform", "seed": null}}, "activity_regularizer": null}, "inbound_nodes": [[["activation_994", 0, 0, {}]]], "name": "separable_conv_1_reduction_right3_reduce_4"}, {"class_name": "SeparableConv2D", "config": {"kernel_size": [3, 3], "dilation_rate": [1, 1], "filters": 64, "bias_initializer": {"class_name": "Zeros", "config": {}}, "depthwise_regularizer": null, "strides": [1, 1], "data_format": "channels_last", "trainable": true, "bias_constraint": null, "name": "separable_conv_1_reduction_left4_reduce_4", "depth_multiplier": 1, "pointwise_initializer": {"class_name": "VarianceScaling", "config": {"scale": 1.0, "mode": "fan_avg", "distribution": "uniform", "seed": null}}, "padding": "same", "pointwise_regularizer": null, "bias_regularizer": null, "depthwise_constraint": null, "activation": "linear", "use_bias": false, "pointwise_constraint": null, "depthwise_initializer": {"class_name": "VarianceScaling", "config": {"scale": 1.0, "mode": "fan_avg", "distribution": "uniform", "seed": null}}, "activity_regularizer": null}, "inbound_nodes": [[["activation_996", 0, 0, {}]]], "name": "separable_conv_1_reduction_left4_reduce_4"}, {"class_name": "Activation", "config": {"activation": "relu", "trainable": true, "name": "activation_993"}, "inbound_nodes": [[["separable_conv_1_bn_reduction_right2_reduce_4", 0, 0, {}]]], "name": "activation_993"}, {"class_name": "BatchNormalization", "config": {"beta_regularizer": null, "center": true, "trainable": true, "gamma_constraint": null, "axis": -1, "gamma_initializer": {"class_name": "Ones", "config": {}}, "moving_variance_initializer": {"class_name": "Ones", "config": {}}, "moving_mean_initializer": {"class_name": "Zeros", "config": {}}, "epsilon": 1e-05, "gamma_regularizer": null, "scale": true, "beta_constraint": null, "beta_initializer": {"class_name": "Zeros", "config": {}}, "momentum": 0.9, "name": "separable_conv_1_bn_reduction_right3_reduce_4"}, "inbound_nodes": [[["separable_conv_1_reduction_right3_reduce_4", 0, 0, {}]]], "name": "separable_conv_1_bn_reduction_right3_reduce_4"}, {"class_name": "BatchNormalization", "config": {"beta_regularizer": null, "center": true, "trainable": true, "gamma_constraint": null, "axis": -1, "gamma_initializer": {"class_name": "Ones", "config": {}}, "moving_variance_initializer": {"class_name": "Ones", "config": {}}, "moving_mean_initializer": {"class_name": "Zeros", "config": {}}, "epsilon": 1e-05, "gamma_regularizer": null, "scale": true, "beta_constraint": null, "beta_initializer": {"class_name": "Zeros", "config": {}}, "momentum": 0.9, "name": "separable_conv_1_bn_reduction_left4_reduce_4"}, "inbound_nodes": [[["separable_conv_1_reduction_left4_reduce_4", 0, 0, {}]]], "name": "separable_conv_1_bn_reduction_left4_reduce_4"}, {"class_name": "SeparableConv2D", "config": {"kernel_size": [7, 7], "dilation_rate": [1, 1], "filters": 64, "bias_initializer": {"class_name": "Zeros", "config": {}}, "depthwise_regularizer": null, "strides": [1, 1], "data_format": "channels_last", "trainable": true, "bias_constraint": null, "name": "separable_conv_2_reduction_right2_reduce_4", "depth_multiplier": 1, "pointwise_initializer": {"class_name": "VarianceScaling", "config": {"scale": 1.0, "mode": "fan_avg", "distribution": "uniform", "seed": null}}, "padding": "same", "pointwise_regularizer": null, "bias_regularizer": null, "depthwise_constraint": null, "activation": "linear", "use_bias": false, "pointwise_constraint": null, "depthwise_initializer": {"class_name": "VarianceScaling", "config": {"scale": 1.0, "mode": "fan_avg", "distribution": "uniform", "seed": null}}, "activity_regularizer": null}, "inbound_nodes": [[["activation_993", 0, 0, {}]]], "name": "separable_conv_2_reduction_right2_reduce_4"}, {"class_name": "Activation", "config": {"activation": "relu", "trainable": true, "name": "activation_995"}, "inbound_nodes": [[["separable_conv_1_bn_reduction_right3_reduce_4", 0, 0, {}]]], "name": "activation_995"}, {"class_name": "Activation", "config": {"activation": "relu", "trainable": true, "name": "activation_997"}, "inbound_nodes": [[["separable_conv_1_bn_reduction_left4_reduce_4", 0, 0, {}]]], "name": "activation_997"}, {"class_name": "MaxPooling2D", "config": {"padding": "same", "data_format": "channels_last", "pool_size": [3, 3], "trainable": true, "strides": [2, 2], "name": "reduction_left2_reduce_4"}, "inbound_nodes": [[["reduction_bn_1_reduce_4", 0, 0, {}]]], "name": "reduction_left2_reduce_4"}, {"class_name": "BatchNormalization", "config": {"beta_regularizer": null, "center": true, "trainable": true, "gamma_constraint": null, "axis": -1, "gamma_initializer": {"class_name": "Ones", "config": {}}, "moving_variance_initializer": {"class_name": "Ones", "config": {}}, "moving_mean_initializer": {"class_name": "Zeros", "config": {}}, "epsilon": 1e-05, "gamma_regularizer": null, "scale": true, "beta_constraint": null, "beta_initializer": {"class_name": "Zeros", "config": {}}, "momentum": 0.9, "name": "separable_conv_2_bn_reduction_right2_reduce_4"}, "inbound_nodes": [[["separable_conv_2_reduction_right2_reduce_4", 0, 0, {}]]], "name": "separable_conv_2_bn_reduction_right2_reduce_4"}, {"class_name": "SeparableConv2D", "config": {"kernel_size": [5, 5], "dilation_rate": [1, 1], "filters": 64, "bias_initializer": {"class_name": "Zeros", "config": {}}, "depthwise_regularizer": null, "strides": [1, 1], "data_format": "channels_last", "trainable": true, "bias_constraint": null, "name": "separable_conv_2_reduction_right3_reduce_4", "depth_multiplier": 1, "pointwise_initializer": {"class_name": "VarianceScaling", "config": {"scale": 1.0, "mode": "fan_avg", "distribution": "uniform", "seed": null}}, "padding": "same", "pointwise_regularizer": null, "bias_regularizer": null, "depthwise_constraint": null, "activation": "linear", "use_bias": false, "pointwise_constraint": null, "depthwise_initializer": {"class_name": "VarianceScaling", "config": {"scale": 1.0, "mode": "fan_avg", "distribution": "uniform", "seed": null}}, "activity_regularizer": null}, "inbound_nodes": [[["activation_995", 0, 0, {}]]], "name": "separable_conv_2_reduction_right3_reduce_4"}, {"class_name": "SeparableConv2D", "config": {"kernel_size": [3, 3], "dilation_rate": [1, 1], "filters": 64, "bias_initializer": {"class_name": "Zeros", "config": {}}, "depthwise_regularizer": null, "strides": [1, 1], "data_format": "channels_last", "trainable": true, "bias_constraint": null, "name": "separable_conv_2_reduction_left4_reduce_4", "depth_multiplier": 1, "pointwise_initializer": {"class_name": "VarianceScaling", "config": {"scale": 1.0, "mode": "fan_avg", "distribution": "uniform", "seed": null}}, "padding": "same", "pointwise_regularizer": null, "bias_regularizer": null, "depthwise_constraint": null, "activation": "linear", "use_bias": false, "pointwise_constraint": null, "depthwise_initializer": {"class_name": "VarianceScaling", "config": {"scale": 1.0, "mode": "fan_avg", "distribution": "uniform", "seed": null}}, "activity_regularizer": null}, "inbound_nodes": [[["activation_997", 0, 0, {}]]], "name": "separable_conv_2_reduction_left4_reduce_4"}, {"class_name": "Activation", "config": {"activation": "relu", "trainable": true, "name": "adjust_relu_1_5"}, "inbound_nodes": [[["normal_concat_3", 0, 0, {}]]], "name": "adjust_relu_1_5"}, {"class_name": "Add", "config": {"trainable": true, "name": "reduction_add_2_reduce_4"}, "inbound_nodes": [[["reduction_left2_reduce_4", 0, 0, {}], ["separable_conv_2_bn_reduction_right2_reduce_4", 0, 0, {}]]], "name": "reduction_add_2_reduce_4"}, {"class_name": "AveragePooling2D", "config": {"padding": "same", "data_format": "channels_last", "pool_size": [3, 3], "trainable": true, "strides": [2, 2], "name": "reduction_left3_reduce_4"}, "inbound_nodes": [[["reduction_bn_1_reduce_4", 0, 0, {}]]], "name": "reduction_left3_reduce_4"}, {"class_name": "BatchNormalization", "config": {"beta_regularizer": null, "center": true, "trainable": true, "gamma_constraint": null, "axis": -1, "gamma_initializer": {"class_name": "Ones", "config": {}}, "moving_variance_initializer": {"class_name": "Ones", "config": {}}, "moving_mean_initializer": {"class_name": "Zeros", "config": {}}, "epsilon": 1e-05, "gamma_regularizer": null, "scale": true, "beta_constraint": null, "beta_initializer": {"class_name": "Zeros", "config": {}}, "momentum": 0.9, "name": "separable_conv_2_bn_reduction_right3_reduce_4"}, "inbound_nodes": [[["separable_conv_2_reduction_right3_reduce_4", 0, 0, {}]]], "name": "separable_conv_2_bn_reduction_right3_reduce_4"}, {"class_name": "AveragePooling2D", "config": {"padding": "same", "data_format": "channels_last", "pool_size": [3, 3], "trainable": true, "strides": [1, 1], "name": "reduction_left4_reduce_4"}, "inbound_nodes": [[["reduction_add_1_reduce_4", 0, 0, {}]]], "name": "reduction_left4_reduce_4"}, {"class_name": "BatchNormalization", "config": {"beta_regularizer": null, "center": true, "trainable": true, "gamma_constraint": null, "axis": -1, "gamma_initializer": {"class_name": "Ones", "config": {}}, "moving_variance_initializer": {"class_name": "Ones", "config": {}}, "moving_mean_initializer": {"class_name": "Zeros", "config": {}}, "epsilon": 1e-05, "gamma_regularizer": null, "scale": true, "beta_constraint": null, "beta_initializer": {"class_name": "Zeros", "config": {}}, "momentum": 0.9, "name": "separable_conv_2_bn_reduction_left4_reduce_4"}, "inbound_nodes": [[["separable_conv_2_reduction_left4_reduce_4", 0, 0, {}]]], "name": "separable_conv_2_bn_reduction_left4_reduce_4"}, {"class_name": "MaxPooling2D", "config": {"padding": "same", "data_format": "channels_last", "pool_size": [3, 3], "trainable": true, "strides": [2, 2], "name": "reduction_right5_reduce_4"}, "inbound_nodes": [[["reduction_bn_1_reduce_4", 0, 0, {}]]], "name": "reduction_right5_reduce_4"}, {"class_name": "ZeroPadding2D", "config": {"name": "zero_padding2d_15", "trainable": true, "padding": [[0, 1], [0, 1]], "data_format": "channels_last"}, "inbound_nodes": [[["adjust_relu_1_5", 0, 0, {}]]], "name": "zero_padding2d_15"}, {"class_name": "Add", "config": {"trainable": true, "name": "reduction_add3_reduce_4"}, "inbound_nodes": [[["reduction_left3_reduce_4", 0, 0, {}], ["separable_conv_2_bn_reduction_right3_reduce_4", 0, 0, {}]]], "name": "reduction_add3_reduce_4"}, {"class_name": "Add", "config": {"trainable": true, "name": "add_15"}, "inbound_nodes": [[["reduction_add_2_reduce_4", 0, 0, {}], ["reduction_left4_reduce_4", 0, 0, {}]]], "name": "add_15"}, {"class_name": "Add", "config": {"trainable": true, "name": "reduction_add4_reduce_4"}, "inbound_nodes": [[["separable_conv_2_bn_reduction_left4_reduce_4", 0, 0, {}], ["reduction_right5_reduce_4", 0, 0, {}]]], "name": "reduction_add4_reduce_4"}, {"class_name": "Cropping2D", "config": {"name": "cropping2d_15", "trainable": true, "cropping": [[1, 0], [1, 0]], "data_format": "channels_last"}, "inbound_nodes": [[["zero_padding2d_15", 0, 0, {}]]], "name": "cropping2d_15"}, {"class_name": "Concatenate", "config": {"axis": -1, "trainable": true, "name": "reduction_concat_reduce_4"}, "inbound_nodes": [[["reduction_add_2_reduce_4", 0, 0, {}], ["reduction_add3_reduce_4", 0, 0, {}], ["add_15", 0, 0, {}], ["reduction_add4_reduce_4", 0, 0, {}]]], "name": "reduction_concat_reduce_4"}, {"class_name": "AveragePooling2D", "config": {"padding": "valid", "data_format": "channels_last", "pool_size": [1, 1], "trainable": true, "strides": [2, 2], "name": "adjust_avg_pool_1_5"}, "inbound_nodes": [[["adjust_relu_1_5", 0, 0, {}]]], "name": "adjust_avg_pool_1_5"}, {"class_name": "AveragePooling2D", "config": {"padding": "valid", "data_format": "channels_last", "pool_size": [1, 1], "trainable": true, "strides": [2, 2], "name": "adjust_avg_pool_2_5"}, "inbound_nodes": [[["cropping2d_15", 0, 0, {}]]], "name": "adjust_avg_pool_2_5"}, {"class_name": "Conv2D", "config": {"kernel_size": [1, 1], "dilation_rate": [1, 1], "filters": 32, "padding": "same", "bias_initializer": {"class_name": "Zeros", "config": {}}, "name": "adjust_conv_1_5", "strides": [1, 1], "kernel_initializer": {"class_name": "VarianceScaling", "config": {"scale": 2.0, "mode": "fan_in", "distribution": "normal", "seed": null}}, "trainable": true, "bias_constraint": null, "data_format": "channels_last", "activation": "linear", "use_bias": false, "kernel_regularizer": {"class_name": "L1L2", "config": {"l1": 0.0, "l2": 0.0005000000237487257}}, "kernel_constraint": null, "bias_regularizer": null, "activity_regularizer": null}, "inbound_nodes": [[["adjust_avg_pool_1_5", 0, 0, {}]]], "name": "adjust_conv_1_5"}, {"class_name": "Conv2D", "config": {"kernel_size": [1, 1], "dilation_rate": [1, 1], "filters": 32, "padding": "same", "bias_initializer": {"class_name": "Zeros", "config": {}}, "name": "adjust_conv_2_5", "strides": [1, 1], "kernel_initializer": {"class_name": "VarianceScaling", "config": {"scale": 2.0, "mode": "fan_in", "distribution": "normal", "seed": null}}, "trainable": true, "bias_constraint": null, "data_format": "channels_last", "activation": "linear", "use_bias": false, "kernel_regularizer": {"class_name": "L1L2", "config": {"l1": 0.0, "l2": 0.0005000000237487257}}, "kernel_constraint": null, "bias_regularizer": null, "activity_regularizer": null}, "inbound_nodes": [[["adjust_avg_pool_2_5", 0, 0, {}]]], "name": "adjust_conv_2_5"}, {"class_name": "Activation", "config": {"activation": "relu", "trainable": true, "name": "activation_998"}, "inbound_nodes": [[["reduction_concat_reduce_4", 0, 0, {}]]], "name": "activation_998"}, {"class_name": "Concatenate", "config": {"axis": -1, "trainable": true, "name": "concatenate_15"}, "inbound_nodes": [[["adjust_conv_1_5", 0, 0, {}], ["adjust_conv_2_5", 0, 0, {}]]], "name": "concatenate_15"}, {"class_name": "Conv2D", "config": {"kernel_size": [1, 1], "dilation_rate": [1, 1], "filters": 64, "padding": "same", "bias_initializer": {"class_name": "Zeros", "config": {}}, "name": "normal_conv_1_5", "strides": [1, 1], "kernel_initializer": {"class_name": "VarianceScaling", "config": {"scale": 2.0, "mode": "fan_in", "distribution": "normal", "seed": null}}, "trainable": true, "bias_constraint": null, "data_format": "channels_last", "activation": "linear", "use_bias": false, "kernel_regularizer": {"class_name": "L1L2", "config": {"l1": 0.0, "l2": 0.0005000000237487257}}, "kernel_constraint": null, "bias_regularizer": null, "activity_regularizer": null}, "inbound_nodes": [[["activation_998", 0, 0, {}]]], "name": "normal_conv_1_5"}, {"class_name": "BatchNormalization", "config": {"beta_regularizer": null, "center": true, "trainable": true, "gamma_constraint": null, "axis": -1, "gamma_initializer": {"class_name": "Ones", "config": {}}, "moving_variance_initializer": {"class_name": "Ones", "config": {}}, "moving_mean_initializer": {"class_name": "Zeros", "config": {}}, "epsilon": 1e-05, "gamma_regularizer": null, "scale": true, "beta_constraint": null, "beta_initializer": {"class_name": "Zeros", "config": {}}, "momentum": 0.9, "name": "adjust_bn_5"}, "inbound_nodes": [[["concatenate_15", 0, 0, {}]]], "name": "adjust_bn_5"}, {"class_name": "BatchNormalization", "config": {"beta_regularizer": null, "center": true, "trainable": true, "gamma_constraint": null, "axis": -1, "gamma_initializer": {"class_name": "Ones", "config": {}}, "moving_variance_initializer": {"class_name": "Ones", "config": {}}, "moving_mean_initializer": {"class_name": "Zeros", "config": {}}, "epsilon": 1e-05, "gamma_regularizer": null, "scale": true, "beta_constraint": null, "beta_initializer": {"class_name": "Zeros", "config": {}}, "momentum": 0.9, "name": "normal_bn_1_5"}, "inbound_nodes": [[["normal_conv_1_5", 0, 0, {}]]], "name": "normal_bn_1_5"}, {"class_name": "Activation", "config": {"activation": "relu", "trainable": true, "name": "activation_999"}, "inbound_nodes": [[["normal_bn_1_5", 0, 0, {}]]], "name": "activation_999"}, {"class_name": "Activation", "config": {"activation": "relu", "trainable": true, "name": "activation_1001"}, "inbound_nodes": [[["adjust_bn_5", 0, 0, {}]]], "name": "activation_1001"}, {"class_name": "Activation", "config": {"activation": "relu", "trainable": true, "name": "activation_1003"}, "inbound_nodes": [[["adjust_bn_5", 0, 0, {}]]], "name": "activation_1003"}, {"class_name": "Activation", "config": {"activation": "relu", "trainable": true, "name": "activation_1005"}, "inbound_nodes": [[["adjust_bn_5", 0, 0, {}]]], "name": "activation_1005"}, {"class_name": "Activation", "config": {"activation": "relu", "trainable": true, "name": "activation_1007"}, "inbound_nodes": [[["normal_bn_1_5", 0, 0, {}]]], "name": "activation_1007"}, {"class_name": "SeparableConv2D", "config": {"kernel_size": [5, 5], "dilation_rate": [1, 1], "filters": 64, "bias_initializer": {"class_name": "Zeros", "config": {}}, "depthwise_regularizer": null, "strides": [1, 1], "data_format": "channels_last", "trainable": true, "bias_constraint": null, "name": "separable_conv_1_normal_left1_5", "depth_multiplier": 1, "pointwise_initializer": {"class_name": "VarianceScaling", "config": {"scale": 1.0, "mode": "fan_avg", "distribution": "uniform", "seed": null}}, "padding": "same", "pointwise_regularizer": null, "bias_regularizer": null, "depthwise_constraint": null, "activation": "linear", "use_bias": false, "pointwise_constraint": null, "depthwise_initializer": {"class_name": "VarianceScaling", "config": {"scale": 1.0, "mode": "fan_avg", "distribution": "uniform", "seed": null}}, "activity_regularizer": null}, "inbound_nodes": [[["activation_999", 0, 0, {}]]], "name": "separable_conv_1_normal_left1_5"}, {"class_name": "SeparableConv2D", "config": {"kernel_size": [3, 3], "dilation_rate": [1, 1], "filters": 64, "bias_initializer": {"class_name": "Zeros", "config": {}}, "depthwise_regularizer": null, "strides": [1, 1], "data_format": "channels_last", "trainable": true, "bias_constraint": null, "name": "separable_conv_1_normal_right1_5", "depth_multiplier": 1, "pointwise_initializer": {"class_name": "VarianceScaling", "config": {"scale": 1.0, "mode": "fan_avg", "distribution": "uniform", "seed": null}}, "padding": "same", "pointwise_regularizer": null, "bias_regularizer": null, "depthwise_constraint": null, "activation": "linear", "use_bias": false, "pointwise_constraint": null, "depthwise_initializer": {"class_name": "VarianceScaling", "config": {"scale": 1.0, "mode": "fan_avg", "distribution": "uniform", "seed": null}}, "activity_regularizer": null}, "inbound_nodes": [[["activation_1001", 0, 0, {}]]], "name": "separable_conv_1_normal_right1_5"}, {"class_name": "SeparableConv2D", "config": {"kernel_size": [5, 5], "dilation_rate": [1, 1], "filters": 64, "bias_initializer": {"class_name": "Zeros", "config": {}}, "depthwise_regularizer": null, "strides": [1, 1], "data_format": "channels_last", "trainable": true, "bias_constraint": null, "name": "separable_conv_1_normal_left2_5", "depth_multiplier": 1, "pointwise_initializer": {"class_name": "VarianceScaling", "config": {"scale": 1.0, "mode": "fan_avg", "distribution": "uniform", "seed": null}}, "padding": "same", "pointwise_regularizer": null, "bias_regularizer": null, "depthwise_constraint": null, "activation": "linear", "use_bias": false, "pointwise_constraint": null, "depthwise_initializer": {"class_name": "VarianceScaling", "config": {"scale": 1.0, "mode": "fan_avg", "distribution": "uniform", "seed": null}}, "activity_regularizer": null}, "inbound_nodes": [[["activation_1003", 0, 0, {}]]], "name": "separable_conv_1_normal_left2_5"}, {"class_name": "SeparableConv2D", "config": {"kernel_size": [3, 3], "dilation_rate": [1, 1], "filters": 64, "bias_initializer": {"class_name": "Zeros", "config": {}}, "depthwise_regularizer": null, "strides": [1, 1], "data_format": "channels_last", "trainable": true, "bias_constraint": null, "name": "separable_conv_1_normal_right2_5", "depth_multiplier": 1, "pointwise_initializer": {"class_name": "VarianceScaling", "config": {"scale": 1.0, "mode": "fan_avg", "distribution": "uniform", "seed": null}}, "padding": "same", "pointwise_regularizer": null, "bias_regularizer": null, "depthwise_constraint": null, "activation": "linear", "use_bias": false, "pointwise_constraint": null, "depthwise_initializer": {"class_name": "VarianceScaling", "config": {"scale": 1.0, "mode": "fan_avg", "distribution": "uniform", "seed": null}}, "activity_regularizer": null}, "inbound_nodes": [[["activation_1005", 0, 0, {}]]], "name": "separable_conv_1_normal_right2_5"}, {"class_name": "SeparableConv2D", "config": {"kernel_size": [3, 3], "dilation_rate": [1, 1], "filters": 64, "bias_initializer": {"class_name": "Zeros", "config": {}}, "depthwise_regularizer": null, "strides": [1, 1], "data_format": "channels_last", "trainable": true, "bias_constraint": null, "name": "separable_conv_1_normal_left5_5", "depth_multiplier": 1, "pointwise_initializer": {"class_name": "VarianceScaling", "config": {"scale": 1.0, "mode": "fan_avg", "distribution": "uniform", "seed": null}}, "padding": "same", "pointwise_regularizer": null, "bias_regularizer": null, "depthwise_constraint": null, "activation": "linear", "use_bias": false, "pointwise_constraint": null, "depthwise_initializer": {"class_name": "VarianceScaling", "config": {"scale": 1.0, "mode": "fan_avg", "distribution": "uniform", "seed": null}}, "activity_regularizer": null}, "inbound_nodes": [[["activation_1007", 0, 0, {}]]], "name": "separable_conv_1_normal_left5_5"}, {"class_name": "BatchNormalization", "config": {"beta_regularizer": null, "center": true, "trainable": true, "gamma_constraint": null, "axis": -1, "gamma_initializer": {"class_name": "Ones", "config": {}}, "moving_variance_initializer": {"class_name": "Ones", "config": {}}, "moving_mean_initializer": {"class_name": "Zeros", "config": {}}, "epsilon": 1e-05, "gamma_regularizer": null, "scale": true, "beta_constraint": null, "beta_initializer": {"class_name": "Zeros", "config": {}}, "momentum": 0.9, "name": "separable_conv_1_bn_normal_left1_5"}, "inbound_nodes": [[["separable_conv_1_normal_left1_5", 0, 0, {}]]], "name": "separable_conv_1_bn_normal_left1_5"}, {"class_name": "BatchNormalization", "config": {"beta_regularizer": null, "center": true, "trainable": true, "gamma_constraint": null, "axis": -1, "gamma_initializer": {"class_name": "Ones", "config": {}}, "moving_variance_initializer": {"class_name": "Ones", "config": {}}, "moving_mean_initializer": {"class_name": "Zeros", "config": {}}, "epsilon": 1e-05, "gamma_regularizer": null, "scale": true, "beta_constraint": null, "beta_initializer": {"class_name": "Zeros", "config": {}}, "momentum": 0.9, "name": "separable_conv_1_bn_normal_right1_5"}, "inbound_nodes": [[["separable_conv_1_normal_right1_5", 0, 0, {}]]], "name": "separable_conv_1_bn_normal_right1_5"}, {"class_name": "BatchNormalization", "config": {"beta_regularizer": null, "center": true, "trainable": true, "gamma_constraint": null, "axis": -1, "gamma_initializer": {"class_name": "Ones", "config": {}}, "moving_variance_initializer": {"class_name": "Ones", "config": {}}, "moving_mean_initializer": {"class_name": "Zeros", "config": {}}, "epsilon": 1e-05, "gamma_regularizer": null, "scale": true, "beta_constraint": null, "beta_initializer": {"class_name": "Zeros", "config": {}}, "momentum": 0.9, "name": "separable_conv_1_bn_normal_left2_5"}, "inbound_nodes": [[["separable_conv_1_normal_left2_5", 0, 0, {}]]], "name": "separable_conv_1_bn_normal_left2_5"}, {"class_name": "BatchNormalization", "config": {"beta_regularizer": null, "center": true, "trainable": true, "gamma_constraint": null, "axis": -1, "gamma_initializer": {"class_name": "Ones", "config": {}}, "moving_variance_initializer": {"class_name": "Ones", "config": {}}, "moving_mean_initializer": {"class_name": "Zeros", "config": {}}, "epsilon": 1e-05, "gamma_regularizer": null, "scale": true, "beta_constraint": null, "beta_initializer": {"class_name": "Zeros", "config": {}}, "momentum": 0.9, "name": "separable_conv_1_bn_normal_right2_5"}, "inbound_nodes": [[["separable_conv_1_normal_right2_5", 0, 0, {}]]], "name": "separable_conv_1_bn_normal_right2_5"}, {"class_name": "BatchNormalization", "config": {"beta_regularizer": null, "center": true, "trainable": true, "gamma_constraint": null, "axis": -1, "gamma_initializer": {"class_name": "Ones", "config": {}}, "moving_variance_initializer": {"class_name": "Ones", "config": {}}, "moving_mean_initializer": {"class_name": "Zeros", "config": {}}, "epsilon": 1e-05, "gamma_regularizer": null, "scale": true, "beta_constraint": null, "beta_initializer": {"class_name": "Zeros", "config": {}}, "momentum": 0.9, "name": "separable_conv_1_bn_normal_left5_5"}, "inbound_nodes": [[["separable_conv_1_normal_left5_5", 0, 0, {}]]], "name": "separable_conv_1_bn_normal_left5_5"}, {"class_name": "Activation", "config": {"activation": "relu", "trainable": true, "name": "activation_1000"}, "inbound_nodes": [[["separable_conv_1_bn_normal_left1_5", 0, 0, {}]]], "name": "activation_1000"}, {"class_name": "Activation", "config": {"activation": "relu", "trainable": true, "name": "activation_1002"}, "inbound_nodes": [[["separable_conv_1_bn_normal_right1_5", 0, 0, {}]]], "name": "activation_1002"}, {"class_name": "Activation", "config": {"activation": "relu", "trainable": true, "name": "activation_1004"}, "inbound_nodes": [[["separable_conv_1_bn_normal_left2_5", 0, 0, {}]]], "name": "activation_1004"}, {"class_name": "Activation", "config": {"activation": "relu", "trainable": true, "name": "activation_1006"}, "inbound_nodes": [[["separable_conv_1_bn_normal_right2_5", 0, 0, {}]]], "name": "activation_1006"}, {"class_name": "Activation", "config": {"activation": "relu", "trainable": true, "name": "activation_1008"}, "inbound_nodes": [[["separable_conv_1_bn_normal_left5_5", 0, 0, {}]]], "name": "activation_1008"}, {"class_name": "SeparableConv2D", "config": {"kernel_size": [5, 5], "dilation_rate": [1, 1], "filters": 64, "bias_initializer": {"class_name": "Zeros", "config": {}}, "depthwise_regularizer": null, "strides": [1, 1], "data_format": "channels_last", "trainable": true, "bias_constraint": null, "name": "separable_conv_2_normal_left1_5", "depth_multiplier": 1, "pointwise_initializer": {"class_name": "VarianceScaling", "config": {"scale": 1.0, "mode": "fan_avg", "distribution": "uniform", "seed": null}}, "padding": "same", "pointwise_regularizer": null, "bias_regularizer": null, "depthwise_constraint": null, "activation": "linear", "use_bias": false, "pointwise_constraint": null, "depthwise_initializer": {"class_name": "VarianceScaling", "config": {"scale": 1.0, "mode": "fan_avg", "distribution": "uniform", "seed": null}}, "activity_regularizer": null}, "inbound_nodes": [[["activation_1000", 0, 0, {}]]], "name": "separable_conv_2_normal_left1_5"}, {"class_name": "SeparableConv2D", "config": {"kernel_size": [3, 3], "dilation_rate": [1, 1], "filters": 64, "bias_initializer": {"class_name": "Zeros", "config": {}}, "depthwise_regularizer": null, "strides": [1, 1], "data_format": "channels_last", "trainable": true, "bias_constraint": null, "name": "separable_conv_2_normal_right1_5", "depth_multiplier": 1, "pointwise_initializer": {"class_name": "VarianceScaling", "config": {"scale": 1.0, "mode": "fan_avg", "distribution": "uniform", "seed": null}}, "padding": "same", "pointwise_regularizer": null, "bias_regularizer": null, "depthwise_constraint": null, "activation": "linear", "use_bias": false, "pointwise_constraint": null, "depthwise_initializer": {"class_name": "VarianceScaling", "config": {"scale": 1.0, "mode": "fan_avg", "distribution": "uniform", "seed": null}}, "activity_regularizer": null}, "inbound_nodes": [[["activation_1002", 0, 0, {}]]], "name": "separable_conv_2_normal_right1_5"}, {"class_name": "SeparableConv2D", "config": {"kernel_size": [5, 5], "dilation_rate": [1, 1], "filters": 64, "bias_initializer": {"class_name": "Zeros", "config": {}}, "depthwise_regularizer": null, "strides": [1, 1], "data_format": "channels_last", "trainable": true, "bias_constraint": null, "name": "separable_conv_2_normal_left2_5", "depth_multiplier": 1, "pointwise_initializer": {"class_name": "VarianceScaling", "config": {"scale": 1.0, "mode": "fan_avg", "distribution": "uniform", "seed": null}}, "padding": "same", "pointwise_regularizer": null, "bias_regularizer": null, "depthwise_constraint": null, "activation": "linear", "use_bias": false, "pointwise_constraint": null, "depthwise_initializer": {"class_name": "VarianceScaling", "config": {"scale": 1.0, "mode": "fan_avg", "distribution": "uniform", "seed": null}}, "activity_regularizer": null}, "inbound_nodes": [[["activation_1004", 0, 0, {}]]], "name": "separable_conv_2_normal_left2_5"}, {"class_name": "SeparableConv2D", "config": {"kernel_size": [3, 3], "dilation_rate": [1, 1], "filters": 64, "bias_initializer": {"class_name": "Zeros", "config": {}}, "depthwise_regularizer": null, "strides": [1, 1], "data_format": "channels_last", "trainable": true, "bias_constraint": null, "name": "separable_conv_2_normal_right2_5", "depth_multiplier": 1, "pointwise_initializer": {"class_name": "VarianceScaling", "config": {"scale": 1.0, "mode": "fan_avg", "distribution": "uniform", "seed": null}}, "padding": "same", "pointwise_regularizer": null, "bias_regularizer": null, "depthwise_constraint": null, "activation": "linear", "use_bias": false, "pointwise_constraint": null, "depthwise_initializer": {"class_name": "VarianceScaling", "config": {"scale": 1.0, "mode": "fan_avg", "distribution": "uniform", "seed": null}}, "activity_regularizer": null}, "inbound_nodes": [[["activation_1006", 0, 0, {}]]], "name": "separable_conv_2_normal_right2_5"}, {"class_name": "SeparableConv2D", "config": {"kernel_size": [3, 3], "dilation_rate": [1, 1], "filters": 64, "bias_initializer": {"class_name": "Zeros", "config": {}}, "depthwise_regularizer": null, "strides": [1, 1], "data_format": "channels_last", "trainable": true, "bias_constraint": null, "name": "separable_conv_2_normal_left5_5", "depth_multiplier": 1, "pointwise_initializer": {"class_name": "VarianceScaling", "config": {"scale": 1.0, "mode": "fan_avg", "distribution": "uniform", "seed": null}}, "padding": "same", "pointwise_regularizer": null, "bias_regularizer": null, "depthwise_constraint": null, "activation": "linear", "use_bias": false, "pointwise_constraint": null, "depthwise_initializer": {"class_name": "VarianceScaling", "config": {"scale": 1.0, "mode": "fan_avg", "distribution": "uniform", "seed": null}}, "activity_regularizer": null}, "inbound_nodes": [[["activation_1008", 0, 0, {}]]], "name": "separable_conv_2_normal_left5_5"}, {"class_name": "BatchNormalization", "config": {"beta_regularizer": null, "center": true, "trainable": true, "gamma_constraint": null, "axis": -1, "gamma_initializer": {"class_name": "Ones", "config": {}}, "moving_variance_initializer": {"class_name": "Ones", "config": {}}, "moving_mean_initializer": {"class_name": "Zeros", "config": {}}, "epsilon": 1e-05, "gamma_regularizer": null, "scale": true, "beta_constraint": null, "beta_initializer": {"class_name": "Zeros", "config": {}}, "momentum": 0.9, "name": "separable_conv_2_bn_normal_left1_5"}, "inbound_nodes": [[["separable_conv_2_normal_left1_5", 0, 0, {}]]], "name": "separable_conv_2_bn_normal_left1_5"}, {"class_name": "BatchNormalization", "config": {"beta_regularizer": null, "center": true, "trainable": true, "gamma_constraint": null, "axis": -1, "gamma_initializer": {"class_name": "Ones", "config": {}}, "moving_variance_initializer": {"class_name": "Ones", "config": {}}, "moving_mean_initializer": {"class_name": "Zeros", "config": {}}, "epsilon": 1e-05, "gamma_regularizer": null, "scale": true, "beta_constraint": null, "beta_initializer": {"class_name": "Zeros", "config": {}}, "momentum": 0.9, "name": "separable_conv_2_bn_normal_right1_5"}, "inbound_nodes": [[["separable_conv_2_normal_right1_5", 0, 0, {}]]], "name": "separable_conv_2_bn_normal_right1_5"}, {"class_name": "BatchNormalization", "config": {"beta_regularizer": null, "center": true, "trainable": true, "gamma_constraint": null, "axis": -1, "gamma_initializer": {"class_name": "Ones", "config": {}}, "moving_variance_initializer": {"class_name": "Ones", "config": {}}, "moving_mean_initializer": {"class_name": "Zeros", "config": {}}, "epsilon": 1e-05, "gamma_regularizer": null, "scale": true, "beta_constraint": null, "beta_initializer": {"class_name": "Zeros", "config": {}}, "momentum": 0.9, "name": "separable_conv_2_bn_normal_left2_5"}, "inbound_nodes": [[["separable_conv_2_normal_left2_5", 0, 0, {}]]], "name": "separable_conv_2_bn_normal_left2_5"}, {"class_name": "BatchNormalization", "config": {"beta_regularizer": null, "center": true, "trainable": true, "gamma_constraint": null, "axis": -1, "gamma_initializer": {"class_name": "Ones", "config": {}}, "moving_variance_initializer": {"class_name": "Ones", "config": {}}, "moving_mean_initializer": {"class_name": "Zeros", "config": {}}, "epsilon": 1e-05, "gamma_regularizer": null, "scale": true, "beta_constraint": null, "beta_initializer": {"class_name": "Zeros", "config": {}}, "momentum": 0.9, "name": "separable_conv_2_bn_normal_right2_5"}, "inbound_nodes": [[["separable_conv_2_normal_right2_5", 0, 0, {}]]], "name": "separable_conv_2_bn_normal_right2_5"}, {"class_name": "AveragePooling2D", "config": {"padding": "same", "data_format": "channels_last", "pool_size": [3, 3], "trainable": true, "strides": [1, 1], "name": "normal_left3_5"}, "inbound_nodes": [[["normal_bn_1_5", 0, 0, {}]]], "name": "normal_left3_5"}, {"class_name": "AveragePooling2D", "config": {"padding": "same", "data_format": "channels_last", "pool_size": [3, 3], "trainable": true, "strides": [1, 1], "name": "normal_left4_5"}, "inbound_nodes": [[["adjust_bn_5", 0, 0, {}]]], "name": "normal_left4_5"}, {"class_name": "AveragePooling2D", "config": {"padding": "same", "data_format": "channels_last", "pool_size": [3, 3], "trainable": true, "strides": [1, 1], "name": "normal_right4_5"}, "inbound_nodes": [[["adjust_bn_5", 0, 0, {}]]], "name": "normal_right4_5"}, {"class_name": "BatchNormalization", "config": {"beta_regularizer": null, "center": true, "trainable": true, "gamma_constraint": null, "axis": -1, "gamma_initializer": {"class_name": "Ones", "config": {}}, "moving_variance_initializer": {"class_name": "Ones", "config": {}}, "moving_mean_initializer": {"class_name": "Zeros", "config": {}}, "epsilon": 1e-05, "gamma_regularizer": null, "scale": true, "beta_constraint": null, "beta_initializer": {"class_name": "Zeros", "config": {}}, "momentum": 0.9, "name": "separable_conv_2_bn_normal_left5_5"}, "inbound_nodes": [[["separable_conv_2_normal_left5_5", 0, 0, {}]]], "name": "separable_conv_2_bn_normal_left5_5"}, {"class_name": "Add", "config": {"trainable": true, "name": "normal_add_1_5"}, "inbound_nodes": [[["separable_conv_2_bn_normal_left1_5", 0, 0, {}], ["separable_conv_2_bn_normal_right1_5", 0, 0, {}]]], "name": "normal_add_1_5"}, {"class_name": "Add", "config": {"trainable": true, "name": "normal_add_2_5"}, "inbound_nodes": [[["separable_conv_2_bn_normal_left2_5", 0, 0, {}], ["separable_conv_2_bn_normal_right2_5", 0, 0, {}]]], "name": "normal_add_2_5"}, {"class_name": "Add", "config": {"trainable": true, "name": "normal_add_3_5"}, "inbound_nodes": [[["normal_left3_5", 0, 0, {}], ["adjust_bn_5", 0, 0, {}]]], "name": "normal_add_3_5"}, {"class_name": "Add", "config": {"trainable": true, "name": "normal_add_4_5"}, "inbound_nodes": [[["normal_left4_5", 0, 0, {}], ["normal_right4_5", 0, 0, {}]]], "name": "normal_add_4_5"}, {"class_name": "Add", "config": {"trainable": true, "name": "normal_add_5_5"}, "inbound_nodes": [[["separable_conv_2_bn_normal_left5_5", 0, 0, {}], ["normal_bn_1_5", 0, 0, {}]]], "name": "normal_add_5_5"}, {"class_name": "Concatenate", "config": {"axis": -1, "trainable": true, "name": "normal_concat_5"}, "inbound_nodes": [[["adjust_bn_5", 0, 0, {}], ["normal_add_1_5", 0, 0, {}], ["normal_add_2_5", 0, 0, {}], ["normal_add_3_5", 0, 0, {}], ["normal_add_4_5", 0, 0, {}], ["normal_add_5_5", 0, 0, {}]]], "name": "normal_concat_5"}, {"class_name": "Activation", "config": {"activation": "relu", "trainable": true, "name": "activation_1009"}, "inbound_nodes": [[["reduction_concat_reduce_4", 0, 0, {}]]], "name": "activation_1009"}, {"class_name": "Activation", "config": {"activation": "relu", "trainable": true, "name": "activation_1010"}, "inbound_nodes": [[["normal_concat_5", 0, 0, {}]]], "name": "activation_1010"}, {"class_name": "Conv2D", "config": {"kernel_size": [1, 1], "dilation_rate": [1, 1], "filters": 64, "padding": "same", "bias_initializer": {"class_name": "Zeros", "config": {}}, "name": "adjust_conv_projection_6", "strides": [1, 1], "kernel_initializer": {"class_name": "VarianceScaling", "config": {"scale": 2.0, "mode": "fan_in", "distribution": "normal", "seed": null}}, "trainable": true, "bias_constraint": null, "data_format": "channels_last", "activation": "linear", "use_bias": false, "kernel_regularizer": {"class_name": "L1L2", "config": {"l1": 0.0, "l2": 0.0005000000237487257}}, "kernel_constraint": null, "bias_regularizer": null, "activity_regularizer": null}, "inbound_nodes": [[["activation_1009", 0, 0, {}]]], "name": "adjust_conv_projection_6"}, {"class_name": "Conv2D", "config": {"kernel_size": [1, 1], "dilation_rate": [1, 1], "filters": 64, "padding": "same", "bias_initializer": {"class_name": "Zeros", "config": {}}, "name": "normal_conv_1_6", "strides": [1, 1], "kernel_initializer": {"class_name": "VarianceScaling", "config": {"scale": 2.0, "mode": "fan_in", "distribution": "normal", "seed": null}}, "trainable": true, "bias_constraint": null, "data_format": "channels_last", "activation": "linear", "use_bias": false, "kernel_regularizer": {"class_name": "L1L2", "config": {"l1": 0.0, "l2": 0.0005000000237487257}}, "kernel_constraint": null, "bias_regularizer": null, "activity_regularizer": null}, "inbound_nodes": [[["activation_1010", 0, 0, {}]]], "name": "normal_conv_1_6"}, {"class_name": "BatchNormalization", "config": {"beta_regularizer": null, "center": true, "trainable": true, "gamma_constraint": null, "axis": -1, "gamma_initializer": {"class_name": "Ones", "config": {}}, "moving_variance_initializer": {"class_name": "Ones", "config": {}}, "moving_mean_initializer": {"class_name": "Zeros", "config": {}}, "epsilon": 1e-05, "gamma_regularizer": null, "scale": true, "beta_constraint": null, "beta_initializer": {"class_name": "Zeros", "config": {}}, "momentum": 0.9, "name": "adjust_bn_6"}, "inbound_nodes": [[["adjust_conv_projection_6", 0, 0, {}]]], "name": "adjust_bn_6"}, {"class_name": "BatchNormalization", "config": {"beta_regularizer": null, "center": true, "trainable": true, "gamma_constraint": null, "axis": -1, "gamma_initializer": {"class_name": "Ones", "config": {}}, "moving_variance_initializer": {"class_name": "Ones", "config": {}}, "moving_mean_initializer": {"class_name": "Zeros", "config": {}}, "epsilon": 1e-05, "gamma_regularizer": null, "scale": true, "beta_constraint": null, "beta_initializer": {"class_name": "Zeros", "config": {}}, "momentum": 0.9, "name": "normal_bn_1_6"}, "inbound_nodes": [[["normal_conv_1_6", 0, 0, {}]]], "name": "normal_bn_1_6"}, {"class_name": "Activation", "config": {"activation": "relu", "trainable": true, "name": "activation_1011"}, "inbound_nodes": [[["normal_bn_1_6", 0, 0, {}]]], "name": "activation_1011"}, {"class_name": "Activation", "config": {"activation": "relu", "trainable": true, "name": "activation_1013"}, "inbound_nodes": [[["adjust_bn_6", 0, 0, {}]]], "name": "activation_1013"}, {"class_name": "Activation", "config": {"activation": "relu", "trainable": true, "name": "activation_1015"}, "inbound_nodes": [[["adjust_bn_6", 0, 0, {}]]], "name": "activation_1015"}, {"class_name": "Activation", "config": {"activation": "relu", "trainable": true, "name": "activation_1017"}, "inbound_nodes": [[["adjust_bn_6", 0, 0, {}]]], "name": "activation_1017"}, {"class_name": "Activation", "config": {"activation": "relu", "trainable": true, "name": "activation_1019"}, "inbound_nodes": [[["normal_bn_1_6", 0, 0, {}]]], "name": "activation_1019"}, {"class_name": "SeparableConv2D", "config": {"kernel_size": [5, 5], "dilation_rate": [1, 1], "filters": 64, "bias_initializer": {"class_name": "Zeros", "config": {}}, "depthwise_regularizer": null, "strides": [1, 1], "data_format": "channels_last", "trainable": true, "bias_constraint": null, "name": "separable_conv_1_normal_left1_6", "depth_multiplier": 1, "pointwise_initializer": {"class_name": "VarianceScaling", "config": {"scale": 1.0, "mode": "fan_avg", "distribution": "uniform", "seed": null}}, "padding": "same", "pointwise_regularizer": null, "bias_regularizer": null, "depthwise_constraint": null, "activation": "linear", "use_bias": false, "pointwise_constraint": null, "depthwise_initializer": {"class_name": "VarianceScaling", "config": {"scale": 1.0, "mode": "fan_avg", "distribution": "uniform", "seed": null}}, "activity_regularizer": null}, "inbound_nodes": [[["activation_1011", 0, 0, {}]]], "name": "separable_conv_1_normal_left1_6"}, {"class_name": "SeparableConv2D", "config": {"kernel_size": [3, 3], "dilation_rate": [1, 1], "filters": 64, "bias_initializer": {"class_name": "Zeros", "config": {}}, "depthwise_regularizer": null, "strides": [1, 1], "data_format": "channels_last", "trainable": true, "bias_constraint": null, "name": "separable_conv_1_normal_right1_6", "depth_multiplier": 1, "pointwise_initializer": {"class_name": "VarianceScaling", "config": {"scale": 1.0, "mode": "fan_avg", "distribution": "uniform", "seed": null}}, "padding": "same", "pointwise_regularizer": null, "bias_regularizer": null, "depthwise_constraint": null, "activation": "linear", "use_bias": false, "pointwise_constraint": null, "depthwise_initializer": {"class_name": "VarianceScaling", "config": {"scale": 1.0, "mode": "fan_avg", "distribution": "uniform", "seed": null}}, "activity_regularizer": null}, "inbound_nodes": [[["activation_1013", 0, 0, {}]]], "name": "separable_conv_1_normal_right1_6"}, {"class_name": "SeparableConv2D", "config": {"kernel_size": [5, 5], "dilation_rate": [1, 1], "filters": 64, "bias_initializer": {"class_name": "Zeros", "config": {}}, "depthwise_regularizer": null, "strides": [1, 1], "data_format": "channels_last", "trainable": true, "bias_constraint": null, "name": "separable_conv_1_normal_left2_6", "depth_multiplier": 1, "pointwise_initializer": {"class_name": "VarianceScaling", "config": {"scale": 1.0, "mode": "fan_avg", "distribution": "uniform", "seed": null}}, "padding": "same", "pointwise_regularizer": null, "bias_regularizer": null, "depthwise_constraint": null, "activation": "linear", "use_bias": false, "pointwise_constraint": null, "depthwise_initializer": {"class_name": "VarianceScaling", "config": {"scale": 1.0, "mode": "fan_avg", "distribution": "uniform", "seed": null}}, "activity_regularizer": null}, "inbound_nodes": [[["activation_1015", 0, 0, {}]]], "name": "separable_conv_1_normal_left2_6"}, {"class_name": "SeparableConv2D", "config": {"kernel_size": [3, 3], "dilation_rate": [1, 1], "filters": 64, "bias_initializer": {"class_name": "Zeros", "config": {}}, "depthwise_regularizer": null, "strides": [1, 1], "data_format": "channels_last", "trainable": true, "bias_constraint": null, "name": "separable_conv_1_normal_right2_6", "depth_multiplier": 1, "pointwise_initializer": {"class_name": "VarianceScaling", "config": {"scale": 1.0, "mode": "fan_avg", "distribution": "uniform", "seed": null}}, "padding": "same", "pointwise_regularizer": null, "bias_regularizer": null, "depthwise_constraint": null, "activation": "linear", "use_bias": false, "pointwise_constraint": null, "depthwise_initializer": {"class_name": "VarianceScaling", "config": {"scale": 1.0, "mode": "fan_avg", "distribution": "uniform", "seed": null}}, "activity_regularizer": null}, "inbound_nodes": [[["activation_1017", 0, 0, {}]]], "name": "separable_conv_1_normal_right2_6"}, {"class_name": "SeparableConv2D", "config": {"kernel_size": [3, 3], "dilation_rate": [1…
ame": "Zeros", "config": {}}, "momentum": 0.9, "name": "separable_conv_2_bn_normal_left5_9"}, "inbound_nodes": [[["separable_conv_2_normal_left5_9", 0, 0, {}]]], "name": "separable_conv_2_bn_normal_left5_9"}, {"class_name": "Add", "config": {"trainable": true, "name": "normal_add_1_9"}, "inbound_nodes": [[["separable_conv_2_bn_normal_left1_9", 0, 0, {}], ["separable_conv_2_bn_normal_right1_9", 0, 0, {}]]], "name": "normal_add_1_9"}, {"class_name": "Add", "config": {"trainable": true, "name": "normal_add_2_9"}, "inbound_nodes": [[["separable_conv_2_bn_normal_left2_9", 0, 0, {}], ["separable_conv_2_bn_normal_right2_9", 0, 0, {}]]], "name": "normal_add_2_9"}, {"class_name": "Add", "config": {"trainable": true, "name": "normal_add_3_9"}, "inbound_nodes": [[["normal_left3_9", 0, 0, {}], ["adjust_bn_9", 0, 0, {}]]], "name": "normal_add_3_9"}, {"class_name": "Add", "config": {"trainable": true, "name": "normal_add_4_9"}, "inbound_nodes": [[["normal_left4_9", 0, 0, {}], ["normal_right4_9", 0, 0, {}]]], "name": "normal_add_4_9"}, {"class_name": "Add", "config": {"trainable": true, "name": "normal_add_5_9"}, "inbound_nodes": [[["separable_conv_2_bn_normal_left5_9", 0, 0, {}], ["normal_bn_1_9", 0, 0, {}]]], "name": "normal_add_5_9"}, {"class_name": "Concatenate", "config": {"axis": -1, "trainable": true, "name": "normal_concat_9"}, "inbound_nodes": [[["adjust_bn_9", 0, 0, {}], ["normal_add_1_9", 0, 0, {}], ["normal_add_2_9", 0, 0, {}], ["normal_add_3_9", 0, 0, {}], ["normal_add_4_9", 0, 0, {}], ["normal_add_5_9", 0, 0, {}]]], "name": "normal_concat_9"}, {"class_name": "Activation", "config": {"activation": "relu", "trainable": true, "name": "activation_1068"}, "inbound_nodes": [[["reduction_concat_reduce_8", 0, 0, {}]]], "name": "activation_1068"}, {"class_name": "Activation", "config": {"activation": "relu", "trainable": true, "name": "activation_1069"}, "inbound_nodes": [[["normal_concat_9", 0, 0, {}]]], "name": "activation_1069"}, {"class_name": "Conv2D", "config": {"kernel_size": [1, 1], "dilation_rate": [1, 1], "filters": 128, "padding": "same", "bias_initializer": {"class_name": "Zeros", "config": {}}, "name": "adjust_conv_projection_10", "strides": [1, 1], "kernel_initializer": {"class_name": "VarianceScaling", "config": {"scale": 2.0, "mode": "fan_in", "distribution": "normal", "seed": null}}, "trainable": true, "bias_constraint": null, "data_format": "channels_last", "activation": "linear", "use_bias": false, "kernel_regularizer": {"class_name": "L1L2", "config": {"l1": 0.0, "l2": 0.0005000000237487257}}, "kernel_constraint": null, "bias_regularizer": null, "activity_regularizer": null}, "inbound_nodes": [[["activation_1068", 0, 0, {}]]], "name": "adjust_conv_projection_10"}, {"class_name": "Conv2D", "config": {"kernel_size": [1, 1], "dilation_rate": [1, 1], "filters": 128, "padding": "same", "bias_initializer": {"class_name": "Zeros", "config": {}}, "name": "normal_conv_1_10", "strides": [1, 1], "kernel_initializer": {"class_name": "VarianceScaling", "config": {"scale": 2.0, "mode": "fan_in", "distribution": "normal", "seed": null}}, "trainable": true, "bias_constraint": null, "data_format": "channels_last", "activation": "linear", "use_bias": false, "kernel_regularizer": {"class_name": "L1L2", "config": {"l1": 0.0, "l2": 0.0005000000237487257}}, "kernel_constraint": null, "bias_regularizer": null, "activity_regularizer": null}, "inbound_nodes": [[["activation_1069", 0, 0, {}]]], "name": "normal_conv_1_10"}, {"class_name": "BatchNormalization", "config": {"beta_regularizer": null, "center": true, "trainable": true, "gamma_constraint": null, "axis": -1, "gamma_initializer": {"class_name": "Ones", "config": {}}, "moving_variance_initializer": {"class_name": "Ones", "config": {}}, "moving_mean_initializer": {"class_name": "Zeros", "config": {}}, "epsilon": 1e-05, "gamma_regularizer": null, "scale": true, "beta_constraint": null, "beta_initializer": {"class_name": "Zeros", "config": {}}, "momentum": 0.9, "name": "adjust_bn_10"}, "inbound_nodes": [[["adjust_conv_projection_10", 0, 0, {}]]], "name": "adjust_bn_10"}, {"class_name": "BatchNormalization", "config": {"beta_regularizer": null, "center": true, "trainable": true, "gamma_constraint": null, "axis": -1, "gamma_initializer": {"class_name": "Ones", "config": {}}, "moving_variance_initializer": {"class_name": "Ones", "config": {}}, "moving_mean_initializer": {"class_name": "Zeros", "config": {}}, "epsilon": 1e-05, "gamma_regularizer": null, "scale": true, "beta_constraint": null, "beta_initializer": {"class_name": "Zeros", "config": {}}, "momentum": 0.9, "name": "normal_bn_1_10"}, "inbound_nodes": [[["normal_conv_1_10", 0, 0, {}]]], "name": "normal_bn_1_10"}, {"class_name": "Activation", "config": {"activation": "relu", "trainable": true, "name": "activation_1070"}, "inbound_nodes": [[["normal_bn_1_10", 0, 0, {}]]], "name": "activation_1070"}, {"class_name": "Activation", "config": {"activation": "relu", "trainable": true, "name": "activation_1072"}, "inbound_nodes": [[["adjust_bn_10", 0, 0, {}]]], "name": "activation_1072"}, {"class_name": "Activation", "config": {"activation": "relu", "trainable": true, "name": "activation_1074"}, "inbound_nodes": [[["adjust_bn_10", 0, 0, {}]]], "name": "activation_1074"}, {"class_name": "Activation", "config": {"activation": "relu", "trainable": true, "name": "activation_1076"}, "inbound_nodes": [[["adjust_bn_10", 0, 0, {}]]], "name": "activation_1076"}, {"class_name": "Activation", "config": {"activation": "relu", "trainable": true, "name": "activation_1078"}, "inbound_nodes": [[["normal_bn_1_10", 0, 0, {}]]], "name": "activation_1078"}, {"class_name": "SeparableConv2D", "config": {"kernel_size": [5, 5], "dilation_rate": [1, 1], "filters": 128, "bias_initializer": {"class_name": "Zeros", "config": {}}, "depthwise_regularizer": null, "strides": [1, 1], "data_format": "channels_last", "trainable": true, "bias_constraint": null, "name": "separable_conv_1_normal_left1_10", "depth_multiplier": 1, "pointwise_initializer": {"class_name": "VarianceScaling", "config": {"scale": 1.0, "mode": "fan_avg", "distribution": "uniform", "seed": null}}, "padding": "same", "pointwise_regularizer": null, "bias_regularizer": null, "depthwise_constraint": null, "activation": "linear", "use_bias": false, "pointwise_constraint": null, "depthwise_initializer": {"class_name": "VarianceScaling", "config": {"scale": 1.0, "mode": "fan_avg", "distribution": "uniform", "seed": null}}, "activity_regularizer": null}, "inbound_nodes": [[["activation_1070", 0, 0, {}]]], "name": "separable_conv_1_normal_left1_10"}, {"class_name": "SeparableConv2D", "config": {"kernel_size": [3, 3], "dilation_rate": [1, 1], "filters": 128, "bias_initializer": {"class_name": "Zeros", "config": {}}, "depthwise_regularizer": null, "strides": [1, 1], "data_format": "channels_last", "trainable": true, "bias_constraint": null, "name": "separable_conv_1_normal_right1_10", "depth_multiplier": 1, "pointwise_initializer": {"class_name": "VarianceScaling", "config": {"scale": 1.0, "mode": "fan_avg", "distribution": "uniform", "seed": null}}, "padding": "same", "pointwise_regularizer": null, "bias_regularizer": null, "depthwise_constraint": null, "activation": "linear", "use_bias": false, "pointwise_constraint": null, "depthwise_initializer": {"class_name": "VarianceScaling", "config": {"scale": 1.0, "mode": "fan_avg", "distribution": "uniform", "seed": null}}, "activity_regularizer": null}, "inbound_nodes": [[["activation_1072", 0, 0, {}]]], "name": "separable_conv_1_normal_right1_10"}, {"class_name": "SeparableConv2D", "config": {"kernel_size": [5, 5], "dilation_rate": [1, 1], "filters": 128, "bias_initializer": {"class_name": "Zeros", "config": {}}, "depthwise_regularizer": null, "strides": [1, 1], "data_format": "channels_last", "trainable": true, "bias_constraint": null, "name": "separable_conv_1_normal_left2_10", "depth_multiplier": 1, "pointwise_initializer": {"class_name": "VarianceScaling", "config": {"scale": 1.0, "mode": "fan_avg", "distribution": "uniform", "seed": null}}, "padding": "same", "pointwise_regularizer": null, "bias_regularizer": null, "depthwise_constraint": null, "activation": "linear", "use_bias": false, "pointwise_constraint": null, "depthwise_initializer": {"class_name": "VarianceScaling", "config": {"scale": 1.0, "mode": "fan_avg", "distribution": "uniform", "seed": null}}, "activity_regularizer": null}, "inbound_nodes": [[["activation_1074", 0, 0, {}]]], "name": "separable_conv_1_normal_left2_10"}, {"class_name": "SeparableConv2D", "config": {"kernel_size": [3, 3], "dilation_rate": [1, 1], "filters": 128, "bias_initializer": {"class_name": "Zeros", "config": {}}, "depthwise_regularizer": null, "strides": [1, 1], "data_format": "channels_last", "trainable": true, "bias_constraint": null, "name": "separable_conv_1_normal_right2_10", "depth_multiplier": 1, "pointwise_initializer": {"class_name": "VarianceScaling", "config": {"scale": 1.0, "mode": "fan_avg", "distribution": "uniform", "seed": null}}, "padding": "same", "pointwise_regularizer": null, "bias_regularizer": null, "depthwise_constraint": null, "activation": "linear", "use_bias": false, "pointwise_constraint": null, "depthwise_initializer": {"class_name": "VarianceScaling", "config": {"scale": 1.0, "mode": "fan_avg", "distribution": "uniform", "seed": null}}, "activity_regularizer": null}, "inbound_nodes": [[["activation_1076", 0, 0, {}]]], "name": "separable_conv_1_normal_right2_10"}, {"class_name": "SeparableConv2D", "config": {"kernel_size": [3, 3], "dilation_rate": [1, 1], "filters": 128, "bias_initializer": {"class_name": "Zeros", "config": {}}, "depthwise_regularizer": null, "strides": [1, 1], "data_format": "channels_last", "trainable": true, "bias_constraint": null, "name": "separable_conv_1_normal_left5_10", "depth_multiplier": 1, "pointwise_initializer": {"class_name": "VarianceScaling", "config": {"scale": 1.0, "mode": "fan_avg", "distribution": "uniform", "seed": null}}, "padding": "same", "pointwise_regularizer": null, "bias_regularizer": null, "depthwise_constraint": null, "activation": "linear", "use_bias": false, "pointwise_constraint": null, "depthwise_initializer": {"class_name": "VarianceScaling", "config": {"scale": 1.0, "mode": "fan_avg", "distribution": "uniform", "seed": null}}, "activity_regularizer": null}, "inbound_nodes": [[["activation_1078", 0, 0, {}]]], "name": "separable_conv_1_normal_left5_10"}, {"class_name": "BatchNormalization", "config": {"beta_regularizer": null, "center": true, "trainable": true, "gamma_constraint": null, "axis": -1, "gamma_initializer": {"class_name": "Ones", "config": {}}, "moving_variance_initializer": {"class_name": "Ones", "config": {}}, "moving_mean_initializer": {"class_name": "Zeros", "config": {}}, "epsilon": 1e-05, "gamma_regularizer": null, "scale": true, "beta_constraint": null, "beta_initializer": {"class_name": "Zeros", "config": {}}, "momentum": 0.9, "name": "separable_conv_1_bn_normal_left1_10"}, "inbound_nodes": [[["separable_conv_1_normal_left1_10", 0, 0, {}]]], "name": "separable_conv_1_bn_normal_left1_10"}, {"class_name": "BatchNormalization", "config": {"beta_regularizer": null, "center": true, "trainable": true, "gamma_constraint": null, "axis": -1, "gamma_initializer": {"class_name": "Ones", "config": {}}, "moving_variance_initializer": {"class_name": "Ones", "config": {}}, "moving_mean_initializer": {"class_name": "Zeros", "config": {}}, "epsilon": 1e-05, "gamma_regularizer": null, "scale": true, "beta_constraint": null, "beta_initializer": {"class_name": "Zeros", "config": {}}, "momentum": 0.9, "name": "separable_conv_1_bn_normal_right1_10"}, "inbound_nodes": [[["separable_conv_1_normal_right1_10", 0, 0, {}]]], "name": "separable_conv_1_bn_normal_right1_10"}, {"class_name": "BatchNormalization", "config": {"beta_regularizer": null, "center": true, "trainable": true, "gamma_constraint": null, "axis": -1, "gamma_initializer": {"class_name": "Ones", "config": {}}, "moving_variance_initializer": {"class_name": "Ones", "config": {}}, "moving_mean_initializer": {"class_name": "Zeros", "config": {}}, "epsilon": 1e-05, "gamma_regularizer": null, "scale": true, "beta_constraint": null, "beta_initializer": {"class_name": "Zeros", "config": {}}, "momentum": 0.9, "name": "separable_conv_1_bn_normal_left2_10"}, "inbound_nodes": [[["separable_conv_1_normal_left2_10", 0, 0, {}]]], "name": "separable_conv_1_bn_normal_left2_10"}, {"class_name": "BatchNormalization", "config": {"beta_regularizer": null, "center": true, "trainable": true, "gamma_constraint": null, "axis": -1, "gamma_initializer": {"class_name": "Ones", "config": {}}, "moving_variance_initializer": {"class_name": "Ones", "config": {}}, "moving_mean_initializer": {"class_name": "Zeros", "config": {}}, "epsilon": 1e-05, "gamma_regularizer": null, "scale": true, "beta_constraint": null, "beta_initializer": {"class_name": "Zeros", "config": {}}, "momentum": 0.9, "name": "separable_conv_1_bn_normal_right2_10"}, "inbound_nodes": [[["separable_conv_1_normal_right2_10", 0, 0, {}]]], "name": "separable_conv_1_bn_normal_right2_10"}, {"class_name": "BatchNormalization", "config": {"beta_regularizer": null, "center": true, "trainable": true, "gamma_constraint": null, "axis": -1, "gamma_initializer": {"class_name": "Ones", "config": {}}, "moving_variance_initializer": {"class_name": "Ones", "config": {}}, "moving_mean_initializer": {"class_name": "Zeros", "config": {}}, "epsilon": 1e-05, "gamma_regularizer": null, "scale": true, "beta_constraint": null, "beta_initializer": {"class_name": "Zeros", "config": {}}, "momentum": 0.9, "name": "separable_conv_1_bn_normal_left5_10"}, "inbound_nodes": [[["separable_conv_1_normal_left5_10", 0, 0, {}]]], "name": "separable_conv_1_bn_normal_left5_10"}, {"class_name": "Activation", "config": {"activation": "relu", "trainable": true, "name": "activation_1071"}, "inbound_nodes": [[["separable_conv_1_bn_normal_left1_10", 0, 0, {}]]], "name": "activation_1071"}, {"class_name": "Activation", "config": {"activation": "relu", "trainable": true, "name": "activation_1073"}, "inbound_nodes": [[["separable_conv_1_bn_normal_right1_10", 0, 0, {}]]], "name": "activation_1073"}, {"class_name": "Activation", "config": {"activation": "relu", "trainable": true, "name": "activation_1075"}, "inbound_nodes": [[["separable_conv_1_bn_normal_left2_10", 0, 0, {}]]], "name": "activation_1075"}, {"class_name": "Activation", "config": {"activation": "relu", "trainable": true, "name": "activation_1077"}, "inbound_nodes": [[["separable_conv_1_bn_normal_right2_10", 0, 0, {}]]], "name": "activation_1077"}, {"class_name": "Activation", "config": {"activation": "relu", "trainable": true, "name": "activation_1079"}, "inbound_nodes": [[["separable_conv_1_bn_normal_left5_10", 0, 0, {}]]], "name": "activation_1079"}, {"class_name": "SeparableConv2D", "config": {"kernel_size": [5, 5], "dilation_rate": [1, 1], "filters": 128, "bias_initializer": {"class_name": "Zeros", "config": {}}, "depthwise_regularizer": null, "strides": [1, 1], "data_format": "channels_last", "trainable": true, "bias_constraint": null, "name": "separable_conv_2_normal_left1_10", "depth_multiplier": 1, "pointwise_initializer": {"class_name": "VarianceScaling", "config": {"scale": 1.0, "mode": "fan_avg", "distribution": "uniform", "seed": null}}, "padding": "same", "pointwise_regularizer": null, "bias_regularizer": null, "depthwise_constraint": null, "activation": "linear", "use_bias": false, "pointwise_constraint": null, "depthwise_initializer": {"class_name": "VarianceScaling", "config": {"scale": 1.0, "mode": "fan_avg", "distribution": "uniform", "seed": null}}, "activity_regularizer": null}, "inbound_nodes": [[["activation_1071", 0, 0, {}]]], "name": "separable_conv_2_normal_left1_10"}, {"class_name": "SeparableConv2D", "config": {"kernel_size": [3, 3], "dilation_rate": [1, 1], "filters": 128, "bias_initializer": {"class_name": "Zeros", "config": {}}, "depthwise_regularizer": null, "strides": [1, 1], "data_format": "channels_last", "trainable": true, "bias_constraint": null, "name": "separable_conv_2_normal_right1_10", "depth_multiplier": 1, "pointwise_initializer": {"class_name": "VarianceScaling", "config": {"scale": 1.0, "mode": "fan_avg", "distribution": "uniform", "seed": null}}, "padding": "same", "pointwise_regularizer": null, "bias_regularizer": null, "depthwise_constraint": null, "activation": "linear", "use_bias": false, "pointwise_constraint": null, "depthwise_initializer": {"class_name": "VarianceScaling", "config": {"scale": 1.0, "mode": "fan_avg", "distribution": "uniform", "seed": null}}, "activity_regularizer": null}, "inbound_nodes": [[["activation_1073", 0, 0, {}]]], "name": "separable_conv_2_normal_right1_10"}, {"class_name": "SeparableConv2D", "config": {"kernel_size": [5, 5], "dilation_rate": [1, 1], "filters": 128, "bias_initializer": {"class_name": "Zeros", "config": {}}, "depthwise_regularizer": null, "strides": [1, 1], "data_format": "channels_last", "trainable": true, "bias_constraint": null, "name": "separable_conv_2_normal_left2_10", "depth_multiplier": 1, "pointwise_initializer": {"class_name": "VarianceScaling", "config": {"scale": 1.0, "mode": "fan_avg", "distribution": "uniform", "seed": null}}, "padding": "same", "pointwise_regularizer": null, "bias_regularizer": null, "depthwise_constraint": null, "activation": "linear", "use_bias": false, "pointwise_constraint": null, "depthwise_initializer": {"class_name": "VarianceScaling", "config": {"scale": 1.0, "mode": "fan_avg", "distribution": "uniform", "seed": null}}, "activity_regularizer": null}, "inbound_nodes": [[["activation_1075", 0, 0, {}]]], "name": "separable_conv_2_normal_left2_10"}, {"class_name": "SeparableConv2D", "config": {"kernel_size": [3, 3], "dilation_rate": [1, 1], "filters": 128, "bias_initializer": {"class_name": "Zeros", "config": {}}, "depthwise_regularizer": null, "strides": [1, 1], "data_format": "channels_last", "trainable": true, "bias_constraint": null, "name": "separable_conv_2_normal_right2_10", "depth_multiplier": 1, "pointwise_initializer": {"class_name": "VarianceScaling", "config": {"scale": 1.0, "mode": "fan_avg", "distribution": "uniform", "seed": null}}, "padding": "same", "pointwise_regularizer": null, "bias_regularizer": null, "depthwise_constraint": null, "activation": "linear", "use_bias": false, "pointwise_constraint": null, "depthwise_initializer": {"class_name": "VarianceScaling", "config": {"scale": 1.0, "mode": "fan_avg", "distribution": "uniform", "seed": null}}, "activity_regularizer": null}, "inbound_nodes": [[["activation_1077", 0, 0, {}]]], "name": "separable_conv_2_normal_right2_10"}, {"class_name": "SeparableConv2D", "config": {"kernel_size": [3, 3], "dilation_rate": [1, 1], "filters": 128, "bias_initializer": {"class_name": "Zeros", "config": {}}, "depthwise_regularizer": null, "strides": [1, 1], "data_format": "channels_last", "trainable": true, "bias_constraint": null, "name": "separable_conv_2_normal_left5_10", "depth_multiplier": 1, "pointwise_initializer": {"class_name": "VarianceScaling", "config": {"scale": 1.0, "mode": "fan_avg", "distribution": "uniform", "seed": null}}, "padding": "same", "pointwise_regularizer": null, "bias_regularizer": null, "depthwise_constraint": null, "activation": "linear", "use_bias": false, "pointwise_constraint": null, "depthwise_initializer": {"class_name": "VarianceScaling", "config": {"scale": 1.0, "mode": "fan_avg", "distribution": "uniform", "seed": null}}, "activity_regularizer": null}, "inbound_nodes": [[["activation_1079", 0, 0, {}]]], "name": "separable_conv_2_normal_left5_10"}, {"class_name": "BatchNormalization", "config": {"beta_regularizer": null, "center": true, "trainable": true, "gamma_constraint": null, "axis": -1, "gamma_initializer": {"class_name": "Ones", "config": {}}, "moving_variance_initializer": {"class_name": "Ones", "config": {}}, "moving_mean_initializer": {"class_name": "Zeros", "config": {}}, "epsilon": 1e-05, "gamma_regularizer": null, "scale": true, "beta_constraint": null, "beta_initializer": {"class_name": "Zeros", "config": {}}, "momentum": 0.9, "name": "separable_conv_2_bn_normal_left1_10"}, "inbound_nodes": [[["separable_conv_2_normal_left1_10", 0, 0, {}]]], "name": "separable_conv_2_bn_normal_left1_10"}, {"class_name": "BatchNormalization", "config": {"beta_regularizer": null, "center": true, "trainable": true, "gamma_constraint": null, "axis": -1, "gamma_initializer": {"class_name": "Ones", "config": {}}, "moving_variance_initializer": {"class_name": "Ones", "config": {}}, "moving_mean_initializer": {"class_name": "Zeros", "config": {}}, "epsilon": 1e-05, "gamma_regularizer": null, "scale": true, "beta_constraint": null, "beta_initializer": {"class_name": "Zeros", "config": {}}, "momentum": 0.9, "name": "separable_conv_2_bn_normal_right1_10"}, "inbound_nodes": [[["separable_conv_2_normal_right1_10", 0, 0, {}]]], "name": "separable_conv_2_bn_normal_right1_10"}, {"class_name": "BatchNormalization", "config": {"beta_regularizer": null, "center": true, "trainable": true, "gamma_constraint": null, "axis": -1, "gamma_initializer": {"class_name": "Ones", "config": {}}, "moving_variance_initializer": {"class_name": "Ones", "config": {}}, "moving_mean_initializer": {"class_name": "Zeros", "config": {}}, "epsilon": 1e-05, "gamma_regularizer": null, "scale": true, "beta_constraint": null, "beta_initializer": {"class_name": "Zeros", "config": {}}, "momentum": 0.9, "name": "separable_conv_2_bn_normal_left2_10"}, "inbound_nodes": [[["separable_conv_2_normal_left2_10", 0, 0, {}]]], "name": "separable_conv_2_bn_normal_left2_10"}, {"class_name": "BatchNormalization", "config": {"beta_regularizer": null, "center": true, "trainable": true, "gamma_constraint": null, "axis": -1, "gamma_initializer": {"class_name": "Ones", "config": {}}, "moving_variance_initializer": {"class_name": "Ones", "config": {}}, "moving_mean_initializer": {"class_name": "Zeros", "config": {}}, "epsilon": 1e-05, "gamma_regularizer": null, "scale": true, "beta_constraint": null, "beta_initializer": {"class_name": "Zeros", "config": {}}, "momentum": 0.9, "name": "separable_conv_2_bn_normal_right2_10"}, "inbound_nodes": [[["separable_conv_2_normal_right2_10", 0, 0, {}]]], "name": "separable_conv_2_bn_normal_right2_10"}, {"class_name": "AveragePooling2D", "config": {"padding": "same", "data_format": "channels_last", "pool_size": [3, 3], "trainable": true, "strides": [1, 1], "name": "normal_left3_10"}, "inbound_nodes": [[["normal_bn_1_10", 0, 0, {}]]], "name": "normal_left3_10"}, {"class_name": "AveragePooling2D", "config": {"padding": "same", "data_format": "channels_last", "pool_size": [3, 3], "trainable": true, "strides": [1, 1], "name": "normal_left4_10"}, "inbound_nodes": [[["adjust_bn_10", 0, 0, {}]]], "name": "normal_left4_10"}, {"class_name": "AveragePooling2D", "config": {"padding": "same", "data_format": "channels_last", "pool_size": [3, 3], "trainable": true, "strides": [1, 1], "name": "normal_right4_10"}, "inbound_nodes": [[["adjust_bn_10", 0, 0, {}]]], "name": "normal_right4_10"}, {"class_name": "BatchNormalization", "config": {"beta_regularizer": null, "center": true, "trainable": true, "gamma_constraint": null, "axis": -1, "gamma_initializer": {"class_name": "Ones", "config": {}}, "moving_variance_initializer": {"class_name": "Ones", "config": {}}, "moving_mean_initializer": {"class_name": "Zeros", "config": {}}, "epsilon": 1e-05, "gamma_regularizer": null, "scale": true, "beta_constraint": null, "beta_initializer": {"class_name": "Zeros", "config": {}}, "momentum": 0.9, "name": "separable_conv_2_bn_normal_left5_10"}, "inbound_nodes": [[["separable_conv_2_normal_left5_10", 0, 0, {}]]], "name": "separable_conv_2_bn_normal_left5_10"}, {"class_name": "Add", "config": {"trainable": true, "name": "normal_add_1_10"}, "inbound_nodes": [[["separable_conv_2_bn_normal_left1_10", 0, 0, {}], ["separable_conv_2_bn_normal_right1_10", 0, 0, {}]]], "name": "normal_add_1_10"}, {"class_name": "Add", "config": {"trainable": true, "name": "normal_add_2_10"}, "inbound_nodes": [[["separable_conv_2_bn_normal_left2_10", 0, 0, {}], ["separable_conv_2_bn_normal_right2_10", 0, 0, {}]]], "name": "normal_add_2_10"}, {"class_name": "Add", "config": {"trainable": true, "name": "normal_add_3_10"}, "inbound_nodes": [[["normal_left3_10", 0, 0, {}], ["adjust_bn_10", 0, 0, {}]]], "name": "normal_add_3_10"}, {"class_name": "Add", "config": {"trainable": true, "name": "normal_add_4_10"}, "inbound_nodes": [[["normal_left4_10", 0, 0, {}], ["normal_right4_10", 0, 0, {}]]], "name": "normal_add_4_10"}, {"class_name": "Add", "config": {"trainable": true, "name": "normal_add_5_10"}, "inbound_nodes": [[["separable_conv_2_bn_normal_left5_10", 0, 0, {}], ["normal_bn_1_10", 0, 0, {}]]], "name": "normal_add_5_10"}, {"class_name": "Concatenate", "config": {"axis": -1, "trainable": true, "name": "normal_concat_10"}, "inbound_nodes": [[["adjust_bn_10", 0, 0, {}], ["normal_add_1_10", 0, 0, {}], ["normal_add_2_10", 0, 0, {}], ["normal_add_3_10", 0, 0, {}], ["normal_add_4_10", 0, 0, {}], ["normal_add_5_10", 0, 0, {}]]], "name": "normal_concat_10"}, {"class_name": "Activation", "config": {"activation": "relu", "trainable": true, "name": "activation_1080"}, "inbound_nodes": [[["normal_concat_9", 0, 0, {}]]], "name": "activation_1080"}, {"class_name": "Activation", "config": {"activation": "relu", "trainable": true, "name": "activation_1081"}, "inbound_nodes": [[["normal_concat_10", 0, 0, {}]]], "name": "activation_1081"}, {"class_name": "Conv2D", "config": {"kernel_size": [1, 1], "dilation_rate": [1, 1], "filters": 128, "padding": "same", "bias_initializer": {"class_name": "Zeros", "config": {}}, "name": "adjust_conv_projection_11", "strides": [1, 1], "kernel_initializer": {"class_name": "VarianceScaling", "config": {"scale": 2.0, "mode": "fan_in", "distribution": "normal", "seed": null}}, "trainable": true, "bias_constraint": null, "data_format": "channels_last", "activation": "linear", "use_bias": false, "kernel_regularizer": {"class_name": "L1L2", "config": {"l1": 0.0, "l2": 0.0005000000237487257}}, "kernel_constraint": null, "bias_regularizer": null, "activity_regularizer": null}, "inbound_nodes": [[["activation_1080", 0, 0, {}]]], "name": "adjust_conv_projection_11"}, {"class_name": "Conv2D", "config": {"kernel_size": [1, 1], "dilation_rate": [1, 1], "filters": 128, "padding": "same", "bias_initializer": {"class_name": "Zeros", "config": {}}, "name": "normal_conv_1_11", "strides": [1, 1], "kernel_initializer": {"class_name": "VarianceScaling", "config": {"scale": 2.0, "mode": "fan_in", "distribution": "normal", "seed": null}}, "trainable": true, "bias_constraint": null, "data_format": "channels_last", "activation": "linear", "use_bias": false, "kernel_regularizer": {"class_name": "L1L2", "config": {"l1": 0.0, "l2": 0.0005000000237487257}}, "kernel_constraint": null, "bias_regularizer": null, "activity_regularizer": null}, "inbound_nodes": [[["activation_1081", 0, 0, {}]]], "name": "normal_conv_1_11"}, {"class_name": "BatchNormalization", "config": {"beta_regularizer": null, "center": true, "trainable": true, "gamma_constraint": null, "axis": -1, "gamma_initializer": {"class_name": "Ones", "config": {}}, "moving_variance_initializer": {"class_name": "Ones", "config": {}}, "moving_mean_initializer": {"class_name": "Zeros", "config": {}}, "epsilon": 1e-05, "gamma_regularizer": null, "scale": true, "beta_constraint": null, "beta_initializer": {"class_name": "Zeros", "config": {}}, "momentum": 0.9, "name": "adjust_bn_11"}, "inbound_nodes": [[["adjust_conv_projection_11", 0, 0, {}]]], "name": "adjust_bn_11"}, {"class_name": "BatchNormalization", "config": {"beta_regularizer": null, "center": true, "trainable": true, "gamma_constraint": null, "axis": -1, "gamma_initializer": {"class_name": "Ones", "config": {}}, "moving_variance_initializer": {"class_name": "Ones", "config": {}}, "moving_mean_initializer": {"class_name": "Zeros", "config": {}}, "epsilon": 1e-05, "gamma_regularizer": null, "scale": true, "beta_constraint": null, "beta_initializer": {"class_name": "Zeros", "config": {}}, "momentum": 0.9, "name": "normal_bn_1_11"}, "inbound_nodes": [[["normal_conv_1_11", 0, 0, {}]]], "name": "normal_bn_1_11"}, {"class_name": "Activation", "config": {"activation": "relu", "trainable": true, "name": "activation_1082"}, "inbound_nodes": [[["normal_bn_1_11", 0, 0, {}]]], "name": "activation_1082"}, {"class_name": "Activation", "config": {"activation": "relu", "trainable": true, "name": "activation_1084"}, "inbound_nodes": [[["adjust_bn_11", 0, 0, {}]]], "name": "activation_1084"}, {"class_name": "Activation", "config": {"activation": "relu", "trainable": true, "name": "activation_1086"}, "inbound_nodes": [[["adjust_bn_11", 0, 0, {}]]], "name": "activation_1086"}, {"class_name": "Activation", "config": {"activation": "relu", "trainable": true, "name": "activation_1088"}, "inbound_nodes": [[["adjust_bn_11", 0, 0, {}]]], "name": "activation_1088"}, {"class_name": "Activation", "config": {"activation": "relu", "trainable": true, "name": "activation_1090"}, "inbound_nodes": [[["normal_bn_1_11", 0, 0, {}]]], "name": "activation_1090"}, {"class_name": "SeparableConv2D", "config": {"kernel_size": [5, 5], "dilation_rate": [1, 1], "filters": 128, "bias_initializer": {"class_name": "Zeros", "config": {}}, "depthwise_regularizer": null, "strides": [1, 1], "data_format": "channels_last", "trainable": true, "bias_constraint": null, "name": "separable_conv_1_normal_left1_11", "depth_multiplier": 1, "pointwise_initializer": {"class_name": "VarianceScaling", "config": {"scale": 1.0, "mode": "fan_avg", "distribution": "uniform", "seed": null}}, "padding": "same", "pointwise_regularizer": null, "bias_regularizer": null, "depthwise_constraint": null, "activation": "linear", "use_bias": false, "pointwise_constraint": null, "depthwise_initializer": {"class_name": "VarianceScaling", "config": {"scale": 1.0, "mode": "fan_avg", "distribution": "uniform", "seed": null}}, "activity_regularizer": null}, "inbound_nodes": [[["activation_1082", 0, 0, {}]]], "name": "separable_conv_1_normal_left1_11"}, {"class_name": "SeparableConv2D", "config": {"kernel_size": [3, 3], "dilation_rate": [1, 1], "filters": 128, "bias_initializer": {"class_name": "Zeros", "config": {}}, "depthwise_regularizer": null, "strides": [1, 1], "data_format": "channels_last", "trainable": true, "bias_constraint": null, "name": "separable_conv_1_normal_right1_11", "depth_multiplier": 1, "pointwise_initializer": {"class_name": "VarianceScaling", "config": {"scale": 1.0, "mode": "fan_avg", "distribution": "uniform", "seed": null}}, "padding": "same", "pointwise_regularizer": null, "bias_regularizer": null, "depthwise_constraint": null, "activation": "linear", "use_bias": false, "pointwise_constraint": null, "depthwise_initializer": {"class_name": "VarianceScaling", "config": {"scale": 1.0, "mode": "fan_avg", "distribution": "uniform", "seed": null}}, "activity_regularizer": null}, "inbound_nodes": [[["activation_1084", 0, 0, {}]]], "name": "separable_conv_1_normal_right1_11"}, {"class_name": "SeparableConv2D", "config": {"kernel_size": [5, 5], "dilation_rate": [1, 1], "filters": 128, "bias_initializer": {"class_name": "Zeros", "config": {}}, "depthwise_regularizer": null, "strides": [1, 1], "data_format": "channels_last", "trainable": true, "bias_constraint": null, "name": "separable_conv_1_normal_left2_11", "depth_multiplier": 1, "pointwise_initializer": {"class_name": "VarianceScaling", "config": {"scale": 1.0, "mode": "fan_avg", "distribution": "uniform", "seed": null}}, "padding": "same", "pointwise_regularizer": null, "bias_regularizer": null, "depthwise_constraint": null, "activation": "linear", "use_bias": false, "pointwise_constraint": null, "depthwise_initializer": {"class_name": "VarianceScaling", "config": {"scale": 1.0, "mode": "fan_avg", "distribution": "uniform", "seed": null}}, "activity_regularizer": null}, "inbound_nodes": [[["activation_1086", 0, 0, {}]]], "name": "separable_conv_1_normal_left2_11"}, {"class_name": "SeparableConv2D", "config": {"kernel_size": [3, 3], "dilation_rate": [1, 1], "filters": 128, "bias_initializer": {"class_name": "Zeros", "config": {}}, "depthwise_regularizer": null, "strides": [1, 1], "data_format": "channels_last", "trainable": true, "bias_constraint": null, "name": "separable_conv_1_normal_right2_11", "depth_multiplier": 1, "pointwise_initializer": {"class_name": "VarianceScaling", "config": {"scale": 1.0, "mode": "fan_avg", "distribution": "uniform", "seed": null}}, "padding": "same", "pointwise_regularizer": null, "bias_regularizer": null, "depthwise_constraint": null, "activation": "linear", "use_bias": false, "pointwise_constraint": null, "depthwise_initializer": {"class_name": "VarianceScaling", "config": {"scale": 1.0, "mode": "fan_avg", "distribution": "uniform", "seed": null}}, "activity_regularizer": null}, "inbound_nodes": [[["activation_1088", 0, 0, {}]]], "name": "separable_conv_1_normal_right2_11"}, {"class_name": "SeparableConv2D", "config": {"kernel_size": [3, 3], "dilation_rate": [1, 1], "filters": 128, "bias_initializer": {"class_name": "Zeros", "config": {}}, "depthwise_regularizer": null, "strides": [1, 1], "data_format": "channels_last", "trainable": true, "bias_constraint": null, "name": "separable_conv_1_normal_left5_11", "depth_multiplier": 1, "pointwise_initializer": {"class_name": "VarianceScaling", "config": {"scale": 1.0, "mode": "fan_avg", "distribution": "uniform", "seed": null}}, "padding": "same", "pointwise_regularizer": null, "bias_regularizer": null, "depthwise_constraint": null, "activation": "linear", "use_bias": false, "pointwise_constraint": null, "depthwise_initializer": {"class_name": "VarianceScaling", "config": {"scale": 1.0, "mode": "fan_avg", "distribution": "uniform", "seed": null}}, "activity_regularizer": null}, "inbound_nodes": [[["activation_1090", 0, 0, {}]]], "name": "separable_conv_1_normal_left5_11"}, {"class_name": "BatchNormalization", "config": {"beta_regularizer": null, "center": true, "trainable": true, "gamma_constraint": null, "axis": -1, "gamma_initializer": {"class_name": "Ones", "config": {}}, "moving_variance_initializer": {"class_name": "Ones", "config": {}}, "moving_mean_initializer": {"class_name": "Zeros", "config": {}}, "epsilon": 1e-05, "gamma_regularizer": null, "scale": true, "beta_constraint": null, "beta_initializer": {"class_name": "Zeros", "config": {}}, "momentum": 0.9, "name": "separable_conv_1_bn_normal_left1_11"}, "inbound_nodes": [[["separable_conv_1_normal_left1_11", 0, 0, {}]]], "name": "separable_conv_1_bn_normal_left1_11"}, {"class_name": "BatchNormalization", "config": {"beta_regularizer": null, "center": true, "trainable": true, "gamma_constraint": null, "axis": -1, "gamma_initializer": {"class_name": "Ones", "config": {}}, "moving_variance_initializer": {"class_name": "Ones", "config": {}}, "moving_mean_initializer": {"class_name": "Zeros", "config": {}}, "epsilon": 1e-05, "gamma_regularizer": null, "scale": true, "beta_constraint": null, "beta_initializer": {"class_name": "Zeros", "config": {}}, "momentum": 0.9, "name": "separable_conv_1_bn_normal_right1_11"}, "inbound_nodes": [[["separable_conv_1_normal_right1_11", 0, 0, {}]]], "name": "separable_conv_1_bn_normal_right1_11"}, {"class_name": "BatchNormalization", "config": {"beta_regularizer": null, "center": true, "trainable": true, "gamma_constraint": null, "axis": -1, "gamma_initializer": {"class_name": "Ones", "config": {}}, "moving_variance_initializer": {"class_name": "Ones", "config": {}}, "moving_mean_initializer": {"class_name": "Zeros", "config": {}}, "epsilon": 1e-05, "gamma_regularizer": null, "scale": true, "beta_constraint": null, "beta_initializer": {"class_name": "Zeros", "config": {}}, "momentum": 0.9, "name": "separable_conv_1_bn_normal_left2_11"}, "inbound_nodes": [[["separable_conv_1_normal_left2_11", 0, 0, {}]]], "name": "separable_conv_1_bn_normal_left2_11"}, {"class_name": "BatchNormalization", "config": {"beta_regularizer": null, "center": true, "trainable": true, "gamma_constraint": null, "axis": -1, "gamma_initializer": {"class_name": "Ones", "config": {}}, "moving_variance_initializer": {"class_name": "Ones", "config": {}}, "moving_mean_initializer": {"class_name": "Zeros", "config": {}}, "epsilon": 1e-05, "gamma_regularizer": null, "scale": true, "beta_constraint": null, "beta_initializer": {"class_name": "Zeros", "config": {}}, "momentum": 0.9, "name": "separable_conv_1_bn_normal_right2_11"}, "inbound_nodes": [[["separable_conv_1_normal_right2_11", 0, 0, {}]]], "name": "separable_conv_1_bn_normal_right2_11"}, {"class_name": "BatchNormalization", "config": {"beta_regularizer": null, "center": true, "trainable": true, "gamma_constraint": null, "axis": -1, "gamma_initializer": {"class_name": "Ones", "config": {}}, "moving_variance_initializer": {"class_name": "Ones", "config": {}}, "moving_mean_initializer": {"class_name": "Zeros", "config": {}}, "epsilon": 1e-05, "gamma_regularizer": null, "scale": true, "beta_constraint": null, "beta_initializer": {"class_name": "Zeros", "config": {}}, "momentum": 0.9, "name": "separable_conv_1_bn_normal_left5_11"}, "inbound_nodes": [[["separable_conv_1_normal_left5_11", 0, 0, {}]]], "name": "separable_conv_1_bn_normal_left5_11"}, {"class_name": "Activation", "config": {"activation": "relu", "trainable": true, "name": "activation_1083"}, "inbound_nodes": [[["separable_conv_1_bn_normal_left1_11", 0, 0, {}]]], "name": "activation_1083"}, {"class_name": "Activation", "config": {"activation": "relu", "trainable": true, "name": "activation_1085"}, "inbound_nodes": [[["separable_conv_1_bn_normal_right1_11", 0, 0, {}]]], "name": "activation_1085"}, {"class_name": "Activation", "config": {"activation": "relu", "trainable": true, "name": "activation_1087"}, "inbound_nodes": [[["separable_conv_1_bn_normal_left2_11", 0, 0, {}]]], "name": "activation_1087"}, {"class_name": "Activation", "config": {"activation": "relu", "trainable": true, "name": "activation_1089"}, "inbound_nodes": [[["separable_conv_1_bn_normal_right2_11", 0, 0, {}]]], "name": "activation_1089"}, {"class_name": "Activation", "config": {"activation": "relu", "trainable": true, "name": "activation_1091"}, "inbound_nodes": [[["separable_conv_1_bn_normal_left5_11", 0, 0, {}]]], "name": "activation_1091"}, {"class_name": "SeparableConv2D", "config": {"kernel_size": [5, 5], "dilation_rate": [1, 1], "filters": 128, "bias_initializer": {"class_name": "Zeros", "config": {}}, "depthwise_regularizer": null, "strides": [1, 1], "data_format": "channels_last", "trainable": true, "bias_constraint": null, "name": "separable_conv_2_normal_left1_11", "depth_multiplier": 1, "pointwise_initializer": {"class_name": "VarianceScaling", "config": {"scale": 1.0, "mode": "fan_avg", "distribution": "uniform", "seed": null}}, "padding": "same", "pointwise_regularizer": null, "bias_regularizer": null, "depthwise_constraint": null, "activation": "linear", "use_bias": false, "pointwise_constraint": null, "depthwise_initializer": {"class_name": "VarianceScaling", "config": {"scale": 1.0, "mode": "fan_avg", "distribution": "uniform", "seed": null}}, "activity_regularizer": null}, "inbound_nodes": [[["activation_1083", 0, 0, {}]]], "name": "separable_conv_2_normal_left1_11"}, {"class_name": "SeparableConv2D", "config": {"kernel_size": [3, 3], "dilation_rate": [1, 1], "filters": 128, "bias_initializer": {"class_name": "Zeros", "config": {}}, "depthwise_regularizer": null, "strides": [1, 1], "data_format": "channels_last", "trainable": true, "bias_constraint": null, "name": "separable_conv_2_normal_right1_11", "depth_multiplier": 1, "pointwise_initializer": {"class_name": "VarianceScaling", "config": {"scale": 1.0, "mode": "fan_avg", "distribution": "uniform", "seed": null}}, "padding": "same", "pointwise_regularizer": null, "bias_regularizer": null, "depthwise_constraint": null, "activation": "linear", "use_bias": false, "pointwise_constraint": null, "depthwise_initializer": {"class_name": "VarianceScaling", "config": {"scale": 1.0, "mode": "fan_avg", "distribution": "uniform", "seed": null}}, "activity_regularizer": null}, "inbound_nodes": [[["activation_1085", 0, 0, {}]]], "name": "separable_conv_2_normal_right1_11"}, {"class_name": "SeparableConv2D", "config": {"kernel_size": [5, 5], "dilation_rate": [1, 1], "filters": 128, "bias_initializer": {"class_name": "Zeros", "config": {}}, "depthwise_regularizer": null, "strides": [1, 1], "data_format": "channels_last", "trainable": true, "bias_constraint": null, "name": "separable_conv_2_normal_left2_11", "depth_multiplier": 1, "pointwise_initializer": {"class_name": "VarianceScaling", "config": {"scale": 1.0, "mode": "fan_avg", "distribution": "uniform", "seed": null}}, "padding": "same", "pointwise_regularizer": null, "bias_regularizer": null, "depthwise_constraint": null, "activation": "linear", "use_bias": false, "pointwise_constraint": null, "depthwise_initializer": {"class_name": "VarianceScaling", "config": {"scale": 1.0, "mode": "fan_avg", "distribution": "uniform", "seed": null}}, "activity_regularizer": null}, "inbound_nodes": [[["activation_1087", 0, 0, {}]]], "name": "separable_conv_2_normal_left2_11"}, {"class_name": "SeparableConv2D", "config": {"kernel_size": [3, 3], "dilation_rate": [1, 1], "filters": 128, "bias_initializer": {"class_name": "Zeros", "config": {}}, "depthwise_regularizer": null, "strides": [1, 1], "data_format": "channels_last", "trainable": true, "bias_constraint": null, "name": "separable_conv_2_normal_right2_11", "depth_multiplier": 1, "pointwise_initializer": {"class_name": "VarianceScaling", "config": {"scale": 1.0, "mode": "fan_avg", "distribution": "uniform", "seed": null}}, "padding": "same", "pointwise_regularizer": null, "bias_regularizer": null, "depthwise_constraint": null, "activation": "linear", "use_bias": false, "pointwise_constraint": null, "depthwise_initializer": {"class_name": "VarianceScaling", "config": {"scale": 1.0, "mode": "fan_avg", "distribution": "uniform", "seed": null}}, "activity_regularizer": null}, "inbound_nodes": [[["activation_1089", 0, 0, {}]]], "name": "separable_conv_2_normal_right2_11"}, {"class_name": "SeparableConv2D", "config": {"kernel_size": [3, 3], "dilation_rate": [1, 1], "filters": 128, "bias_initializer": {"class_name": "Zeros", "config": {}}, "depthwise_regularizer": null, "strides": [1, 1], "data_format": "channels_last", "trainable": true, "bias_constraint": null, "name": "separable_conv_2_normal_left5_11", "depth_multiplier": 1, "pointwise_initializer": {"class_name": "VarianceScaling", "config": {"scale": 1.0, "mode": "fan_avg", "distribution": "uniform", "seed": null}}, "padding": "same", "pointwise_regularizer": null, "bias_regularizer": null, "depthwise_constraint": null, "activation": "linear", "use_bias": false, "pointwise_constraint": null, "depthwise_initializer": {"class_name": "VarianceScaling", "config": {"scale": 1.0, "mode": "fan_avg", "distribution": "uniform", "seed": null}}, "activity_regularizer": null}, "inbound_nodes": [[["activation_1091", 0, 0, {}]]], "name": "separable_conv_2_normal_left5_11"}, {"class_name": "BatchNormalization", "config": {"beta_regularizer": null, "center": true, "trainable": true, "gamma_constraint": null, "axis": -1, "gamma_initializer": {"class_name": "Ones", "config": {}}, "moving_variance_initializer": {"class_name": "Ones", "config": {}}, "moving_mean_initializer": {"class_name": "Zeros", "config": {}}, "epsilon": 1e-05, "gamma_regularizer": null, "scale": true, "beta_constraint": null, "beta_initializer": {"class_name": "Zeros", "config": {}}, "momentum": 0.9, "name": "separable_conv_2_bn_normal_left1_11"}, "inbound_nodes": [[["separable_conv_2_normal_left1_11", 0, 0, {}]]], "name": "separable_conv_2_bn_normal_left1_11"}, {"class_name": "BatchNormalization", "config": {"beta_regularizer": null, "center": true, "trainable": true, "gamma_constraint": null, "axis": -1, "gamma_initializer": {"class_name": "Ones", "config": {}}, "moving_variance_initializer": {"class_name": "Ones", "config": {}}, "moving_mean_initializer": {"class_name": "Zeros", "config": {}}, "epsilon": 1e-05, "gamma_regularizer": null, "scale": true, "beta_constraint": null, "beta_initializer": {"class_name": "Zeros", "config": {}}, "momentum": 0.9, "name": "separable_conv_2_bn_normal_right1_11"}, "inbound_nodes": [[["separable_conv_2_normal_right1_11", 0, 0, {}]]], "name": "separable_conv_2_bn_normal_right1_11"}, {"class_name": "BatchNormalization", "config": {"beta_regularizer": null, "center": true, "trainable": true, "gamma_constraint": null, "axis": -1, "gamma_initializer": {"class_name": "Ones", "config": {}}, "moving_variance_initializer": {"class_name": "Ones", "config": {}}, "moving_mean_initializer": {"class_name": "Zeros", "config": {}}, "epsilon": 1e-05, "gamma_regularizer": null, "scale": true, "beta_constraint": null, "beta_initializer": {"class_name": "Zeros", "config": {}}, "momentum": 0.9, "name": "separable_conv_2_bn_normal_left2_11"}, "inbound_nodes": [[["separable_conv_2_normal_left2_11", 0, 0, {}]]], "name": "separable_conv_2_bn_normal_left2_11"}, {"class_name": "BatchNormalization", "config": {"beta_regularizer": null, "center": true, "trainable": true, "gamma_constraint": null, "axis": -1, "gamma_initializer": {"class_name": "Ones", "config": {}}, "moving_variance_initializer": {"class_name": "Ones", "config": {}}, "moving_mean_initializer": {"class_name": "Zeros", "config": {}}, "epsilon": 1e-05, "gamma_regularizer": null, "scale": true, "beta_constraint": null, "beta_initializer": {"class_name": "Zeros", "config": {}}, "momentum": 0.9, "name": "separable_conv_2_bn_normal_right2_11"}, "inbound_nodes": [[["separable_conv_2_normal_right2_11", 0, 0, {}]]], "name": "separable_conv_2_bn_normal_right2_11"}, {"class_name": "AveragePooling2D", "config": {"padding": "same", "data_format": "channels_last", "pool_size": [3, 3], "trainable": true, "strides": [1, 1], "name": "normal_left3_11"}, "inbound_nodes": [[["normal_bn_1_11", 0, 0, {}]]], "name": "normal_left3_11"}, {"class_name": "AveragePooling2D", "config": {"padding": "same", "data_format": "channels_last", "pool_size": [3, 3], "trainable": true, "strides": [1, 1], "name": "normal_left4_11"}, "inbound_nodes": [[["adjust_bn_11", 0, 0, {}]]], "name": "normal_left4_11"}, {"class_name": "AveragePooling2D", "config": {"padding": "same", "data_format": "channels_last", "pool_size": [3, 3], "trainable": true, "strides": [1, 1], "name": "normal_right4_11"}, "inbound_nodes": [[["adjust_bn_11", 0, 0, {}]]], "name": "normal_right4_11"}, {"class_name": "BatchNormalization", "config": {"beta_regularizer": null, "center": true, "trainable": true, "gamma_constraint": null, "axis": -1, "gamma_initializer": {"class_name": "Ones", "config": {}}, "moving_variance_initializer": {"class_name": "Ones", "config": {}}, "moving_mean_initializer": {"class_name": "Zeros", "config": {}}, "epsilon": 1e-05, "gamma_regularizer": null, "scale": true, "beta_constraint": null, "beta_initializer": {"class_name": "Zeros", "config": {}}, "momentum": 0.9, "name": "separable_conv_2_bn_normal_left5_11"}, "inbound_nodes": [[["separable_conv_2_normal_left5_11", 0, 0, {}]]], "name": "separable_conv_2_bn_normal_left5_11"}, {"class_name": "Add", "config": {"trainable": true, "name": "normal_add_1_11"}, "inbound_nodes": [[["separable_conv_2_bn_normal_left1_11", 0, 0, {}], ["separable_conv_2_bn_normal_right1_11", 0, 0, {}]]], "name": "normal_add_1_11"}, {"class_name": "Add", "config": {"trainable": true, "name": "normal_add_2_11"}, "inbound_nodes": [[["separable_conv_2_bn_normal_left2_11", 0, 0, {}], ["separable_conv_2_bn_normal_right2_11", 0, 0, {}]]], "name": "normal_add_2_11"}, {"class_name": "Add", "config": {"trainable": true, "name": "normal_add_3_11"}, "inbound_nodes": [[["normal_left3_11", 0, 0, {}], ["adjust_bn_11", 0, 0, {}]]], "name": "normal_add_3_11"}, {"class_name": "Add", "config": {"trainable": true, "name": "normal_add_4_11"}, "inbound_nodes": [[["normal_left4_11", 0, 0, {}], ["normal_right4_11", 0, 0, {}]]], "name": "normal_add_4_11"}, {"class_name": "Add", "config": {"trainable": true, "name": "normal_add_5_11"}, "inbound_nodes": [[["separable_conv_2_bn_normal_left5_11", 0, 0, {}], ["normal_bn_1_11", 0, 0, {}]]], "name": "normal_add_5_11"}, {"class_name": "Concatenate", "config": {"axis": -1, "trainable": true, "name": "normal_concat_11"}, "inbound_nodes": [[["adjust_bn_11", 0, 0, {}], ["normal_add_1_11", 0, 0, {}], ["normal_add_2_11", 0, 0, {}], ["normal_add_3_11", 0, 0, {}], ["normal_add_4_11", 0, 0, {}], ["normal_add_5_11", 0, 0, {}]]], "name": "normal_concat_11"}, {"class_name": "Activation", "config": {"activation": "relu", "trainable": true, "name": "activation_1092"}, "inbound_nodes": [[["normal_concat_11", 0, 0, {}]]], "name": "activation_1092"}, {"class_name": "GlobalAveragePooling2D", "config": {"name": "global_average_pooling2d_8", "trainable": true, "data_format": "channels_last"}, "inbound_nodes": [[["activation_1092", 0, 0, {}]]], "name": "global_average_pooling2d_8"}, {"class_name": "Dropout", "config": {"rate": 0.0, "noise_shape": null, "trainable": true, "seed": null, "name": "dropout_8"}, "inbound_nodes": [[["global_average_pooling2d_8", 0, 0, {}]]], "name": "dropout_8"}, {"class_name": "Dense", "config": {"bias_constraint": null, "bias_initializer": {"class_name": "Zeros", "config": {}}, "bias_regularizer": null, "name": "predictions", "trainable": true, "units": 10, "kernel_initializer": {"class_name": "VarianceScaling", "config": {"scale": 1.0, "mode": "fan_avg", "distribution": "uniform", "seed": null}}, "activation": "softmax", "use_bias": true, "kernel_regularizer": {"class_name": "L1L2", "config": {"l1": 0.0, "l2": 0.0005000000237487257}}, "kernel_constraint": null, "activity_regularizer": null}, "inbound_nodes": [[["dropout_8", 0, 0, {}]]], "name": "predictions"}]}, "backend": "tensorflow", "keras_version": "2.1.2"}