{"class_name": "Model", "config": {"input_layers": [["input_12", 0, 0]], "name": "NASNet", "output_layers": [["predictions", 0, 0]], "layers": [{"class_name": "InputLayer", "config": {"batch_input_shape": [null, 32, 32, 3], "sparse": false, "dtype": "float32", "name": "input_12"}, "inbound_nodes": [], "name": "input_12"}, {"class_name": "Conv2D", "config": {"kernel_size": [3, 3], "dilation_rate": [1, 1], "filters": 32, "padding": "same", "bias_initializer": {"class_name": "Zeros", "config": {}}, "name": "stem_conv1", "strides": [1, 1], "kernel_initializer": {"class_name": "VarianceScaling", "config": {"scale": 2.0, "mode": "fan_in", "distribution": "normal", "seed": null}}, "trainable": true, "bias_constraint": null, "data_format": "channels_last", "activation": "linear", "use_bias": false, "kernel_regularizer": {"class_name": "L1L2", "config": {"l1": 0.0, "l2": 0.0005000000237487257}}, "kernel_constraint": null, "bias_regularizer": null, "activity_regularizer": null}, "inbound_nodes": [[["input_12", 0, 0, {}]]], "name": "stem_conv1"}, {"class_name": "BatchNormalization", "config": {"beta_regularizer": null, "center": true, "trainable": true, "gamma_constraint": null, "axis": -1, "gamma_initializer": {"class_name": "Ones", "config": {}}, "moving_variance_initializer": {"class_name": "Ones", "config": {}}, "moving_mean_initializer": {"class_name": "Zeros", "config": {}}, "epsilon": 1e-05, "gamma_regularizer": null, "scale": true, "beta_constraint": null, "beta_initializer": {"class_name": "Zeros", "config": {}}, "momentum": 0.9, "name": "stem_bn1"}, "inbound_nodes": [[["stem_conv1", 0, 0, {}]]], "name": "stem_bn1"}, {"class_name": "Activation", "config": {"activation": "relu", "trainable": true, "name": "activation_1672"}, "inbound_nodes": [[["stem_bn1", 0, 0, {}]]], "name": "activation_1672"}, {"class_name": "Conv2D", "config": {"kernel_size": [1, 1], "dilation_rate": [1, 1], "filters": 32, "padding": "same", "bias_initializer": {"class_name": "Zeros", "config": {}}, "name": "normal_conv_1_0", "strides": [1, 1], "kernel_initializer": {"class_name": "VarianceScaling", "config": {"scale": 2.0, "mode": "fan_in", "distribution": "normal", "seed": null}}, "trainable": true, "bias_constraint": null, "data_format": "channels_last", "activation": "linear", "use_bias": false, "kernel_regularizer": {"class_name": "L1L2", "config": {"l1": 0.0, "l2": 0.0005000000237487257}}, "kernel_constraint": null, "bias_regularizer": null, "activity_regularizer": null}, "inbound_nodes": [[["activation_1672", 0, 0, {}]]], "name": "normal_conv_1_0"}, {"class_name": "BatchNormalization", "config": {"beta_regularizer": null, "center": true, "trainable": true, "gamma_constraint": null, "axis": -1, "gamma_initializer": {"class_name": "Ones", "config": {}}, "moving_variance_initializer": {"class_name": "Ones", "config": {}}, "moving_mean_initializer": {"class_name": "Zeros", "config": {}}, "epsilon": 1e-05, "gamma_regularizer": null, "scale": true, "beta_constraint": null, "beta_initializer": {"class_name": "Zeros", "config": {}}, "momentum": 0.9, "name": "normal_bn_1_0"}, "inbound_nodes": [[["normal_conv_1_0", 0, 0, {}]]], "name": "normal_bn_1_0"}, {"class_name": "Activation", "config": {"activation": "relu", "trainable": true, "name": "activation_1673"}, "inbound_nodes": [[["normal_bn_1_0", 0, 0, {}]]], "name": "activation_1673"}, {"class_name": "Activation", "config": {"activation": "relu", "trainable": true, "name": "activation_1675"}, "inbound_nodes": [[["stem_bn1", 0, 0, {}]]], "name": "activation_1675"}, {"class_name": "Activation", "config": {"activation": "relu", "trainable": true, "name": "activation_1677"}, "inbound_nodes": [[["stem_bn1", 0, 0, {}]]], "name": "activation_1677"}, {"class_name": "Activation", "config": {"activation": "relu", "trainable": true, "name": "activation_1679"}, "inbound_nodes": [[["stem_bn1", 0, 0, {}]]], "name": "activation_1679"}, {"class_name": "Activation", "config": {"activation": "relu", "trainable": true, "name": "activation_1681"}, "inbound_nodes": [[["normal_bn_1_0", 0, 0, {}]]], "name": "activation_1681"}, {"class_name": "SeparableConv2D", "config": {"kernel_size": [5, 5], "dilation_rate": [1, 1], "filters": 32, "bias_initializer": {"class_name": "Zeros", "config": {}}, "depthwise_regularizer": null, "strides": [1, 1], "data_format": "channels_last", "trainable": true, "bias_constraint": null, "name": "separable_conv_1_normal_left1_0", "depth_multiplier": 1, "pointwise_initializer": {"class_name": "VarianceScaling", "config": {"scale": 1.0, "mode": "fan_avg", "distribution": "uniform", "seed": null}}, "padding": "same", "pointwise_regularizer": null, "bias_regularizer": null, "depthwise_constraint": null, "activation": "linear", "use_bias": false, "pointwise_constraint": null, "depthwise_initializer": {"class_name": "VarianceScaling", "config": {"scale": 1.0, "mode": "fan_avg", "distribution": "uniform", "seed": null}}, "activity_regularizer": null}, "inbound_nodes": [[["activation_1673", 0, 0, {}]]], "name": "separable_conv_1_normal_left1_0"}, {"class_name": "SeparableConv2D", "config": {"kernel_size": [3, 3], "dilation_rate": [1, 1], "filters": 32, "bias_initializer": {"class_name": "Zeros", "config": {}}, "depthwise_regularizer": null, "strides": [1, 1], "data_format": "channels_last", "trainable": true, "bias_constraint": null, "name": "separable_conv_1_normal_right1_0", "depth_multiplier": 1, "pointwise_initializer": {"class_name": "VarianceScaling", "config": {"scale": 1.0, "mode": "fan_avg", "distribution": "uniform", "seed": null}}, "padding": "same", "pointwise_regularizer": null, "bias_regularizer": null, "depthwise_constraint": null, "activation": "linear", "use_bias": false, "pointwise_constraint": null, "depthwise_initializer": {"class_name": "VarianceScaling", "config": {"scale": 1.0, "mode": "fan_avg", "distribution": "uniform", "seed": null}}, "activity_regularizer": null}, "inbound_nodes": [[["activation_1675", 0, 0, {}]]], "name": "separable_conv_1_normal_right1_0"}, {"class_name": "SeparableConv2D", "config": {"kernel_size": [5, 5], "dilation_rate": [1, 1], "filters": 32, "bias_initializer": {"class_name": "Zeros", "config": {}}, "depthwise_regularizer": null, "strides": [1, 1], "data_format": "channels_last", "trainable": true, "bias_constraint": null, "name": "separable_conv_1_normal_left2_0", "depth_multiplier": 1, "pointwise_initializer": {"class_name": "VarianceScaling", "config": {"scale": 1.0, "mode": "fan_avg", "distribution": "uniform", "seed": null}}, "padding": "same", "pointwise_regularizer": null, "bias_regularizer": null, "depthwise_constraint": null, "activation": "linear", "use_bias": false, "pointwise_constraint": null, "depthwise_initializer": {"class_name": "VarianceScaling", "config": {"scale": 1.0, "mode": "fan_avg", "distribution": "uniform", "seed": null}}, "activity_regularizer": null}, "inbound_nodes": [[["activation_1677", 0, 0, {}]]], "name": "separable_conv_1_normal_left2_0"}, {"class_name": "SeparableConv2D", "config": {"kernel_size": [3, 3], "dilation_rate": [1, 1], "filters": 32, "bias_initializer": {"class_name": "Zeros", "config": {}}, "depthwise_regularizer": null, "strides": [1, 1], "data_format": "channels_last", "trainable": true, "bias_constraint": null, "name": "separable_conv_1_normal_right2_0", "depth_multiplier": 1, "pointwise_initializer": {"class_name": "VarianceScaling", "config": {"scale": 1.0, "mode": "fan_avg", "distribution": "uniform", "seed": null}}, "padding": "same", "pointwise_regularizer": null, "bias_regularizer": null, "depthwise_constraint": null, "activation": "linear", "use_bias": false, "pointwise_constraint": null, "depthwise_initializer": {"class_name": "VarianceScaling", "config": {"scale": 1.0, "mode": "fan_avg", "distribution": "uniform", "seed": null}}, "activity_regularizer": null}, "inbound_nodes": [[["activation_1679", 0, 0, {}]]], "name": "separable_conv_1_normal_right2_0"}, {"class_name": "SeparableConv2D", "config": {"kernel_size": [3, 3], "dilation_rate": [1, 1], "filters": 32, "bias_initializer": {"class_name": "Zeros", "config": {}}, "depthwise_regularizer": null, "strides": [1, 1], "data_format": "channels_last", "trainable": true, "bias_constraint": null, "name": "separable_conv_1_normal_left5_0", "depth_multiplier": 1, "pointwise_initializer": {"class_name": "VarianceScaling", "config": {"scale": 1.0, "mode": "fan_avg", "distribution": "uniform", "seed": null}}, "padding": "same", "pointwise_regularizer": null, "bias_regularizer": null, "depthwise_constraint": null, "activation": "linear", "use_bias": false, "pointwise_constraint": null, "depthwise_initializer": {"class_name": "VarianceScaling", "config": {"scale": 1.0, "mode": "fan_avg", "distribution": "uniform", "seed": null}}, "activity_regularizer": null}, "inbound_nodes": [[["activation_1681", 0, 0, {}]]], "name": "separable_conv_1_normal_left5_0"}, {"class_name": "BatchNormalization", "config": {"beta_regularizer": null, "center": true, "trainable": true, "gamma_constraint": null, "axis": -1, "gamma_initializer": {"class_name": "Ones", "config": {}}, "moving_variance_initializer": {"class_name": "Ones", "config": {}}, "moving_mean_initializer": {"class_name": "Zeros", "config": {}}, "epsilon": 1e-05, "gamma_regularizer": null, "scale": true, "beta_constraint": null, "beta_initializer": {"class_name": "Zeros", "config": {}}, "momentum": 0.9, "name": "separable_conv_1_bn_normal_left1_0"}, "inbound_nodes": [[["separable_conv_1_normal_left1_0", 0, 0, {}]]], "name": "separable_conv_1_bn_normal_left1_0"}, {"class_name": "BatchNormalization", "config": {"beta_regularizer": null, "center": true, "trainable": true, "gamma_constraint": null, "axis": -1, "gamma_initializer": {"class_name": "Ones", "config": {}}, "moving_variance_initializer": {"class_name": "Ones", "config": {}}, "moving_mean_initializer": {"class_name": "Zeros", "config": {}}, "epsilon": 1e-05, "gamma_regularizer": null, "scale": true, "beta_constraint": null, "beta_initializer": {"class_name": "Zeros", "config": {}}, "momentum": 0.9, "name": "separable_conv_1_bn_normal_right1_0"}, "inbound_nodes": [[["separable_conv_1_normal_right1_0", 0, 0, {}]]], "name": "separable_conv_1_bn_normal_right1_0"}, {"class_name": "BatchNormalization", "config": {"beta_regularizer": null, "center": true, "trainable": true, "gamma_constraint": null, "axis": -1, "gamma_initializer": {"class_name": "Ones", "config": {}}, "moving_variance_initializer": {"class_name": "Ones", "config": {}}, "moving_mean_initializer": {"class_name": "Zeros", "config": {}}, "epsilon": 1e-05, "gamma_regularizer": null, "scale": true, "beta_constraint": null, "beta_initializer": {"class_name": "Zeros", "config": {}}, "momentum": 0.9, "name": "separable_conv_1_bn_normal_left2_0"}, "inbound_nodes": [[["separable_conv_1_normal_left2_0", 0, 0, {}]]], "name": "separable_conv_1_bn_normal_left2_0"}, {"class_name": "BatchNormalization", "config": {"beta_regularizer": null, "center": true, "trainable": true, "gamma_constraint": null, "axis": -1, "gamma_initializer": {"class_name": "Ones", "config": {}}, "moving_variance_initializer": {"class_name": "Ones", "config": {}}, "moving_mean_initializer": {"class_name": "Zeros", "config": {}}, "epsilon": 1e-05, "gamma_regularizer": null, "scale": true, "beta_constraint": null, "beta_initializer": {"class_name": "Zeros", "config": {}}, "momentum": 0.9, "name": "separable_conv_1_bn_normal_right2_0"}, "inbound_nodes": [[["separable_conv_1_normal_right2_0", 0, 0, {}]]], "name": "separable_conv_1_bn_normal_right2_0"}, {"class_name": "BatchNormalization", "config": {"beta_regularizer": null, "center": true, "trainable": true, "gamma_constraint": null, "axis": -1, "gamma_initializer": {"class_name": "Ones", "config": {}}, "moving_variance_initializer": {"class_name": "Ones", "config": {}}, "moving_mean_initializer": {"class_name": "Zeros", "config": {}}, "epsilon": 1e-05, "gamma_regularizer": null, "scale": true, "beta_constraint": null, "beta_initializer": {"class_name": "Zeros", "config": {}}, "momentum": 0.9, "name": "separable_conv_1_bn_normal_left5_0"}, "inbound_nodes": [[["separable_conv_1_normal_left5_0", 0, 0, {}]]], "name": "separable_conv_1_bn_normal_left5_0"}, {"class_name": "Activation", "config": {"activation": "relu", "trainable": true, "name": "activation_1674"}, "inbound_nodes": [[["separable_conv_1_bn_normal_left1_0", 0, 0, {}]]], "name": "activation_1674"}, {"class_name": "Activation", "config": {"activation": "relu", "trainable": true, "name": "activation_1676"}, "inbound_nodes": [[["separable_conv_1_bn_normal_right1_0", 0, 0, {}]]], "name": "activation_1676"}, {"class_name": "Activation", "config": {"activation": "relu", "trainable": true, "name": "activation_1678"}, "inbound_nodes": [[["separable_conv_1_bn_normal_left2_0", 0, 0, {}]]], "name": "activation_1678"}, {"class_name": "Activation", "config": {"activation": "relu", "trainable": true, "name": "activation_1680"}, "inbound_nodes": [[["separable_conv_1_bn_normal_right2_0", 0, 0, {}]]], "name": "activation_1680"}, {"class_name": "Activation", "config": {"activation": "relu", "trainable": true, "name": "activation_1682"}, "inbound_nodes": [[["separable_conv_1_bn_normal_left5_0", 0, 0, {}]]], "name": "activation_1682"}, {"class_name": "SeparableConv2D", "config": {"kernel_size": [5, 5], "dilation_rate": [1, 1], "filters": 32, "bias_initializer": {"class_name": "Zeros", "config": {}}, "depthwise_regularizer": null, "strides": [1, 1], "data_format": "channels_last", "trainable": true, "bias_constraint": null, "name": "separable_conv_2_normal_left1_0", "depth_multiplier": 1, "pointwise_initializer": {"class_name": "VarianceScaling", "config": {"scale": 1.0, "mode": "fan_avg", "distribution": "uniform", "seed": null}}, "padding": "same", "pointwise_regularizer": null, "bias_regularizer": null, "depthwise_constraint": null, "activation": "linear", "use_bias": false, "pointwise_constraint": null, "depthwise_initializer": {"class_name": "VarianceScaling", "config": {"scale": 1.0, "mode": "fan_avg", "distribution": "uniform", "seed": null}}, "activity_regularizer": null}, "inbound_nodes": [[["activation_1674", 0, 0, {}]]], "name": "separable_conv_2_normal_left1_0"}, {"class_name": "SeparableConv2D", "config": {"kernel_size": [3, 3], "dilation_rate": [1, 1], "filters": 32, "bias_initializer": {"class_name": "Zeros", "config": {}}, "depthwise_regularizer": null, "strides": [1, 1], "data_format": "channels_last", "trainable": true, "bias_constraint": null, "name": "separable_conv_2_normal_right1_0", "depth_multiplier": 1, "pointwise_initializer": {"class_name": "VarianceScaling", "config": {"scale": 1.0, "mode": "fan_avg", "distribution": "uniform", "seed": null}}, "padding": "same", "pointwise_regularizer": null, "bias_regularizer": null, "depthwise_constraint": null, "activation": "linear", "use_bias": false, "pointwise_constraint": null, "depthwise_initializer": {"class_name": "VarianceScaling", "config": {"scale": 1.0, "mode": "fan_avg", "distribution": "uniform", "seed": null}}, "activity_regularizer": null}, "inbound_nodes": [[["activation_1676", 0, 0, {}]]], "name": "separable_conv_2_normal_right1_0"}, {"class_name": "SeparableConv2D", "config": {"kernel_size": [5, 5], "dilation_rate": [1, 1], "filters": 32, "bias_initializer": {"class_name": "Zeros", "config": {}}, "depthwise_regularizer": null, "strides": [1, 1], "data_format": "channels_last", "trainable": true, "bias_constraint": null, "name": "separable_conv_2_normal_left2_0", "depth_multiplier": 1, "pointwise_initializer": {"class_name": "VarianceScaling", "config": {"scale": 1.0, "mode": "fan_avg", "distribution": "uniform", "seed": null}}, "padding": "same", "pointwise_regularizer": null, "bias_regularizer": null, "depthwise_constraint": null, "activation": "linear", "use_bias": false, "pointwise_constraint": null, "depthwise_initializer": {"class_name": "VarianceScaling", "config": {"scale": 1.0, "mode": "fan_avg", "distribution": "uniform", "seed": null}}, "activity_regularizer": null}, "inbound_nodes": [[["activation_1678", 0, 0, {}]]], "name": "separable_conv_2_normal_left2_0"}, {"class_name": "SeparableConv2D", "config": {"kernel_size": [3, 3], "dilation_rate": [1, 1], "filters": 32, "bias_initializer": {"class_name": "Zeros", "config": {}}, "depthwise_regularizer": null, "strides": [1, 1], "data_format": "channels_last", "trainable": true, "bias_constraint": null, "name": "separable_conv_2_normal_right2_0", "depth_multiplier": 1, "pointwise_initializer": {"class_name": "VarianceScaling", "config": {"scale": 1.0, "mode": "fan_avg", "distribution": "uniform", "seed": null}}, "padding": "same", "pointwise_regularizer": null, "bias_regularizer": null, "depthwise_constraint": null, "activation": "linear", "use_bias": false, "pointwise_constraint": null, "depthwise_initializer": {"class_name": "VarianceScaling", "config": {"scale": 1.0, "mode": "fan_avg", "distribution": "uniform", "seed": null}}, "activity_regularizer": null}, "inbound_nodes": [[["activation_1680", 0, 0, {}]]], "name": "separable_conv_2_normal_right2_0"}, {"class_name": "SeparableConv2D", "config": {"kernel_size": [3, 3], "dilation_rate": [1, 1], "filters": 32, "bias_initializer": {"class_name": "Zeros", "config": {}}, "depthwise_regularizer": null, "strides": [1, 1], "data_format": "channels_last", "trainable": true, "bias_constraint": null, "name": "separable_conv_2_normal_left5_0", "depth_multiplier": 1, "pointwise_initializer": {"class_name": "VarianceScaling", "config": {"scale": 1.0, "mode": "fan_avg", "distribution": "uniform", "seed": null}}, "padding": "same", "pointwise_regularizer": null, "bias_regularizer": null, "depthwise_constraint": null, "activation": "linear", "use_bias": false, "pointwise_constraint": null, "depthwise_initializer": {"class_name": "VarianceScaling", "config": {"scale": 1.0, "mode": "fan_avg", "distribution": "uniform", "seed": null}}, "activity_regularizer": null}, "inbound_nodes": [[["activation_1682", 0, 0, {}]]], "name": "separable_conv_2_normal_left5_0"}, {"class_name": "BatchNormalization", "config": {"beta_regularizer": null, "center": true, "trainable": true, "gamma_constraint": null, "axis": -1, "gamma_initializer": {"class_name": "Ones", "config": {}}, "moving_variance_initializer": {"class_name": "Ones", "config": {}}, "moving_mean_initializer": {"class_name": "Zeros", "config": {}}, "epsilon": 1e-05, "gamma_regularizer": null, "scale": true, "beta_constraint": null, "beta_initializer": {"class_name": "Zeros", "config": {}}, "momentum": 0.9, "name": "separable_conv_2_bn_normal_left1_0"}, "inbound_nodes": [[["separable_conv_2_normal_left1_0", 0, 0, {}]]], "name": "separable_conv_2_bn_normal_left1_0"}, {"class_name": "BatchNormalization", "config": {"beta_regularizer": null, "center": true, "trainable": true, "gamma_constraint": null, "axis": -1, "gamma_initializer": {"class_name": "Ones", "config": {}}, "moving_variance_initializer": {"class_name": "Ones", "config": {}}, "moving_mean_initializer": {"class_name": "Zeros", "config": {}}, "epsilon": 1e-05, "gamma_regularizer": null, "scale": true, "beta_constraint": null, "beta_initializer": {"class_name": "Zeros", "config": {}}, "momentum": 0.9, "name": "separable_conv_2_bn_normal_right1_0"}, "inbound_nodes": [[["separable_conv_2_normal_right1_0", 0, 0, {}]]], "name": "separable_conv_2_bn_normal_right1_0"}, {"class_name": "BatchNormalization", "config": {"beta_regularizer": null, "center": true, "trainable": true, "gamma_constraint": null, "axis": -1, "gamma_initializer": {"class_name": "Ones", "config": {}}, "moving_variance_initializer": {"class_name": "Ones", "config": {}}, "moving_mean_initializer": {"class_name": "Zeros", "config": {}}, "epsilon": 1e-05, "gamma_regularizer": null, "scale": true, "beta_constraint": null, "beta_initializer": {"class_name": "Zeros", "config": {}}, "momentum": 0.9, "name": "separable_conv_2_bn_normal_left2_0"}, "inbound_nodes": [[["separable_conv_2_normal_left2_0", 0, 0, {}]]], "name": "separable_conv_2_bn_normal_left2_0"}, {"class_name": "BatchNormalization", "config": {"beta_regularizer": null, "center": true, "trainable": true, "gamma_constraint": null, "axis": -1, "gamma_initializer": {"class_name": "Ones", "config": {}}, "moving_variance_initializer": {"class_name": "Ones", "config": {}}, "moving_mean_initializer": {"class_name": "Zeros", "config": {}}, "epsilon": 1e-05, "gamma_regularizer": null, "scale": true, "beta_constraint": null, "beta_initializer": {"class_name": "Zeros", "config": {}}, "momentum": 0.9, "name": "separable_conv_2_bn_normal_right2_0"}, "inbound_nodes": [[["separable_conv_2_normal_right2_0", 0, 0, {}]]], "name": "separable_conv_2_bn_normal_right2_0"}, {"class_name": "AveragePooling2D", "config": {"padding": "same", "data_format": "channels_last", "pool_size": [3, 3], "trainable": true, "strides": [1, 1], "name": "normal_left3_0"}, "inbound_nodes": [[["normal_bn_1_0", 0, 0, {}]]], "name": "normal_left3_0"}, {"class_name": "AveragePooling2D", "config": {"padding": "same", "data_format": "channels_last", "pool_size": [3, 3], "trainable": true, "strides": [1, 1], "name": "normal_left4_0"}, "inbound_nodes": [[["stem_bn1", 0, 0, {}]]], "name": "normal_left4_0"}, {"class_name": "AveragePooling2D", "config": {"padding": "same", "data_format": "channels_last", "pool_size": [3, 3], "trainable": true, "strides": [1, 1], "name": "normal_right4_0"}, "inbound_nodes": [[["stem_bn1", 0, 0, {}]]], "name": "normal_right4_0"}, {"class_name": "BatchNormalization", "config": {"beta_regularizer": null, "center": true, "trainable": true, "gamma_constraint": null, "axis": -1, "gamma_initializer": {"class_name": "Ones", "config": {}}, "moving_variance_initializer": {"class_name": "Ones", "config": {}}, "moving_mean_initializer": {"class_name": "Zeros", "config": {}}, "epsilon": 1e-05, "gamma_regularizer": null, "scale": true, "beta_constraint": null, "beta_initializer": {"class_name": "Zeros", "config": {}}, "momentum": 0.9, "name": "separable_conv_2_bn_normal_left5_0"}, "inbound_nodes": [[["separable_conv_2_normal_left5_0", 0, 0, {}]]], "name": "separable_conv_2_bn_normal_left5_0"}, {"class_name": "Add", "config": {"trainable": true, "name": "normal_add_1_0"}, "inbound_nodes": [[["separable_conv_2_bn_normal_left1_0", 0, 0, {}], ["separable_conv_2_bn_normal_right1_0", 0, 0, {}]]], "name": "normal_add_1_0"}, {"class_name": "Add", "config": {"trainable": true, "name": "normal_add_2_0"}, "inbound_nodes": [[["separable_conv_2_bn_normal_left2_0", 0, 0, {}], ["separable_conv_2_bn_normal_right2_0", 0, 0, {}]]], "name": "normal_add_2_0"}, {"class_name": "Add", "config": {"trainable": true, "name": "normal_add_3_0"}, "inbound_nodes": [[["normal_left3_0", 0, 0, {}], ["stem_bn1", 0, 0, {}]]], "name": "normal_add_3_0"}, {"class_name": "Add", "config": {"trainable": true, "name": "normal_add_4_0"}, "inbound_nodes": [[["normal_left4_0", 0, 0, {}], ["normal_right4_0", 0, 0, {}]]], "name": "normal_add_4_0"}, {"class_name": "Add", "config": {"trainable": true, "name": "normal_add_5_0"}, "inbound_nodes": [[["separable_conv_2_bn_normal_left5_0", 0, 0, {}], ["normal_bn_1_0", 0, 0, {}]]], "name": "normal_add_5_0"}, {"class_name": "Concatenate", "config": {"axis": -1, "trainable": true, "name": "normal_concat_0"}, "inbound_nodes": [[["stem_bn1", 0, 0, {}], ["normal_add_1_0", 0, 0, {}], ["normal_add_2_0", 0, 0, {}], ["normal_add_3_0", 0, 0, {}], ["normal_add_4_0", 0, 0, {}], ["normal_add_5_0", 0, 0, {}]]], "name": "normal_concat_0"}, {"class_name": "Activation", "config": {"activation": "relu", "trainable": true, "name": "activation_1683"}, "inbound_nodes": [[["normal_concat_0", 0, 0, {}]]], "name": "activation_1683"}, {"class_name": "Conv2D", "config": {"kernel_size": [1, 1], "dilation_rate": [1, 1], "filters": 32, "padding": "same", "bias_initializer": {"class_name": "Zeros", "config": {}}, "name": "normal_conv_1_1", "strides": [1, 1], "kernel_initializer": {"class_name": "VarianceScaling", "config": {"scale": 2.0, "mode": "fan_in", "distribution": "normal", "seed": null}}, "trainable": true, "bias_constraint": null, "data_format": "channels_last", "activation": "linear", "use_bias": false, "kernel_regularizer": {"class_name": "L1L2", "config": {"l1": 0.0, "l2": 0.0005000000237487257}}, "kernel_constraint": null, "bias_regularizer": null, "activity_regularizer": null}, "inbound_nodes": [[["activation_1683", 0, 0, {}]]], "name": "normal_conv_1_1"}, {"class_name": "BatchNormalization", "config": {"beta_regularizer": null, "center": true, "trainable": true, "gamma_constraint": null, "axis": -1, "gamma_initializer": {"class_name": "Ones", "config": {}}, "moving_variance_initializer": {"class_name": "Ones", "config": {}}, "moving_mean_initializer": {"class_name": "Zeros", "config": {}}, "epsilon": 1e-05, "gamma_regularizer": null, "scale": true, "beta_constraint": null, "beta_initializer": {"class_name": "Zeros", "config": {}}, "momentum": 0.9, "name": "normal_bn_1_1"}, "inbound_nodes": [[["normal_conv_1_1", 0, 0, {}]]], "name": "normal_bn_1_1"}, {"class_name": "Activation", "config": {"activation": "relu", "trainable": true, "name": "activation_1684"}, "inbound_nodes": [[["normal_bn_1_1", 0, 0, {}]]], "name": "activation_1684"}, {"class_name": "Activation", "config": {"activation": "relu", "trainable": true, "name": "activation_1686"}, "inbound_nodes": [[["stem_bn1", 0, 0, {}]]], "name": "activation_1686"}, {"class_name": "Activation", "config": {"activation": "relu", "trainable": true, "name": "activation_1688"}, "inbound_nodes": [[["stem_bn1", 0, 0, {}]]], "name": "activation_1688"}, {"class_name": "Activation", "config": {"activation": "relu", "trainable": true, "name": "activation_1690"}, "inbound_nodes": [[["stem_bn1", 0, 0, {}]]], "name": "activation_1690"}, {"class_name": "Activation", "config": {"activation": "relu", "trainable": true, "name": "activation_1692"}, "inbound_nodes": [[["normal_bn_1_1", 0, 0, {}]]], "name": "activation_1692"}, {"class_name": "SeparableConv2D", "config": {"kernel_size": [5, 5], "dilation_rate": [1, 1], "filters": 32, "bias_initializer": {"class_name": "Zeros", "config": {}}, "depthwise_regularizer": null, "strides": [1, 1], "data_format": "channels_last", "trainable": true, "bias_constraint": null, "name": "separable_conv_1_normal_left1_1", "depth_multiplier": 1, "pointwise_initializer": {"class_name": "VarianceScaling", "config": {"scale": 1.0, "mode": "fan_avg", "distribution": "uniform", "seed": null}}, "padding": "same", "pointwise_regularizer": null, "bias_regularizer": null, "depthwise_constraint": null, "activation": "linear", "use_bias": false, "pointwise_constraint": null, "depthwise_initializer": {"class_name": "VarianceScaling", "config": {"scale": 1.0, "mode": "fan_avg", "distribution": "uniform", "seed": null}}, "activity_regularizer": null}, "inbound_nodes": [[["activation_1684", 0, 0, {}]]], "name": "separable_conv_1_normal_left1_1"}, {"class_name": "SeparableConv2D", "config": {"kernel_size": [3, 3], "dilation_rate": [1, 1], "filters": 32, "bias_initializer": {"class_name": "Zeros", "config": {}}, "depthwise_regularizer": null, "strides": [1, 1], "data_format": "channels_last", "trainable": true, "bias_constraint": null, "name": "separable_conv_1_normal_right1_1", "depth_multiplier": 1, "pointwise_initializer": {"class_name": "VarianceScaling", "config": {"scale": 1.0, "mode": "fan_avg", "distribution": "uniform", "seed": null}}, "padding": "same", "pointwise_regularizer": null, "bias_regularizer": null, "depthwise_constraint": null, "activation": "linear", "use_bias": false, "pointwise_constraint": null, "depthwise_initializer": {"class_name": "VarianceScaling", "config": {"scale": 1.0, "mode": "fan_avg", "distribution": "uniform", "seed": null}}, "activity_regularizer": null}, "inbound_nodes": [[["activation_1686", 0, 0, {}]]], "name": "separable_conv_1_normal_right1_1"}, {"class_name": "SeparableConv2D", "config": {"kernel_size": [5, 5], "dilation_rate": [1, 1], "filters": 32, "bias_initializer": {"class_name": "Zeros", "config": {}}, "depthwise_regularizer": null, "strides": [1, 1], "data_format": "channels_last", "trainable": true, "bias_constraint": null, "name": "separable_conv_1_normal_left2_1", "depth_multiplier": 1, "pointwise_initializer": {"class_name": "VarianceScaling", "config": {"scale": 1.0, "mode": "fan_avg", "distribution": "uniform", "seed": null}}, "padding": "same", "pointwise_regularizer": null, "bias_regularizer": null, "depthwise_constraint": null, "activation": "linear", "use_bias": false, "pointwise_constraint": null, "depthwise_initializer": {"class_name": "VarianceScaling", "config": {"scale": 1.0, "mode": "fan_avg", "distribution": "uniform", "seed": null}}, "activity_regularizer": null}, "inbound_nodes": [[["activation_1688", 0, 0, {}]]], "name": "separable_conv_1_normal_left2_1"}, {"class_name": "SeparableConv2D", "config": {"kernel_size": [3, 3], "dilation_rate": [1, 1], "filters": 32, "bias_initializer": {"class_name": "Zeros", "config": {}}, "depthwise_regularizer": null, "strides": [1, 1], "data_format": "channels_last", "trainable": true, "bias_constraint": null, "name": "separable_conv_1_normal_right2_1", "depth_multiplier": 1, "pointwise_initializer": {"class_name": "VarianceScaling", "config": {"scale": 1.0, "mode": "fan_avg", "distribution": "uniform", "seed": null}}, "padding": "same", "pointwise_regularizer": null, "bias_regularizer": null, "depthwise_constraint": null, "activation": "linear", "use_bias": false, "pointwise_constraint": null, "depthwise_initializer": {"class_name": "VarianceScaling", "config": {"scale": 1.0, "mode": "fan_avg", "distribution": "uniform", "seed": null}}, "activity_regularizer": null}, "inbound_nodes": [[["activation_1690", 0, 0, {}]]], "name": "separable_conv_1_normal_right2_1"}, {"class_name": "SeparableConv2D", "config": {"kernel_size": [3, 3], "dilation_rate": [1, 1], "filters": 32, "bias_initializer": {"class_name": "Zeros", "config": {}}, "depthwise_regularizer": null, "strides": [1, 1], "data_format": "channels_last", "trainable": true, "bias_constraint": null, "name": "separable_conv_1_normal_left5_1", "depth_multiplier": 1, "pointwise_initializer": {"class_name": "VarianceScaling", "config": {"scale": 1.0, "mode": "fan_avg", "distribution": "uniform", "seed": null}}, "padding": "same", "pointwise_regularizer": null, "bias_regularizer": null, "depthwise_constraint": null, "activation": "linear", "use_bias": false, "pointwise_constraint": null, "depthwise_initializer": {"class_name": "VarianceScaling", "config": {"scale": 1.0, "mode": "fan_avg", "distribution": "uniform", "seed": null}}, "activity_regularizer": null}, "inbound_nodes": [[["activation_1692", 0, 0, {}]]], "name": "separable_conv_1_normal_left5_1"}, {"class_name": "BatchNormalization", "config": {"beta_regularizer": null, "center": true, "trainable": true, "gamma_constraint": null, "axis": -1, "gamma_initializer": {"class_name": "Ones", "config": {}}, "moving_variance_initializer": {"class_name": "Ones", "config": {}}, "moving_mean_initializer": {"class_name": "Zeros", "config": {}}, "epsilon": 1e-05, "gamma_regularizer": null, "scale": true, "beta_constraint": null, "beta_initializer": {"class_name": "Zeros", "config": {}}, "momentum": 0.9, "name": "separable_conv_1_bn_normal_left1_1"}, "inbound_nodes": [[["separable_conv_1_normal_left1_1", 0, 0, {}]]], "name": "separable_conv_1_bn_normal_left1_1"}, {"class_name": "BatchNormalization", "config": {"beta_regularizer": null, "center": true, "trainable": true, "gamma_constraint": null, "axis": -1, "gamma_initializer": {"class_name": "Ones", "config": {}}, "moving_variance_initializer": {"class_name": "Ones", "config": {}}, "moving_mean_initializer": {"class_name": "Zeros", "config": {}}, "epsilon": 1e-05, "gamma_regularizer": null, "scale": true, "beta_constraint": null, "beta_initializer": {"class_name": "Zeros", "config": {}}, "momentum": 0.9, "name": "separable_conv_1_bn_normal_right1_1"}, "inbound_nodes": [[["separable_conv_1_normal_right1_1", 0, 0, {}]]], "name": "separable_conv_1_bn_normal_right1_1"}, {"class_name": "BatchNormalization", "config": {"beta_regularizer": null, "center": true, "trainable": true, "gamma_constraint": null, "axis": -1, "gamma_initializer": {"class_name": "Ones", "config": {}}, "moving_variance_initializer": {"class_name": "Ones", "config": {}}, "moving_mean_initializer": {"class_name": "Zeros", "config": {}}, "epsilon": 1e-05, "gamma_regularizer": null, "scale": true, "beta_constraint": null, "beta_initializer": {"class_name": "Zeros", "config": {}}, "momentum": 0.9, "name": "separable_conv_1_bn_normal_left2_1"}, "inbound_nodes": [[["separable_conv_1_normal_left2_1", 0, 0, {}]]], "name": "separable_conv_1_bn_normal_left2_1"}, {"class_name": "BatchNormalization", "config": {"beta_regularizer": null, "center": true, "trainable": true, "gamma_constraint": null, "axis": -1, "gamma_initializer": {"class_name": "Ones", "config": {}}, "moving_variance_initializer": {"class_name": "Ones", "config": {}}, "moving_mean_initializer": {"class_name": "Zeros", "config": {}}, "epsilon": 1e-05, "gamma_regularizer": null, "scale": true, "beta_constraint": null, "beta_initializer": {"class_name": "Zeros", "config": {}}, "momentum": 0.9, "name": "separable_conv_1_bn_normal_right2_1"}, "inbound_nodes": [[["separable_conv_1_normal_right2_1", 0, 0, {}]]], "name": "separable_conv_1_bn_normal_right2_1"}, {"class_name": "BatchNormalization", "config": {"beta_regularizer": null, "center": true, "trainable": true, "gamma_constraint": null, "axis": -1, "gamma_initializer": {"class_name": "Ones", "config": {}}, "moving_variance_initializer": {"class_name": "Ones", "config": {}}, "moving_mean_initializer": {"class_name": "Zeros", "config": {}}, "epsilon": 1e-05, "gamma_regularizer": null, "scale": true, "beta_constraint": null, "beta_initializer": {"class_name": "Zeros", "config": {}}, "momentum": 0.9, "name": "separable_conv_1_bn_normal_left5_1"}, "inbound_nodes": [[["separable_conv_1_normal_left5_1", 0, 0, {}]]], "name": "separable_conv_1_bn_normal_left5_1"}, {"class_name": "Activation", "config": {"activation": "relu", "trainable": true, "name": "activation_1685"}, "inbound_nodes": [[["separable_conv_1_bn_normal_left1_1", 0, 0, {}]]], "name": "activation_1685"}, {"class_name": "Activation", "config": {"activation": "relu", "trainable": true, "name": "activation_1687"}, "inbound_nodes": [[["separable_conv_1_bn_normal_right1_1", 0, 0, {}]]], "name": "activation_1687"}, {"class_name": "Activation", "config": {"activation": "relu", "trainable": true, "name": "activation_1689"}, "inbound_nodes": [[["separable_conv_1_bn_normal_left2_1", 0, 0, {}]]], "name": "activation_1689"}, {"class_name": "Activation", "config": {"activation": "relu", "trainable": true, "name": "activation_1691"}, "inbound_nodes": [[["separable_conv_1_bn_normal_right2_1", 0, 0, {}]]], "name": "activation_1691"}, {"class_name": "Activation", "config": {"activation": "relu", "trainable": true, "name": "activation_1693"}, "inbound_nodes": [[["separable_conv_1_bn_normal_left5_1", 0, 0, {}]]], "name": "activation_1693"}, {"class_name": "SeparableConv2D", "config": {"kernel_size": [5, 5], "dilation_rate": [1, 1], "filters": 32, "bias_initializer": {"class_name": "Zeros", "config": {}}, "depthwise_regularizer": null, "strides": [1, 1], "data_format": "channels_last", "trainable": true, "bias_constraint": null, "name": "separable_conv_2_normal_left1_1", "depth_multiplier": 1, "pointwise_initializer": {"class_name": "VarianceScaling", "config": {"scale": 1.0, "mode": "fan_avg", "distribution": "uniform", "seed": null}}, "padding": "same", "pointwise_regularizer": null, "bias_regularizer": null, "depthwise_constraint": null, "activation": "linear", "use_bias": false, "pointwise_constraint": null, "depthwise_initializer": {"class_name": "VarianceScaling", "config": {"scale": 1.0, "mode": "fan_avg", "distribution": "uniform", "seed": null}}, "activity_regularizer": null}, "inbound_nodes": [[["activation_1685", 0, 0, {}]]], "name": "separable_conv_2_normal_left1_1"}, {"class_name": "SeparableConv2D", "config": {"kernel_size": [3, 3], "dilation_rate": [1, 1], "filters": 32, "bias_initializer": {"class_name": "Zeros", "config": {}}, "depthwise_regularizer": null, "strides": [1, 1], "data_format": "channels_last", "trainable": true, "bias_constraint": null, "name": "separable_conv_2_normal_right1_1", "depth_multiplier": 1, "pointwise_initializer": {"class_name": "VarianceScaling", "config": {"scale": 1.0, "mode": "fan_avg", "distribution": "uniform", "seed": null}}, "padding": "same", "pointwise_regularizer": null, "bias_regularizer": null, "depthwise_constraint": null, "activation": "linear", "use_bias": false, "pointwise_constraint": null, "depthwise_initializer": {"class_name": "VarianceScaling", "config": {"scale": 1.0, "mode": "fan_avg", "distribution": "uniform", "seed": null}}, "activity_regularizer": null}, "inbound_nodes": [[["activation_1687", 0, 0, {}]]], "name": "separable_conv_2_normal_right1_1"}, {"class_name": "SeparableConv2D", "config": {"kernel_size": [5, 5], "dilation_rate": [1, 1], "filters": 32, "bias_initializer": {"class_name": "Zeros", "config": {}}, "depthwise_regularizer": null, "strides": [1, 1], "data_format": "channels_last", "trainable": true, "bias_constraint": null, "name": "separable_conv_2_normal_left2_1", "depth_multiplier": 1, "pointwise_initializer": {"class_name": "VarianceScaling", "config": {"scale": 1.0, "mode": "fan_avg", "distribution": "uniform", "seed": null}}, "padding": "same", "pointwise_regularizer": null, "bias_regularizer": null, "depthwise_constraint": null, "activation": "linear", "use_bias": false, "pointwise_constraint": null, "depthwise_initializer": {"class_name": "VarianceScaling", "config": {"scale": 1.0, "mode": "fan_avg", "distribution": "uniform", "seed": null}}, "activity_regularizer": null}, "inbound_nodes": [[["activation_1689", 0, 0, {}]]], "name": "separable_conv_2_normal_left2_1"}, {"class_name": "SeparableConv2D", "config": {"kernel_size": [3, 3], "dilation_rate": [1, 1], "filters": 32, "bias_initializer": {"class_name": "Zeros", "config": {}}, "depthwise_regularizer": null, "strides": [1, 1], "data_format": "channels_last", "trainable": true, "bias_constraint": null, "name": "separable_conv_2_normal_right2_1", "depth_multiplier": 1, "pointwise_initializer": {"class_name": "VarianceScaling", "config": {"scale": 1.0, "mode": "fan_avg", "distribution": "uniform", "seed": null}}, "padding": "same", "pointwise_regularizer": null, "bias_regularizer": null, "depthwise_constraint": null, "activation": "linear", "use_bias": false, "pointwise_constraint": null, "depthwise_initializer": {"class_name": "VarianceScaling", "config": {"scale": 1.0, "mode": "fan_avg", "distribution": "uniform", "seed": null}}, "activity_regularizer": null}, "inbound_nodes": [[["activation_1691", 0, 0, {}]]], "name": "separable_conv_2_normal_right2_1"}, {"class_name": "SeparableConv2D", "config": {"kernel_size": [3, 3], "dilation_rate": [1, 1], "filters": 32, "bias_initializer": {"class_name": "Zeros", "config": {}}, "depthwise_regularizer": null, "strides": [1, 1], "data_format": "channels_last", "trainable": true, "bias_constraint": null, "name": "separable_conv_2_normal_left5_1", "depth_multiplier": 1, "pointwise_initializer": {"class_name": "VarianceScaling", "config": {"scale": 1.0, "mode": "fan_avg", "distribution": "uniform", "seed": null}}, "padding": "same", "pointwise_regularizer": null, "bias_regularizer": null, "depthwise_constraint": null, "activation": "linear", "use_bias": false, "pointwise_constraint": null, "depthwise_initializer": {"class_name": "VarianceScaling", "config": {"scale": 1.0, "mode": "fan_avg", "distribution": "uniform", "seed": null}}, "activity_regularizer": null}, "inbound_nodes": [[["activation_1693", 0, 0, {}]]], "name": "separable_conv_2_normal_left5_1"}, {"class_name": "BatchNormalization", "config": {"beta_regularizer": null, "center": true, "trainable": true, "gamma_constraint": null, "axis": -1, "gamma_initializer": {"class_name": "Ones", "config": {}}, "moving_variance_initializer": {"class_name": "Ones", "config": {}}, "moving_mean_initializer": {"class_name": "Zeros", "config": {}}, "epsilon": 1e-05, "gamma_regularizer": null, "scale": true, "beta_constraint": null, "beta_initializer": {"class_name": "Zeros", "config": {}}, "momentum": 0.9, "name": "separable_conv_2_bn_normal_left1_1"}, "inbound_nodes": [[["separable_conv_2_normal_left1_1", 0, 0, {}]]], "name": "separable_conv_2_bn_normal_left1_1"}, {"class_name": "BatchNormalization", "config": {"beta_regularizer": null, "center": true, "trainable": true, "gamma_constraint": null, "axis": -1, "gamma_initializer": {"class_name": "Ones", "config": {}}, "moving_variance_initializer": {"class_name": "Ones", "config": {}}, "moving_mean_initializer": {"class_name": "Zeros", "config": {}}, "epsilon": 1e-05, "gamma_regularizer": null, "scale": true, "beta_constraint": null, "beta_initializer": {"class_name": "Zeros", "config": {}}, "momentum": 0.9, "name": "separable_conv_2_bn_normal_right1_1"}, "inbound_nodes": [[["separable_conv_2_normal_right1_1", 0, 0, {}]]], "name": "separable_conv_2_bn_normal_right1_1"}, {"class_name": "BatchNormalization", "config": {"beta_regularizer": null, "center": true, "trainable": true, "gamma_constraint": null, "axis": -1, "gamma_initializer": {"class_name": "Ones", "config": {}}, "moving_variance_initializer": {"class_name": "Ones", "config": {}}, "moving_mean_initializer": {"class_name": "Zeros", "config": {}}, "epsilon": 1e-05, "gamma_regularizer": null, "scale": true, "beta_constraint": null, "beta_initializer": {"class_name": "Zeros", "config": {}}, "momentum": 0.9, "name": "separable_conv_2_bn_normal_left2_1"}, "inbound_nodes": [[["separable_conv_2_normal_left2_1", 0, 0, {}]]], "name": "separable_conv_2_bn_normal_left2_1"}, {"class_name": "BatchNormalization", "config": {"beta_regularizer": null, "center": true, "trainable": true, "gamma_constraint": null, "axis": -1, "gamma_initializer": {"class_name": "Ones", "config": {}}, "moving_variance_initializer": {"class_name": "Ones", "config": {}}, "moving_mean_initializer": {"class_name": "Zeros", "config": {}}, "epsilon": 1e-05, "gamma_regularizer": null, "scale": true, "beta_constraint": null, "beta_initializer": {"class_name": "Zeros", "config": {}}, "momentum": 0.9, "name": "separable_conv_2_bn_normal_right2_1"}, "inbound_nodes": [[["separable_conv_2_normal_right2_1", 0, 0, {}]]], "name": "separable_conv_2_bn_normal_right2_1"}, {"class_name": "AveragePooling2D", "config": {"padding": "same", "data_format": "channels_last", "pool_size": [3, 3], "trainable": true, "strides": [1, 1], "name": "normal_left3_1"}, "inbound_nodes": [[["normal_bn_1_1", 0, 0, {}]]], "name": "normal_left3_1"}, {"class_name": "AveragePooling2D", "config": {"padding": "same", "data_format": "channels_last", "pool_size": [3, 3], "trainable": true, "strides": [1, 1], "name": "normal_left4_1"}, "inbound_nodes": [[["stem_bn1", 0, 0, {}]]], "name": "normal_left4_1"}, {"class_name": "AveragePooling2D", "config": {"padding": "same", "data_format": "channels_last", "pool_size": [3, 3], "trainable": true, "strides": [1, 1], "name": "normal_right4_1"}, "inbound_nodes": [[["stem_bn1", 0, 0, {}]]], "name": "normal_right4_1"}, {"class_name": "BatchNormalization", "config": {"beta_regularizer": null, "center": true, "trainable": true, "gamma_constraint": null, "axis": -1, "gamma_initializer": {"class_name": "Ones", "config": {}}, "moving_variance_initializer": {"class_name": "Ones", "config": {}}, "moving_mean_initializer": {"class_name": "Zeros", "config": {}}, "epsilon": 1e-05, "gamma_regularizer": null, "scale": true, "beta_constraint": null, "beta_initializer": {"class_name": "Zeros", "config": {}}, "momentum": 0.9, "name": "separable_conv_2_bn_normal_left5_1"}, "inbound_nodes": [[["separable_conv_2_normal_left5_1", 0, 0, {}]]], "name": "separable_conv_2_bn_normal_left5_1"}, {"class_name": "Add", "config": {"trainable": true, "name": "normal_add_1_1"}, "inbound_nodes": [[["separable_conv_2_bn_normal_left1_1", 0, 0, {}], ["separable_conv_2_bn_normal_right1_1", 0, 0, {}]]], "name": "normal_add_1_1"}, {"class_name": "Add", "config": {"trainable": true, "name": "normal_add_2_1"}, "inbound_nodes": [[["separable_conv_2_bn_normal_left2_1", 0, 0, {}], ["separable_conv_2_bn_normal_right2_1", 0, 0, {}]]], "name": "normal_add_2_1"}, {"class_name": "Add", "config": {"trainable": true, "name": "normal_add_3_1"}, "inbound_nodes": [[["normal_left3_1", 0, 0, {}], ["stem_bn1", 0, 0, {}]]], "name": "normal_add_3_1"}, {"class_name": "Add", "config": {"trainable": true, "name": "normal_add_4_1"}, "inbound_nodes": [[["normal_left4_1", 0, 0, {}], ["normal_right4_1", 0, 0, {}]]], "name": "normal_add_4_1"}, {"class_name": "Add", "config": {"trainable": true, "name": "normal_add_5_1"}, "inbound_nodes": [[["separable_conv_2_bn_normal_left5_1", 0, 0, {}], ["normal_bn_1_1", 0, 0, {}]]], "name": "normal_add_5_1"}, {"class_name": "Concatenate", "config": {"axis": -1, "trainable": true, "name": "normal_concat_1"}, "inbound_nodes": [[["stem_bn1", 0, 0, {}], ["normal_add_1_1", 0, 0, {}], ["normal_add_2_1", 0, 0, {}], ["normal_add_3_1", 0, 0, {}], ["normal_add_4_1", 0, 0, {}], ["normal_add_5_1", 0, 0, {}]]], "name": "normal_concat_1"}, {"class_name": "Activation", "config": {"activation": "relu", "trainable": true, "name": "activation_1694"}, "inbound_nodes": [[["normal_concat_0", 0, 0, {}]]], "name": "activation_1694"}, {"class_name": "Activation", "config": {"activation": "relu", "trainable": true, "name": "activation_1695"}, "inbound_nodes": [[["normal_concat_1", 0, 0, {}]]], "name": "activation_1695"}, {"class_name": "Conv2D", "config": {"kernel_size": [1, 1], "dilation_rate": [1, 1], "filters": 32, "padding": "same", "bias_initializer": {"class_name": "Zeros", "config": {}}, "name": "adjust_conv_projection_2", "strides": [1, 1], "kernel_initializer": {"class_name": "VarianceScaling", "config": {"scale": 2.0, "mode": "fan_in", "distribution": "normal", "seed": null}}, "trainable": true, "bias_constraint": null, "data_format": "channels_last", "activation": "linear", "use_bias": false, "kernel_regularizer": {"class_name": "L1L2", "config": {"l1": 0.0, "l2": 0.0005000000237487257}}, "kernel_constraint": null, "bias_regularizer": null, "activity_regularizer": null}, "inbound_nodes": [[["activation_1694", 0, 0, {}]]], "name": "adjust_conv_projection_2"}, {"class_name": "Conv2D", "config": {"kernel_size": [1, 1], "dilation_rate": [1, 1], "filters": 32, "padding": "same", "bias_initializer": {"class_name": "Zeros", "config": {}}, "name": "normal_conv_1_2", "strides": [1, 1], "kernel_initializer": {"class_name": "VarianceScaling", "config": {"scale": 2.0, "mode": "fan_in", "distribution": "normal", "seed": null}}, "trainable": true, "bias_constraint": null, "data_format": "channels_last", "activation": "linear", "use_bias": false, "kernel_regularizer": {"class_name": "L1L2", "config": {"l1": 0.0, "l2": 0.0005000000237487257}}, "kernel_constraint": null, "bias_regularizer": null, "activity_regularizer": null}, "inbound_nodes": [[["activation_1695", 0, 0, {}]]], "name": "normal_conv_1_2"}, {"class_name": "BatchNormalization", "config": {"beta_regularizer": null, "center": true, "trainable": true, "gamma_constraint": null, "axis": -1, "gamma_initializer": {"class_name": "Ones", "config": {}}, "moving_variance_initializer": {"class_name": "Ones", "config": {}}, "moving_mean_initializer": {"class_name": "Zeros", "config": {}}, "epsilon": 1e-05, "gamma_regularizer": null, "scale": true, "beta_constraint": null, "beta_initializer": {"class_name": "Zeros", "config": {}}, "momentum": 0.9, "name": "adjust_bn_2"}, "inbound_nodes": [[["adjust_conv_projection_2", 0, 0, {}]]], "name": "adjust_bn_2"}, {"class_name": "BatchNormalization", "config": {"beta_regularizer": null, "center": true, "trainable": true, "gamma_constraint": null, "axis": -1, "gamma_initializer": {"class_name": "Ones", "config": {}}, "moving_variance_initializer": {"class_name": "Ones", "config": {}}, "moving_mean_initializer": {"class_name": "Zeros", "config": {}}, "epsilon": 1e-05, "gamma_regularizer": null, "scale": true, "beta_constraint": null, "beta_initializer": {"class_name": "Zeros", "config": {}}, "momentum": 0.9, "name": "normal_bn_1_2"}, "inbound_nodes": [[["normal_conv_1_2", 0, 0, {}]]], "name": "normal_bn_1_2"}, {"class_name": "Activation", "config": {"activation": "relu", "trainable": true, "name": "activation_1696"}, "inbound_nodes": [[["normal_bn_1_2", 0, 0, {}]]], "name": "activation_1696"}, {"class_name": "Activation", "config": {"activation": "relu", "trainable": true, "name": "activation_1698"}, "inbound_nodes": [[["adjust_bn_2", 0, 0, {}]]], "name": "activation_1698"}, {"class_name": "Activation", "config": {"activation": "relu", "trainable": true, "name": "activation_1700"}, "inbound_nodes": [[["adjust_bn_2", 0, 0, {}]]], "name": "activation_1700"}, {"class_name": "Activation", "config": {"activation": "relu", "trainable": true, "name": "activation_1702"}, "inbound_nodes": [[["adjust_bn_2", 0, 0, {}]]], "name": "activation_1702"}, {"class_name": "Activation", "config": {"activation": "relu", "trainable": true, "name": "activation_1704"}, "inbound_nodes": [[["normal_bn_1_2", 0, 0, {}]]], "name": "activation_1704"}, {"class_name": "SeparableConv2D", "config": {"kernel_size": [5, 5], "dilation_rate": [1, 1], "filters": 32, "bias_initializer": {"class_name": "Zeros", "config": {}}, "depthwise_regularizer": null, "strides": [1, 1], "data_format": "channels_last", "trainable": true, "bias_constraint": null, "name": "separable_conv_1_normal_left1_2", "depth_multiplier": 1, "pointwise_initializer": {"class_name": "VarianceScaling", "config": {"scale": 1.0, "mode": "fan_avg", "distribution": "uniform", "seed": null}}, "padding": "same", "pointwise_regularizer": null, "bias_regularizer": null, "depthwise_constraint": null, "activation": "linear", "use_bias": false, "pointwise_constraint": null, "depthwise_initializer": {"class_name": "VarianceScaling", "config": {"scale": 1.0, "mode": "fan_avg", "distribution": "uniform", "seed": null}}, "activity_regularizer": null}, "inbound_nodes": [[["activation_1696", 0, 0, {}]]], "name": "separable_conv_1_normal_left1_2"}, {"class_name": "SeparableConv2D", "config": {"kernel_size": [3, 3], "dilation_rate": [1, 1], "filters": 32, "bias_initializer": {"class_name": "Zeros", "config": {}}, "depthwise_regularizer": null, "strides": [1, 1], "data_format": "channels_last", "trainable": true, "bias_constraint": null, "name": "separable_conv_1_normal_right1_2", "depth_multiplier": 1, "pointwise_initializer": {"class_name": "VarianceScaling", "config": {"scale": 1.0, "mode": "fan_avg", "distribution": "uniform", "seed": null}}, "padding": "same", "pointwise_regularizer": null, "bias_regularizer": null, "depthwise_constraint": null, "activation": "linear", "use_bias": false, "pointwise_constraint": null, "depthwise_initializer": {"class_name": "VarianceScaling", "config": {"scale": 1.0, "mode": "fan_avg", "distribution": "uniform", "seed": null}}, "activity_regularizer": null}, "inbound_nodes": [[["activation_1698", 0, 0, {}]]], "name": "separable_conv_1_normal_right1_2"}, {"class_name": "SeparableConv2D", "config": {"kernel_size": [5, 5], "dilation_rate": [1, 1], "filters": 32, "bias_initializer": {"class_name": "Zeros", "config": {}}, "depthwise_regularizer": null, "strides": [1, 1], "data_format": "channels_last", "trainable": true, "bias_constraint": null, "name": "separable_conv_1_normal_left2_2", "depth_multiplier": 1, "pointwise_initializer": {"class_name": "VarianceScaling", "config": {"scale": 1.0, "mode": "fan_avg", "distribution": "uniform", "seed": null}}, "padding": "same", "pointwise_regularizer": null, "bias_regularizer": null, "depthwise_constraint": null, "activation": "linear", "use_bias": false, "pointwise_constraint": null, "depthwise_initializer": {"class_name": "VarianceScaling", "config": {"scale": 1.0, "mode": "fan_avg", "distribution": "uniform", "seed": null}}, "activity_regularizer": null}, "inbound_nodes": [[["activation_1700", 0, 0, {}]]], "name": "separable_conv_1_normal_left2_2"}, {"class_name": "SeparableConv2D", "config": {"kernel_size": [3, 3], "dilation_rate": [1, 1], "filters": 32, "bias_initializer": {"class_name": "Zeros", "config": {}}, "depthwise_regularizer": null, "strides": [1, 1], "data_format": "channels_last", "trainable": true, "bias_constraint": null, "name": "separable_conv_1_normal_right2_2", "depth_multiplier": 1, "pointwise_initializer": {"class_name": "VarianceScaling", "config": {"scale": 1.0, "mode": "fan_avg", "distribution": "uniform", "seed": null}}, "padding": "same", "pointwise_regularizer": null, "bias_regularizer": null, "depthwise_constraint": null, "activation": "linear", "use_bias": false, "pointwise_constraint": null, "depthwise_initializer": {"class_name": "VarianceScaling", "config": {"scale": 1.0, "mode": "fan_avg", "distribution": "uniform", "seed": null}}, "activity_regularizer": null}, "inbound_nodes": [[["activation_1702", 0, 0, {}]]], "name": "separable_conv_1_normal_right2_2"}, {"class_name": "SeparableConv2D", "config": {"kernel_size": [3, 3], "dilation_rate": [1, 1], "filters": 32, "bias_initializer": {"class_name": "Zeros", "config": {}}, "depthwise_regularizer": null, "strides": [1, 1], "data_format": "channels_last", "trainable": true, "bias_constraint": null, "name": "separable_conv_1_normal_left5_2", "depth_multiplier": 1, "pointwise_initializer": {"class_name": "VarianceScaling", "config": {"scale": 1.0, "mode": "fan_avg", "distribution": "uniform", "seed": null}}, "padding": "same", "pointwise_regularizer": null, "bias_regularizer": null, "depthwise_constraint": null, "activation": "linear", "use_bias": false, "pointwise_constraint": null, "depthwise_initializer": {"class_name": "VarianceScaling", "config": {"scale": 1.0, "mode": "fan_avg", "distribution": "uniform", "seed": null}}, "activity_regularizer": null}, "inbound_nodes": [[["activation_1704", 0, 0, {}]]], "name": "separable_conv_1_normal_left5_2"}, {"class_name": "BatchNormalization", "config": {"beta_regularizer": null, "center": true, "trainable": true, "gamma_constraint": null, "axis": -1, "gamma_initializer": {"class_name": "Ones", "config": {}}, "moving_variance_initializer": {"class_name": "Ones", "config": {}}, "moving_mean_initializer": {"class_name": "Zeros", "config": {}}, "epsilon": 1e-05, "gamma_regularizer": null, "scale": true, "beta_constraint": null, "beta_initializer": {"class_name": "Zeros", "config": {}}, "momentum": 0.9, "name": "separable_conv_1_bn_normal_left1_2"}, "inbound_nodes": [[["separable_conv_1_normal_left1_2", 0, 0, {}]]], "name": "separable_conv_1_bn_normal_left1_2"}, {"class_name": "BatchNormalization", "config": {"beta_regularizer": null, "center": true, "trainable": true, "gamma_constraint": null, "axis": -1, "gamma_initializer": {"class_name": "Ones", "config": {}}, "moving_variance_initializer": {"class_name": "Ones", "config": {}}, "moving_mean_initializer": {"class_name": "Zeros", "config": {}}, "epsilon": 1e-05, "gamma_regularizer": null, "scale": true, "beta_constraint": null, "beta_initializer": {"class_name": "Zeros", "config": {}}, "momentum": 0.9, "name": "separable_conv_1_bn_normal_right1_2"}, "inbound_nodes": [[["separable_conv_1_normal_right1_2", 0, 0, {}]]], "name": "separable_conv_1_bn_normal_right1_2"}, {"class_name": "BatchNormalization", "config": {"beta_regularizer": null, "center": true, "trainable": true, "gamma_constraint": null, "axis": -1, "gamma_initializer": {"class_name": "Ones", "config": {}}, "moving_variance_initializer": {"class_name": "Ones", "config": {}}, "moving_mean_initializer": {"class_name": "Zeros", "config": {}}, "epsilon": 1e-05, "gamma_regularizer": null, "scale": true, "beta_constraint": null, "beta_initializer": {"class_name": "Zeros", "config": {}}, "momentum": 0.9, "name": "separable_conv_1_bn_normal_left2_2"}, "inbound_nodes": [[["separable_conv_1_normal_left2_2", 0, 0, {}]]], "name": "separable_conv_1_bn_normal_left2_2"}, {"class_name": "BatchNormalization", "config": {"beta_regularizer": null, "center": true, "trainable": true, "gamma_constraint": null, "axis": -1, "gamma_initializer": {"class_name": "Ones", "config": {}}, "moving_variance_initializer": {"class_name": "Ones", "config": {}}, "moving_mean_initializer": {"class_name": "Zeros", "config": {}}, "epsilon": 1e-05, "gamma_regularizer": null, "scale": true, "beta_constraint": null, "beta_initializer": {"class_name": "Zeros", "config": {}}, "momentum": 0.9, "name": "separable_conv_1_bn_normal_right2_2"}, "inbound_nodes": [[["separable_conv_1_normal_right2_2", 0, 0, {}]]], "name": "separable_conv_1_bn_normal_right2_2"}, {"class_name": "BatchNormalization", "config": {"beta_regularizer": null, "center": true, "trainable": true, "gamma_constraint": null, "axis": -1, "gamma_initializer": {"class_name": "Ones", "config": {}}, "moving_variance_initializer": {"class_name": "Ones", "config": {}}, "moving_mean_initializer": {"class_name": "Zeros", "config": {}}, "epsilon": 1e-05, "gamma_regularizer": null, "scale": true, "beta_constraint": null, "beta_initializer": {"class_name": "Zeros", "config": {}}, "momentum": 0.9, "name": "separable_conv_1_bn_normal_left5_2"}, "inbound_nodes": [[["separable_conv_1_normal_left5_2", 0, 0, {}]]], "name": "separable_conv_1_bn_normal_left5_2"}, {"class_name": "Activation", "config": {"activation": "relu", "trainable": true, "name": "activation_1697"}, "inbound_nodes": [[["separable_conv_1_bn_normal_left1_2", 0, 0, {}]]], "name": "activation_1697"}, {"class_name": "Activation", "config": {"activation": "relu", "trainable": true, "name": "activation_1699"}, "inbound_nodes": [[["separable_conv_1_bn_normal_right1_2", 0, 0, {}]]], "name": "activation_1699"}, {"class_name": "Activation", "config": {"activation": "relu", "trainable": true, "name": "activation_1701"}, "inbound_nodes": [[["separable_conv_1_bn_normal_left2_2", 0, 0, {}]]], "name": "activation_1701"}, {"class_name": "Activation", "config": {"activation": "relu", "trainable": true, "name": "activation_1703"}, "inbound_nodes": [[["separable_conv_1_bn_normal_right2_2", 0, 0, {}]]], "name": "activation_1703"}, {"class_name": "Activation", "config": {"activation": "relu", "trainable": true, "name": "activation_1705"}, "inbound_nodes": [[["separable_conv_1_bn_normal_left5_2", 0, 0, {}]]], "name": "activation_1705"}, {"class_name": "SeparableConv2D", "config": {"kernel_size": [5, 5], "dilation_rate": [1, 1], "filters": 32, "bias_initializer": {"class_name": "Zeros", "config": {}}, "depthwise_regularizer": null, "strides": [1, 1], "data_format": "channels_last", "trainable": true, "bias_constraint": null, "name": "separable_conv_2_normal_left1_2", "depth_multiplier": 1, "pointwise_initializer": {"class_name": "VarianceScaling", "config": {"scale": 1.0, "mode": "fan_avg", "distribution": "uniform", "seed": null}}, "padding": "same", "pointwise_regularizer": null, "bias_regularizer": null, "depthwise_constraint": null, "activation": "linear", "use_bias": false, "pointwise_constraint": null, "depthwise_initializer": {"class_name": "VarianceScaling", "config": {"scale": 1.0, "mode": "fan_avg", "distribution": "uniform", "seed": null}}, "activity_regularizer": null}, "inbound_nodes": [[["activation_1697", 0, 0, {}]]], "name": "separable_conv_2_normal_left1_2"}, {"class_name": "SeparableConv2D", "config": {"kernel_size": [3, 3], "dilation_rate": [1, 1], "filters": 32, "bias_initializer": {"class_name": "Zeros", "config": {}}, "depthwise_regularizer": null, "strides": [1, 1], "data_format": "channels_last", "trainable": true, "bias_constraint": null, "name": "separable_conv_2_normal_right1_2", "depth_multiplier": 1, "pointwise_initializer": {"class_name": "VarianceScaling", "config": {"scale": 1.0, "mode": "fan_avg", "distribution": "uniform", "seed": null}}, "padding": "same", "pointwise_regularizer": null, "bias_regularizer": null, "depthwise_constraint": null, "activation": "linear", "use_bias": false, "pointwise_constraint": null, "depthwise_initializer": {"class_name": "VarianceScaling", "config": {"scale": 1.0, "mode": "fan_avg", "distribution": "uniform", "seed": null}}, "activity_regularizer": null}, "inbound_nodes": [[["activation_1699", 0, 0, {}]]], "name": "separable_conv_2_normal_right1_2"}, {"class_name": "SeparableConv2D", "config": {"kernel_size": [5, 5], "dilation_rate": [1, 1], "filters": 32, "bias_initializer": {"class_name": "Zeros", "config": {}}, "depthwise_regularizer": null, "strides": [1, 1], "data_format": "channels_last", "trainable": true, "bias_constraint": null, "name": "separable_conv_2_normal_left2_2", "depth_multiplier": 1, "pointwise_initializer": {"class_name": "VarianceScaling", "config": {"scale": 1.0, "mode": "fan_avg", "distribution": "uniform", "seed": null}}, "padding": "same", "pointwise_regularizer": null, "bias_regularizer": null, "depthwise_constraint": null, "activation": "linear", "use_bias": false, "pointwise_constraint": null, "depthwise_initializer": {"class_name": "VarianceScaling", "config": {"scale": 1.0, "mode": "fan_avg", "distribution": "uniform", "seed": null}}, "activity_regularizer": null}, "inbound_nodes": [[["activation_1701", 0, 0, {}]]], "name": "separable_conv_2_normal_left2_2"}, {"class_name": "SeparableConv2D", "config": {"kernel_size": [3, 3], "dilation_rate": [1, 1], "filters": 32, "bias_initializer": {"class_name": "Zeros", "config": {}}, "depthwise_regularizer": null, "strides": [1, 1], "data_format": "channels_last", "trainable": true, "bias_constraint": null, "name": "separable_conv_2_normal_right2_2", "depth_multiplier": 1, "pointwise_initializer": {"class_name": "VarianceScaling", "config": {"scale": 1.0, "mode": "fan_avg", "distribution": "uniform", "seed": null}}, "padding": "same", "pointwise_regularizer": null, "bias_regularizer": null, "depthwise_constraint": null, "activation": "linear", "use_bias": false, "pointwise_constraint": null, "depthwise_initializer": {"class_name": "VarianceScaling", "config": {"scale": 1.0, "mode": "fan_avg", "distribution": "uniform", "seed": null}}, "activity_regularizer": null}, "inbound_nodes": [[["activation_1703", 0, 0, {}]]], "name": "separable_conv_2_normal_right2_2"}, {"class_name": "SeparableConv2D", "config": {"kernel_size": [3, 3], "dilation_rate": [1, 1], "filters": 32, "bias_initializer": {"class_name": "Zeros", "config": {}}, "depthwise_regularizer": null, "strides": [1, 1], "data_format": "channels_last", "trainable": true, "bias_constraint": null, "name": "separable_conv_2_normal_left5_2", "depth_multiplier": 1, "pointwise_initializer": {"class_name": "VarianceScaling", "config": {"scale": 1.0, "mode": "fan_avg", "distribution": "uniform", "seed": null}}, "padding": "same", "pointwise_regularizer": null, "bias_regularizer": null, "depthwise_constraint": null, "activation": "linear", "use_bias": false, "pointwise_constraint": null, "depthwise_initializer": {"class_name": "VarianceScaling", "config": {"scale": 1.0, "mode": "fan_avg", "distribution": "uniform", "seed": null}}, "activity_regularizer": null}, "inbound_nodes": [[["activation_1705", 0, 0, {}]]], "name": "separable_conv_2_normal_left5_2"}, {"class_name": "BatchNormalization", "config": {"beta_regularizer": null, "center": true, "trainable": true, "gamma_constraint": null, "axis": -1, "gamma_initializer": {"class_name": "Ones", "config": {}}, "moving_variance_initializer": {"class_name": "Ones", "config": {}}, "moving_mean_initializer": {"class_name": "Zeros", "config": {}}, "epsilon": 1e-05, "gamma_regularizer": null, "scale": true, "beta_constraint": null, "beta_initializer": {"class_name": "Zeros", "config": {}}, "momentum": 0.9, "name": "separable_conv_2_bn_normal_left1_2"}, "inbound_nodes": [[["separable_conv_2_normal_left1_2", 0, 0, {}]]], "name": "separable_conv_2_bn_normal_left1_2"}, {"class_name": "BatchNormalization", "config": {"beta_regularizer": null, "center": true, "trainable": true, "gamma_constraint": null, "axis": -1, "gamma_initializer": {"class_name": "Ones", "config": {}}, "moving_variance_initializer": {"class_name": "Ones", "config": {}}, "moving_mean_initializer": {"class_name": "Zeros", "config": {}}, "epsilon": 1e-05, "gamma_regularizer": null, "scale": true, "beta_constraint": null, "beta_initializer": {"class_name": "Zeros", "config": {}}, "momentum": 0.9, "name": "separable_conv_2_bn_normal_right1_2"}, "inbound_nodes": [[["separable_conv_2_normal_right1_2", 0, 0, {}]]], "name": "separable_conv_2_bn_normal_right1_2"}, {"class_name": "BatchNormalization", "config": {"beta_regularizer": null, "center": true, "trainable": true, "gamma_constraint": null, "axis": -1, "gamma_initializer": {"class_name": "Ones", "config": {}}, "moving_variance_initializer": {"class_name": "Ones", "config": {}}, "moving_mean_initializer": {"class_name": "Zeros", "config": {}}, "epsilon": 1e-05, "gamma_regularizer": null, "scale": true, "beta_constraint": null, "beta_initializer": {"class_name": "Zeros", "config": {}}, "momentum": 0.9, "name": "separable_conv_2_bn_normal_left2_2"}, "inbound_nodes": [[["separable_conv_2_normal_left2_2", 0, 0, {}]]], "name": "separable_conv_2_bn_normal_left2_2"}, {"class_name": "BatchNormalization", "config": {"beta_regularizer": null, "center": true, "trainable": true, "gamma_constraint": null, "axis": -1, "gamma_initializer": {"class_name": "Ones", "config": {}}, "moving_variance_initializer": {"class_name": "Ones", "config": {}}, "moving_mean_initializer": {"class_name": "Zeros", "config": {}}, "epsilon": 1e-05, "gamma_regularizer": null, "scale": true, "beta_constraint": null, "beta_initializer": {"class_name": "Zeros", "config": {}}, "momentum": 0.9, "name": "separable_conv_2_bn_normal_right2_2"}, "inbound_nodes": [[["separable_conv_2_normal_right2_2", 0, 0, {}]]], "name": "separable_conv_2_bn_normal_right2_2"}, {"class_name": "AveragePooling2D", "config": {"padding": "same", "data_format": "channels_last", "pool_size": [3, 3], "trainable": true, "strides": [1, 1], "name": "normal_left3_2"}, "inbound_nodes": [[["normal_bn_1_2", 0, 0, {}]]], "name": "normal_left3_2"}, {"class_name": "AveragePooling2D", "config": {"padding": "same", "data_format": "channels_last", "pool_size": [3, 3], "trainable": true, "strides": [1, 1], "name": "normal_left4_2"}, "inbound_nodes": [[["adjust_bn_2", 0, 0, {}]]], "name": "normal_left4_2"}, {"class_name": "AveragePooling2D", "config": {"padding": "same", "data_format": "channels_last", "pool_size": [3, 3], "trainable": true, "strides": [1, 1], "name": "normal_right4_2"}, "inbound_nodes": [[["adjust_bn_2", 0, 0, {}]]], "name": "normal_right4_2"}, {"class_name": "BatchNormalization", "config": {"beta_regularizer": null, "center": true, "trainable": true, "gamma_constraint": null, "axis": -1, "gamma_initializer": {"class_name": "Ones", "config": {}}, "moving_variance_initializer": {"class_name": "Ones", "config": {}}, "moving_mean_initializer": {"class_name": "Zeros", "config": {}}, "epsilon": 1e-05, "gamma_regularizer": null, "scale": true, "beta_constraint": null, "beta_initializer": {"class_name": "Zeros", "config": {}}, "momentum": 0.9, "name": "separable_conv_2_bn_normal_left5_2"}, "inbound_nodes": [[["separable_conv_2_normal_left5_2", 0, 0, {}]]], "name": "separable_conv_2_bn_normal_left5_2"}, {"class_name": "Add", "config": {"trainable": true, "name": "normal_add_1_2"}, "inbound_nodes": [[["separable_conv_2_bn_normal_left1_2", 0, 0, {}], ["separable_conv_2_bn_normal_right1_2", 0, 0, {}]]], "name": "normal_add_1_2"}, {"class_name": "Add", "config": {"trainable": true, "name": "normal_add_2_2"}, "inbound_nodes": [[["separable_conv_2_bn_normal_left2_2", 0, 0, {}], ["separable_conv_2_bn_normal_right2_2", 0, 0, {}]]], "name": "normal_add_2_2"}, {"class_name": "Add", "config": {"trainable": true, "name": "normal_add_3_2"}, "inbound_nodes": [[["normal_left3_2", 0, 0, {}], ["adjust_bn_2", 0, 0, {}]]], "name": "normal_add_3_2"}, {"class_name": "Add", "config": {"trainable": true, "name": "normal_add_4_2"}, "inbound_nodes": [[["normal_left4_2", 0, 0, {}], ["normal_right4_2", 0, 0, {}]]], "name": "normal_add_4_2"}, {"class_name": "Add", "config": {"trainable": true, "name": "normal_add_5_2"}, "inbound_nodes": [[["separable_conv_2_bn_normal_left5_2", 0, 0, {}], ["normal_bn_1_2", 0, 0, {}]]], "name": "normal_add_5_2"}, {"class_name": "Concatenate", "config": {"axis": -1, "trainable": true, "name": "normal_concat_2"}, "inbound_nodes": [[["adjust_bn_2", 0, 0, {}], ["normal_add_1_2", 0, 0, {}], ["normal_add_2_2", 0, 0, {}], ["normal_add_3_2", 0, 0, {}], ["normal_add_4_2", 0, 0, {}], ["normal_add_5_2", 0, 0, {}]]], "name": "normal_concat_2"}, {"class_name": "Activation", "config": {"activation": "relu", "trainable": true, "name": "activation_1706"}, "inbound_nodes": [[["normal_concat_1", 0, 0, {}]]], "name": "activation_1706"}, {"class_name": "Activation", "config": {"activation": "relu", "trainable": true, "name": "activation_1707"}, "inbound_nodes": [[["normal_concat_2", 0, 0, {}]]], "name": "activation_1707"}, {"class_name": "Conv2D", "config": {"kernel_size": [1, 1], "dilation_rate": [1, 1], "filters": 32, "padding": "same", "bias_initializer": {"class_name": "Zeros", "config": {}}, "name": "adjust_conv_projection_3", "strides": [1, 1], "kernel_initializer": {"class_name": "VarianceScaling", "config": {"scale": 2.0, "mode": "fan_in", "distribution": "normal", "seed": null}}, "trainable": true, "bias_constraint": null, "data_format": "channels_last", "activation": "linear", "use_bias": false, "kernel_regularizer": {"class_name": "L1L2", "config": {"l1": 0.0, "l2": 0.0005000000237487257}}, "kernel_constraint": null, "bias_regularizer": null, "activity_regularizer": null}, "inbound_nodes": [[["activation_1706", 0, 0, {}]]], "name": "adjust_conv_projection_3"}, {"class_name": "Conv2D", "config": {"kernel_size": [1, 1], "dilation_rate": [1, 1], "filters": 32, "padding": "same", "bias_initializer": {"class_name": "Zeros", "config": {}}, "name": "normal_conv_1_3", "strides": [1, 1], "kernel_initializer": {"class_name": "VarianceScaling", "config": {"scale": 2.0, "mode": "fan_in", "distribution": "normal", "seed": null}}, "trainable": true, "bias_constraint": null, "data_format": "channels_last", "activation": "linear", "use_bias": false, "kernel_regularizer": {"class_name": "L1L2", "config": {"l1": 0.0, "l2": 0.0005000000237487257}}, "kernel_constraint": null, "bias_regularizer": null, "activity_regularizer": null}, "inbound_nodes": [[["activation_1707", 0, 0, {}]]], "name": "normal_conv_1_3"}, {"class_name": "BatchNormalization", "config": {"beta_regularizer": null, "center": true, "trainable": true, "gamma_constraint": null, "axis": -1, "gamma_initializer": {"class_name": "Ones", "config": {}}, "moving_variance_initializer": {"class_name": "Ones", "config": {}}, "moving_mean_initializer": {"class_name": "Zeros", "config": {}}, "epsilon": 1e-05, "gamma_regularizer": null, "scale": true, "beta_constraint": null, "beta_initializer": {"class_name": "Zeros", "config": {}}, "momentum": 0.9, "name": "adjust_bn_3"}, "inbound_nodes": [[["adjust_conv_projection_3", 0, 0, {}]]], "name": "adjust_bn_3"}, {"class_name": "BatchNormalization", "config": {"beta_regularizer": null, "center": true, "trainable": true, "gamma_constraint": null, "axis": -1, "gamma_initializer": {"class_name": "Ones", "config": {}}, "moving_variance_initializer": {"class_name": "Ones", "config": {}}, "moving_mean_initializer": {"class_name": "Zeros", "config": {}}, "epsilon": 1e-05, "gamma_regularizer": null, "scale": true, "beta_constraint": null, "beta_initializer": {"class_name": "Zeros", "config": {}}, "momentum": 0.9, "name": "normal_bn_1_3"}, "inbound_nodes": [[["normal_conv_1_3", 0, 0, {}]]], "name": "normal_bn_1_3"}, {"class_name": "Activation", "config": {"activation": "relu", "trainable": true, "name": "activation_1708"}, "inbound_nodes": [[["normal_bn_1_3", 0, 0, {}]]], "name": "activation_1708"}, {"class_name": "Activation", "config": {"activation": "relu", "trainable": true, "name": "activation_1710"}, "inbound_nodes": [[["adjust_bn_3", 0, 0, {}]]], "name": "activation_1710"}, {"class_name": "Activation", "config": {"activation": "relu", "trainable": true, "name": "activation_1712"}, "inbound_nodes": [[["adjust_bn_3", 0, 0, {}]]], "name": "activation_1712"}, {"class_name": "Activation", "config": {"activation": "relu", "trainable": true, "name": "activation_1714"}, "inbound_nodes": [[["adjust_bn_3", 0, 0, {}]]], "name": "activation_1714"}, {"class_name": "Activation", "config": {"activation": "relu", "trainable": true, "name": "activation_1716"}, "inbound_nodes": [[["normal_bn_1_3", 0, 0, {}]]], "name": "activation_1716"}, {"class_name": "SeparableConv2D", "config": {"kernel_size": [5, 5], "dilation_rate": [1, 1], "filters": 32, "bias_initializer": {"class_name": "Zeros", "config": {}}, "depthwise_regularizer": null, "strides": [1, 1], "data_format": "channels_last", "trainable": true, "bias_constraint": null, "name": "separable_conv_1_normal_left1_3", "depth_multiplier": 1, "pointwise_initializer": {"class_name": "VarianceScaling", "config": {"scale": 1.0, "mode": "fan_avg", "distribution": "uniform", "seed": null}}, "padding": "same", "pointwise_regularizer": null, "bias_regularizer": null, "depthwise_constraint": null, "activation": "linear", "use_bias": false, "pointwise_constraint": null, "depthwise_initializer": {"class_name": "VarianceScaling", "config": {"scale": 1.0, "mode": "fan_avg", "distribution": "uniform", "seed": null}}, "activity_regularizer": null}, "inbound_nodes": [[["activation_1708", 0, 0, {}]]], "name": "separable_conv_1_normal_left1_3"}, {"class_name": "SeparableConv2D", "config": {"kernel_size": [3, 3], "dilation_rate": [1, 1], "filters": 32, "bias_initializer": {"class_name": "Zeros", "config": {}}, "depthwise_regularizer": null, "strides": [1, 1], "data_format": "channels_last", "trainable": true, "bias_constraint": null, "name": "separable_conv_1_normal_right1_3", "depth_multiplier": 1, "pointwise_initializer": {"class_name": "VarianceScaling", "config": {"scale": 1.0, "mode": "fan_avg", "distribution": "uniform", "seed": null}}, "padding": "same", "pointwise_regularizer": null, "bias_regularizer": null, "depthwise_constraint": null, "activation": "linear", "use_bias": false, "pointwise_constraint": null, "depthwise_initializer": {"class_name": "VarianceScaling", "config": {"scale": 1.0, "mode": "fan_avg", "distribution": "uniform", "seed": null}}, "activity_regularizer": null}, "inbound_nodes": [[["activation_1710", 0, 0, {}]]], "name": "separable_conv_1_normal_right1_3"}, {"class_name": "SeparableConv2D", "config": {"kernel_size": [5, 5], "dilation_rate": [1, 1], "filters": 32, "bias_initializer": {"class_name": "Zeros", "config": {}}, "depthwise_regularizer": null, "strides": [1, 1], "data_format": "channels_last", "trainable": true, "bias_constraint": null, "name": "separable_conv_1_normal_left2_3", "depth_multiplier": 1, "pointwise_initializer": {"class_name": "VarianceScaling", "config": {"scale": 1.0, "mode": "fan_avg", "distribution": "uniform", "seed": null}}, "padding": "same", "pointwise_regularizer": null, "bias_regularizer": null, "depthwise_constraint": null, "activation": "linear", "use_bias": false, "pointwise_constraint": null, "depthwise_initializer": {"class_name": "VarianceScaling", "config": {"scale": 1.0, "mode": "fan_avg", "distribution": "uniform", "seed": null}}, "activity_regularizer": null}, "inbound_nodes": [[["activation_1712", 0, 0, {}]]], "name": "separable_conv_1_normal_left2_3"}, {"class_name": "SeparableConv2D", "config": {"kernel_size": [3, 3], "dilation_rate": [1, 1], "filters": 32, "bias_initializer": {"class_name": "Zeros", "config": {}}, "depthwise_regularizer": null, "strides": [1, 1], "data_format": "channels_last", "trainable": true, "bias_constraint": null, "name": "separable_conv_1_normal_right2_3", "depth_multiplier": 1, "pointwise_initializer": {"class_name": "VarianceScaling", "config": {"scale": 1.0, "mode": "fan_avg", "distribution": "uniform", "seed": null}}, "padding": "same", "pointwise_regularizer": null, "bias_regularizer": null, "depthwise_constraint": null, "activation": "linear", "use_bias": false, "pointwise_constraint": null, "depthwise_initializer": {"class_name": "VarianceScaling", "config": {"scale": 1.0, "mode": "fan_avg", "distribution": "uniform", "seed": null}}, "activity_regularizer": null}, "inbound_nodes": [[["activation_1714", 0, 0, {}]]], "name": "separable_conv_1_normal_right2_3"}, {"class_name": "SeparableConv2D", "config": {"kernel_size": [3, 3], "dilation_rate": [1, 1], "filters": 32, "bias_initializer": {"class_name": "Zeros", "config": {}}, "depthwise_regularizer": null, "strides": [1, 1], "data_format": "channels_last", "trainable": true, "bias_constraint": null, "name": "separable_conv_1_normal_left5_3", "depth_multiplier": 1, "pointwise_initializer": {"class_name": "VarianceScaling", "config": {"scale": 1.0, "mode": "fan_avg", "distribution": "uniform", "seed": null}}, "padding": "same", "pointwise_regularizer": null, "bias_regularizer": null, "depthwise_constraint": null, "activation": "linear", "use_bias": false, "pointwise_constraint": null, "depthwise_initializer": {"class_name": "VarianceScaling", "config": {"scale": 1.0, "mode": "fan_avg", "distribution": "uniform", "seed": null}}, "activity_regularizer": null}, "inbound_nodes": [[["activation_1716", 0, 0, {}]]], "name": "separable_conv_1_normal_left5_3"}, {"class_name": "BatchNormalization", "config": {"beta_regularizer": null, "center": true, "trainable": true, "gamma_constraint": null, "axis": -1, "gamma_initializer": {"class_name": "Ones", "config": {}}, "moving_variance_initializer": {"class_name": "Ones", "config": {}}, "moving_mean_initializer": {"class_name": "Zeros", "config": {}}, "epsilon": 1e-05, "gamma_regularizer": null, "scale": true, "beta_constraint": null, "beta_initializer": {"class_name": "Zeros", "config": {}}, "momentum": 0.9, "name": "separable_conv_1_bn_normal_left1_3"}, "inbound_nodes": [[["separable_conv_1_normal_left1_3", 0, 0, {}]]], "name": "separable_conv_1_bn_normal_left1_3"}, {"class_name": "BatchNormalization", "config": {"beta_regularizer": null, "center": true, "trainable": true, "gamma_constraint": null, "axis": -1, "gamma_initializer": {"class_name": "Ones", "config": {}}, "moving_variance_initializer": {"class_name": "Ones", "config": {}}, "moving_mean_initializer": {"class_name": "Zeros", "config": {}}, "epsilon": 1e-05, "gamma_regularizer": null, "scale": true, "beta_constraint": null, "beta_initializer": {"class_name": "Zeros", "config": {}}, "momentum": 0.9, "name": "separable_conv_1_bn_normal_right1_3"}, "inbound_nodes": [[["separable_conv_1_normal_right1_3", 0, 0, {}]]], "name": "separable_conv_1_bn_normal_right1_3"}, {"class_name": "BatchNormalization", "config": {"beta_regularizer": null, "center": true, "trainable": true, "gamma_constraint": null, "axis": -1, "gamma_initializer": {"class_name": "Ones", "config": {}}, "moving_variance_initializer": {"class_name": "Ones", "config": {}}, "moving_mean_initializer": {"class_name": "Zeros", "config": {}}, "epsilon": 1e-05, "gamma_regularizer": null, "scale": true, "beta_constraint": null, "beta_initializer": {"class_name": "Zeros", "config": {}}, "momentum": 0.9, "name": "separable_conv_1_bn_normal_left2_3"}, "inbound_nodes": [[["separable_conv_1_normal_left2_3", 0, 0, {}]]], "name": "separable_conv_1_bn_normal_left2_3"}, {"class_name": "BatchNormalization", "config": {"beta_regularizer": null, "center": true, "trainable": true, "gamma_constraint": null, "axis": -1, "gamma_initializer": {"class_name": "Ones", "config": {}}, "moving_variance_initializer": {"class_name": "Ones", "config": {}}, "moving_mean_initializer": {"class_name": "Zeros", "config": {}}, "epsilon": 1e-05, "gamma_regularizer": null, "scale": true, "beta_constraint": null, "beta_initializer": {"class_name": "Zeros", "config": {}}, "momentum": 0.9, "name": "separable_conv_1_bn_normal_right2_3"}, "inbound_nodes": [[["separable_conv_1_normal_right2_3", 0, 0, {}]]], "name": "separable_conv_1_bn_normal_right2_3"}, {"class_name": "BatchNormalization", "config": {"beta_regularizer": null, "center": true, "trainable": true, "gamma_constraint": null, "axis": -1, "gamma_initializer": {"class_name": "Ones", "config": {}}, "moving_variance_initializer": {"class_name": "Ones", "config": {}}, "moving_mean_initializer": {"class_name": "Zeros", "config": {}}, "epsilon": 1e-05, "gamma_regularizer": null, "scale": true, "beta_constraint": null, "beta_initializer": {"class_name": "Zeros", "config": {}}, "momentum": 0.9, "name": "separable_conv_1_bn_normal_left5_3"}, "inbound_nodes": [[["separable_conv_1_normal_left5_3", 0, 0, {}]]], "name": "separable_conv_1_bn_normal_left5_3"}, {"class_name": "Activation", "config": {"activation": "relu", "trainable": true, "name": "activation_1709"}, "inbound_nodes": [[["separable_conv_1_bn_normal_left1_3", 0, 0, {}]]], "name": "activation_1709"}, {"class_name": "Activation", "config": {"activation": "relu", "trainable": true, "name": "activation_1711"}, "inbound_nodes": [[["separable_conv_1_bn_normal_right1_3", 0, 0, {}]]], "name": "activation_1711"}, {"class_name": "Activation", "config": {"activation": "relu", "trainable": true, "name": "activation_1713"}, "inbound_nodes": [[["separable_conv_1_bn_normal_left2_3", 0, 0, {}]]], "name": "activation_1713"}, {"class_name": "Activation", "config": {"activation": "relu", "trainable": true, "name": "activation_1715"}, "inbound_nodes": [[["separable_conv_1_bn_normal_right2_3", 0, 0, {}]]], "name": "activation_1715"}, {"class_name": "Activation", "config": {"activation": "relu", "trainable": true, "name": "activation_1717"}, "inbound_nodes": [[["separable_conv_1_bn_normal_left5_3", 0, 0, {}]]], "name": "activation_1717"}, {"class_name": "SeparableConv2D", "config": {"kernel_size": [5, 5], "dilation_rate": [1, 1], "filters": 32, "bias_initializer": {"class_name": "Zeros", "config": {}}, "depthwise_regularizer": null, "strides": [1, 1], "data_format": "channels_last", "trainable": true, "bias_constraint": null, "name": "separable_conv_2_normal_left1_3", "depth_multiplier": 1, "pointwise_initializer": {"class_name": "VarianceScaling", "config": {"scale": 1.0, "mode": "fan_avg", "distribution": "uniform", "seed": null}}, "padding": "same", "pointwise_regularizer": null, "bias_regularizer": null, "depthwise_constraint": null, "activation": "linear", "use_bias": false, "pointwise_constraint": null, "depthwise_initializer": {"class_name": "VarianceScaling", "config": {"scale": 1.0, "mode": "fan_avg", "distribution": "uniform", "seed": null}}, "activity_regularizer": null}, "inbound_nodes": [[["activation_1709", 0, 0, {}]]], "name": "separable_conv_2_normal_left1_3"}, {"class_name": "SeparableConv2D", "config": {"kernel_size": [3, 3], "dilation_rate": [1, 1], "filters": 32, "bias_initializer": {"class_name": "Zeros", "config": {}}, "depthwise_regularizer": null, "strides": [1, 1], "data_format": "channels_last", "trainable": true, "bias_constraint": null, "name": "separable_conv_2_normal_right1_3", "depth_multiplier": 1, "pointwise_initializer": {"class_name": "VarianceScaling", "config": {"scale": 1.0, "mode": "fan_avg", "distribution": "uniform", "seed": null}}, "padding": "same", "pointwise_regularizer": null, "bias_regularizer": null, "depthwise_constraint": null, "activation": "linear", "use_bias": false, "pointwise_constraint": null, "depthwise_initializer": {"class_name": "VarianceScaling", "config": {"scale": 1.0, "mode": "fan_avg", "distribution": "uniform", "seed": null}}, "activity_regularizer": null}, "inbound_nodes": [[["activation_1711", 0, 0, {}]]], "name": "separable_conv_2_normal_right1_3"}, {"class_name": "SeparableConv2D", "config": {"kernel_size": [5, 5], "dilation_rate": [1, 1], "filters": 32, "bias_initializer": {"class_name": "Zeros", "config": {}}, "depthwise_regularizer": null, "strides": [1, 1], "data_format": "channels_last", "trainable": true, "bias_constraint": null, "name": "separable_conv_2_normal_left2_3", "depth_multiplier": 1, "pointwise_initializer": {"class_name": "VarianceScaling", "config": {"scale": 1.0, "mode": "fan_avg", "distribution": "uniform", "seed": null}}, "padding": "same", "pointwise_regularizer": null, "bias_regularizer": null, "depthwise_constraint": null, "activation": "linear", "use_bias": false, "pointwise_constraint": null, "depthwise_initializer": {"class_name": "VarianceScaling", "config": {"scale": 1.0, "mode": "fan_avg", "distribution": "uniform", "seed": null}}, "activity_regularizer": null}, "inbound_nodes": [[["activation_1713", 0, 0, {}]]], "name": "separable_conv_2_normal_left2_3"}, {"class_name": "SeparableConv2D", "config": {"kernel_size": [3, 3], "dilation_rate": [1, 1], "filters": 32, "bias_initializer": {"class_name": "Zeros", "config": {}}, "depthwise_regularizer": null, "strides": [1, 1], "data_format": "channels_last", "trainable": true, "bias_constraint": null, "name": "separable_conv_2_normal_right2_3", "depth_multiplier": 1, "pointwise_initializer": {"class_name": "VarianceScaling", "config": {"scale": 1.0, "mode": "fan_avg", "distribution": "uniform", "seed": null}}, "padding": "same", "pointwise_regularizer": null, "bias_regularizer": null, "depthwise_constraint": null, "activation": "linear", "use_bias": false, "pointwise_constraint": null, "depthwise_initializer": {"class_name": "VarianceScaling", "config": {"scale": 1.0, "mode": "fan_avg", "distribution": "uniform", "seed": null}}, "activity_regularizer": null}, "inbound_nodes": [[["activation_1715", 0, 0, {}]]], "name": "separable_conv_2_normal_right2_3"}, {"class_name": "SeparableConv2D", "config": {"kernel_size": [3, 3], "dilation_rate": [1, 1], "filters": 32, "bias_initializer": {"class_name": "Zeros", "config": {}}, "depthwise_regularizer": null, "strides": [1, 1], "data_format": "channels_last", "trainable": true, "bias_constraint": null, "name": "separable_conv_2_normal_left5_3", "depth_multiplier": 1, "pointwise_initializer": {"class_name": "VarianceScaling", "config": {"scale": 1.0, "mode": "fan_avg", "distribution": "uniform", "seed": null}}, "padding": "same", "pointwise_regularizer": null, "bias_regularizer": null, "depthwise_constraint": null, "activation": "linear", "use_bias": false, "pointwise_constraint": null, "depthwise_initializer": {"class_name": "VarianceScaling", "config": {"scale": 1.0, "mode": "fan_avg", "distribution": "uniform", "seed": null}}, "activity_regularizer": null}, "inbound_nodes": [[["activation_1717", 0, 0, {}]]], "name": "separable_conv_2_normal_left5_3"}, {"class_name": "BatchNormalization", "config": {"beta_regularizer": null, "center": true, "trainable": true, "gamma_constraint": null, "axis": -1, "gamma_initializer": {"class_name": "Ones", "config": {}}, "moving_variance_initializer": {"class_name": "Ones", "config": {}}, "moving_mean_initializer": {"class_name": "Zeros", "config": {}}, "epsilon": 1e-05, "gamma_regularizer": null, "scale": true, "beta_constraint": null, "beta_initializer": {"class_name": "Zeros", "config": {}}, "momentum": 0.9, "name": "separable_conv_2_bn_normal_left1_3"}, "inbound_nodes": [[["separable_conv_2_normal_left1_3", 0, 0, {}]]], "name": "separable_conv_2_bn_normal_left1_3"}, {"class_name": "BatchNormalization", "config": {"beta_regularizer": null, "center": true, "trainable": true, "gamma_constraint": null, "axis": -1, "gamma_initializer": {"class_name": "Ones", "config": {}}, "moving_variance_initializer": {"class_name": "Ones", "config": {}}, "moving_mean_initializer": {"class_name": "Zeros", "config": {}}, "epsilon": 1e-05, "gamma_regularizer": null, "scale": true, "beta_constraint": null, "beta_initializer": {"class_name": "Zeros", "config": {}}, "momentum": 0.9, "name": "separable_conv_2_bn_normal_right1_3"}, "inbound_nodes": [[["separable_conv_2_normal_right1_3", 0, 0, {}]]], "name": "separable_conv_2_bn_normal_right1_3"}, {"class_name": "BatchNormalization", "config": {"beta_regularizer": null, "center": true, "trainable": true, "gamma_constraint": null, "axis": -1, "gamma_initializer": {"class_name": "Ones", "config": {}}, "moving_variance_initializer": {"class_name": "Ones", "config": {}}, "moving_mean_initializer": {"class_name": "Zeros", "config": {}}, "epsilon": 1e-05, "gamma_regularizer": null, "scale": true, "beta_constraint": null, "beta_initializer": {"class_name": "Zeros", "config": {}}, "momentum": 0.9, "name": "separable_conv_2_bn_normal_left2_3"}, "inbound_nodes": [[["separable_conv_2_normal_left2_3", 0, 0, {}]]], "name": "separable_conv_2_bn_normal_left2_3"}, {"class_name": "BatchNormalization", "config": {"beta_regularizer": null, "center": true, "trainable": true, "gamma_constraint": null, "axis": -1, "gamma_initializer": {"class_name": "Ones", "config": {}}, "moving_variance_initializer": {"class_name": "Ones", "config": {}}, "moving_mean_initializer": {"class_name": "Zeros", "config": {}}, "epsilon": 1e-05, "gamma_regularizer": null, "scale": true, "beta_constraint": null, "beta_initializer": {"class_name": "Zeros", "config": {}}, "momentum": 0.9, "name": "separable_conv_2_bn_normal_right2_3"}, "inbound_nodes": [[["separable_conv_2_normal_right2_3", 0, 0, {}]]], "name": "separable_conv_2_bn_normal_right2_3"}, {"class_name": "AveragePooling2D", "config": {"padding": "same", "data_format": "channels_last", "pool_size": [3, 3], "trainable": true, "strides": [1, 1], "name": "normal_left3_3"}, "inbound_nodes": [[["normal_bn_1_3", 0, 0, {}]]], "name": "normal_left3_3"}, {"class_name": "AveragePooling2D", "config": {"padding": "same", "data_format": "channels_last", "pool_size": [3, 3], "trainable": true, "strides": [1, 1], "name": "normal_left4_3"}, "inbound_nodes": [[["adjust_bn_3", 0, 0, {}]]], "name": "normal_left4_3"}, {"class_name": "AveragePooling2D", "config": {"padding": "same", "data_format": "channels_last", "pool_size": [3, 3], "trainable": true, "strides": [1, 1], "name": "normal_right4_3"}, "inbound_nodes": [[["adjust_bn_3", 0, 0, {}]]], "name": "normal_right4_3"}, {"class_name": "BatchNormalization", "config": {"beta_regularizer": null, "center": true, "trainable": true, "gamma_constraint": null, "axis": -1, "gamma_initializer": {"class_name": "Ones", "config": {}}, "moving_variance_initializer": {"class_name": "Ones", "config": {}}, "moving_mean_initializer": {"class_name": "Zeros", "config": {}}, "epsilon": 1e-05, "gamma_regularizer": null, "scale": true, "beta_constraint": null, "beta_initializer": {"class_name": "Zeros", "config": {}}, "momentum": 0.9, "name": "separable_conv_2_bn_normal_left5_3"}, "inbound_nodes": [[["separable_conv_2_normal_left5_3", 0, 0, {}]]], "name": "separable_conv_2_bn_normal_left5_3"}, {"class_name": "Add", "config": {"trainable": true, "name": "normal_add_1_3"}, "inbound_nodes": [[["separable_conv_2_bn_normal_left1_3", 0, 0, {}], ["separable_conv_2_bn_normal_right1_3", 0, 0, {}]]], "name": "normal_add_1_3"}, {"class_name": "Add", "config": {"trainable": true, "name": "normal_add_2_3"}, "inbound_nodes": [[["separable_conv_2_bn_normal_left2_3", 0, 0, {}], ["separable_conv_2_bn_normal_right2_3", 0, 0, {}]]], "name": "normal_add_2_3"}, {"class_name": "Add", "config": {"trainable": true, "name": "normal_add_3_3"}, "inbound_nodes": [[["normal_left3_3", 0, 0, {}], ["adjust_bn_3", 0, 0, {}]]], "name": "normal_add_3_3"}, {"class_name": "Add", "config": {"trainable": true, "name": "normal_add_4_3"}, "inbound_nodes": [[["normal_left4_3", 0, 0, {}], ["normal_right4_3", 0, 0, {}]]], "name": "normal_add_4_3"}, {"class_name": "Add", "config": {"trainable": true, "name": "normal_add_5_3"}, "inbound_nodes": [[["separable_conv_2_bn_normal_left5_3", 0, 0, {}], ["normal_bn_1_3", 0, 0, {}]]], "name": "normal_add_5_3"}, {"class_name": "Concatenate", "config": {"axis": -1, "trainable": true, "name": "normal_concat_3"}, "inbound_nodes": [[["adjust_bn_3", 0, 0, {}], ["normal_add_1_3", 0, 0, {}], ["normal_add_2_3", 0, 0, {}], ["normal_add_3_3", 0, 0, {}], ["normal_add_4_3", 0, 0, {}], ["normal_add_5_3", 0, 0, {}]]], "name": "normal_concat_3"}, {"class_name": "Activation", "config": {"activation": "relu", "trainable": true, "name": "activation_1718"}, "inbound_nodes": [[["normal_concat_2", 0, 0, {}]]], "name": "activation_1718"}, {"class_name": "Activation", "config": {"activation": "relu", "trainable": true, "name": "activation_1719"}, "inbound_nodes": [[["normal_concat_3", 0, 0, {}]]], "name": "activation_1719"}, {"class_name": "Conv2D", "config": {"kernel_size": [1, 1], "dilation_rate": [1, 1], "filters": 32, "padding": "same", "bias_initializer": {"class_name": "Zeros", "config": {}}, "name": "adjust_conv_projection_4", "strides": [1, 1], "kernel_initializer": {"class_name": "VarianceScaling", "config": {"scale": 2.0, "mode": "fan_in", "distribution": "normal", "seed": null}}, "trainable": true, "bias_constraint": null, "data_format": "channels_last", "activation": "linear", "use_bias": false, "kernel_regularizer": {"class_name": "L1L2", "config": {"l1": 0.0, "l2": 0.0005000000237487257}}, "kernel_constraint": null, "bias_regularizer": null, "activity_regularizer": null}, "inbound_nodes": [[["activation_1718", 0, 0, {}]]], "name": "adjust_conv_projection_4"}, {"class_name": "Conv2D", "config": {"kernel_size": [1, 1], "dilation_rate": [1, 1], "filters": 32, "padding": "same", "bias_initializer": {"class_name": "Zeros", "config": {}}, "name": "normal_conv_1_4", "strides": [1, 1], "kernel_initializer": {"class_name": "VarianceScaling", "config": {"scale": 2.0, "mode": "fan_in", "distribution": "normal", "seed": null}}, "trainable": true, "bias_constraint": null, "data_format": "channels_last", "activation": "linear", "use_bias": false, "kernel_regularizer": {"class_name": "L1L2", "config": {"l1": 0.0, "l2": 0.0005000000237487257}}, "kernel_constraint": null, "bias_regularizer": null, "activity_regularizer": null}, "inbound_nodes": [[["activation_1719", 0, 0, {}]]], "name": "normal_conv_1_4"}, {"class_name": "BatchNormalization", "config": {"beta_regularizer": null, "center": true, "trainable": true, "gamma_constraint": null, "axis": -1, "gamma_initializer": {"class_name": "Ones", "config": {}}, "moving_variance_initializer": {"class_name": "Ones", "config": {}}, "moving_mean_initializer": {"class_name": "Zeros", "config": {}}, "epsilon": 1e-05, "gamma_regularizer": null, "scale": true, "beta_constraint": null, "beta_initializer": {"class_name": "Zeros", "config": {}}, "momentum": 0.9, "name": "adjust_bn_4"}, "inbound_nodes": [[["adjust_conv_projection_4", 0, 0, {}]]], "name": "adjust_bn_4"}, {"class_name": "BatchNormalization", "config": {"beta_regularizer": null, "center": true, "trainable": true, "gamma_constraint": null, "axis": -1, "gamma_initializer": {"class_name": "Ones", "config": {}}, "moving_variance_initializer": {"class_name": "Ones", "config": {}}, "moving_mean_initializer": {"class_name": "Zeros", "config": {}}, "epsilon": 1e-05, "gamma_regularizer": null, "scale": true, "beta_constraint": null, "beta_initializer": {"class_name": "Zeros", "config": {}}, "momentum": 0.9, "name": "normal_bn_1_4"}, "inbound_nodes": [[["normal_conv_1_4", 0, 0, {}]]], "name": "normal_bn_1_4"}, {"class_name": "Activation", "config": {"activation": "relu", "trainable": true, "name": "activation_1720"}, "inbound_nodes": [[["normal_bn_1_4", 0, 0, {}]]], "name": "activation_1720"}, {"class_name": "Activation", "config": {"activation": "relu", "trainable": true, "name": "activation_1722"}, "inbound_nodes": [[["adjust_bn_4", 0, 0, {}]]], "name": "activation_1722"}, {"class_name": "Activation", "config": {"activation": "relu", "trainable": true, "name": "activation_1724"}, "inbound_nodes": [[["adjust_bn_4", 0, 0, {}]]], "name": "activation_1724"}, {"class_name": "Activation", "config": {"activation": "relu", "trainable": true, "name": "activation_1726"}, "inbound_nodes": [[["adjust_bn_4", 0, 0, {}]]], "name": "activation_1726"}, {"class_name": "Activation", "config": {"activation": "relu", "trainable": true, "name": "activation_1728"}, "inbound_nodes": [[["normal_bn_1_4", 0, 0, {}]]], "name": "activation_1728"}, {"class_name": "SeparableConv2D", "config": {"kernel_size": [5, 5], "dilation_rate": [1, 1], "filters": 32, "bias_initializer": {"class_name": "Zeros", "config": {}}, "depthwise_regularizer": null, "strides": [1, 1], "data_format": "channels_last", "trainable": true, "bias_constraint": null, "name": "separable_conv_1_normal_left1_4", "depth_multiplier": 1, "pointwise_initializer": {"class_name": "VarianceScaling", "config": {"scale": 1.0, "mode": "fan_avg", "distribution": "uniform", "seed": null}}, "padding": "same", "pointwise_regularizer": null, "bias_regularizer": null, "depthwise_constraint": null, "activation": "linear", "use_bias": false, "pointwise_constraint": null, "depthwise_initializer": {"class_name": "VarianceScaling", "config": {"scale": 1.0, "mode": "fan_avg", "distribution": "uniform", "seed": null}}, "activity_regularizer": null}, "inbound_nodes": [[["activation_1720", 0, 0, {}]]], "name": "separable_conv_1_normal_left1_4"}, {"class_name": "SeparableConv2D", "config": {"kernel_size": [3, 3], "dilation_rate": [1, 1], "filters": 32, "bias_initializer": {"class_name": "Zeros", "config": {}}, "depthwise_regularizer": null, "strides": [1, 1], "data_format": "channels_last", "trainable": true, "bias_constraint": null, "name": "separable_conv_1_normal_right1_4", "depth_multiplier": 1, "pointwise_initializer": {"class_name": "VarianceScaling", "config": {"scale": 1.0, "mode": "fan_avg", "distribution": "uniform", "seed": null}}, "padding": "same", "pointwise_regularizer": null, "bias_regularizer": null, "depthwise_constraint": null, "activation": "linear", "use_bias": false, "pointwise_constraint": null, "depthwise_initializer": {"class_name": "VarianceScaling", "config": {"scale": 1.0, "mode": "fan_avg", "distribution": "uniform", "seed": null}}, "activity_regularizer": null}, "inbound_nodes": [[["activation_1722", 0, 0, {}]]], "name": "separable_conv_1_normal_right1_4"}, {"class_name": "SeparableConv2D", "config": {"kernel_size": [5, 5], "dilation_rate": [1, 1], "filters": 32, "bias_initializer": {"class_name": "Zeros", "config": {}}, "depthwise_regularizer": null, "strides": [1, 1], "data_format": "channels_last", "trainable": true, "bias_constraint": null, "name": "separable_conv_1_normal_left2_4", "depth_multiplier": 1, "pointwise_initializer": {"class_name": "VarianceScaling", "config": {"scale": 1.0, "mode": "fan_avg", "distribution": "uniform", "seed": null}}, "padding": "same", "pointwise_regularizer": null, "bias_regularizer": null, "depthwise_constraint": null, "activation": "linear", "use_bias": false, "pointwise_constraint": null, "depthwise_initializer": {"class_name": "VarianceScaling", "config": {"scale": 1.0, "mode": "fan_avg", "distribution": "uniform", "seed": null}}, "activity_regularizer": null}, "inbound_nodes": [[["activation_1724", 0, 0, {}]]], "name": "separable_conv_1_normal_left2_4"}, {"class_name": "SeparableConv2D", "config": {"kernel_size": [3, 3], "dilation_rate": [1, 1], "filters": 32, "bias_initializer": {"class_name": "Zeros", "config": {}}, "depthwise_regularizer": null, "strides": [1, 1], "data_format": "channels_last", "trainable": true, "bias_constraint": null, "name": "separable_conv_1_normal_right2_4", "depth_multiplier": 1, "pointwise_initializer": {"class_name": "VarianceScaling", "config": {"scale": 1.0, "mode": "fan_avg", "distribution": "uniform", "seed": null}}, "padding": "same", "pointwise_regularizer": null, "bias_regularizer": null, "depthwise_constraint": null, "activation": "linear", "use_bias": false, "pointwise_constraint": null, "depthwise_initializer": {"class_name": "VarianceScaling", "config": {"scale": 1.0, "mode": "fan_avg", "distribution": "uniform", "seed": null}}, "activity_regularizer": null}, "inbound_nodes": [[["activation_1726", 0, 0, {}]]], "name": "separable_conv_1_normal_right2_4"}, {"class_name": "SeparableConv2D", "config": {"kernel_size": [3, 3], "dilation_rate": [1, 1], "filters": 32, "bias_initializer": {"class_name": "Zeros", "config": {}}, "depthwise_regularizer": null, "strides": [1, 1], "data_format": "channels_last", "trainable": true, "bias_constraint": null, "name": "separable_conv_1_normal_left5_4", "depth_multiplier": 1, "pointwise_initializer": {"class_name": "VarianceScaling", "config": {"scale": 1.0, "mode": "fan_avg", "distribution": "uniform", "seed": null}}, "padding": "same", "pointwise_regularizer": null, "bias_regularizer": null, "depthwise_constraint": null, "activation": "linear", "use_bias": false, "pointwise_constraint": null, "depthwise_initializer": {"class_name": "VarianceScaling", "config": {"scale": 1.0, "mode": "fan_avg", "distribution": "uniform", "seed": null}}, "activity_regularizer": null}, "inbound_nodes": [[["activation_1728", 0, 0, {}]]], "name": "separable_conv_1_normal_left5_4"}, {"class_name": "BatchNormalization", "config": {"beta_regularizer": null, "center": true, "trainable": true, "gamma_constraint": null, "axis": -1, "gamma_initializer": {"class_name": "Ones", "config": {}}, "moving_variance_initializer": {"class_name": "Ones", "config": {}}, "moving_mean_initializer": {"class_name": "Zeros", "config": {}}, "epsilon": 1e-05, "gamma_regularizer": null, "scale": true, "beta_constraint": null, "beta_initializer": {"class_name": "Zeros", "config": {}}, "momentum": 0.9, "name": "separable_conv_1_bn_normal_left1_4"}, "inbound_nodes": [[["separable_conv_1_normal_left1_4", 0, 0, {}]]], "name": "separable_conv_1_bn_normal_left1_4"}, {"class_name": "BatchNormalization", "config": {"beta_regularizer": null, "center": true, "trainable": true, "gamma_constraint": null, "axis": -1, "gamma_initializer": {"class_name": "Ones", "config": {}}, "moving_variance_initializer": {"class_name": "Ones", "config": {}}, "moving_mean_initializer": {"class_name": "Zeros", "config": {}}, "epsilon": 1e-05, "gamma_regularizer": null, "scale": true, "beta_constraint": null, "beta_initializer": {"class_name": "Zeros", "config": {}}, "momentum": 0.9, "name": "separable_conv_1_bn_normal_right1_4"}, "inbound_nodes": [[["separable_conv_1_normal_right1_4", 0, 0, {}]]], "name": "separable_conv_1_bn_normal_right1_4"}, {"class_name": "BatchNormalization", "config": {"beta_regularizer": null, "center": true, "trainable": true, "gamma_constraint": null, "axis": -1, "gamma_initializer": {"class_name": "Ones", "config": {}}, "moving_variance_initializer": {"class_name": "Ones", "config": {}}, "moving_mean_initializer": {"class_name": "Zeros", "config": {}}, "epsilon": 1e-05, "gamma_regularizer": null, "scale": true, "beta_constraint": null, "beta_initializer": {"class_name": "Zeros", "config": {}}, "momentum": 0.9, "name": "separable_conv_1_bn_normal_left2_4"}, "inbound_nodes": [[["separable_conv_1_normal_left2_4", 0, 0, {}]]], "name": "separable_conv_1_bn_normal_left2_4"}, {"class_name": "BatchNormalization", "config": {"beta_regularizer": null, "center": true, "trainable": true, "gamma_constraint": null, "axis": -1, "gamma_initializer": {"class_name": "Ones", "config": {}}, "moving_variance_initializer": {"class_name": "Ones", "config": {}}, "moving_mean_initializer": {"class_name": "Zeros", "config": {}}, "epsilon": 1e-05, "gamma_regularizer": null, "scale": true, "beta_constraint": null, "beta_initializer": {"class_name": "Zeros", "config": {}}, "momentum": 0.9, "name": "separable_conv_1_bn_normal_right2_4"}, "inbound_nodes": [[["separable_conv_1_normal_right2_4", 0, 0, {}]]], "name": "separable_conv_1_bn_normal_right2_4"}, {"class_name": "BatchNormalization", "config": {"beta_regularizer": null, "center": true, "trainable": true, "gamma_constraint": null, "axis": -1, "gamma_initializer": {"class_name": "Ones", "config": {}}, "moving_variance_initializer": {"class_name": "Ones", "config": {}}, "moving_mean_initializer": {"class_name": "Zeros", "config": {}}, "epsilon": 1e-05, "gamma_regularizer": null, "scale": true, "beta_constraint": null, "beta_initializer": {"class_name": "Zeros", "config": {}}, "momentum": 0.9, "name": "separable_conv_1_bn_normal_left5_4"}, "inbound_nodes": [[["separable_conv_1_normal_left5_4", 0, 0, {}]]], "name": "separable_conv_1_bn_normal_left5_4"}, {"class_name": "Activation", "config": {"activation": "relu", "trainable": true, "name": "activation_1721"}, "inbound_nodes": [[["separable_conv_1_bn_normal_left1_4", 0, 0, {}]]], "name": "activation_1721"}, {"class_name": "Activation", "config": {"activation": "relu", "trainable": true, "name": "activation_1723"}, "inbound_nodes": [[["separable_conv_1_bn_normal_right1_4", 0, 0, {}]]], "name": "activation_1723"}, {"class_name": "Activation", "config": {"activation": "relu", "trainable": true, "name": "activation_1725"}, "inbound_nodes": [[["separable_conv_1_bn_normal_left2_4", 0, 0, {}]]], "name": "activation_1725"}, {"class_name": "Activation", "config": {"activation": "relu", "trainable": true, "name": "activation_1727"}, "inbound_nodes": [[["separable_conv_1_bn_normal_right2_4", 0, 0, {}]]], "name": "activation_1727"}, {"class_name": "Activation", "config": {"activation": "relu", "trainable": true, "name": "activation_1729"}, "inbound_nodes": [[["separable_conv_1_bn_normal_left5_4", 0, 0, {}]]], "name": "activation_1729"}, {"class_name": "SeparableConv2D", "config": {"kernel_size": [5, 5], "dilation_rate": [1, 1], "filters": 32, "bias_initializer": {"class_name": "Zeros", "config": {}}, "depthwise_regularizer": null, "strides": [1, 1], "data_format": "channels_last", "trainable": true, "bias_constraint": null, "name": "separable_conv_2_normal_left1_4", "depth_multiplier": 1, "pointwise_initializer": {"class_name": "VarianceScaling", "config": {"scale": 1.0, "mode": "fan_avg", "distribution": "uniform", "seed": null}}, "padding": "same", "pointwise_regularizer": null, "bias_regularizer": null, "depthwise_constraint": null, "activation": "linear", "use_bias": false, "pointwise_constraint": null, "depthwise_initializer": {"class_name": "VarianceScaling", "config": {"scale": 1.0, "mode": "fan_avg", "distribution": "uniform", "seed": null}}, "activity_regularizer": null}, "inbound_nodes": [[["activation_1721", 0, 0, {}]]], "name": "separable_conv_2_normal_left1_4"}, {"class_name": "SeparableConv2D", "config": {"kernel_size": [3, 3], "dilation_rate": [1, 1], "filters": 32, "bias_initializer": {"class_name": "Zeros", "config": {}}, "depthwise_regularizer": null, "strides": [1, 1], "data_format": "channels_last", "trainable": true, "bias_constraint": null, "name": "separable_conv_2_normal_right1_4", "depth_multiplier": 1, "pointwise_initializer": {"class_name": "VarianceScaling", "config": {"scale": 1.0, "mode": "fan_avg", "distribution": "uniform", "seed": null}}, "padding": "same", "pointwise_regularizer": null, "bias_regularizer": null, "depthwise_constraint": null, "activation": "linear", "use_bias": false, "pointwise_constraint": null, "depthwise_initializer": {"class_name": "VarianceScaling", "config": {"scale": 1.0, "mode": "fan_avg", "distribution": "uniform", "seed": null}}, "activity_regularizer": null}, "inbound_nodes": [[["activation_1723", 0, 0, {}]]], "name": "separable_conv_2_normal_right1_4"}, {"class_name": "SeparableConv2D", "config": {"kernel_size": [5, 5], "dilation_rate": [1, 1], "filters": 32, "bias_initializer": {"class_name": "Zeros", "config": {}}, "depthwise_regularizer": null, "strides": [1, 1], "data_format": "channels_last", "trainable": true, "bias_constraint": null, "name": "separable_conv_2_normal_left2_4", "depth_multiplier": 1, "pointwise_initializer": {"class_name": "VarianceScaling", "config": {"scale": 1.0, "mode": "fan_avg", "distribution": "uniform", "seed": null}}, "padding": "same", "pointwise_regularizer": null, "bias_regularizer": null, "depthwise_constraint": null, "activation": "linear", "use_bias": false, "pointwise_constraint": null, "depthwise_initializer": {"class_name": "VarianceScaling", "config": {"scale": 1.0, "mode": "fan_avg", "distribution": "uniform", "seed": null}}, "activity_regularizer": null}, "inbound_nodes": [[["activation_1725", 0, 0, {}]]], "name": "separable_conv_2_normal_left2_4"}, {"class_name": "SeparableConv2D", "config": {"kernel_size": [3, 3], "dilation_rate": [1, 1], "filters": 32, "bias_initializer": {"class_name": "Zeros", "config": {}}, "depthwise_regularizer": null, "strides": [1, 1], "data_format": "channels_last", "trainable": true, "bias_constraint": null, "name": "separable_conv_2_normal_right2_4", "depth_multiplier": 1, "pointwise_initializer": {"class_name": "VarianceScaling", "config": {"scale": 1.0, "mode": "fan_avg", "distribution": "uniform", "seed": null}}, "padding": "same", "pointwise_regularizer": null, "bias_regularizer": null, "depthwise_constraint": null, "activation": "linear", "use_bias": false, "pointwise_constraint": null, "depthwise_initializer": {"class_name": "VarianceScaling", "config": {"scale": 1.0, "mode": "fan_avg", "distribution": "uniform", "seed": null}}, "activity_regularizer": null}, "inbound_nodes": [[["activation_1727", 0, 0, {}]]], "name": "separable_conv_2_normal_right2_4"}, {"class_name": "SeparableConv2D", "config": {"kernel_size": [3, 3], "dilation_rate": [1, 1], "filters": 32, "bias_initializer": {"class_name": "Zeros", "config": {}}, "depthwise_regularizer": null, "strides": [1, 1], "data_format": "channels_last", "trainable": true, "bias_constraint": null, "name": "separable_conv_2_normal_left5_4", "depth_multiplier": 1, "pointwise_initializer": {"class_name": "VarianceScaling", "config": {"scale": 1.0, "mode": "fan_avg", "distribution": "uniform", "seed": null}}, "padding": "same", "pointwise_regularizer": null, "bias_regularizer": null, "depthwise_constraint": null, "activation": "linear", "use_bias": false, "pointwise_constraint": null, "depthwise_initializer": {"class_name": "VarianceScaling", "config": {"scale": 1.0, "mode": "fan_avg", "distribution": "uniform", "seed": null}}, "activity_regularizer": null}, "inbound_nodes": [[["activation_1729", 0, 0, {}]]], "name": "separable_conv_2_normal_left5_4"}, {"class_name": "BatchNormalization", "config": {"beta_regularizer": null, "center": true, "trainable": true, "gamma_constraint": null, "axis": -1, "gamma_initializer": {"class_name": "Ones", "config": {}}, "moving_variance_initializer": {"class_name": "Ones", "config": {}}, "moving_mean_initializer": {"class_name": "Zeros", "config": {}}, "epsilon": 1e-05, "gamma_regularizer": null, "scale": true, "beta_constraint": null, "beta_initializer": {"class_name": "Zeros", "config": {}}, "momentum": 0.9, "name": "separable_conv_2_bn_normal_left1_4"}, "inbound_nodes": [[["separable_conv_2_normal_left1_4", 0, 0, {}]]], "name": "separable_conv_2_bn_normal_left1_4"}, {"class_name": "BatchNormalization", "config": {"beta_regularizer": null, "center": true, "trainable": true, "gamma_constraint": null, "axis": -1, "gamma_initializer": {"class_name": "Ones", "config": {}}, "moving_variance_initializer": {"class_name": "Ones", "config": {}}, "moving_mean_initializer": {"class_name": "Zeros", "config": {}}, "epsilon": 1e-05, "gamma_regularizer": null, "scale": true, "beta_constraint": null, "beta_initializer": {"class_name": "Zeros", "config": {}}, "momentum": 0.9, "name": "separable_conv_2_bn_normal_right1_4"}, "inbound_nodes": [[["separable_conv_2_normal_right1_4", 0, 0, {}]]], "name": "separable_conv_2_bn_normal_right1_4"}, {"class_name": "BatchNormalization", "config": {"beta_regularizer": null, "center": true, "trainable": true, "gamma_constraint": null, "axis": -1, "gamma_initializer": {"class_name": "Ones", "config": {}}, "moving_variance_initializer": {"class_name": "Ones", "config": {}}, "moving_mean_initializer": {"class_name": "Zeros", "config": {}}, "epsilon": 1e-05, "gamma_regularizer": null, "scale": true, "beta_constraint": null, "beta_initializer": {"class_name": "Zeros", "config": {}}, "momentum": 0.9, "name": "separable_conv_2_bn_normal_left2_4"}, "inbound_nodes": [[["separable_conv_2_normal_left2_4", 0, 0, {}]]], "name": "separable_conv_2_bn_normal_left2_4"}, {"class_name": "BatchNormalization", "config": {"beta_regularizer": null, "center": true, "trainable": true, "gamma_constraint": null, "axis": -1, "gamma_initializer": {"class_name": "Ones", "config": {}}, "moving_variance_initializer": {"class_name": "Ones", "config": {}}, "moving_mean_initializer": {"class_name": "Zeros", "config": {}}, "epsilon": 1e-05, "gamma_regularizer": null, "scale": true, "beta_constraint": null, "beta_initializer": {"class_name": "Zeros", "config": {}}, "momentum": 0.9, "name": "separable_conv_2_bn_normal_right2_4"}, "inbound_nodes": [[["separable_conv_2_normal_right2_4", 0, 0, {}]]], "name": "separable_conv_2_bn_normal_right2_4"}, {"class_name": "AveragePooling2D", "config": {"padding": "same", "data_format": "channels_last", "pool_size": [3, 3], "trainable": true, "strides": [1, 1], "name": "normal_left3_4"}, "inbound_nodes": [[["normal_bn_1_4", 0, 0, {}]]], "name": "normal_left3_4"}, {"class_name": "AveragePooling2D", "config": {"padding": "same", "data_format": "channels_last", "pool_size": [3, 3], "trainable": true, "strides": [1, 1], "name": "normal_left4_4"}, "inbound_nodes": [[["adjust_bn_4", 0, 0, {}]]], "name": "normal_left4_4"}, {"class_name": "AveragePooling2D", "config": {"padding": "same", "data_format": "channels_last", "pool_size": [3, 3], "trainable": true, "strides": [1, 1], "name": "normal_right4_4"}, "inbound_nodes": [[["adjust_bn_4", 0, 0, {}]]], "name": "normal_right4_4"}, {"class_name": "BatchNormalization", "config": {"beta_regularizer": null, "center": true, "trainable": true, "gamma_constraint": null, "axis": -1, "gamma_initializer": {"class_name": "Ones", "config": {}}, "moving_variance_initializer": {"class_name": "Ones", "config": {}}, "moving_mean_initializer": {"class_name": "Zeros", "config": {}}, "epsilon": 1e-05, "gamma_regularizer": null, "scale": true, "beta_constraint": null, "beta_initializer": {"class_name": "Zeros", "config": {}}, "momentum": 0.9, "name": "separable_conv_2_bn_normal_left5_4"}, "inbound_nodes": [[["separable_conv_2_normal_left5_4", 0, 0, {}]]], "name": "separable_conv_2_bn_normal_left5_4"}, {"class_name": "Add", "config": {"trainable": true, "name": "normal_add_1_4"}, "inbound_nodes": [[["separable_conv_2_bn_normal_left1_4", 0, 0, {}], ["separable_conv_2_bn_normal_right1_4", 0, 0, {}]]], "name": "normal_add_1_4"}, {"class_name": "Add", "config": {"trainable": true, "name": "normal_add_2_4"}, "inbound_nodes": [[["separable_conv_2_bn_normal_left2_4", 0, 0, {}], ["separable_conv_2_bn_normal_right2_4", 0, 0, {}]]], "name": "normal_add_2_4"}, {"class_name": "Add", "config": {"trainable": true, "name": "normal_add_3_4"}, "inbound_nodes": [[["normal_left3_4", 0, 0, {}], ["adjust_bn_4", 0, 0, {}]]], "name": "normal_add_3_4"}, {"class_name": "Add", "config": {"trainable": true, "name": "normal_add_4_4"}, "inbound_nodes": [[["normal_left4_4", 0, 0, {}], ["normal_right4_4", 0, 0, {}]]], "name": "normal_add_4_4"}, {"class_name": "Add", "config": {"trainable": true, "name": "normal_add_5_4"}, "inbound_nodes": [[["separable_conv_2_bn_normal_left5_4", 0, 0, {}], ["normal_bn_1_4", 0, 0, {}]]], "name": "normal_add_5_4"}, {"class_name": "Concatenate", "config": {"axis": -1, "trainable": true, "name": "normal_concat_4"}, "inbound_nodes": [[["adjust_bn_4", 0, 0, {}], ["normal_add_1_4", 0, 0, {}], ["normal_add_2_4", 0, 0, {}], ["normal_add_3_4", 0, 0, {}], ["normal_add_4_4", 0, 0, {}], ["normal_add_5_4", 0, 0, {}]]], "name": "normal_concat_4"}, {"class_name": "Activation", "config": {"activation": "relu", "trainable": true, "name": "activation_1730"}, "inbound_nodes": [[["normal_concat_3", 0, 0, {}]]], "name": "activation_1730"}, {"class_name": "Activation", "config": {"activation": "relu", "trainable": true, "name": "activation_1731"}, "inbound_nodes": [[["normal_concat_4", 0, 0, {}]]], "name": "activation_1731"}, {"class_name": "Conv2D", "config": {"kernel_size": [1, 1], "dilation_rate": [1, 1], "filters": 32, "padding": "same", "bias_initializer": {"class_name": "Zeros", "config": {}}, "name": "adjust_conv_projection_5", "strides": [1, 1], "kernel_initializer": {"class_name": "VarianceScaling", "config": {"scale": 2.0, "mode": "fan_in", "distribution": "normal", "seed": null}}, "trainable": true, "bias_constraint": null, "data_format": "channels_last", "activation": "linear", "use_bias": false, "kernel_regularizer": {"class_name": "L1L2", "config": {"l1": 0.0, "l2": 0.0005000000237487257}}, "kernel_constraint": null, "bias_regularizer": null, "activity_regularizer": null}, "inbound_nodes": [[["activation_1730", 0, 0, {}]]], "name": "adjust_conv_projection_5"}, {"class_name": "Conv2D", "config": {"kernel_size": [1, 1], "dilation_rate": [1, 1], "filters": 32, "padding": "same", "bias_initializer": {"class_name": "Zeros", "config": {}}, "name": "normal_conv_1_5", "strides": [1, 1], "kernel_initializer": {"class_name": "VarianceScaling", "config": {"scale": 2.0, "mode": "fan_in", "distribution": "normal", "seed": null}}, "trainable": true, "bias_constraint": null, "data_format": "channels_last", "activation": "linear", "use_bias": false, "kernel_regularizer": {"class_name": "L1L2", "config": {"l1": 0.0, "l2": 0.0005000000237487257}}, "kernel_constraint": null, "bias_regularizer": null, "activity_regularizer": null}, "inbound_nodes": [[["activation_1731", 0, 0, {}]]], "name": "normal_conv_1_5"}, {"class_name": "BatchNormalization", "config": {"beta_regularizer": null, "center": true, "trainable": true, "gamma_constraint": null, "axis": -1, "gamma_initializer": {"class_name": "Ones", "config": {}}, "moving_variance_initializer": {"class_name": "Ones", "config": {}}, "moving_mean_initializer": {"class_name": "Zeros", "config": {}}, "epsilon": 1e-05, "gamma_regularizer": null, "scale": true, "beta_constraint": null, "beta_initializer": {"class_name": "Zeros", "config": {}}, "momentum": 0.9, "name": "adjust_bn_5"}, "inbound_nodes": [[["adjust_conv_projection_5", 0, 0, {}]]], "name": "adjust_bn_5"}, {"class_name": "BatchNormalization", "config": {"beta_regularizer": null, "center": true, "trainable": true, "gamma_constraint": null, "axis": -1, "gamma_initializer": {"class_name": "Ones", "config": {}}, "moving_variance_initializer": {"class_name": "Ones", "config": {}}, "moving_mean_initializer": {"class_name": "Zeros", "config": {}}, "epsilon": 1e-05, "gamma_regularizer": null, "scale": true, "beta_constraint": null, "beta_initializer": {"class_name": "Zeros", "config": {}}, "momentum": 0.9, "name": "normal_bn_1_5"}, "inbound_nodes": [[["normal_conv_1_5", 0, 0, {}]]], "name": "normal_bn_1_5"}, {"class_name": "Activation", "config": {"activation": "relu", "trainable": true, "name": "activation_1732"}, "inbound_nodes": [[["normal_bn_1_5", 0, 0, {}]]], "name": "activation_1732"}, {"class_name": "Activation", "config": {"activation": "relu", "trainable": true, "name": "activation_1734"}, "inbound_nodes": [[["adjust_bn_5", 0, 0, {}]]], "name": "activation_1734"}, {"class_name": "Activation", "config": {"activation": "relu", "trainable": true, "name": "activation_1736"}, "inbound_nodes": [[["adjust_bn_5", 0, 0, {}]]], "name": "activation_1736"}, {"class_name": "Activation", "config": {"activation": "relu", "trainable": true, "name": "activation_1738"}, "inbound_nodes": [[["adjust_bn_5", 0, 0, {}]]], "name": "activation_1738"}, {"class_name": "Activation", "config": {"activation": "relu", "trainable": true, "name": "activation_1740"}, "inbound_nodes": [[["normal_bn_1_5", 0, 0, {}]]], "name": "activation_1740"}, {"class_name": "SeparableConv2D", "config": {"kernel_size": [5, 5], "dilation_rate": [1, 1], "filters": 32, "bias_initializer": {"class_name": "Zeros", "config": {}}, "depthwise_regularizer": null, "strides": [1, 1], "data_format": "channels_last", "trainable": true, "bias_constraint": null, "name": "separable_conv_1_normal_left1_5", "depth_multiplier": 1, "pointwise_initializer": {"class_name": "VarianceScaling", "config": {"scale": 1.0, "mode": "fan_avg", "distribution": "uniform", "seed": null}}, "padding": "same", "pointwise_regularizer": null, "bias_regularizer": null, "depthwise_constraint": null, "activation": "linear", "use_bias": false, "pointwise_constraint": null, "depthwise_initializer": {"class_name": "VarianceScaling", "config": {"scale": 1.0, "mode": "fan_avg", "distribution": "uniform", "seed": null}}, "activity_regularizer": null}, "inbound_nodes": [[["activation_1732", 0, 0, {}]]], "name": "separable_conv_1_normal_left1_5"}, {"class_name": "SeparableConv2D", "config": {"kernel_size": [3, 3], "dilation_rate": [1, 1], "filters": 32, "bias_initializer": {"class_name": "Zeros", "config": {}}, "depthwise_regularizer": null, "strides": [1, 1], "data_format": "channels_last", "trainable": true, "bias_constraint": null, "name": "separable_conv_1_normal_right1_5", "depth_multiplier": 1, "pointwise_initializer": {"class_name": "VarianceScaling", "config": {"scale": 1.0, "mode": "fan_avg", "distribution": "uniform", "seed": null}}, "padding": "same", "pointwise_regularizer": null, "bias_regularizer": null, "depthwise_constraint": null, "activation": "linear", "use_bias": false, "pointwise_constraint": null, "depthwise_initializer": {"class_name": "VarianceScaling", "config": {"scale": 1.0, "mode": "fan_avg", "distribution": "uniform", "seed": null}}, "activity_regularizer": null}, "inbound_nodes": [[["activation_1734", 0, 0, {}]]], "name": "separable_conv_1_normal_right1_5"}, {"class_name": "SeparableConv2D", "config": {"kernel_size": [5, 5], "dilation_rate": [1, 1], "filters": 32, "bias_initializer": {"class_name": "Zeros", "config": {}}, "depthwise_regularizer": null, "strides": [1, 1], "data_format": "channels_last", "trainable": true, "bias_constraint": null, "name": "separable_conv_1_normal_left2_5", "depth_multiplier": 1, "pointwise_initializer": {"class_name": "VarianceScaling", "config": {"scale": 1.0, "mode": "fan_avg", "distribution": "uniform", "seed": null}}, "padding": "same", "pointwise_regularizer": null, "bias_regularizer": null, "depthwise_constraint": null, "activation": "linear", "use_bias": false, "pointwise_constraint": null, "depthwise_initializer": {"class_name": "VarianceScaling", "config": {"scale": 1.0, "mode": "fan_avg", "distribution": "uniform", "seed": null}}, "activity_regularizer": null}, "inbound_nodes": [[["activation_1736", 0, 0, {}]]], "name": "separable_conv_1_normal_left2_5"}, {"class_name": "SeparableConv2D", "config": {"kernel_size": [3, 3], "dilation_rate": [1, 1], "filters": 32, "bias_initializer": {"class_name": "Zeros", "config": {}}, "depthwise_regularizer": null, "strides": [1, 1], "data_format": "channels_last", "trainable": true, "bias_constraint": null, "name": "separable_conv_1_normal_right2_5", "depth_multiplier": 1, "pointwise_initializer": {"class_name": "VarianceScaling", "config": {"scale": 1.0, "mode": "fan_avg", "distribution": "uniform", "seed": null}}, "padding": "same", "pointwise_regularizer": null, "bias_regularizer": null, "depthwise_constraint": null, "activation": "linear", "use_bias": false, "pointwise_constraint": null, "depthwise_initializer": {"class_name": "VarianceScaling", "config": {"scale": 1.0, "mode": "fan_avg", "distribution": "uniform", "seed": null}}, "activity_regularizer": null}, "inbound_nodes": [[["activation_1738", 0, 0, {}]]], "name": "separable_conv_1_normal_right2_5"}, {"class_name": "SeparableConv2D", "config": {"kernel_size": [3, 3], "dilation_rate": [1, 1], "filters": 32, "bias_initializer": {"class_name": "Zeros", "config": {}}, "depthwise_regularizer": null, "strides": [1, 1], "data_format": "channels_last", "trainable": true, "bias_constraint": null, "name": "separable_conv_1_normal_left5_5", "depth_multiplier": 1, "pointwise_initializer": {"class_name": "VarianceScaling", "config": {"scale": 1.0, "mode": "fan_avg", "distribution": "uniform", "seed": null}}, "padding": "same", "pointwise_regularizer": null, "bias_regularizer": null, "depthwise_constraint": null, "activation": "linear", "use_bias": false, "pointwise_constraint": null, "depthwise_initializer": {"class_name": "VarianceScaling", "config": {"scale": 1.0, "mode": "fan_avg", "distribution": "uniform", "seed": null}}, "activity_regularizer": null}, "inbound_nodes": [[["activation_1740", 0, 0, {}]]], "name": "separable_conv_1_normal_left5_5"}, {"class_name": "BatchNormalization", "config": {"beta_regularizer": null, "center": true, "trainable": true, "gamma_constraint": null, "axis": -1, "gamma_initializer": {"class_name": "Ones", "config": {}}, "moving_variance_initializer": {"class_name": "Ones", "config": {}}, "moving_mean_initializer": {"class_name": "Zeros", "config": {}}, "epsilon": 1e-05, "gamma_regularizer": null, "scale": true, "beta_constraint": null, "beta_initializer": {"class_name": "Zeros", "config": {}}, "momentum": 0.9, "name": "separable_conv_1_bn_normal_left1_5"}, "inbound_nodes": [[["separable_conv_1_normal_left1_5", 0, 0, {}]]], "name": "separable_conv_1_bn_normal_left1_5"}, {"class_name": "BatchNormalization", "config": {"beta_regularizer": null, "center": true, "trainable": true, "gamma_constraint": null, "axis": -1, "gamma_initializer": {"class_name": "Ones", "config": {}}, "moving_variance_initializer": {"class_name": "Ones", "config": {}}, "moving_mean_initializer": {"class_name": "Zeros", "config": {}}, "epsilon": 1e-05, "gamma_regularizer": null, "scale": true, "beta_constraint": null, "beta_initializer": {"class_name": "Zeros", "config": {}}, "momentum": 0.9, "name": "separable_conv_1_bn_normal_right1_5"}, "inbound_nodes": [[["separable_conv_1_normal_right1_5", 0, 0, {}]]], "name": "separable_conv_1_bn_normal_right1_5"}, {"class_name": "BatchNormalization", "config": {"beta_regularizer": null, "center": true, "trainable": true, "gamma_constraint": null, "axis": -1, "gamma_initializer": {"class_name": "Ones", "config": {}}, "moving_variance_initializer": {"class_name": "Ones", "config": {}}, "moving_mean_initializer": {"class_name": "Zeros", "config": {}}, "epsilon": 1e-05, "gamma_regularizer": null, "scale": true, "beta_constraint": null, "beta_initializer": {"class_name": "Zeros", "config": {}}, "momentum": 0.9, "name": "separable_conv_1_bn_normal_left2_5"}, "inbound_nodes": [[["separable_conv_1_normal_left2_5", 0, 0, {}]]], "name": "separable_conv_1_bn_normal_left2_5"}, {"class_name": "BatchNormalization", "config": {"beta_regularizer": null, "center": true, "trainable": true, "gamma_constraint": null, "axis": -1, "gamma_initializer": {"class_name": "Ones", "config": {}}, "moving_variance_initializer": {"class_name": "Ones", "config": {}}, "moving_mean_initializer": {"class_name": "Zeros", "config": {}}, "epsilon": 1e-05, "gamma_regularizer": null, "scale": true, "beta_constraint": null, "beta_initializer": {"class_name": "Zeros", "config": {}}, "momentum": 0.9, "name": "separable_conv_1_bn_normal_right2_5"}, "inbound_nodes": [[["separable_conv_1_normal_right2_5", 0, 0, {}]]], "name": "separable_conv_1_bn_normal_right2_5"}, {"class_name": "BatchNormalization", "config": {"beta_regularizer": null, "center": true, "trainable": true, "gamma_constraint": null, "axis": -1, "gamma_initializer": {"class_name": "Ones", "config": {}}, "moving_variance_initializer": {"class_name": "Ones", "config": {}}, "moving_mean_initializer": {"class_name": "Zeros", "config": {}}, "epsilon": 1e-05, "gamma_regularizer": null, "scale": true, "beta_constraint": null, "beta_initializer": {"class_name": "Zeros", "config": {}}, "momentum": 0.9, "name": "separable_conv_1_bn_normal_left5_5"}, "inbound_nodes": [[["separable_conv_1_normal_left5_5", 0, 0, {}]]], "name": "separable_conv_1_bn_normal_left5_5"}, {"class_name": "Activation", "config": {"activation": "relu", "trainable": true, "name": "activation_1733"}, "inbound_nodes": [[["separable_conv_1_bn_normal_left1_5", 0, 0, {}]]], "name": "activation_1733"}, {"class_name": "Activation", "config": {"activation": "relu", "trainable": true, "name": "activation_1735"}, "inbound_nodes": [[["separable_conv_1_bn_normal_right1_5", 0, 0, {}]]], "name": "activation_1735"}, {"class_name": "Activation", "config": {"activation": "relu", "trainable": true, "name": "activation_1737"}, "inbound_nodes": [[["separable_conv_1_bn_normal_left2_5", 0, 0, {}]]], "name": "activation_1737"}, {"class_name": "Activation", "config": {"activation": "relu", "trainable": true, "name": "activation_1739"}, "inbound_nodes": [[["separable_conv_1_bn_normal_right2_5", 0, 0, {}]]], "name": "activation_1739"}, {"class_name": "Activation", "config": {"activation": "relu", "trainable": true, "name": "activation_1741"}, "inbound_nodes": [[["separable_conv_1_bn_normal_left5_5", 0, 0, {}]]], "name": "activation_1741"}, {"class_name": "SeparableConv2D", "config": {"kernel_size": [5, 5], "dilation_rate": [1, 1], "filters": 32, "bias_initializer": {"class_name": "Zeros", "config": {}}, "depthwise_regularizer": null, "strides": [1, 1], "data_format": "channels_last", "trainable": true, "bias_constraint": null, "name": "separable_conv_2_normal_left1_5", "depth_multiplier": 1, "pointwise_initializer": {"class_name": "VarianceScaling", "config": {"scale": 1.0, "mode": "fan_avg", "distribution": "uniform", "seed": null}}, "padding": "same", "pointwise_regularizer": null, "bias_regularizer": null, "depthwise_constraint": null, "activation": "linear", "use_bias": false, "pointwise_constraint": null, "depthwise_initializer": {"class_name": "VarianceScaling", "config": {"scale": 1.0, "mode": "fan_avg", "distribution": "uniform", "seed": null}}, "activity_regularizer": null}, "inbound_nodes": [[["activation_1733", 0, 0, {}]]], "name": "separable_conv_2_normal_left1_5"}, {"class_name": "SeparableConv2D", "config": {"kernel_size": [3, 3], "dilation_rate": [1, 1], "filters": 32, "bias_initializer": {"class_name": "Zeros", "config": {}}, "depthwise_regularizer": null, "strides": [1, 1], "data_format": "channels_last", "trainable": true, "bias_constraint": null, "name": "separable_conv_2_normal_right1_5", "depth_multiplier": 1, "pointwise_initializer": {"class_name": "VarianceScaling", "config": {"scale": 1.0, "mode": "fan_avg", "distribution": "uniform", "seed": null}}, "padding": "same", "pointwise_regularizer": null, "bias_regularizer": null, "depthwise_constraint": null, "activation": "linear", "use_bias": false, "pointwise_constraint": null, "depthwise_initializer": {"class_name": "VarianceScaling", "config": {"scale": 1.0, "mode": "fan_avg", "distribution": "uniform", "seed": null}}, "activity_regularizer": null}, "inbound_nodes": [[["activation_1735", 0, 0, {}]]], "name": "separable_conv_2_normal_right1_5"}, {"class_name": "SeparableConv2D", "config": {"kernel_size": [5, 5], "dilation_rate": [1, 1], "filters": 32, "bias_initializer": {"class_name": "Zeros", "config": {}}, "depthwise_regularizer": null, "strides": [1, 1], "data_format": "channels_last", "trainable": true, "bias_constraint": null, "name": "separable_conv_2_normal_left2_5", "depth_multiplier": 1, "pointwise_initializer": {"class_name": "VarianceScaling", "config": {"scale": 1.0, "mode": "fan_avg", "distribution": "uniform", "seed": null}}, "padding": "same", "pointwise_regularizer": null, "bias_regularizer": null, "depthwise_constraint": null, "activation": "linear", "use_bias": false, "pointwise_constraint": null, "depthwise_initializer": {"class_name": "VarianceScaling", "config": {"scale": 1.0, "mode": "fan_avg", "distribution": "uniform", "seed": null}}, "activity_regularizer": null}, "inbound_nodes": [[["activation_1737", 0, 0, {}]]], "name": "separable_conv_2_normal_left2_5"}, {"class_name": "SeparableConv2D", "config": {"kernel_size": [3, 3], "dilation_rate": [1, 1], "filters": 32, "bias_initializer": {"class_name": "Zeros", "config": {}}, "depthwise_regularizer": null, "strides": [1, 1], "data_format": "channels_last", "trainable": true, "bias_constraint": null, "name": "separable_conv_2_normal_right2_5", "depth_multiplier": 1, "pointwise_initializer": {"class_name": "VarianceScaling", "config": {"scale": 1.0, "mode": "fan_avg", "distribution": "uniform", "seed": null}}, "padding": "same", "pointwise_regularizer": null, "bias_regularizer": null, "depthwise_constraint": null, "activation": "linear", "use_bias": false, "pointwise_constraint": null, "depthwise_initializer": {"class_name": "VarianceScaling", "config": {"scale": 1.0, "mode": "fan_avg", "distribution": "uniform", "seed": null}}, "activity_regularizer": null}, "inbound_nodes": [[["activation_1739", 0, 0, {}]]], "name": "separable_conv_2_normal_right2_5"}, {"class_name": "SeparableConv2D", "config": {"kernel_size": [3, 3], "dilation_rate": [1, 1], "filters": 32, "bias_initializer": {"class_name": "Zeros", "config": {}}, "depthwise_regularizer": null, "strides": [1, 1], "data_format": "channels_last", "trainable": true, "bias_constraint": null, "name": "separable_conv_2_normal_left5_5", "depth_multiplier": 1, "pointwise_initializer": {"class_name": "VarianceScaling", "config": {"scale": 1.0, "mode": "fan_avg", "distribution": "uniform", "seed": null}}, "padding": "same", "pointwise_regularizer": null, "bias_regularizer": null, "depthwise_constraint": null, "activation": "linear", "use_bias": false, "pointwise_constraint": null, "depthwise_initializer": {"class_name": "VarianceScaling", "config": {"scale": 1.0, "mode": "fan_avg", "distribution": "uniform", "seed": null}}, "activity_regularizer": null}, "inbound_nodes": [[["activation_1741", 0, 0, {}]]], "name": "separable_conv_2_normal_left5_5"}, {"class_name": "BatchNormalization", "config": {"beta_regularizer": null, "center": true, "trainable": true, "gamma_constraint": null, "axis": -1, "gamma_initializer": {"class_name": "Ones", "config": {}}, "moving_variance_initializer": {"class_name": "Ones", "config": {}}, "moving_mean_initializer": {"class_name": "Zeros", "config": {}}, "epsilon": 1e-05, "gamma_regularizer": null, "scale": true, "beta_constraint": null, "beta_initializer": {"class_name": "Zeros", "config": {}}, "momentum": 0.9, "name": "separable_conv_2_bn_normal_left1_5"}, "inbound_nodes": [[["separable_conv_2_normal_left1_5", 0, 0, {}]]], "name": "separable_conv_2_bn_normal_left1_5"}, {"class_name": "BatchNormalization", "config": {"beta_regularizer": null, "center": true, "trainable": true, "gamma_constraint": null, "axis": -1, "gamma_initializer": {"class_name": "Ones", "config": {}}, "moving_variance_initializer": {"class_name": "Ones", "config": {}}, "moving_mean_initializer": {"class_name": "Zeros", "config": {}}, "epsilon": 1e-05, "gamma_regularizer": null, "scale": true, "beta_constraint": null, "beta_initializer": {"class_name": "Zeros", "config": {}}, "momentum": 0.9, "name": "separable_conv_2_bn_normal_right1_5"}, "inbound_nodes": [[["separable_conv_2_normal_right1_5", 0, 0, {}]]], "name": "separable_conv_2_bn_normal_right1_5"}, {"class_name": "BatchNormalization", "config": {"beta_regularizer": null, "center": true, "trainable": true, "gamma_constraint": null, "axis": -1, "gamma_initializer": {"class_name": "Ones", "config": {}}, "moving_variance_initializer": {"class_name": "Ones", "config": {}}, "moving_mean_initializer": {"class_name": "Zeros", "config": {}}, "epsilon": 1e-05, "gamma_regularizer": null, "scale": true, "beta_constraint": null, "beta_initializer": {"class_name": "Zeros", "config": {}}, "momentum": 0.9, "name": "separable_conv_2_bn_normal_left2_5"}, "inbound_nodes": [[["separable_conv_2_normal_left2_5", 0, 0, {}]]], "name": "separable_conv_2_bn_normal_left2_5"}, {"class_name": "BatchNormalization", "config": {"beta_regularizer": null, "center": true, "trainable": true, "gamma_constraint": null, "axis": -1, "gamma_initializer": {"class_name": "Ones", "config": {}}, "moving_variance_initializer": {"class_name": "Ones", "config": {}}, "moving_mean_initializer": {"class_name": "Zeros", "config": {}}, "epsilon": 1e-05, "gamma_regularizer": null, "scale": true, "beta_constraint": null, "beta_initializer": {"class_name": "Zeros", "config": {}}, "momentum": 0.9, "name": "separable_conv_2_bn_normal_right2_5"}, "inbound_nodes": [[["separable_conv_2_normal_right2_5", 0, 0, {}]]], "name": "separable_conv_2_bn_normal_right2_5"}, {"class_name": "AveragePooling2D", "config": {"padding": "same", "data_format": "channels_last", "pool_size": [3, 3], "trainable": true, "strides": [1, 1], "name": "normal_left3_5"}, "inbound_nodes": [[["normal_bn_1_5", 0, 0, {}]]], "name": "normal_left3_5"}, {"class_name": "AveragePooling2D", "config": {"padding": "same", "data_format": "channels_last", "pool_size": [3, 3], "trainable": true, "strides": [1, 1], "name": "normal_left4_5"}, "inbound_nodes": [[["adjust_bn_5", 0, 0, {}]]], "name": "normal_left4_5"}, {"class_name": "AveragePooling2D", "config": {"padding": "same", "data_format": "channels_last", "pool_size": [3, 3], "trainable": true, "strides": [1, 1], "name": "normal_right4_5"}, "inbound_nodes": [[["adjust_bn_5", 0, 0, {}]]], "name": "normal_right4_5"}, {"class_name": "BatchNormalization", "config": {"beta_regularizer": null, "center": true, "trainable": true, "gamma_constraint": null, "axis": -1, "gamma_initializer": {"class_name": "Ones", "config": {}}, "moving_variance_initializer": {"class_name": "Ones", "config": {}}, "moving_mean_initializer": {"class_name": "Zeros", "config": {}}, "epsilon": 1e-05, "gamma_regularizer": null, "scale": true, "beta_constraint": null, "beta_initializer": {"class_name": "Zeros", "config": {}}, "momentum": 0.9, "name": "separable_conv_2_bn_normal_left5_5"}, "inbound_nodes": [[["separable_conv_2_normal_left5_5", 0, 0, {}]]], "name": "separable_conv_2_bn_normal_left5_5"}, {"class_name": "Add", "config": {"trainable": true, "name": "normal_add_1_5"}, "inbound_nodes": [[["separable_conv_2_bn_normal_left1_5", 0, 0, {}], ["separable_conv_2_bn_normal_right1_5", 0, 0, {}]]], "name": "normal_add_1_5"}, {"class_name": "Add", "config": {"trainable": true, "name": "normal_add_2_5"}, "inbound_nodes": [[["separable_conv_2_bn_normal_left2_5", 0, 0, {}], ["separable_conv_2_bn_normal_right2_5", 0, 0, {}]]], "name": "normal_add_2_5"}, {"class_name": "Add", "config": {"trainable": true, "name": "normal_add_3_5"}, "inbound_nodes": [[["normal_left3_5", 0, 0, {}], ["adjust_bn_5", 0, 0, {}]]], "name": "normal_add_3_5"}, {"class_name": "Add", "config": {"trainable": true, "name": "normal_add_4_5"}, "inbound_nodes": [[["normal_left4_5", 0, 0, {}], ["normal_right4_5", 0, 0, {}]]], "name": "normal_add_4_5"}, {"class_name": "Add", "config": {"trainable": true, "name": "normal_add_5_5"}, "inbound_nodes": [[["separable_conv_2_bn_normal_left5_5", 0, 0, {}], ["normal_bn_1_5", 0, 0, {}]]], "name": "normal_add_5_5"}, {"class_name": "Concatenate", "config": {"axis": -1, "trainable": true, "name": "normal_concat_5"}, "inbound_nodes": [[["adjust_bn_5", 0, 0, {}], ["normal_add_1_5", 0, 0, {}], ["normal_add_2_5", 0, 0, {}], ["normal_add_3_5", 0, 0, {}], ["normal_add_4_5", 0, 0, {}], ["normal_add_5_5", 0, 0, {}]]], "name": "normal_concat_5"}, {"class_name": "Activation", "config": {"activation": "relu", "trainable": true, "name": "activation_1743"}, "inbound_nodes": [[["normal_concat_5", 0, 0, {}]]], "name": "activation_1743"}, {"class_name": "Activation", "config": {"activation": "relu", "trainable": true, "name": "activation_1742"}, "inbound_nodes": [[["normal_concat_4", 0, 0, {}]]], "name": "activation_1742"}, {"class_name": "Conv2D", "config": {"kernel_size": [1, 1], "dilation_rate": [1, 1], "filters": 64, "padding": "same", "bias_initializer": {"class_name": "Zeros", "config": {}}, "name": "reduction_conv_1_reduce_6", "strides": [1, 1], "kernel_initializer": {"class_name": "VarianceScaling", "config": {"scale": 2.0, "mode": "fan_in", "distribution": "normal", "seed": null}}, "trainable": true, "bias_constraint": null, "data_format": "channels_last", "activation": "linear", "use_bias": false, "kernel_regularizer": {"class_name": "L1L2", "config": {"l1": 0.0, "l2": 0.0005000000237487257}}, "kernel_constraint": null, "bias_regularizer": null, "activity_regularizer": null}, "inbound_nodes": [[["activation_1743", 0, 0, {}]]], "name": "reduction_conv_1_reduce_6"}, {"class_name": "Conv2D", "config": {"kernel_size": [1, 1], "dilation_rate": [1, 1], "filters": 64, "padding": "same", "bias_initializer": {"class_name": "Zeros", "config": {}}, "name": "adjust_conv_projection_reduce_6", "strides": [1, 1], "kernel_initializer": {"class_name": "VarianceScaling", "config": {"scale": 2.0, "mode": "fan_in", "distribution": "normal", "seed": null}}, "trainable": true, "bias_constraint": null, "data_format": "channels_last", "activation": "linear", "use_bias": false, "kernel_regularizer": {"class_name": "L1L2", "config": {"l1": 0.0, "l2": 0.0005000000237487257}}, "kernel_constraint": null, "bias_regularizer": null, "activity_regularizer": null}, "inbound_nodes": [[["activation_1742", 0, 0, {}]]], "name": "adjust_conv_projection_reduce_6"}, {"class_name": "BatchNormalization", "config": {"beta_regularizer": null, "center": true, "trainable": true, "gamma_constraint": null, "axis": -1, "gamma_initializer": {"class_name": "Ones", "config": {}}, "moving_variance_initializer": {"class_name": "Ones", "config": {}}, "moving_mean_initializer": {"class_name": "Zeros", "config": {}}, "epsilon": 1e-05, "gamma_regularizer": null, "scale": true, "beta_constraint": null, "beta_initializer": {"class_name": "Zeros", "config": {}}, "momentum": 0.9, "name": "reduction_bn_1_reduce_6"}, "inbound_nodes": [[["reduction_conv_1_reduce_6", 0, 0, {}]]], "name": "reduction_bn_1_reduce_6"}, {"class_name": "BatchNormalization", "config": {"beta_regularizer": null, "center": true, "trainable": true, "gamma_constraint": null, "axis": -1, "gamma_initializer": {"class_name": "Ones", "config": {}}, "moving_variance_initializer": {"class_name": "Ones", "config": {}}, "moving_mean_initializer": {"class_name": "Zeros", "config": {}}, "epsilon": 1e-05, "gamma_regularizer": null, "scale": true, "beta_constraint": null, "beta_initializer": {"class_name": "Zeros", "config": {}}, "momentum": 0.9, "name": "adjust_bn_reduce_6"}, "inbound_nodes": [[["adjust_conv_projection_reduce_6", 0, 0, {}]]], "name": "adjust_bn_reduce_6"}, {"class_name": "Activation", "config": {"activation": "relu", "trainable": true, "name": "activation_1744"}, "inbound_nodes": [[["reduction_bn_1_reduce_6", 0, 0, {}]]], "name": "activation_1744"}, {"class_name": "Activation", "config": {"activation": "relu", "trainable": true, "name": "activation_1746"}, "inbound_nodes": [[["adjust_bn_reduce_6", 0, 0, {}]]], "name": "activation_1746"}, {"class_name": "SeparableConv2D", "config": {"kernel_size": [5, 5], "dilation_rate": [1, 1], "filters": 64, "bias_initializer": {"class_name": "Zeros", "config": {}}, "depthwise_regularizer": null, "strides": [2, 2], "data_format": "channels_last", "trainable": true, "bias_constraint": null, "name": "separable_conv_1_reduction_left1_reduce_6", "depth_multiplier": 1, "pointwise_initializer": {"class_name": "VarianceScaling", "config": {"scale": 1.0, "mode": "fan_avg", "distribution": "uniform", "seed": null}}, "padding": "same", "pointwise_regularizer": null, "bias_regularizer": null, "depthwise_constraint": null, "activation": "linear", "use_bias": false, "pointwise_constraint": null, "depthwise_initializer": {"class_name": "VarianceScaling", "config": {"scale": 1.0, "mode": "fan_avg", "distribution": "uniform", "seed": null}}, "activity_regularizer": null}, "inbound_nodes": [[["activation_1744", 0, 0, {}]]], "name": "separable_conv_1_reduction_left1_reduce_6"}, {"class_name": "SeparableConv2D", "config": {"kernel_size": [7, 7], "dilation_rate": [1, 1], "filters": 64, "bias_initializer": {"class_name": "Zeros", "config": {}}, "depthwise_regularizer": null, "strides": [2, 2], "data_format": "channels_last", "trainable": true, "bias_constraint": null, "name": "separable_conv_1_reduction_1_reduce_6", "depth_multiplier": 1, "pointwise_initializer": {"class_name": "VarianceScaling", "config": {"scale": 1.0, "mode": "fan_avg", "distribution": "uniform", "seed": null}}, "padding": "same", "pointwise_regularizer": null, "bias_regularizer": null, "depthwise_constraint": null, "activation": "linear", "use_bias": false, "pointwise_constraint": null, "depthwise_initializer": {"class_name": "VarianceScaling", "config": {"scale": 1.0, "mode": "fan_avg", "distribution": "uniform", "seed": null}}, "activity_regularizer": null}, "inbound_nodes": [[["activation_1746", 0, 0, {}]]], "name": "separable_conv_1_reduction_1_reduce_6"}, {"class_name": "BatchNormalization", "config": {"beta_regularizer": null, "center": true, "trainable": true, "gamma_constraint": null, "axis": -1, "gamma_initializer": {"class_name": "Ones", "config": {}}, "moving_variance_initializer": {"class_name": "Ones", "config": {}}, "moving_mean_initializer": {"class_name": "Zeros", "config": {}}, "epsilon": 1e-05, "gamma_regularizer": null, "scale": true, "beta_constraint": null, "beta_initializer": {"class_name": "Zeros", "config": {}}, "momentum": 0.9, "name": "separable_conv_1_bn_reduction_left1_reduce_6"}, "inbound_nodes": [[["separable_conv_1_reduction_left1_reduce_6", 0, 0, {}]]], "name": "separable_conv_1_bn_reduction_left1_reduce_6"}, {"class_name": "BatchNormalization", "config": {"beta_regularizer": null, "center": true, "trainable": true, "gamma_constraint": null, "axis": -1, "gamma_initializer": {"class_name": "Ones", "config": {}}, "moving_variance_initializer": {"class_name": "Ones", "config": {}}, "moving_mean_initializer": {"class_name": "Zeros", "config": {}}, "epsilon": 1e-05, "gamma_regularizer": null, "scale": true, "beta_constraint": null, "beta_initializer": {"class_name": "Zeros", "config": {}}, "momentum": 0.9, "name": "separable_conv_1_bn_reduction_1_reduce_6"}, "inbound_nodes": [[["separable_conv_1_reduction_1_reduce_6", 0, 0, {}]]], "name": "separable_conv_1_bn_reduction_1_reduce_6"}, {"class_name": "Activation", "config": {"activation": "relu", "trainable": true, "name": "activation_1745"}, "inbound_nodes": [[["separable_conv_1_bn_reduction_left1_reduce_6", 0, 0, {}]]], "name": "activation_1745"}, {"class_name": "Activation", "config": {"activation": "relu", "trainable": true, "name": "activation_1747"}, "inbound_nodes": [[["separable_conv_1_bn_reduction_1_reduce_6", 0, 0, {}]]], "name": "activation_1747"}, {"class_name": "SeparableConv2D", "config": {"kernel_size": [5, 5], "dilation_rate": [1, 1], "filters": 64, "bias_initializer": {"class_name": "Zeros", "config": {}}, "depthwise_regularizer": null, "strides": [1, 1], "data_format": "channels_last", "trainable": true, "bias_constraint": null, "name": "separable_conv_2_reduction_left1_reduce_6", "depth_multiplier": 1, "pointwise_initializer": {"class_name": "VarianceScaling", "config": {"scale": 1.0, "mode": "fan_avg", "distribution": "uniform", "seed": null}}, "padding": "same", "pointwise_regularizer": null, "bias_regularizer": null, "depthwise_constraint": null, "activation": "linear", "use_bias": false, "pointwise_constraint": null, "depthwise_initializer": {"class_name": "VarianceScaling", "config": {"scale": 1.0, "mode": "fan_avg", "distribution": "uniform", "seed": null}}, "activity_regularizer": null}, "inbound_nodes": [[["activation_1745", 0, 0, {}]]], "name": "separable_conv_2_reduction_left1_reduce_6"}, {"class_name": "SeparableConv2D", "config": {"kernel_size": [7, 7], "dilation_rate": [1, 1], "filters": 64, "bias_initializer": {"class_name": "Zeros", "config": {}}, "depthwise_regularizer": null, "strides": [1, 1], "data_format": "channels_last", "trainable": true, "bias_constraint": null, "name": "separable_conv_2_reduction_1_reduce_6", "depth_multiplier": 1, "pointwise_initializer": {"class_name": "VarianceScaling", "config": {"scale": 1.0, "mode": "fan_avg", "distribution": "uniform", "seed": null}}, "padding": "same", "pointwise_regularizer": null, "bias_regularizer": null, "depthwise_constraint": null, "activation": "linear", "use_bias": false, "pointwise_constraint": null, "depthwise_initializer": {"class_name": "VarianceScaling", "config": {"scale": 1.0, "mode": "fan_avg", "distribution": "uniform", "seed": null}}, "activity_regularizer": null}, "inbound_nodes": [[["activation_1747", 0, 0, {}]]], "name": "separable_conv_2_reduction_1_reduce_6"}, {"class_name": "BatchNormalization", "config": {"beta_regularizer": null, "center": true, "trainable": true, "gamma_constraint": null, "axis": -1, "gamma_initializer": {"class_name": "Ones", "config": {}}, "moving_variance_initializer": {"class_name": "Ones", "config": {}}, "moving_mean_initializer": {"class_name": "Zeros", "config": {}}, "epsilon": 1e-05, "gamma_regularizer": null, "scale": true, "beta_constraint": null, "beta_initializer": {"class_name": "Zeros", "config": {}}, "momentum": 0.9, "name": "separable_conv_2_bn_reduction_left1_reduce_6"}, "inbound_nodes": [[["separable_conv_2_reduction_left1_reduce_6", 0, 0, {}]]], "name": "separable_conv_2_bn_reduction_left1_reduce_6"}, {"class_name": "BatchNormalization", "config": {"beta_regularizer": null, "center": true, "trainable": true, "gamma_constraint": null, "axis": -1, "gamma_initializer": {"class_name": "Ones", "config": {}}, "moving_variance_initializer": {"class_name": "Ones", "config": {}}, "moving_mean_initializer": {"class_name": "Zeros", "config": {}}, "epsilon": 1e-05, "gamma_regularizer": null, "scale": true, "beta_constraint": null, "beta_initializer": {"class_name": "Zeros", "config": {}}, "momentum": 0.9, "name": "separable_conv_2_bn_reduction_1_reduce_6"}, "inbound_nodes": [[["separable_conv_2_reduction_1_reduce_6", 0, 0, {}]]], "name": "separable_conv_2_bn_reduction_1_reduce_6"}, {"class_name": "Activation", "config": {"activation": "relu", "trainable": true, "name": "activation_1748"}, "inbound_nodes": [[["adjust_bn_reduce_6", 0, 0, {}]]], "name": "activation_1748"}, {"class_name": "Add", "config": {"t…
"momentum": 0.9, "name": "separable_conv_2_bn_normal_left5_13"}, "inbound_nodes": [[["separable_conv_2_normal_left5_13", 0, 0, {}]]], "name": "separable_conv_2_bn_normal_left5_13"}, {"class_name": "Add", "config": {"trainable": true, "name": "normal_add_1_13"}, "inbound_nodes": [[["separable_conv_2_bn_normal_left1_13", 0, 0, {}], ["separable_conv_2_bn_normal_right1_13", 0, 0, {}]]], "name": "normal_add_1_13"}, {"class_name": "Add", "config": {"trainable": true, "name": "normal_add_2_13"}, "inbound_nodes": [[["separable_conv_2_bn_normal_left2_13", 0, 0, {}], ["separable_conv_2_bn_normal_right2_13", 0, 0, {}]]], "name": "normal_add_2_13"}, {"class_name": "Add", "config": {"trainable": true, "name": "normal_add_3_13"}, "inbound_nodes": [[["normal_left3_13", 0, 0, {}], ["adjust_bn_13", 0, 0, {}]]], "name": "normal_add_3_13"}, {"class_name": "Add", "config": {"trainable": true, "name": "normal_add_4_13"}, "inbound_nodes": [[["normal_left4_13", 0, 0, {}], ["normal_right4_13", 0, 0, {}]]], "name": "normal_add_4_13"}, {"class_name": "Add", "config": {"trainable": true, "name": "normal_add_5_13"}, "inbound_nodes": [[["separable_conv_2_bn_normal_left5_13", 0, 0, {}], ["normal_bn_1_13", 0, 0, {}]]], "name": "normal_add_5_13"}, {"class_name": "Concatenate", "config": {"axis": -1, "trainable": true, "name": "normal_concat_13"}, "inbound_nodes": [[["adjust_bn_13", 0, 0, {}], ["normal_add_1_13", 0, 0, {}], ["normal_add_2_13", 0, 0, {}], ["normal_add_3_13", 0, 0, {}], ["normal_add_4_13", 0, 0, {}], ["normal_add_5_13", 0, 0, {}]]], "name": "normal_concat_13"}, {"class_name": "Activation", "config": {"activation": "relu", "trainable": true, "name": "activation_1848"}, "inbound_nodes": [[["normal_concat_12", 0, 0, {}]]], "name": "activation_1848"}, {"class_name": "Activation", "config": {"activation": "relu", "trainable": true, "name": "activation_1849"}, "inbound_nodes": [[["normal_concat_13", 0, 0, {}]]], "name": "activation_1849"}, {"class_name": "Conv2D", "config": {"kernel_size": [1, 1], "dilation_rate": [1, 1], "filters": 128, "padding": "same", "bias_initializer": {"class_name": "Zeros", "config": {}}, "name": "adjust_conv_projection_14", "strides": [1, 1], "kernel_initializer": {"class_name": "VarianceScaling", "config": {"scale": 2.0, "mode": "fan_in", "distribution": "normal", "seed": null}}, "trainable": true, "bias_constraint": null, "data_format": "channels_last", "activation": "linear", "use_bias": false, "kernel_regularizer": {"class_name": "L1L2", "config": {"l1": 0.0, "l2": 0.0005000000237487257}}, "kernel_constraint": null, "bias_regularizer": null, "activity_regularizer": null}, "inbound_nodes": [[["activation_1848", 0, 0, {}]]], "name": "adjust_conv_projection_14"}, {"class_name": "Conv2D", "config": {"kernel_size": [1, 1], "dilation_rate": [1, 1], "filters": 128, "padding": "same", "bias_initializer": {"class_name": "Zeros", "config": {}}, "name": "normal_conv_1_14", "strides": [1, 1], "kernel_initializer": {"class_name": "VarianceScaling", "config": {"scale": 2.0, "mode": "fan_in", "distribution": "normal", "seed": null}}, "trainable": true, "bias_constraint": null, "data_format": "channels_last", "activation": "linear", "use_bias": false, "kernel_regularizer": {"class_name": "L1L2", "config": {"l1": 0.0, "l2": 0.0005000000237487257}}, "kernel_constraint": null, "bias_regularizer": null, "activity_regularizer": null}, "inbound_nodes": [[["activation_1849", 0, 0, {}]]], "name": "normal_conv_1_14"}, {"class_name": "BatchNormalization", "config": {"beta_regularizer": null, "center": true, "trainable": true, "gamma_constraint": null, "axis": -1, "gamma_initializer": {"class_name": "Ones", "config": {}}, "moving_variance_initializer": {"class_name": "Ones", "config": {}}, "moving_mean_initializer": {"class_name": "Zeros", "config": {}}, "epsilon": 1e-05, "gamma_regularizer": null, "scale": true, "beta_constraint": null, "beta_initializer": {"class_name": "Zeros", "config": {}}, "momentum": 0.9, "name": "adjust_bn_14"}, "inbound_nodes": [[["adjust_conv_projection_14", 0, 0, {}]]], "name": "adjust_bn_14"}, {"class_name": "BatchNormalization", "config": {"beta_regularizer": null, "center": true, "trainable": true, "gamma_constraint": null, "axis": -1, "gamma_initializer": {"class_name": "Ones", "config": {}}, "moving_variance_initializer": {"class_name": "Ones", "config": {}}, "moving_mean_initializer": {"class_name": "Zeros", "config": {}}, "epsilon": 1e-05, "gamma_regularizer": null, "scale": true, "beta_constraint": null, "beta_initializer": {"class_name": "Zeros", "config": {}}, "momentum": 0.9, "name": "normal_bn_1_14"}, "inbound_nodes": [[["normal_conv_1_14", 0, 0, {}]]], "name": "normal_bn_1_14"}, {"class_name": "Activation", "config": {"activation": "relu", "trainable": true, "name": "activation_1850"}, "inbound_nodes": [[["normal_bn_1_14", 0, 0, {}]]], "name": "activation_1850"}, {"class_name": "Activation", "config": {"activation": "relu", "trainable": true, "name": "activation_1852"}, "inbound_nodes": [[["adjust_bn_14", 0, 0, {}]]], "name": "activation_1852"}, {"class_name": "Activation", "config": {"activation": "relu", "trainable": true, "name": "activation_1854"}, "inbound_nodes": [[["adjust_bn_14", 0, 0, {}]]], "name": "activation_1854"}, {"class_name": "Activation", "config": {"activation": "relu", "trainable": true, "name": "activation_1856"}, "inbound_nodes": [[["adjust_bn_14", 0, 0, {}]]], "name": "activation_1856"}, {"class_name": "Activation", "config": {"activation": "relu", "trainable": true, "name": "activation_1858"}, "inbound_nodes": [[["normal_bn_1_14", 0, 0, {}]]], "name": "activation_1858"}, {"class_name": "SeparableConv2D", "config": {"kernel_size": [5, 5], "dilation_rate": [1, 1], "filters": 128, "bias_initializer": {"class_name": "Zeros", "config": {}}, "depthwise_regularizer": null, "strides": [1, 1], "data_format": "channels_last", "trainable": true, "bias_constraint": null, "name": "separable_conv_1_normal_left1_14", "depth_multiplier": 1, "pointwise_initializer": {"class_name": "VarianceScaling", "config": {"scale": 1.0, "mode": "fan_avg", "distribution": "uniform", "seed": null}}, "padding": "same", "pointwise_regularizer": null, "bias_regularizer": null, "depthwise_constraint": null, "activation": "linear", "use_bias": false, "pointwise_constraint": null, "depthwise_initializer": {"class_name": "VarianceScaling", "config": {"scale": 1.0, "mode": "fan_avg", "distribution": "uniform", "seed": null}}, "activity_regularizer": null}, "inbound_nodes": [[["activation_1850", 0, 0, {}]]], "name": "separable_conv_1_normal_left1_14"}, {"class_name": "SeparableConv2D", "config": {"kernel_size": [3, 3], "dilation_rate": [1, 1], "filters": 128, "bias_initializer": {"class_name": "Zeros", "config": {}}, "depthwise_regularizer": null, "strides": [1, 1], "data_format": "channels_last", "trainable": true, "bias_constraint": null, "name": "separable_conv_1_normal_right1_14", "depth_multiplier": 1, "pointwise_initializer": {"class_name": "VarianceScaling", "config": {"scale": 1.0, "mode": "fan_avg", "distribution": "uniform", "seed": null}}, "padding": "same", "pointwise_regularizer": null, "bias_regularizer": null, "depthwise_constraint": null, "activation": "linear", "use_bias": false, "pointwise_constraint": null, "depthwise_initializer": {"class_name": "VarianceScaling", "config": {"scale": 1.0, "mode": "fan_avg", "distribution": "uniform", "seed": null}}, "activity_regularizer": null}, "inbound_nodes": [[["activation_1852", 0, 0, {}]]], "name": "separable_conv_1_normal_right1_14"}, {"class_name": "SeparableConv2D", "config": {"kernel_size": [5, 5], "dilation_rate": [1, 1], "filters": 128, "bias_initializer": {"class_name": "Zeros", "config": {}}, "depthwise_regularizer": null, "strides": [1, 1], "data_format": "channels_last", "trainable": true, "bias_constraint": null, "name": "separable_conv_1_normal_left2_14", "depth_multiplier": 1, "pointwise_initializer": {"class_name": "VarianceScaling", "config": {"scale": 1.0, "mode": "fan_avg", "distribution": "uniform", "seed": null}}, "padding": "same", "pointwise_regularizer": null, "bias_regularizer": null, "depthwise_constraint": null, "activation": "linear", "use_bias": false, "pointwise_constraint": null, "depthwise_initializer": {"class_name": "VarianceScaling", "config": {"scale": 1.0, "mode": "fan_avg", "distribution": "uniform", "seed": null}}, "activity_regularizer": null}, "inbound_nodes": [[["activation_1854", 0, 0, {}]]], "name": "separable_conv_1_normal_left2_14"}, {"class_name": "SeparableConv2D", "config": {"kernel_size": [3, 3], "dilation_rate": [1, 1], "filters": 128, "bias_initializer": {"class_name": "Zeros", "config": {}}, "depthwise_regularizer": null, "strides": [1, 1], "data_format": "channels_last", "trainable": true, "bias_constraint": null, "name": "separable_conv_1_normal_right2_14", "depth_multiplier": 1, "pointwise_initializer": {"class_name": "VarianceScaling", "config": {"scale": 1.0, "mode": "fan_avg", "distribution": "uniform", "seed": null}}, "padding": "same", "pointwise_regularizer": null, "bias_regularizer": null, "depthwise_constraint": null, "activation": "linear", "use_bias": false, "pointwise_constraint": null, "depthwise_initializer": {"class_name": "VarianceScaling", "config": {"scale": 1.0, "mode": "fan_avg", "distribution": "uniform", "seed": null}}, "activity_regularizer": null}, "inbound_nodes": [[["activation_1856", 0, 0, {}]]], "name": "separable_conv_1_normal_right2_14"}, {"class_name": "SeparableConv2D", "config": {"kernel_size": [3, 3], "dilation_rate": [1, 1], "filters": 128, "bias_initializer": {"class_name": "Zeros", "config": {}}, "depthwise_regularizer": null, "strides": [1, 1], "data_format": "channels_last", "trainable": true, "bias_constraint": null, "name": "separable_conv_1_normal_left5_14", "depth_multiplier": 1, "pointwise_initializer": {"class_name": "VarianceScaling", "config": {"scale": 1.0, "mode": "fan_avg", "distribution": "uniform", "seed": null}}, "padding": "same", "pointwise_regularizer": null, "bias_regularizer": null, "depthwise_constraint": null, "activation": "linear", "use_bias": false, "pointwise_constraint": null, "depthwise_initializer": {"class_name": "VarianceScaling", "config": {"scale": 1.0, "mode": "fan_avg", "distribution": "uniform", "seed": null}}, "activity_regularizer": null}, "inbound_nodes": [[["activation_1858", 0, 0, {}]]], "name": "separable_conv_1_normal_left5_14"}, {"class_name": "BatchNormalization", "config": {"beta_regularizer": null, "center": true, "trainable": true, "gamma_constraint": null, "axis": -1, "gamma_initializer": {"class_name": "Ones", "config": {}}, "moving_variance_initializer": {"class_name": "Ones", "config": {}}, "moving_mean_initializer": {"class_name": "Zeros", "config": {}}, "epsilon": 1e-05, "gamma_regularizer": null, "scale": true, "beta_constraint": null, "beta_initializer": {"class_name": "Zeros", "config": {}}, "momentum": 0.9, "name": "separable_conv_1_bn_normal_left1_14"}, "inbound_nodes": [[["separable_conv_1_normal_left1_14", 0, 0, {}]]], "name": "separable_conv_1_bn_normal_left1_14"}, {"class_name": "BatchNormalization", "config": {"beta_regularizer": null, "center": true, "trainable": true, "gamma_constraint": null, "axis": -1, "gamma_initializer": {"class_name": "Ones", "config": {}}, "moving_variance_initializer": {"class_name": "Ones", "config": {}}, "moving_mean_initializer": {"class_name": "Zeros", "config": {}}, "epsilon": 1e-05, "gamma_regularizer": null, "scale": true, "beta_constraint": null, "beta_initializer": {"class_name": "Zeros", "config": {}}, "momentum": 0.9, "name": "separable_conv_1_bn_normal_right1_14"}, "inbound_nodes": [[["separable_conv_1_normal_right1_14", 0, 0, {}]]], "name": "separable_conv_1_bn_normal_right1_14"}, {"class_name": "BatchNormalization", "config": {"beta_regularizer": null, "center": true, "trainable": true, "gamma_constraint": null, "axis": -1, "gamma_initializer": {"class_name": "Ones", "config": {}}, "moving_variance_initializer": {"class_name": "Ones", "config": {}}, "moving_mean_initializer": {"class_name": "Zeros", "config": {}}, "epsilon": 1e-05, "gamma_regularizer": null, "scale": true, "beta_constraint": null, "beta_initializer": {"class_name": "Zeros", "config": {}}, "momentum": 0.9, "name": "separable_conv_1_bn_normal_left2_14"}, "inbound_nodes": [[["separable_conv_1_normal_left2_14", 0, 0, {}]]], "name": "separable_conv_1_bn_normal_left2_14"}, {"class_name": "BatchNormalization", "config": {"beta_regularizer": null, "center": true, "trainable": true, "gamma_constraint": null, "axis": -1, "gamma_initializer": {"class_name": "Ones", "config": {}}, "moving_variance_initializer": {"class_name": "Ones", "config": {}}, "moving_mean_initializer": {"class_name": "Zeros", "config": {}}, "epsilon": 1e-05, "gamma_regularizer": null, "scale": true, "beta_constraint": null, "beta_initializer": {"class_name": "Zeros", "config": {}}, "momentum": 0.9, "name": "separable_conv_1_bn_normal_right2_14"}, "inbound_nodes": [[["separable_conv_1_normal_right2_14", 0, 0, {}]]], "name": "separable_conv_1_bn_normal_right2_14"}, {"class_name": "BatchNormalization", "config": {"beta_regularizer": null, "center": true, "trainable": true, "gamma_constraint": null, "axis": -1, "gamma_initializer": {"class_name": "Ones", "config": {}}, "moving_variance_initializer": {"class_name": "Ones", "config": {}}, "moving_mean_initializer": {"class_name": "Zeros", "config": {}}, "epsilon": 1e-05, "gamma_regularizer": null, "scale": true, "beta_constraint": null, "beta_initializer": {"class_name": "Zeros", "config": {}}, "momentum": 0.9, "name": "separable_conv_1_bn_normal_left5_14"}, "inbound_nodes": [[["separable_conv_1_normal_left5_14", 0, 0, {}]]], "name": "separable_conv_1_bn_normal_left5_14"}, {"class_name": "Activation", "config": {"activation": "relu", "trainable": true, "name": "activation_1851"}, "inbound_nodes": [[["separable_conv_1_bn_normal_left1_14", 0, 0, {}]]], "name": "activation_1851"}, {"class_name": "Activation", "config": {"activation": "relu", "trainable": true, "name": "activation_1853"}, "inbound_nodes": [[["separable_conv_1_bn_normal_right1_14", 0, 0, {}]]], "name": "activation_1853"}, {"class_name": "Activation", "config": {"activation": "relu", "trainable": true, "name": "activation_1855"}, "inbound_nodes": [[["separable_conv_1_bn_normal_left2_14", 0, 0, {}]]], "name": "activation_1855"}, {"class_name": "Activation", "config": {"activation": "relu", "trainable": true, "name": "activation_1857"}, "inbound_nodes": [[["separable_conv_1_bn_normal_right2_14", 0, 0, {}]]], "name": "activation_1857"}, {"class_name": "Activation", "config": {"activation": "relu", "trainable": true, "name": "activation_1859"}, "inbound_nodes": [[["separable_conv_1_bn_normal_left5_14", 0, 0, {}]]], "name": "activation_1859"}, {"class_name": "SeparableConv2D", "config": {"kernel_size": [5, 5], "dilation_rate": [1, 1], "filters": 128, "bias_initializer": {"class_name": "Zeros", "config": {}}, "depthwise_regularizer": null, "strides": [1, 1], "data_format": "channels_last", "trainable": true, "bias_constraint": null, "name": "separable_conv_2_normal_left1_14", "depth_multiplier": 1, "pointwise_initializer": {"class_name": "VarianceScaling", "config": {"scale": 1.0, "mode": "fan_avg", "distribution": "uniform", "seed": null}}, "padding": "same", "pointwise_regularizer": null, "bias_regularizer": null, "depthwise_constraint": null, "activation": "linear", "use_bias": false, "pointwise_constraint": null, "depthwise_initializer": {"class_name": "VarianceScaling", "config": {"scale": 1.0, "mode": "fan_avg", "distribution": "uniform", "seed": null}}, "activity_regularizer": null}, "inbound_nodes": [[["activation_1851", 0, 0, {}]]], "name": "separable_conv_2_normal_left1_14"}, {"class_name": "SeparableConv2D", "config": {"kernel_size": [3, 3], "dilation_rate": [1, 1], "filters": 128, "bias_initializer": {"class_name": "Zeros", "config": {}}, "depthwise_regularizer": null, "strides": [1, 1], "data_format": "channels_last", "trainable": true, "bias_constraint": null, "name": "separable_conv_2_normal_right1_14", "depth_multiplier": 1, "pointwise_initializer": {"class_name": "VarianceScaling", "config": {"scale": 1.0, "mode": "fan_avg", "distribution": "uniform", "seed": null}}, "padding": "same", "pointwise_regularizer": null, "bias_regularizer": null, "depthwise_constraint": null, "activation": "linear", "use_bias": false, "pointwise_constraint": null, "depthwise_initializer": {"class_name": "VarianceScaling", "config": {"scale": 1.0, "mode": "fan_avg", "distribution": "uniform", "seed": null}}, "activity_regularizer": null}, "inbound_nodes": [[["activation_1853", 0, 0, {}]]], "name": "separable_conv_2_normal_right1_14"}, {"class_name": "SeparableConv2D", "config": {"kernel_size": [5, 5], "dilation_rate": [1, 1], "filters": 128, "bias_initializer": {"class_name": "Zeros", "config": {}}, "depthwise_regularizer": null, "strides": [1, 1], "data_format": "channels_last", "trainable": true, "bias_constraint": null, "name": "separable_conv_2_normal_left2_14", "depth_multiplier": 1, "pointwise_initializer": {"class_name": "VarianceScaling", "config": {"scale": 1.0, "mode": "fan_avg", "distribution": "uniform", "seed": null}}, "padding": "same", "pointwise_regularizer": null, "bias_regularizer": null, "depthwise_constraint": null, "activation": "linear", "use_bias": false, "pointwise_constraint": null, "depthwise_initializer": {"class_name": "VarianceScaling", "config": {"scale": 1.0, "mode": "fan_avg", "distribution": "uniform", "seed": null}}, "activity_regularizer": null}, "inbound_nodes": [[["activation_1855", 0, 0, {}]]], "name": "separable_conv_2_normal_left2_14"}, {"class_name": "SeparableConv2D", "config": {"kernel_size": [3, 3], "dilation_rate": [1, 1], "filters": 128, "bias_initializer": {"class_name": "Zeros", "config": {}}, "depthwise_regularizer": null, "strides": [1, 1], "data_format": "channels_last", "trainable": true, "bias_constraint": null, "name": "separable_conv_2_normal_right2_14", "depth_multiplier": 1, "pointwise_initializer": {"class_name": "VarianceScaling", "config": {"scale": 1.0, "mode": "fan_avg", "distribution": "uniform", "seed": null}}, "padding": "same", "pointwise_regularizer": null, "bias_regularizer": null, "depthwise_constraint": null, "activation": "linear", "use_bias": false, "pointwise_constraint": null, "depthwise_initializer": {"class_name": "VarianceScaling", "config": {"scale": 1.0, "mode": "fan_avg", "distribution": "uniform", "seed": null}}, "activity_regularizer": null}, "inbound_nodes": [[["activation_1857", 0, 0, {}]]], "name": "separable_conv_2_normal_right2_14"}, {"class_name": "SeparableConv2D", "config": {"kernel_size": [3, 3], "dilation_rate": [1, 1], "filters": 128, "bias_initializer": {"class_name": "Zeros", "config": {}}, "depthwise_regularizer": null, "strides": [1, 1], "data_format": "channels_last", "trainable": true, "bias_constraint": null, "name": "separable_conv_2_normal_left5_14", "depth_multiplier": 1, "pointwise_initializer": {"class_name": "VarianceScaling", "config": {"scale": 1.0, "mode": "fan_avg", "distribution": "uniform", "seed": null}}, "padding": "same", "pointwise_regularizer": null, "bias_regularizer": null, "depthwise_constraint": null, "activation": "linear", "use_bias": false, "pointwise_constraint": null, "depthwise_initializer": {"class_name": "VarianceScaling", "config": {"scale": 1.0, "mode": "fan_avg", "distribution": "uniform", "seed": null}}, "activity_regularizer": null}, "inbound_nodes": [[["activation_1859", 0, 0, {}]]], "name": "separable_conv_2_normal_left5_14"}, {"class_name": "BatchNormalization", "config": {"beta_regularizer": null, "center": true, "trainable": true, "gamma_constraint": null, "axis": -1, "gamma_initializer": {"class_name": "Ones", "config": {}}, "moving_variance_initializer": {"class_name": "Ones", "config": {}}, "moving_mean_initializer": {"class_name": "Zeros", "config": {}}, "epsilon": 1e-05, "gamma_regularizer": null, "scale": true, "beta_constraint": null, "beta_initializer": {"class_name": "Zeros", "config": {}}, "momentum": 0.9, "name": "separable_conv_2_bn_normal_left1_14"}, "inbound_nodes": [[["separable_conv_2_normal_left1_14", 0, 0, {}]]], "name": "separable_conv_2_bn_normal_left1_14"}, {"class_name": "BatchNormalization", "config": {"beta_regularizer": null, "center": true, "trainable": true, "gamma_constraint": null, "axis": -1, "gamma_initializer": {"class_name": "Ones", "config": {}}, "moving_variance_initializer": {"class_name": "Ones", "config": {}}, "moving_mean_initializer": {"class_name": "Zeros", "config": {}}, "epsilon": 1e-05, "gamma_regularizer": null, "scale": true, "beta_constraint": null, "beta_initializer": {"class_name": "Zeros", "config": {}}, "momentum": 0.9, "name": "separable_conv_2_bn_normal_right1_14"}, "inbound_nodes": [[["separable_conv_2_normal_right1_14", 0, 0, {}]]], "name": "separable_conv_2_bn_normal_right1_14"}, {"class_name": "BatchNormalization", "config": {"beta_regularizer": null, "center": true, "trainable": true, "gamma_constraint": null, "axis": -1, "gamma_initializer": {"class_name": "Ones", "config": {}}, "moving_variance_initializer": {"class_name": "Ones", "config": {}}, "moving_mean_initializer": {"class_name": "Zeros", "config": {}}, "epsilon": 1e-05, "gamma_regularizer": null, "scale": true, "beta_constraint": null, "beta_initializer": {"class_name": "Zeros", "config": {}}, "momentum": 0.9, "name": "separable_conv_2_bn_normal_left2_14"}, "inbound_nodes": [[["separable_conv_2_normal_left2_14", 0, 0, {}]]], "name": "separable_conv_2_bn_normal_left2_14"}, {"class_name": "BatchNormalization", "config": {"beta_regularizer": null, "center": true, "trainable": true, "gamma_constraint": null, "axis": -1, "gamma_initializer": {"class_name": "Ones", "config": {}}, "moving_variance_initializer": {"class_name": "Ones", "config": {}}, "moving_mean_initializer": {"class_name": "Zeros", "config": {}}, "epsilon": 1e-05, "gamma_regularizer": null, "scale": true, "beta_constraint": null, "beta_initializer": {"class_name": "Zeros", "config": {}}, "momentum": 0.9, "name": "separable_conv_2_bn_normal_right2_14"}, "inbound_nodes": [[["separable_conv_2_normal_right2_14", 0, 0, {}]]], "name": "separable_conv_2_bn_normal_right2_14"}, {"class_name": "AveragePooling2D", "config": {"padding": "same", "data_format": "channels_last", "pool_size": [3, 3], "trainable": true, "strides": [1, 1], "name": "normal_left3_14"}, "inbound_nodes": [[["normal_bn_1_14", 0, 0, {}]]], "name": "normal_left3_14"}, {"class_name": "AveragePooling2D", "config": {"padding": "same", "data_format": "channels_last", "pool_size": [3, 3], "trainable": true, "strides": [1, 1], "name": "normal_left4_14"}, "inbound_nodes": [[["adjust_bn_14", 0, 0, {}]]], "name": "normal_left4_14"}, {"class_name": "AveragePooling2D", "config": {"padding": "same", "data_format": "channels_last", "pool_size": [3, 3], "trainable": true, "strides": [1, 1], "name": "normal_right4_14"}, "inbound_nodes": [[["adjust_bn_14", 0, 0, {}]]], "name": "normal_right4_14"}, {"class_name": "BatchNormalization", "config": {"beta_regularizer": null, "center": true, "trainable": true, "gamma_constraint": null, "axis": -1, "gamma_initializer": {"class_name": "Ones", "config": {}}, "moving_variance_initializer": {"class_name": "Ones", "config": {}}, "moving_mean_initializer": {"class_name": "Zeros", "config": {}}, "epsilon": 1e-05, "gamma_regularizer": null, "scale": true, "beta_constraint": null, "beta_initializer": {"class_name": "Zeros", "config": {}}, "momentum": 0.9, "name": "separable_conv_2_bn_normal_left5_14"}, "inbound_nodes": [[["separable_conv_2_normal_left5_14", 0, 0, {}]]], "name": "separable_conv_2_bn_normal_left5_14"}, {"class_name": "Add", "config": {"trainable": true, "name": "normal_add_1_14"}, "inbound_nodes": [[["separable_conv_2_bn_normal_left1_14", 0, 0, {}], ["separable_conv_2_bn_normal_right1_14", 0, 0, {}]]], "name": "normal_add_1_14"}, {"class_name": "Add", "config": {"trainable": true, "name": "normal_add_2_14"}, "inbound_nodes": [[["separable_conv_2_bn_normal_left2_14", 0, 0, {}], ["separable_conv_2_bn_normal_right2_14", 0, 0, {}]]], "name": "normal_add_2_14"}, {"class_name": "Add", "config": {"trainable": true, "name": "normal_add_3_14"}, "inbound_nodes": [[["normal_left3_14", 0, 0, {}], ["adjust_bn_14", 0, 0, {}]]], "name": "normal_add_3_14"}, {"class_name": "Add", "config": {"trainable": true, "name": "normal_add_4_14"}, "inbound_nodes": [[["normal_left4_14", 0, 0, {}], ["normal_right4_14", 0, 0, {}]]], "name": "normal_add_4_14"}, {"class_name": "Add", "config": {"trainable": true, "name": "normal_add_5_14"}, "inbound_nodes": [[["separable_conv_2_bn_normal_left5_14", 0, 0, {}], ["normal_bn_1_14", 0, 0, {}]]], "name": "normal_add_5_14"}, {"class_name": "Concatenate", "config": {"axis": -1, "trainable": true, "name": "normal_concat_14"}, "inbound_nodes": [[["adjust_bn_14", 0, 0, {}], ["normal_add_1_14", 0, 0, {}], ["normal_add_2_14", 0, 0, {}], ["normal_add_3_14", 0, 0, {}], ["normal_add_4_14", 0, 0, {}], ["normal_add_5_14", 0, 0, {}]]], "name": "normal_concat_14"}, {"class_name": "Activation", "config": {"activation": "relu", "trainable": true, "name": "activation_1860"}, "inbound_nodes": [[["normal_concat_13", 0, 0, {}]]], "name": "activation_1860"}, {"class_name": "Activation", "config": {"activation": "relu", "trainable": true, "name": "activation_1861"}, "inbound_nodes": [[["normal_concat_14", 0, 0, {}]]], "name": "activation_1861"}, {"class_name": "Conv2D", "config": {"kernel_size": [1, 1], "dilation_rate": [1, 1], "filters": 128, "padding": "same", "bias_initializer": {"class_name": "Zeros", "config": {}}, "name": "adjust_conv_projection_15", "strides": [1, 1], "kernel_initializer": {"class_name": "VarianceScaling", "config": {"scale": 2.0, "mode": "fan_in", "distribution": "normal", "seed": null}}, "trainable": true, "bias_constraint": null, "data_format": "channels_last", "activation": "linear", "use_bias": false, "kernel_regularizer": {"class_name": "L1L2", "config": {"l1": 0.0, "l2": 0.0005000000237487257}}, "kernel_constraint": null, "bias_regularizer": null, "activity_regularizer": null}, "inbound_nodes": [[["activation_1860", 0, 0, {}]]], "name": "adjust_conv_projection_15"}, {"class_name": "Conv2D", "config": {"kernel_size": [1, 1], "dilation_rate": [1, 1], "filters": 128, "padding": "same", "bias_initializer": {"class_name": "Zeros", "config": {}}, "name": "normal_conv_1_15", "strides": [1, 1], "kernel_initializer": {"class_name": "VarianceScaling", "config": {"scale": 2.0, "mode": "fan_in", "distribution": "normal", "seed": null}}, "trainable": true, "bias_constraint": null, "data_format": "channels_last", "activation": "linear", "use_bias": false, "kernel_regularizer": {"class_name": "L1L2", "config": {"l1": 0.0, "l2": 0.0005000000237487257}}, "kernel_constraint": null, "bias_regularizer": null, "activity_regularizer": null}, "inbound_nodes": [[["activation_1861", 0, 0, {}]]], "name": "normal_conv_1_15"}, {"class_name": "BatchNormalization", "config": {"beta_regularizer": null, "center": true, "trainable": true, "gamma_constraint": null, "axis": -1, "gamma_initializer": {"class_name": "Ones", "config": {}}, "moving_variance_initializer": {"class_name": "Ones", "config": {}}, "moving_mean_initializer": {"class_name": "Zeros", "config": {}}, "epsilon": 1e-05, "gamma_regularizer": null, "scale": true, "beta_constraint": null, "beta_initializer": {"class_name": "Zeros", "config": {}}, "momentum": 0.9, "name": "adjust_bn_15"}, "inbound_nodes": [[["adjust_conv_projection_15", 0, 0, {}]]], "name": "adjust_bn_15"}, {"class_name": "BatchNormalization", "config": {"beta_regularizer": null, "center": true, "trainable": true, "gamma_constraint": null, "axis": -1, "gamma_initializer": {"class_name": "Ones", "config": {}}, "moving_variance_initializer": {"class_name": "Ones", "config": {}}, "moving_mean_initializer": {"class_name": "Zeros", "config": {}}, "epsilon": 1e-05, "gamma_regularizer": null, "scale": true, "beta_constraint": null, "beta_initializer": {"class_name": "Zeros", "config": {}}, "momentum": 0.9, "name": "normal_bn_1_15"}, "inbound_nodes": [[["normal_conv_1_15", 0, 0, {}]]], "name": "normal_bn_1_15"}, {"class_name": "Activation", "config": {"activation": "relu", "trainable": true, "name": "activation_1862"}, "inbound_nodes": [[["normal_bn_1_15", 0, 0, {}]]], "name": "activation_1862"}, {"class_name": "Activation", "config": {"activation": "relu", "trainable": true, "name": "activation_1864"}, "inbound_nodes": [[["adjust_bn_15", 0, 0, {}]]], "name": "activation_1864"}, {"class_name": "Activation", "config": {"activation": "relu", "trainable": true, "name": "activation_1866"}, "inbound_nodes": [[["adjust_bn_15", 0, 0, {}]]], "name": "activation_1866"}, {"class_name": "Activation", "config": {"activation": "relu", "trainable": true, "name": "activation_1868"}, "inbound_nodes": [[["adjust_bn_15", 0, 0, {}]]], "name": "activation_1868"}, {"class_name": "Activation", "config": {"activation": "relu", "trainable": true, "name": "activation_1870"}, "inbound_nodes": [[["normal_bn_1_15", 0, 0, {}]]], "name": "activation_1870"}, {"class_name": "SeparableConv2D", "config": {"kernel_size": [5, 5], "dilation_rate": [1, 1], "filters": 128, "bias_initializer": {"class_name": "Zeros", "config": {}}, "depthwise_regularizer": null, "strides": [1, 1], "data_format": "channels_last", "trainable": true, "bias_constraint": null, "name": "separable_conv_1_normal_left1_15", "depth_multiplier": 1, "pointwise_initializer": {"class_name": "VarianceScaling", "config": {"scale": 1.0, "mode": "fan_avg", "distribution": "uniform", "seed": null}}, "padding": "same", "pointwise_regularizer": null, "bias_regularizer": null, "depthwise_constraint": null, "activation": "linear", "use_bias": false, "pointwise_constraint": null, "depthwise_initializer": {"class_name": "VarianceScaling", "config": {"scale": 1.0, "mode": "fan_avg", "distribution": "uniform", "seed": null}}, "activity_regularizer": null}, "inbound_nodes": [[["activation_1862", 0, 0, {}]]], "name": "separable_conv_1_normal_left1_15"}, {"class_name": "SeparableConv2D", "config": {"kernel_size": [3, 3], "dilation_rate": [1, 1], "filters": 128, "bias_initializer": {"class_name": "Zeros", "config": {}}, "depthwise_regularizer": null, "strides": [1, 1], "data_format": "channels_last", "trainable": true, "bias_constraint": null, "name": "separable_conv_1_normal_right1_15", "depth_multiplier": 1, "pointwise_initializer": {"class_name": "VarianceScaling", "config": {"scale": 1.0, "mode": "fan_avg", "distribution": "uniform", "seed": null}}, "padding": "same", "pointwise_regularizer": null, "bias_regularizer": null, "depthwise_constraint": null, "activation": "linear", "use_bias": false, "pointwise_constraint": null, "depthwise_initializer": {"class_name": "VarianceScaling", "config": {"scale": 1.0, "mode": "fan_avg", "distribution": "uniform", "seed": null}}, "activity_regularizer": null}, "inbound_nodes": [[["activation_1864", 0, 0, {}]]], "name": "separable_conv_1_normal_right1_15"}, {"class_name": "SeparableConv2D", "config": {"kernel_size": [5, 5], "dilation_rate": [1, 1], "filters": 128, "bias_initializer": {"class_name": "Zeros", "config": {}}, "depthwise_regularizer": null, "strides": [1, 1], "data_format": "channels_last", "trainable": true, "bias_constraint": null, "name": "separable_conv_1_normal_left2_15", "depth_multiplier": 1, "pointwise_initializer": {"class_name": "VarianceScaling", "config": {"scale": 1.0, "mode": "fan_avg", "distribution": "uniform", "seed": null}}, "padding": "same", "pointwise_regularizer": null, "bias_regularizer": null, "depthwise_constraint": null, "activation": "linear", "use_bias": false, "pointwise_constraint": null, "depthwise_initializer": {"class_name": "VarianceScaling", "config": {"scale": 1.0, "mode": "fan_avg", "distribution": "uniform", "seed": null}}, "activity_regularizer": null}, "inbound_nodes": [[["activation_1866", 0, 0, {}]]], "name": "separable_conv_1_normal_left2_15"}, {"class_name": "SeparableConv2D", "config": {"kernel_size": [3, 3], "dilation_rate": [1, 1], "filters": 128, "bias_initializer": {"class_name": "Zeros", "config": {}}, "depthwise_regularizer": null, "strides": [1, 1], "data_format": "channels_last", "trainable": true, "bias_constraint": null, "name": "separable_conv_1_normal_right2_15", "depth_multiplier": 1, "pointwise_initializer": {"class_name": "VarianceScaling", "config": {"scale": 1.0, "mode": "fan_avg", "distribution": "uniform", "seed": null}}, "padding": "same", "pointwise_regularizer": null, "bias_regularizer": null, "depthwise_constraint": null, "activation": "linear", "use_bias": false, "pointwise_constraint": null, "depthwise_initializer": {"class_name": "VarianceScaling", "config": {"scale": 1.0, "mode": "fan_avg", "distribution": "uniform", "seed": null}}, "activity_regularizer": null}, "inbound_nodes": [[["activation_1868", 0, 0, {}]]], "name": "separable_conv_1_normal_right2_15"}, {"class_name": "SeparableConv2D", "config": {"kernel_size": [3, 3], "dilation_rate": [1, 1], "filters": 128, "bias_initializer": {"class_name": "Zeros", "config": {}}, "depthwise_regularizer": null, "strides": [1, 1], "data_format": "channels_last", "trainable": true, "bias_constraint": null, "name": "separable_conv_1_normal_left5_15", "depth_multiplier": 1, "pointwise_initializer": {"class_name": "VarianceScaling", "config": {"scale": 1.0, "mode": "fan_avg", "distribution": "uniform", "seed": null}}, "padding": "same", "pointwise_regularizer": null, "bias_regularizer": null, "depthwise_constraint": null, "activation": "linear", "use_bias": false, "pointwise_constraint": null, "depthwise_initializer": {"class_name": "VarianceScaling", "config": {"scale": 1.0, "mode": "fan_avg", "distribution": "uniform", "seed": null}}, "activity_regularizer": null}, "inbound_nodes": [[["activation_1870", 0, 0, {}]]], "name": "separable_conv_1_normal_left5_15"}, {"class_name": "BatchNormalization", "config": {"beta_regularizer": null, "center": true, "trainable": true, "gamma_constraint": null, "axis": -1, "gamma_initializer": {"class_name": "Ones", "config": {}}, "moving_variance_initializer": {"class_name": "Ones", "config": {}}, "moving_mean_initializer": {"class_name": "Zeros", "config": {}}, "epsilon": 1e-05, "gamma_regularizer": null, "scale": true, "beta_constraint": null, "beta_initializer": {"class_name": "Zeros", "config": {}}, "momentum": 0.9, "name": "separable_conv_1_bn_normal_left1_15"}, "inbound_nodes": [[["separable_conv_1_normal_left1_15", 0, 0, {}]]], "name": "separable_conv_1_bn_normal_left1_15"}, {"class_name": "BatchNormalization", "config": {"beta_regularizer": null, "center": true, "trainable": true, "gamma_constraint": null, "axis": -1, "gamma_initializer": {"class_name": "Ones", "config": {}}, "moving_variance_initializer": {"class_name": "Ones", "config": {}}, "moving_mean_initializer": {"class_name": "Zeros", "config": {}}, "epsilon": 1e-05, "gamma_regularizer": null, "scale": true, "beta_constraint": null, "beta_initializer": {"class_name": "Zeros", "config": {}}, "momentum": 0.9, "name": "separable_conv_1_bn_normal_right1_15"}, "inbound_nodes": [[["separable_conv_1_normal_right1_15", 0, 0, {}]]], "name": "separable_conv_1_bn_normal_right1_15"}, {"class_name": "BatchNormalization", "config": {"beta_regularizer": null, "center": true, "trainable": true, "gamma_constraint": null, "axis": -1, "gamma_initializer": {"class_name": "Ones", "config": {}}, "moving_variance_initializer": {"class_name": "Ones", "config": {}}, "moving_mean_initializer": {"class_name": "Zeros", "config": {}}, "epsilon": 1e-05, "gamma_regularizer": null, "scale": true, "beta_constraint": null, "beta_initializer": {"class_name": "Zeros", "config": {}}, "momentum": 0.9, "name": "separable_conv_1_bn_normal_left2_15"}, "inbound_nodes": [[["separable_conv_1_normal_left2_15", 0, 0, {}]]], "name": "separable_conv_1_bn_normal_left2_15"}, {"class_name": "BatchNormalization", "config": {"beta_regularizer": null, "center": true, "trainable": true, "gamma_constraint": null, "axis": -1, "gamma_initializer": {"class_name": "Ones", "config": {}}, "moving_variance_initializer": {"class_name": "Ones", "config": {}}, "moving_mean_initializer": {"class_name": "Zeros", "config": {}}, "epsilon": 1e-05, "gamma_regularizer": null, "scale": true, "beta_constraint": null, "beta_initializer": {"class_name": "Zeros", "config": {}}, "momentum": 0.9, "name": "separable_conv_1_bn_normal_right2_15"}, "inbound_nodes": [[["separable_conv_1_normal_right2_15", 0, 0, {}]]], "name": "separable_conv_1_bn_normal_right2_15"}, {"class_name": "BatchNormalization", "config": {"beta_regularizer": null, "center": true, "trainable": true, "gamma_constraint": null, "axis": -1, "gamma_initializer": {"class_name": "Ones", "config": {}}, "moving_variance_initializer": {"class_name": "Ones", "config": {}}, "moving_mean_initializer": {"class_name": "Zeros", "config": {}}, "epsilon": 1e-05, "gamma_regularizer": null, "scale": true, "beta_constraint": null, "beta_initializer": {"class_name": "Zeros", "config": {}}, "momentum": 0.9, "name": "separable_conv_1_bn_normal_left5_15"}, "inbound_nodes": [[["separable_conv_1_normal_left5_15", 0, 0, {}]]], "name": "separable_conv_1_bn_normal_left5_15"}, {"class_name": "Activation", "config": {"activation": "relu", "trainable": true, "name": "activation_1863"}, "inbound_nodes": [[["separable_conv_1_bn_normal_left1_15", 0, 0, {}]]], "name": "activation_1863"}, {"class_name": "Activation", "config": {"activation": "relu", "trainable": true, "name": "activation_1865"}, "inbound_nodes": [[["separable_conv_1_bn_normal_right1_15", 0, 0, {}]]], "name": "activation_1865"}, {"class_name": "Activation", "config": {"activation": "relu", "trainable": true, "name": "activation_1867"}, "inbound_nodes": [[["separable_conv_1_bn_normal_left2_15", 0, 0, {}]]], "name": "activation_1867"}, {"class_name": "Activation", "config": {"activation": "relu", "trainable": true, "name": "activation_1869"}, "inbound_nodes": [[["separable_conv_1_bn_normal_right2_15", 0, 0, {}]]], "name": "activation_1869"}, {"class_name": "Activation", "config": {"activation": "relu", "trainable": true, "name": "activation_1871"}, "inbound_nodes": [[["separable_conv_1_bn_normal_left5_15", 0, 0, {}]]], "name": "activation_1871"}, {"class_name": "SeparableConv2D", "config": {"kernel_size": [5, 5], "dilation_rate": [1, 1], "filters": 128, "bias_initializer": {"class_name": "Zeros", "config": {}}, "depthwise_regularizer": null, "strides": [1, 1], "data_format": "channels_last", "trainable": true, "bias_constraint": null, "name": "separable_conv_2_normal_left1_15", "depth_multiplier": 1, "pointwise_initializer": {"class_name": "VarianceScaling", "config": {"scale": 1.0, "mode": "fan_avg", "distribution": "uniform", "seed": null}}, "padding": "same", "pointwise_regularizer": null, "bias_regularizer": null, "depthwise_constraint": null, "activation": "linear", "use_bias": false, "pointwise_constraint": null, "depthwise_initializer": {"class_name": "VarianceScaling", "config": {"scale": 1.0, "mode": "fan_avg", "distribution": "uniform", "seed": null}}, "activity_regularizer": null}, "inbound_nodes": [[["activation_1863", 0, 0, {}]]], "name": "separable_conv_2_normal_left1_15"}, {"class_name": "SeparableConv2D", "config": {"kernel_size": [3, 3], "dilation_rate": [1, 1], "filters": 128, "bias_initializer": {"class_name": "Zeros", "config": {}}, "depthwise_regularizer": null, "strides": [1, 1], "data_format": "channels_last", "trainable": true, "bias_constraint": null, "name": "separable_conv_2_normal_right1_15", "depth_multiplier": 1, "pointwise_initializer": {"class_name": "VarianceScaling", "config": {"scale": 1.0, "mode": "fan_avg", "distribution": "uniform", "seed": null}}, "padding": "same", "pointwise_regularizer": null, "bias_regularizer": null, "depthwise_constraint": null, "activation": "linear", "use_bias": false, "pointwise_constraint": null, "depthwise_initializer": {"class_name": "VarianceScaling", "config": {"scale": 1.0, "mode": "fan_avg", "distribution": "uniform", "seed": null}}, "activity_regularizer": null}, "inbound_nodes": [[["activation_1865", 0, 0, {}]]], "name": "separable_conv_2_normal_right1_15"}, {"class_name": "SeparableConv2D", "config": {"kernel_size": [5, 5], "dilation_rate": [1, 1], "filters": 128, "bias_initializer": {"class_name": "Zeros", "config": {}}, "depthwise_regularizer": null, "strides": [1, 1], "data_format": "channels_last", "trainable": true, "bias_constraint": null, "name": "separable_conv_2_normal_left2_15", "depth_multiplier": 1, "pointwise_initializer": {"class_name": "VarianceScaling", "config": {"scale": 1.0, "mode": "fan_avg", "distribution": "uniform", "seed": null}}, "padding": "same", "pointwise_regularizer": null, "bias_regularizer": null, "depthwise_constraint": null, "activation": "linear", "use_bias": false, "pointwise_constraint": null, "depthwise_initializer": {"class_name": "VarianceScaling", "config": {"scale": 1.0, "mode": "fan_avg", "distribution": "uniform", "seed": null}}, "activity_regularizer": null}, "inbound_nodes": [[["activation_1867", 0, 0, {}]]], "name": "separable_conv_2_normal_left2_15"}, {"class_name": "SeparableConv2D", "config": {"kernel_size": [3, 3], "dilation_rate": [1, 1], "filters": 128, "bias_initializer": {"class_name": "Zeros", "config": {}}, "depthwise_regularizer": null, "strides": [1, 1], "data_format": "channels_last", "trainable": true, "bias_constraint": null, "name": "separable_conv_2_normal_right2_15", "depth_multiplier": 1, "pointwise_initializer": {"class_name": "VarianceScaling", "config": {"scale": 1.0, "mode": "fan_avg", "distribution": "uniform", "seed": null}}, "padding": "same", "pointwise_regularizer": null, "bias_regularizer": null, "depthwise_constraint": null, "activation": "linear", "use_bias": false, "pointwise_constraint": null, "depthwise_initializer": {"class_name": "VarianceScaling", "config": {"scale": 1.0, "mode": "fan_avg", "distribution": "uniform", "seed": null}}, "activity_regularizer": null}, "inbound_nodes": [[["activation_1869", 0, 0, {}]]], "name": "separable_conv_2_normal_right2_15"}, {"class_name": "SeparableConv2D", "config": {"kernel_size": [3, 3], "dilation_rate": [1, 1], "filters": 128, "bias_initializer": {"class_name": "Zeros", "config": {}}, "depthwise_regularizer": null, "strides": [1, 1], "data_format": "channels_last", "trainable": true, "bias_constraint": null, "name": "separable_conv_2_normal_left5_15", "depth_multiplier": 1, "pointwise_initializer": {"class_name": "VarianceScaling", "config": {"scale": 1.0, "mode": "fan_avg", "distribution": "uniform", "seed": null}}, "padding": "same", "pointwise_regularizer": null, "bias_regularizer": null, "depthwise_constraint": null, "activation": "linear", "use_bias": false, "pointwise_constraint": null, "depthwise_initializer": {"class_name": "VarianceScaling", "config": {"scale": 1.0, "mode": "fan_avg", "distribution": "uniform", "seed": null}}, "activity_regularizer": null}, "inbound_nodes": [[["activation_1871", 0, 0, {}]]], "name": "separable_conv_2_normal_left5_15"}, {"class_name": "BatchNormalization", "config": {"beta_regularizer": null, "center": true, "trainable": true, "gamma_constraint": null, "axis": -1, "gamma_initializer": {"class_name": "Ones", "config": {}}, "moving_variance_initializer": {"class_name": "Ones", "config": {}}, "moving_mean_initializer": {"class_name": "Zeros", "config": {}}, "epsilon": 1e-05, "gamma_regularizer": null, "scale": true, "beta_constraint": null, "beta_initializer": {"class_name": "Zeros", "config": {}}, "momentum": 0.9, "name": "separable_conv_2_bn_normal_left1_15"}, "inbound_nodes": [[["separable_conv_2_normal_left1_15", 0, 0, {}]]], "name": "separable_conv_2_bn_normal_left1_15"}, {"class_name": "BatchNormalization", "config": {"beta_regularizer": null, "center": true, "trainable": true, "gamma_constraint": null, "axis": -1, "gamma_initializer": {"class_name": "Ones", "config": {}}, "moving_variance_initializer": {"class_name": "Ones", "config": {}}, "moving_mean_initializer": {"class_name": "Zeros", "config": {}}, "epsilon": 1e-05, "gamma_regularizer": null, "scale": true, "beta_constraint": null, "beta_initializer": {"class_name": "Zeros", "config": {}}, "momentum": 0.9, "name": "separable_conv_2_bn_normal_right1_15"}, "inbound_nodes": [[["separable_conv_2_normal_right1_15", 0, 0, {}]]], "name": "separable_conv_2_bn_normal_right1_15"}, {"class_name": "BatchNormalization", "config": {"beta_regularizer": null, "center": true, "trainable": true, "gamma_constraint": null, "axis": -1, "gamma_initializer": {"class_name": "Ones", "config": {}}, "moving_variance_initializer": {"class_name": "Ones", "config": {}}, "moving_mean_initializer": {"class_name": "Zeros", "config": {}}, "epsilon": 1e-05, "gamma_regularizer": null, "scale": true, "beta_constraint": null, "beta_initializer": {"class_name": "Zeros", "config": {}}, "momentum": 0.9, "name": "separable_conv_2_bn_normal_left2_15"}, "inbound_nodes": [[["separable_conv_2_normal_left2_15", 0, 0, {}]]], "name": "separable_conv_2_bn_normal_left2_15"}, {"class_name": "BatchNormalization", "config": {"beta_regularizer": null, "center": true, "trainable": true, "gamma_constraint": null, "axis": -1, "gamma_initializer": {"class_name": "Ones", "config": {}}, "moving_variance_initializer": {"class_name": "Ones", "config": {}}, "moving_mean_initializer": {"class_name": "Zeros", "config": {}}, "epsilon": 1e-05, "gamma_regularizer": null, "scale": true, "beta_constraint": null, "beta_initializer": {"class_name": "Zeros", "config": {}}, "momentum": 0.9, "name": "separable_conv_2_bn_normal_right2_15"}, "inbound_nodes": [[["separable_conv_2_normal_right2_15", 0, 0, {}]]], "name": "separable_conv_2_bn_normal_right2_15"}, {"class_name": "AveragePooling2D", "config": {"padding": "same", "data_format": "channels_last", "pool_size": [3, 3], "trainable": true, "strides": [1, 1], "name": "normal_left3_15"}, "inbound_nodes": [[["normal_bn_1_15", 0, 0, {}]]], "name": "normal_left3_15"}, {"class_name": "AveragePooling2D", "config": {"padding": "same", "data_format": "channels_last", "pool_size": [3, 3], "trainable": true, "strides": [1, 1], "name": "normal_left4_15"}, "inbound_nodes": [[["adjust_bn_15", 0, 0, {}]]], "name": "normal_left4_15"}, {"class_name": "AveragePooling2D", "config": {"padding": "same", "data_format": "channels_last", "pool_size": [3, 3], "trainable": true, "strides": [1, 1], "name": "normal_right4_15"}, "inbound_nodes": [[["adjust_bn_15", 0, 0, {}]]], "name": "normal_right4_15"}, {"class_name": "BatchNormalization", "config": {"beta_regularizer": null, "center": true, "trainable": true, "gamma_constraint": null, "axis": -1, "gamma_initializer": {"class_name": "Ones", "config": {}}, "moving_variance_initializer": {"class_name": "Ones", "config": {}}, "moving_mean_initializer": {"class_name": "Zeros", "config": {}}, "epsilon": 1e-05, "gamma_regularizer": null, "scale": true, "beta_constraint": null, "beta_initializer": {"class_name": "Zeros", "config": {}}, "momentum": 0.9, "name": "separable_conv_2_bn_normal_left5_15"}, "inbound_nodes": [[["separable_conv_2_normal_left5_15", 0, 0, {}]]], "name": "separable_conv_2_bn_normal_left5_15"}, {"class_name": "Add", "config": {"trainable": true, "name": "normal_add_1_15"}, "inbound_nodes": [[["separable_conv_2_bn_normal_left1_15", 0, 0, {}], ["separable_conv_2_bn_normal_right1_15", 0, 0, {}]]], "name": "normal_add_1_15"}, {"class_name": "Add", "config": {"trainable": true, "name": "normal_add_2_15"}, "inbound_nodes": [[["separable_conv_2_bn_normal_left2_15", 0, 0, {}], ["separable_conv_2_bn_normal_right2_15", 0, 0, {}]]], "name": "normal_add_2_15"}, {"class_name": "Add", "config": {"trainable": true, "name": "normal_add_3_15"}, "inbound_nodes": [[["normal_left3_15", 0, 0, {}], ["adjust_bn_15", 0, 0, {}]]], "name": "normal_add_3_15"}, {"class_name": "Add", "config": {"trainable": true, "name": "normal_add_4_15"}, "inbound_nodes": [[["normal_left4_15", 0, 0, {}], ["normal_right4_15", 0, 0, {}]]], "name": "normal_add_4_15"}, {"class_name": "Add", "config": {"trainable": true, "name": "normal_add_5_15"}, "inbound_nodes": [[["separable_conv_2_bn_normal_left5_15", 0, 0, {}], ["normal_bn_1_15", 0, 0, {}]]], "name": "normal_add_5_15"}, {"class_name": "Concatenate", "config": {"axis": -1, "trainable": true, "name": "normal_concat_15"}, "inbound_nodes": [[["adjust_bn_15", 0, 0, {}], ["normal_add_1_15", 0, 0, {}], ["normal_add_2_15", 0, 0, {}], ["normal_add_3_15", 0, 0, {}], ["normal_add_4_15", 0, 0, {}], ["normal_add_5_15", 0, 0, {}]]], "name": "normal_concat_15"}, {"class_name": "Activation", "config": {"activation": "relu", "trainable": true, "name": "activation_1872"}, "inbound_nodes": [[["normal_concat_15", 0, 0, {}]]], "name": "activation_1872"}, {"class_name": "GlobalAveragePooling2D", "config": {"name": "global_average_pooling2d_12", "trainable": true, "data_format": "channels_last"}, "inbound_nodes": [[["activation_1872", 0, 0, {}]]], "name": "global_average_pooling2d_12"}, {"class_name": "Dropout", "config": {"rate": 0.0, "noise_shape": null, "trainable": true, "seed": null, "name": "dropout_12"}, "inbound_nodes": [[["global_average_pooling2d_12", 0, 0, {}]]], "name": "dropout_12"}, {"class_name": "Dense", "config": {"bias_constraint": null, "bias_initializer": {"class_name": "Zeros", "config": {}}, "bias_regularizer": null, "name": "predictions", "trainable": true, "units": 10, "kernel_initializer": {"class_name": "VarianceScaling", "config": {"scale": 1.0, "mode": "fan_avg", "distribution": "uniform", "seed": null}}, "activation": "softmax", "use_bias": true, "kernel_regularizer": {"class_name": "L1L2", "config": {"l1": 0.0, "l2": 0.0005000000237487257}}, "kernel_constraint": null, "activity_regularizer": null}, "inbound_nodes": [[["dropout_12", 0, 0, {}]]], "name": "predictions"}]}, "backend": "tensorflow", "keras_version": "2.1.2"}