{"class_name": "Model", "config": {"input_layers": [["input_10", 0, 0]], "name": "NASNet", "output_layers": [["predictions", 0, 0]], "layers": [{"class_name": "InputLayer", "config": {"batch_input_shape": [null, 32, 32, 3], "sparse": false, "dtype": "float32", "name": "input_10"}, "inbound_nodes": [], "name": "input_10"}, {"class_name": "Conv2D", "config": {"kernel_size": [3, 3], "dilation_rate": [1, 1], "filters": 32, "padding": "same", "bias_initializer": {"class_name": "Zeros", "config": {}}, "name": "stem_conv1", "strides": [1, 1], "kernel_initializer": {"class_name": "VarianceScaling", "config": {"scale": 2.0, "mode": "fan_in", "distribution": "normal", "seed": null}}, "trainable": true, "bias_constraint": null, "data_format": "channels_last", "activation": "linear", "use_bias": false, "kernel_regularizer": {"class_name": "L1L2", "config": {"l1": 0.0, "l2": 0.0005000000237487257}}, "kernel_constraint": null, "bias_regularizer": null, "activity_regularizer": null}, "inbound_nodes": [[["input_10", 0, 0, {}]]], "name": "stem_conv1"}, {"class_name": "BatchNormalization", "config": {"beta_regularizer": null, "center": true, "trainable": true, "gamma_constraint": null, "axis": -1, "gamma_initializer": {"class_name": "Ones", "config": {}}, "moving_variance_initializer": {"class_name": "Ones", "config": {}}, "moving_mean_initializer": {"class_name": "Zeros", "config": {}}, "epsilon": 1e-05, "gamma_regularizer": null, "scale": true, "beta_constraint": null, "beta_initializer": {"class_name": "Zeros", "config": {}}, "momentum": 0.9, "name": "stem_bn1"}, "inbound_nodes": [[["stem_conv1", 0, 0, {}]]], "name": "stem_bn1"}, {"class_name": "Activation", "config": {"activation": "relu", "trainable": true, "name": "activation_1282"}, "inbound_nodes": [[["stem_bn1", 0, 0, {}]]], "name": "activation_1282"}, {"class_name": "Conv2D", "config": {"kernel_size": [1, 1], "dilation_rate": [1, 1], "filters": 32, "padding": "same", "bias_initializer": {"class_name": "Zeros", "config": {}}, "name": "normal_conv_1_0", "strides": [1, 1], "kernel_initializer": {"class_name": "VarianceScaling", "config": {"scale": 2.0, "mode": "fan_in", "distribution": "normal", "seed": null}}, "trainable": true, "bias_constraint": null, "data_format": "channels_last", "activation": "linear", "use_bias": false, "kernel_regularizer": {"class_name": "L1L2", "config": {"l1": 0.0, "l2": 0.0005000000237487257}}, "kernel_constraint": null, "bias_regularizer": null, "activity_regularizer": null}, "inbound_nodes": [[["activation_1282", 0, 0, {}]]], "name": "normal_conv_1_0"}, {"class_name": "BatchNormalization", "config": {"beta_regularizer": null, "center": true, "trainable": true, "gamma_constraint": null, "axis": -1, "gamma_initializer": {"class_name": "Ones", "config": {}}, "moving_variance_initializer": {"class_name": "Ones", "config": {}}, "moving_mean_initializer": {"class_name": "Zeros", "config": {}}, "epsilon": 1e-05, "gamma_regularizer": null, "scale": true, "beta_constraint": null, "beta_initializer": {"class_name": "Zeros", "config": {}}, "momentum": 0.9, "name": "normal_bn_1_0"}, "inbound_nodes": [[["normal_conv_1_0", 0, 0, {}]]], "name": "normal_bn_1_0"}, {"class_name": "Activation", "config": {"activation": "relu", "trainable": true, "name": "activation_1283"}, "inbound_nodes": [[["normal_bn_1_0", 0, 0, {}]]], "name": "activation_1283"}, {"class_name": "Activation", "config": {"activation": "relu", "trainable": true, "name": "activation_1285"}, "inbound_nodes": [[["stem_bn1", 0, 0, {}]]], "name": "activation_1285"}, {"class_name": "Activation", "config": {"activation": "relu", "trainable": true, "name": "activation_1287"}, "inbound_nodes": [[["stem_bn1", 0, 0, {}]]], "name": "activation_1287"}, {"class_name": "Activation", "config": {"activation": "relu", "trainable": true, "name": "activation_1289"}, "inbound_nodes": [[["stem_bn1", 0, 0, {}]]], "name": "activation_1289"}, {"class_name": "Activation", "config": {"activation": "relu", "trainable": true, "name": "activation_1291"}, "inbound_nodes": [[["normal_bn_1_0", 0, 0, {}]]], "name": "activation_1291"}, {"class_name": "SeparableConv2D", "config": {"kernel_size": [5, 5], "dilation_rate": [1, 1], "filters": 32, "bias_initializer": {"class_name": "Zeros", "config": {}}, "depthwise_regularizer": null, "strides": [1, 1], "data_format": "channels_last", "trainable": true, "bias_constraint": null, "name": "separable_conv_1_normal_left1_0", "depth_multiplier": 1, "pointwise_initializer": {"class_name": "VarianceScaling", "config": {"scale": 1.0, "mode": "fan_avg", "distribution": "uniform", "seed": null}}, "padding": "same", "pointwise_regularizer": null, "bias_regularizer": null, "depthwise_constraint": null, "activation": "linear", "use_bias": false, "pointwise_constraint": null, "depthwise_initializer": {"class_name": "VarianceScaling", "config": {"scale": 1.0, "mode": "fan_avg", "distribution": "uniform", "seed": null}}, "activity_regularizer": null}, "inbound_nodes": [[["activation_1283", 0, 0, {}]]], "name": "separable_conv_1_normal_left1_0"}, {"class_name": "SeparableConv2D", "config": {"kernel_size": [3, 3], "dilation_rate": [1, 1], "filters": 32, "bias_initializer": {"class_name": "Zeros", "config": {}}, "depthwise_regularizer": null, "strides": [1, 1], "data_format": "channels_last", "trainable": true, "bias_constraint": null, "name": "separable_conv_1_normal_right1_0", "depth_multiplier": 1, "pointwise_initializer": {"class_name": "VarianceScaling", "config": {"scale": 1.0, "mode": "fan_avg", "distribution": "uniform", "seed": null}}, "padding": "same", "pointwise_regularizer": null, "bias_regularizer": null, "depthwise_constraint": null, "activation": "linear", "use_bias": false, "pointwise_constraint": null, "depthwise_initializer": {"class_name": "VarianceScaling", "config": {"scale": 1.0, "mode": "fan_avg", "distribution": "uniform", "seed": null}}, "activity_regularizer": null}, "inbound_nodes": [[["activation_1285", 0, 0, {}]]], "name": "separable_conv_1_normal_right1_0"}, {"class_name": "SeparableConv2D", "config": {"kernel_size": [5, 5], "dilation_rate": [1, 1], "filters": 32, "bias_initializer": {"class_name": "Zeros", "config": {}}, "depthwise_regularizer": null, "strides": [1, 1], "data_format": "channels_last", "trainable": true, "bias_constraint": null, "name": "separable_conv_1_normal_left2_0", "depth_multiplier": 1, "pointwise_initializer": {"class_name": "VarianceScaling", "config": {"scale": 1.0, "mode": "fan_avg", "distribution": "uniform", "seed": null}}, "padding": "same", "pointwise_regularizer": null, "bias_regularizer": null, "depthwise_constraint": null, "activation": "linear", "use_bias": false, "pointwise_constraint": null, "depthwise_initializer": {"class_name": "VarianceScaling", "config": {"scale": 1.0, "mode": "fan_avg", "distribution": "uniform", "seed": null}}, "activity_regularizer": null}, "inbound_nodes": [[["activation_1287", 0, 0, {}]]], "name": "separable_conv_1_normal_left2_0"}, {"class_name": "SeparableConv2D", "config": {"kernel_size": [3, 3], "dilation_rate": [1, 1], "filters": 32, "bias_initializer": {"class_name": "Zeros", "config": {}}, "depthwise_regularizer": null, "strides": [1, 1], "data_format": "channels_last", "trainable": true, "bias_constraint": null, "name": "separable_conv_1_normal_right2_0", "depth_multiplier": 1, "pointwise_initializer": {"class_name": "VarianceScaling", "config": {"scale": 1.0, "mode": "fan_avg", "distribution": "uniform", "seed": null}}, "padding": "same", "pointwise_regularizer": null, "bias_regularizer": null, "depthwise_constraint": null, "activation": "linear", "use_bias": false, "pointwise_constraint": null, "depthwise_initializer": {"class_name": "VarianceScaling", "config": {"scale": 1.0, "mode": "fan_avg", "distribution": "uniform", "seed": null}}, "activity_regularizer": null}, "inbound_nodes": [[["activation_1289", 0, 0, {}]]], "name": "separable_conv_1_normal_right2_0"}, {"class_name": "SeparableConv2D", "config": {"kernel_size": [3, 3], "dilation_rate": [1, 1], "filters": 32, "bias_initializer": {"class_name": "Zeros", "config": {}}, "depthwise_regularizer": null, "strides": [1, 1], "data_format": "channels_last", "trainable": true, "bias_constraint": null, "name": "separable_conv_1_normal_left5_0", "depth_multiplier": 1, "pointwise_initializer": {"class_name": "VarianceScaling", "config": {"scale": 1.0, "mode": "fan_avg", "distribution": "uniform", "seed": null}}, "padding": "same", "pointwise_regularizer": null, "bias_regularizer": null, "depthwise_constraint": null, "activation": "linear", "use_bias": false, "pointwise_constraint": null, "depthwise_initializer": {"class_name": "VarianceScaling", "config": {"scale": 1.0, "mode": "fan_avg", "distribution": "uniform", "seed": null}}, "activity_regularizer": null}, "inbound_nodes": [[["activation_1291", 0, 0, {}]]], "name": "separable_conv_1_normal_left5_0"}, {"class_name": "BatchNormalization", "config": {"beta_regularizer": null, "center": true, "trainable": true, "gamma_constraint": null, "axis": -1, "gamma_initializer": {"class_name": "Ones", "config": {}}, "moving_variance_initializer": {"class_name": "Ones", "config": {}}, "moving_mean_initializer": {"class_name": "Zeros", "config": {}}, "epsilon": 1e-05, "gamma_regularizer": null, "scale": true, "beta_constraint": null, "beta_initializer": {"class_name": "Zeros", "config": {}}, "momentum": 0.9, "name": "separable_conv_1_bn_normal_left1_0"}, "inbound_nodes": [[["separable_conv_1_normal_left1_0", 0, 0, {}]]], "name": "separable_conv_1_bn_normal_left1_0"}, {"class_name": "BatchNormalization", "config": {"beta_regularizer": null, "center": true, "trainable": true, "gamma_constraint": null, "axis": -1, "gamma_initializer": {"class_name": "Ones", "config": {}}, "moving_variance_initializer": {"class_name": "Ones", "config": {}}, "moving_mean_initializer": {"class_name": "Zeros", "config": {}}, "epsilon": 1e-05, "gamma_regularizer": null, "scale": true, "beta_constraint": null, "beta_initializer": {"class_name": "Zeros", "config": {}}, "momentum": 0.9, "name": "separable_conv_1_bn_normal_right1_0"}, "inbound_nodes": [[["separable_conv_1_normal_right1_0", 0, 0, {}]]], "name": "separable_conv_1_bn_normal_right1_0"}, {"class_name": "BatchNormalization", "config": {"beta_regularizer": null, "center": true, "trainable": true, "gamma_constraint": null, "axis": -1, "gamma_initializer": {"class_name": "Ones", "config": {}}, "moving_variance_initializer": {"class_name": "Ones", "config": {}}, "moving_mean_initializer": {"class_name": "Zeros", "config": {}}, "epsilon": 1e-05, "gamma_regularizer": null, "scale": true, "beta_constraint": null, "beta_initializer": {"class_name": "Zeros", "config": {}}, "momentum": 0.9, "name": "separable_conv_1_bn_normal_left2_0"}, "inbound_nodes": [[["separable_conv_1_normal_left2_0", 0, 0, {}]]], "name": "separable_conv_1_bn_normal_left2_0"}, {"class_name": "BatchNormalization", "config": {"beta_regularizer": null, "center": true, "trainable": true, "gamma_constraint": null, "axis": -1, "gamma_initializer": {"class_name": "Ones", "config": {}}, "moving_variance_initializer": {"class_name": "Ones", "config": {}}, "moving_mean_initializer": {"class_name": "Zeros", "config": {}}, "epsilon": 1e-05, "gamma_regularizer": null, "scale": true, "beta_constraint": null, "beta_initializer": {"class_name": "Zeros", "config": {}}, "momentum": 0.9, "name": "separable_conv_1_bn_normal_right2_0"}, "inbound_nodes": [[["separable_conv_1_normal_right2_0", 0, 0, {}]]], "name": "separable_conv_1_bn_normal_right2_0"}, {"class_name": "BatchNormalization", "config": {"beta_regularizer": null, "center": true, "trainable": true, "gamma_constraint": null, "axis": -1, "gamma_initializer": {"class_name": "Ones", "config": {}}, "moving_variance_initializer": {"class_name": "Ones", "config": {}}, "moving_mean_initializer": {"class_name": "Zeros", "config": {}}, "epsilon": 1e-05, "gamma_regularizer": null, "scale": true, "beta_constraint": null, "beta_initializer": {"class_name": "Zeros", "config": {}}, "momentum": 0.9, "name": "separable_conv_1_bn_normal_left5_0"}, "inbound_nodes": [[["separable_conv_1_normal_left5_0", 0, 0, {}]]], "name": "separable_conv_1_bn_normal_left5_0"}, {"class_name": "Activation", "config": {"activation": "relu", "trainable": true, "name": "activation_1284"}, "inbound_nodes": [[["separable_conv_1_bn_normal_left1_0", 0, 0, {}]]], "name": "activation_1284"}, {"class_name": "Activation", "config": {"activation": "relu", "trainable": true, "name": "activation_1286"}, "inbound_nodes": [[["separable_conv_1_bn_normal_right1_0", 0, 0, {}]]], "name": "activation_1286"}, {"class_name": "Activation", "config": {"activation": "relu", "trainable": true, "name": "activation_1288"}, "inbound_nodes": [[["separable_conv_1_bn_normal_left2_0", 0, 0, {}]]], "name": "activation_1288"}, {"class_name": "Activation", "config": {"activation": "relu", "trainable": true, "name": "activation_1290"}, "inbound_nodes": [[["separable_conv_1_bn_normal_right2_0", 0, 0, {}]]], "name": "activation_1290"}, {"class_name": "Activation", "config": {"activation": "relu", "trainable": true, "name": "activation_1292"}, "inbound_nodes": [[["separable_conv_1_bn_normal_left5_0", 0, 0, {}]]], "name": "activation_1292"}, {"class_name": "SeparableConv2D", "config": {"kernel_size": [5, 5], "dilation_rate": [1, 1], "filters": 32, "bias_initializer": {"class_name": "Zeros", "config": {}}, "depthwise_regularizer": null, "strides": [1, 1], "data_format": "channels_last", "trainable": true, "bias_constraint": null, "name": "separable_conv_2_normal_left1_0", "depth_multiplier": 1, "pointwise_initializer": {"class_name": "VarianceScaling", "config": {"scale": 1.0, "mode": "fan_avg", "distribution": "uniform", "seed": null}}, "padding": "same", "pointwise_regularizer": null, "bias_regularizer": null, "depthwise_constraint": null, "activation": "linear", "use_bias": false, "pointwise_constraint": null, "depthwise_initializer": {"class_name": "VarianceScaling", "config": {"scale": 1.0, "mode": "fan_avg", "distribution": "uniform", "seed": null}}, "activity_regularizer": null}, "inbound_nodes": [[["activation_1284", 0, 0, {}]]], "name": "separable_conv_2_normal_left1_0"}, {"class_name": "SeparableConv2D", "config": {"kernel_size": [3, 3], "dilation_rate": [1, 1], "filters": 32, "bias_initializer": {"class_name": "Zeros", "config": {}}, "depthwise_regularizer": null, "strides": [1, 1], "data_format": "channels_last", "trainable": true, "bias_constraint": null, "name": "separable_conv_2_normal_right1_0", "depth_multiplier": 1, "pointwise_initializer": {"class_name": "VarianceScaling", "config": {"scale": 1.0, "mode": "fan_avg", "distribution": "uniform", "seed": null}}, "padding": "same", "pointwise_regularizer": null, "bias_regularizer": null, "depthwise_constraint": null, "activation": "linear", "use_bias": false, "pointwise_constraint": null, "depthwise_initializer": {"class_name": "VarianceScaling", "config": {"scale": 1.0, "mode": "fan_avg", "distribution": "uniform", "seed": null}}, "activity_regularizer": null}, "inbound_nodes": [[["activation_1286", 0, 0, {}]]], "name": "separable_conv_2_normal_right1_0"}, {"class_name": "SeparableConv2D", "config": {"kernel_size": [5, 5], "dilation_rate": [1, 1], "filters": 32, "bias_initializer": {"class_name": "Zeros", "config": {}}, "depthwise_regularizer": null, "strides": [1, 1], "data_format": "channels_last", "trainable": true, "bias_constraint": null, "name": "separable_conv_2_normal_left2_0", "depth_multiplier": 1, "pointwise_initializer": {"class_name": "VarianceScaling", "config": {"scale": 1.0, "mode": "fan_avg", "distribution": "uniform", "seed": null}}, "padding": "same", "pointwise_regularizer": null, "bias_regularizer": null, "depthwise_constraint": null, "activation": "linear", "use_bias": false, "pointwise_constraint": null, "depthwise_initializer": {"class_name": "VarianceScaling", "config": {"scale": 1.0, "mode": "fan_avg", "distribution": "uniform", "seed": null}}, "activity_regularizer": null}, "inbound_nodes": [[["activation_1288", 0, 0, {}]]], "name": "separable_conv_2_normal_left2_0"}, {"class_name": "SeparableConv2D", "config": {"kernel_size": [3, 3], "dilation_rate": [1, 1], "filters": 32, "bias_initializer": {"class_name": "Zeros", "config": {}}, "depthwise_regularizer": null, "strides": [1, 1], "data_format": "channels_last", "trainable": true, "bias_constraint": null, "name": "separable_conv_2_normal_right2_0", "depth_multiplier": 1, "pointwise_initializer": {"class_name": "VarianceScaling", "config": {"scale": 1.0, "mode": "fan_avg", "distribution": "uniform", "seed": null}}, "padding": "same", "pointwise_regularizer": null, "bias_regularizer": null, "depthwise_constraint": null, "activation": "linear", "use_bias": false, "pointwise_constraint": null, "depthwise_initializer": {"class_name": "VarianceScaling", "config": {"scale": 1.0, "mode": "fan_avg", "distribution": "uniform", "seed": null}}, "activity_regularizer": null}, "inbound_nodes": [[["activation_1290", 0, 0, {}]]], "name": "separable_conv_2_normal_right2_0"}, {"class_name": "SeparableConv2D", "config": {"kernel_size": [3, 3], "dilation_rate": [1, 1], "filters": 32, "bias_initializer": {"class_name": "Zeros", "config": {}}, "depthwise_regularizer": null, "strides": [1, 1], "data_format": "channels_last", "trainable": true, "bias_constraint": null, "name": "separable_conv_2_normal_left5_0", "depth_multiplier": 1, "pointwise_initializer": {"class_name": "VarianceScaling", "config": {"scale": 1.0, "mode": "fan_avg", "distribution": "uniform", "seed": null}}, "padding": "same", "pointwise_regularizer": null, "bias_regularizer": null, "depthwise_constraint": null, "activation": "linear", "use_bias": false, "pointwise_constraint": null, "depthwise_initializer": {"class_name": "VarianceScaling", "config": {"scale": 1.0, "mode": "fan_avg", "distribution": "uniform", "seed": null}}, "activity_regularizer": null}, "inbound_nodes": [[["activation_1292", 0, 0, {}]]], "name": "separable_conv_2_normal_left5_0"}, {"class_name": "BatchNormalization", "config": {"beta_regularizer": null, "center": true, "trainable": true, "gamma_constraint": null, "axis": -1, "gamma_initializer": {"class_name": "Ones", "config": {}}, "moving_variance_initializer": {"class_name": "Ones", "config": {}}, "moving_mean_initializer": {"class_name": "Zeros", "config": {}}, "epsilon": 1e-05, "gamma_regularizer": null, "scale": true, "beta_constraint": null, "beta_initializer": {"class_name": "Zeros", "config": {}}, "momentum": 0.9, "name": "separable_conv_2_bn_normal_left1_0"}, "inbound_nodes": [[["separable_conv_2_normal_left1_0", 0, 0, {}]]], "name": "separable_conv_2_bn_normal_left1_0"}, {"class_name": "BatchNormalization", "config": {"beta_regularizer": null, "center": true, "trainable": true, "gamma_constraint": null, "axis": -1, "gamma_initializer": {"class_name": "Ones", "config": {}}, "moving_variance_initializer": {"class_name": "Ones", "config": {}}, "moving_mean_initializer": {"class_name": "Zeros", "config": {}}, "epsilon": 1e-05, "gamma_regularizer": null, "scale": true, "beta_constraint": null, "beta_initializer": {"class_name": "Zeros", "config": {}}, "momentum": 0.9, "name": "separable_conv_2_bn_normal_right1_0"}, "inbound_nodes": [[["separable_conv_2_normal_right1_0", 0, 0, {}]]], "name": "separable_conv_2_bn_normal_right1_0"}, {"class_name": "BatchNormalization", "config": {"beta_regularizer": null, "center": true, "trainable": true, "gamma_constraint": null, "axis": -1, "gamma_initializer": {"class_name": "Ones", "config": {}}, "moving_variance_initializer": {"class_name": "Ones", "config": {}}, "moving_mean_initializer": {"class_name": "Zeros", "config": {}}, "epsilon": 1e-05, "gamma_regularizer": null, "scale": true, "beta_constraint": null, "beta_initializer": {"class_name": "Zeros", "config": {}}, "momentum": 0.9, "name": "separable_conv_2_bn_normal_left2_0"}, "inbound_nodes": [[["separable_conv_2_normal_left2_0", 0, 0, {}]]], "name": "separable_conv_2_bn_normal_left2_0"}, {"class_name": "BatchNormalization", "config": {"beta_regularizer": null, "center": true, "trainable": true, "gamma_constraint": null, "axis": -1, "gamma_initializer": {"class_name": "Ones", "config": {}}, "moving_variance_initializer": {"class_name": "Ones", "config": {}}, "moving_mean_initializer": {"class_name": "Zeros", "config": {}}, "epsilon": 1e-05, "gamma_regularizer": null, "scale": true, "beta_constraint": null, "beta_initializer": {"class_name": "Zeros", "config": {}}, "momentum": 0.9, "name": "separable_conv_2_bn_normal_right2_0"}, "inbound_nodes": [[["separable_conv_2_normal_right2_0", 0, 0, {}]]], "name": "separable_conv_2_bn_normal_right2_0"}, {"class_name": "AveragePooling2D", "config": {"padding": "same", "data_format": "channels_last", "pool_size": [3, 3], "trainable": true, "strides": [1, 1], "name": "normal_left3_0"}, "inbound_nodes": [[["normal_bn_1_0", 0, 0, {}]]], "name": "normal_left3_0"}, {"class_name": "AveragePooling2D", "config": {"padding": "same", "data_format": "channels_last", "pool_size": [3, 3], "trainable": true, "strides": [1, 1], "name": "normal_left4_0"}, "inbound_nodes": [[["stem_bn1", 0, 0, {}]]], "name": "normal_left4_0"}, {"class_name": "AveragePooling2D", "config": {"padding": "same", "data_format": "channels_last", "pool_size": [3, 3], "trainable": true, "strides": [1, 1], "name": "normal_right4_0"}, "inbound_nodes": [[["stem_bn1", 0, 0, {}]]], "name": "normal_right4_0"}, {"class_name": "BatchNormalization", "config": {"beta_regularizer": null, "center": true, "trainable": true, "gamma_constraint": null, "axis": -1, "gamma_initializer": {"class_name": "Ones", "config": {}}, "moving_variance_initializer": {"class_name": "Ones", "config": {}}, "moving_mean_initializer": {"class_name": "Zeros", "config": {}}, "epsilon": 1e-05, "gamma_regularizer": null, "scale": true, "beta_constraint": null, "beta_initializer": {"class_name": "Zeros", "config": {}}, "momentum": 0.9, "name": "separable_conv_2_bn_normal_left5_0"}, "inbound_nodes": [[["separable_conv_2_normal_left5_0", 0, 0, {}]]], "name": "separable_conv_2_bn_normal_left5_0"}, {"class_name": "Add", "config": {"trainable": true, "name": "normal_add_1_0"}, "inbound_nodes": [[["separable_conv_2_bn_normal_left1_0", 0, 0, {}], ["separable_conv_2_bn_normal_right1_0", 0, 0, {}]]], "name": "normal_add_1_0"}, {"class_name": "Add", "config": {"trainable": true, "name": "normal_add_2_0"}, "inbound_nodes": [[["separable_conv_2_bn_normal_left2_0", 0, 0, {}], ["separable_conv_2_bn_normal_right2_0", 0, 0, {}]]], "name": "normal_add_2_0"}, {"class_name": "Add", "config": {"trainable": true, "name": "normal_add_3_0"}, "inbound_nodes": [[["normal_left3_0", 0, 0, {}], ["stem_bn1", 0, 0, {}]]], "name": "normal_add_3_0"}, {"class_name": "Add", "config": {"trainable": true, "name": "normal_add_4_0"}, "inbound_nodes": [[["normal_left4_0", 0, 0, {}], ["normal_right4_0", 0, 0, {}]]], "name": "normal_add_4_0"}, {"class_name": "Add", "config": {"trainable": true, "name": "normal_add_5_0"}, "inbound_nodes": [[["separable_conv_2_bn_normal_left5_0", 0, 0, {}], ["normal_bn_1_0", 0, 0, {}]]], "name": "normal_add_5_0"}, {"class_name": "Concatenate", "config": {"axis": -1, "trainable": true, "name": "normal_concat_0"}, "inbound_nodes": [[["stem_bn1", 0, 0, {}], ["normal_add_1_0", 0, 0, {}], ["normal_add_2_0", 0, 0, {}], ["normal_add_3_0", 0, 0, {}], ["normal_add_4_0", 0, 0, {}], ["normal_add_5_0", 0, 0, {}]]], "name": "normal_concat_0"}, {"class_name": "Activation", "config": {"activation": "relu", "trainable": true, "name": "activation_1293"}, "inbound_nodes": [[["normal_concat_0", 0, 0, {}]]], "name": "activation_1293"}, {"class_name": "Conv2D", "config": {"kernel_size": [1, 1], "dilation_rate": [1, 1], "filters": 32, "padding": "same", "bias_initializer": {"class_name": "Zeros", "config": {}}, "name": "normal_conv_1_1", "strides": [1, 1], "kernel_initializer": {"class_name": "VarianceScaling", "config": {"scale": 2.0, "mode": "fan_in", "distribution": "normal", "seed": null}}, "trainable": true, "bias_constraint": null, "data_format": "channels_last", "activation": "linear", "use_bias": false, "kernel_regularizer": {"class_name": "L1L2", "config": {"l1": 0.0, "l2": 0.0005000000237487257}}, "kernel_constraint": null, "bias_regularizer": null, "activity_regularizer": null}, "inbound_nodes": [[["activation_1293", 0, 0, {}]]], "name": "normal_conv_1_1"}, {"class_name": "BatchNormalization", "config": {"beta_regularizer": null, "center": true, "trainable": true, "gamma_constraint": null, "axis": -1, "gamma_initializer": {"class_name": "Ones", "config": {}}, "moving_variance_initializer": {"class_name": "Ones", "config": {}}, "moving_mean_initializer": {"class_name": "Zeros", "config": {}}, "epsilon": 1e-05, "gamma_regularizer": null, "scale": true, "beta_constraint": null, "beta_initializer": {"class_name": "Zeros", "config": {}}, "momentum": 0.9, "name": "normal_bn_1_1"}, "inbound_nodes": [[["normal_conv_1_1", 0, 0, {}]]], "name": "normal_bn_1_1"}, {"class_name": "Activation", "config": {"activation": "relu", "trainable": true, "name": "activation_1294"}, "inbound_nodes": [[["normal_bn_1_1", 0, 0, {}]]], "name": "activation_1294"}, {"class_name": "Activation", "config": {"activation": "relu", "trainable": true, "name": "activation_1296"}, "inbound_nodes": [[["stem_bn1", 0, 0, {}]]], "name": "activation_1296"}, {"class_name": "Activation", "config": {"activation": "relu", "trainable": true, "name": "activation_1298"}, "inbound_nodes": [[["stem_bn1", 0, 0, {}]]], "name": "activation_1298"}, {"class_name": "Activation", "config": {"activation": "relu", "trainable": true, "name": "activation_1300"}, "inbound_nodes": [[["stem_bn1", 0, 0, {}]]], "name": "activation_1300"}, {"class_name": "Activation", "config": {"activation": "relu", "trainable": true, "name": "activation_1302"}, "inbound_nodes": [[["normal_bn_1_1", 0, 0, {}]]], "name": "activation_1302"}, {"class_name": "SeparableConv2D", "config": {"kernel_size": [5, 5], "dilation_rate": [1, 1], "filters": 32, "bias_initializer": {"class_name": "Zeros", "config": {}}, "depthwise_regularizer": null, "strides": [1, 1], "data_format": "channels_last", "trainable": true, "bias_constraint": null, "name": "separable_conv_1_normal_left1_1", "depth_multiplier": 1, "pointwise_initializer": {"class_name": "VarianceScaling", "config": {"scale": 1.0, "mode": "fan_avg", "distribution": "uniform", "seed": null}}, "padding": "same", "pointwise_regularizer": null, "bias_regularizer": null, "depthwise_constraint": null, "activation": "linear", "use_bias": false, "pointwise_constraint": null, "depthwise_initializer": {"class_name": "VarianceScaling", "config": {"scale": 1.0, "mode": "fan_avg", "distribution": "uniform", "seed": null}}, "activity_regularizer": null}, "inbound_nodes": [[["activation_1294", 0, 0, {}]]], "name": "separable_conv_1_normal_left1_1"}, {"class_name": "SeparableConv2D", "config": {"kernel_size": [3, 3], "dilation_rate": [1, 1], "filters": 32, "bias_initializer": {"class_name": "Zeros", "config": {}}, "depthwise_regularizer": null, "strides": [1, 1], "data_format": "channels_last", "trainable": true, "bias_constraint": null, "name": "separable_conv_1_normal_right1_1", "depth_multiplier": 1, "pointwise_initializer": {"class_name": "VarianceScaling", "config": {"scale": 1.0, "mode": "fan_avg", "distribution": "uniform", "seed": null}}, "padding": "same", "pointwise_regularizer": null, "bias_regularizer": null, "depthwise_constraint": null, "activation": "linear", "use_bias": false, "pointwise_constraint": null, "depthwise_initializer": {"class_name": "VarianceScaling", "config": {"scale": 1.0, "mode": "fan_avg", "distribution": "uniform", "seed": null}}, "activity_regularizer": null}, "inbound_nodes": [[["activation_1296", 0, 0, {}]]], "name": "separable_conv_1_normal_right1_1"}, {"class_name": "SeparableConv2D", "config": {"kernel_size": [5, 5], "dilation_rate": [1, 1], "filters": 32, "bias_initializer": {"class_name": "Zeros", "config": {}}, "depthwise_regularizer": null, "strides": [1, 1], "data_format": "channels_last", "trainable": true, "bias_constraint": null, "name": "separable_conv_1_normal_left2_1", "depth_multiplier": 1, "pointwise_initializer": {"class_name": "VarianceScaling", "config": {"scale": 1.0, "mode": "fan_avg", "distribution": "uniform", "seed": null}}, "padding": "same", "pointwise_regularizer": null, "bias_regularizer": null, "depthwise_constraint": null, "activation": "linear", "use_bias": false, "pointwise_constraint": null, "depthwise_initializer": {"class_name": "VarianceScaling", "config": {"scale": 1.0, "mode": "fan_avg", "distribution": "uniform", "seed": null}}, "activity_regularizer": null}, "inbound_nodes": [[["activation_1298", 0, 0, {}]]], "name": "separable_conv_1_normal_left2_1"}, {"class_name": "SeparableConv2D", "config": {"kernel_size": [3, 3], "dilation_rate": [1, 1], "filters": 32, "bias_initializer": {"class_name": "Zeros", "config": {}}, "depthwise_regularizer": null, "strides": [1, 1], "data_format": "channels_last", "trainable": true, "bias_constraint": null, "name": "separable_conv_1_normal_right2_1", "depth_multiplier": 1, "pointwise_initializer": {"class_name": "VarianceScaling", "config": {"scale": 1.0, "mode": "fan_avg", "distribution": "uniform", "seed": null}}, "padding": "same", "pointwise_regularizer": null, "bias_regularizer": null, "depthwise_constraint": null, "activation": "linear", "use_bias": false, "pointwise_constraint": null, "depthwise_initializer": {"class_name": "VarianceScaling", "config": {"scale": 1.0, "mode": "fan_avg", "distribution": "uniform", "seed": null}}, "activity_regularizer": null}, "inbound_nodes": [[["activation_1300", 0, 0, {}]]], "name": "separable_conv_1_normal_right2_1"}, {"class_name": "SeparableConv2D", "config": {"kernel_size": [3, 3], "dilation_rate": [1, 1], "filters": 32, "bias_initializer": {"class_name": "Zeros", "config": {}}, "depthwise_regularizer": null, "strides": [1, 1], "data_format": "channels_last", "trainable": true, "bias_constraint": null, "name": "separable_conv_1_normal_left5_1", "depth_multiplier": 1, "pointwise_initializer": {"class_name": "VarianceScaling", "config": {"scale": 1.0, "mode": "fan_avg", "distribution": "uniform", "seed": null}}, "padding": "same", "pointwise_regularizer": null, "bias_regularizer": null, "depthwise_constraint": null, "activation": "linear", "use_bias": false, "pointwise_constraint": null, "depthwise_initializer": {"class_name": "VarianceScaling", "config": {"scale": 1.0, "mode": "fan_avg", "distribution": "uniform", "seed": null}}, "activity_regularizer": null}, "inbound_nodes": [[["activation_1302", 0, 0, {}]]], "name": "separable_conv_1_normal_left5_1"}, {"class_name": "BatchNormalization", "config": {"beta_regularizer": null, "center": true, "trainable": true, "gamma_constraint": null, "axis": -1, "gamma_initializer": {"class_name": "Ones", "config": {}}, "moving_variance_initializer": {"class_name": "Ones", "config": {}}, "moving_mean_initializer": {"class_name": "Zeros", "config": {}}, "epsilon": 1e-05, "gamma_regularizer": null, "scale": true, "beta_constraint": null, "beta_initializer": {"class_name": "Zeros", "config": {}}, "momentum": 0.9, "name": "separable_conv_1_bn_normal_left1_1"}, "inbound_nodes": [[["separable_conv_1_normal_left1_1", 0, 0, {}]]], "name": "separable_conv_1_bn_normal_left1_1"}, {"class_name": "BatchNormalization", "config": {"beta_regularizer": null, "center": true, "trainable": true, "gamma_constraint": null, "axis": -1, "gamma_initializer": {"class_name": "Ones", "config": {}}, "moving_variance_initializer": {"class_name": "Ones", "config": {}}, "moving_mean_initializer": {"class_name": "Zeros", "config": {}}, "epsilon": 1e-05, "gamma_regularizer": null, "scale": true, "beta_constraint": null, "beta_initializer": {"class_name": "Zeros", "config": {}}, "momentum": 0.9, "name": "separable_conv_1_bn_normal_right1_1"}, "inbound_nodes": [[["separable_conv_1_normal_right1_1", 0, 0, {}]]], "name": "separable_conv_1_bn_normal_right1_1"}, {"class_name": "BatchNormalization", "config": {"beta_regularizer": null, "center": true, "trainable": true, "gamma_constraint": null, "axis": -1, "gamma_initializer": {"class_name": "Ones", "config": {}}, "moving_variance_initializer": {"class_name": "Ones", "config": {}}, "moving_mean_initializer": {"class_name": "Zeros", "config": {}}, "epsilon": 1e-05, "gamma_regularizer": null, "scale": true, "beta_constraint": null, "beta_initializer": {"class_name": "Zeros", "config": {}}, "momentum": 0.9, "name": "separable_conv_1_bn_normal_left2_1"}, "inbound_nodes": [[["separable_conv_1_normal_left2_1", 0, 0, {}]]], "name": "separable_conv_1_bn_normal_left2_1"}, {"class_name": "BatchNormalization", "config": {"beta_regularizer": null, "center": true, "trainable": true, "gamma_constraint": null, "axis": -1, "gamma_initializer": {"class_name": "Ones", "config": {}}, "moving_variance_initializer": {"class_name": "Ones", "config": {}}, "moving_mean_initializer": {"class_name": "Zeros", "config": {}}, "epsilon": 1e-05, "gamma_regularizer": null, "scale": true, "beta_constraint": null, "beta_initializer": {"class_name": "Zeros", "config": {}}, "momentum": 0.9, "name": "separable_conv_1_bn_normal_right2_1"}, "inbound_nodes": [[["separable_conv_1_normal_right2_1", 0, 0, {}]]], "name": "separable_conv_1_bn_normal_right2_1"}, {"class_name": "BatchNormalization", "config": {"beta_regularizer": null, "center": true, "trainable": true, "gamma_constraint": null, "axis": -1, "gamma_initializer": {"class_name": "Ones", "config": {}}, "moving_variance_initializer": {"class_name": "Ones", "config": {}}, "moving_mean_initializer": {"class_name": "Zeros", "config": {}}, "epsilon": 1e-05, "gamma_regularizer": null, "scale": true, "beta_constraint": null, "beta_initializer": {"class_name": "Zeros", "config": {}}, "momentum": 0.9, "name": "separable_conv_1_bn_normal_left5_1"}, "inbound_nodes": [[["separable_conv_1_normal_left5_1", 0, 0, {}]]], "name": "separable_conv_1_bn_normal_left5_1"}, {"class_name": "Activation", "config": {"activation": "relu", "trainable": true, "name": "activation_1295"}, "inbound_nodes": [[["separable_conv_1_bn_normal_left1_1", 0, 0, {}]]], "name": "activation_1295"}, {"class_name": "Activation", "config": {"activation": "relu", "trainable": true, "name": "activation_1297"}, "inbound_nodes": [[["separable_conv_1_bn_normal_right1_1", 0, 0, {}]]], "name": "activation_1297"}, {"class_name": "Activation", "config": {"activation": "relu", "trainable": true, "name": "activation_1299"}, "inbound_nodes": [[["separable_conv_1_bn_normal_left2_1", 0, 0, {}]]], "name": "activation_1299"}, {"class_name": "Activation", "config": {"activation": "relu", "trainable": true, "name": "activation_1301"}, "inbound_nodes": [[["separable_conv_1_bn_normal_right2_1", 0, 0, {}]]], "name": "activation_1301"}, {"class_name": "Activation", "config": {"activation": "relu", "trainable": true, "name": "activation_1303"}, "inbound_nodes": [[["separable_conv_1_bn_normal_left5_1", 0, 0, {}]]], "name": "activation_1303"}, {"class_name": "SeparableConv2D", "config": {"kernel_size": [5, 5], "dilation_rate": [1, 1], "filters": 32, "bias_initializer": {"class_name": "Zeros", "config": {}}, "depthwise_regularizer": null, "strides": [1, 1], "data_format": "channels_last", "trainable": true, "bias_constraint": null, "name": "separable_conv_2_normal_left1_1", "depth_multiplier": 1, "pointwise_initializer": {"class_name": "VarianceScaling", "config": {"scale": 1.0, "mode": "fan_avg", "distribution": "uniform", "seed": null}}, "padding": "same", "pointwise_regularizer": null, "bias_regularizer": null, "depthwise_constraint": null, "activation": "linear", "use_bias": false, "pointwise_constraint": null, "depthwise_initializer": {"class_name": "VarianceScaling", "config": {"scale": 1.0, "mode": "fan_avg", "distribution": "uniform", "seed": null}}, "activity_regularizer": null}, "inbound_nodes": [[["activation_1295", 0, 0, {}]]], "name": "separable_conv_2_normal_left1_1"}, {"class_name": "SeparableConv2D", "config": {"kernel_size": [3, 3], "dilation_rate": [1, 1], "filters": 32, "bias_initializer": {"class_name": "Zeros", "config": {}}, "depthwise_regularizer": null, "strides": [1, 1], "data_format": "channels_last", "trainable": true, "bias_constraint": null, "name": "separable_conv_2_normal_right1_1", "depth_multiplier": 1, "pointwise_initializer": {"class_name": "VarianceScaling", "config": {"scale": 1.0, "mode": "fan_avg", "distribution": "uniform", "seed": null}}, "padding": "same", "pointwise_regularizer": null, "bias_regularizer": null, "depthwise_constraint": null, "activation": "linear", "use_bias": false, "pointwise_constraint": null, "depthwise_initializer": {"class_name": "VarianceScaling", "config": {"scale": 1.0, "mode": "fan_avg", "distribution": "uniform", "seed": null}}, "activity_regularizer": null}, "inbound_nodes": [[["activation_1297", 0, 0, {}]]], "name": "separable_conv_2_normal_right1_1"}, {"class_name": "SeparableConv2D", "config": {"kernel_size": [5, 5], "dilation_rate": [1, 1], "filters": 32, "bias_initializer": {"class_name": "Zeros", "config": {}}, "depthwise_regularizer": null, "strides": [1, 1], "data_format": "channels_last", "trainable": true, "bias_constraint": null, "name": "separable_conv_2_normal_left2_1", "depth_multiplier": 1, "pointwise_initializer": {"class_name": "VarianceScaling", "config": {"scale": 1.0, "mode": "fan_avg", "distribution": "uniform", "seed": null}}, "padding": "same", "pointwise_regularizer": null, "bias_regularizer": null, "depthwise_constraint": null, "activation": "linear", "use_bias": false, "pointwise_constraint": null, "depthwise_initializer": {"class_name": "VarianceScaling", "config": {"scale": 1.0, "mode": "fan_avg", "distribution": "uniform", "seed": null}}, "activity_regularizer": null}, "inbound_nodes": [[["activation_1299", 0, 0, {}]]], "name": "separable_conv_2_normal_left2_1"}, {"class_name": "SeparableConv2D", "config": {"kernel_size": [3, 3], "dilation_rate": [1, 1], "filters": 32, "bias_initializer": {"class_name": "Zeros", "config": {}}, "depthwise_regularizer": null, "strides": [1, 1], "data_format": "channels_last", "trainable": true, "bias_constraint": null, "name": "separable_conv_2_normal_right2_1", "depth_multiplier": 1, "pointwise_initializer": {"class_name": "VarianceScaling", "config": {"scale": 1.0, "mode": "fan_avg", "distribution": "uniform", "seed": null}}, "padding": "same", "pointwise_regularizer": null, "bias_regularizer": null, "depthwise_constraint": null, "activation": "linear", "use_bias": false, "pointwise_constraint": null, "depthwise_initializer": {"class_name": "VarianceScaling", "config": {"scale": 1.0, "mode": "fan_avg", "distribution": "uniform", "seed": null}}, "activity_regularizer": null}, "inbound_nodes": [[["activation_1301", 0, 0, {}]]], "name": "separable_conv_2_normal_right2_1"}, {"class_name": "SeparableConv2D", "config": {"kernel_size": [3, 3], "dilation_rate": [1, 1], "filters": 32, "bias_initializer": {"class_name": "Zeros", "config": {}}, "depthwise_regularizer": null, "strides": [1, 1], "data_format": "channels_last", "trainable": true, "bias_constraint": null, "name": "separable_conv_2_normal_left5_1", "depth_multiplier": 1, "pointwise_initializer": {"class_name": "VarianceScaling", "config": {"scale": 1.0, "mode": "fan_avg", "distribution": "uniform", "seed": null}}, "padding": "same", "pointwise_regularizer": null, "bias_regularizer": null, "depthwise_constraint": null, "activation": "linear", "use_bias": false, "pointwise_constraint": null, "depthwise_initializer": {"class_name": "VarianceScaling", "config": {"scale": 1.0, "mode": "fan_avg", "distribution": "uniform", "seed": null}}, "activity_regularizer": null}, "inbound_nodes": [[["activation_1303", 0, 0, {}]]], "name": "separable_conv_2_normal_left5_1"}, {"class_name": "BatchNormalization", "config": {"beta_regularizer": null, "center": true, "trainable": true, "gamma_constraint": null, "axis": -1, "gamma_initializer": {"class_name": "Ones", "config": {}}, "moving_variance_initializer": {"class_name": "Ones", "config": {}}, "moving_mean_initializer": {"class_name": "Zeros", "config": {}}, "epsilon": 1e-05, "gamma_regularizer": null, "scale": true, "beta_constraint": null, "beta_initializer": {"class_name": "Zeros", "config": {}}, "momentum": 0.9, "name": "separable_conv_2_bn_normal_left1_1"}, "inbound_nodes": [[["separable_conv_2_normal_left1_1", 0, 0, {}]]], "name": "separable_conv_2_bn_normal_left1_1"}, {"class_name": "BatchNormalization", "config": {"beta_regularizer": null, "center": true, "trainable": true, "gamma_constraint": null, "axis": -1, "gamma_initializer": {"class_name": "Ones", "config": {}}, "moving_variance_initializer": {"class_name": "Ones", "config": {}}, "moving_mean_initializer": {"class_name": "Zeros", "config": {}}, "epsilon": 1e-05, "gamma_regularizer": null, "scale": true, "beta_constraint": null, "beta_initializer": {"class_name": "Zeros", "config": {}}, "momentum": 0.9, "name": "separable_conv_2_bn_normal_right1_1"}, "inbound_nodes": [[["separable_conv_2_normal_right1_1", 0, 0, {}]]], "name": "separable_conv_2_bn_normal_right1_1"}, {"class_name": "BatchNormalization", "config": {"beta_regularizer": null, "center": true, "trainable": true, "gamma_constraint": null, "axis": -1, "gamma_initializer": {"class_name": "Ones", "config": {}}, "moving_variance_initializer": {"class_name": "Ones", "config": {}}, "moving_mean_initializer": {"class_name": "Zeros", "config": {}}, "epsilon": 1e-05, "gamma_regularizer": null, "scale": true, "beta_constraint": null, "beta_initializer": {"class_name": "Zeros", "config": {}}, "momentum": 0.9, "name": "separable_conv_2_bn_normal_left2_1"}, "inbound_nodes": [[["separable_conv_2_normal_left2_1", 0, 0, {}]]], "name": "separable_conv_2_bn_normal_left2_1"}, {"class_name": "BatchNormalization", "config": {"beta_regularizer": null, "center": true, "trainable": true, "gamma_constraint": null, "axis": -1, "gamma_initializer": {"class_name": "Ones", "config": {}}, "moving_variance_initializer": {"class_name": "Ones", "config": {}}, "moving_mean_initializer": {"class_name": "Zeros", "config": {}}, "epsilon": 1e-05, "gamma_regularizer": null, "scale": true, "beta_constraint": null, "beta_initializer": {"class_name": "Zeros", "config": {}}, "momentum": 0.9, "name": "separable_conv_2_bn_normal_right2_1"}, "inbound_nodes": [[["separable_conv_2_normal_right2_1", 0, 0, {}]]], "name": "separable_conv_2_bn_normal_right2_1"}, {"class_name": "AveragePooling2D", "config": {"padding": "same", "data_format": "channels_last", "pool_size": [3, 3], "trainable": true, "strides": [1, 1], "name": "normal_left3_1"}, "inbound_nodes": [[["normal_bn_1_1", 0, 0, {}]]], "name": "normal_left3_1"}, {"class_name": "AveragePooling2D", "config": {"padding": "same", "data_format": "channels_last", "pool_size": [3, 3], "trainable": true, "strides": [1, 1], "name": "normal_left4_1"}, "inbound_nodes": [[["stem_bn1", 0, 0, {}]]], "name": "normal_left4_1"}, {"class_name": "AveragePooling2D", "config": {"padding": "same", "data_format": "channels_last", "pool_size": [3, 3], "trainable": true, "strides": [1, 1], "name": "normal_right4_1"}, "inbound_nodes": [[["stem_bn1", 0, 0, {}]]], "name": "normal_right4_1"}, {"class_name": "BatchNormalization", "config": {"beta_regularizer": null, "center": true, "trainable": true, "gamma_constraint": null, "axis": -1, "gamma_initializer": {"class_name": "Ones", "config": {}}, "moving_variance_initializer": {"class_name": "Ones", "config": {}}, "moving_mean_initializer": {"class_name": "Zeros", "config": {}}, "epsilon": 1e-05, "gamma_regularizer": null, "scale": true, "beta_constraint": null, "beta_initializer": {"class_name": "Zeros", "config": {}}, "momentum": 0.9, "name": "separable_conv_2_bn_normal_left5_1"}, "inbound_nodes": [[["separable_conv_2_normal_left5_1", 0, 0, {}]]], "name": "separable_conv_2_bn_normal_left5_1"}, {"class_name": "Add", "config": {"trainable": true, "name": "normal_add_1_1"}, "inbound_nodes": [[["separable_conv_2_bn_normal_left1_1", 0, 0, {}], ["separable_conv_2_bn_normal_right1_1", 0, 0, {}]]], "name": "normal_add_1_1"}, {"class_name": "Add", "config": {"trainable": true, "name": "normal_add_2_1"}, "inbound_nodes": [[["separable_conv_2_bn_normal_left2_1", 0, 0, {}], ["separable_conv_2_bn_normal_right2_1", 0, 0, {}]]], "name": "normal_add_2_1"}, {"class_name": "Add", "config": {"trainable": true, "name": "normal_add_3_1"}, "inbound_nodes": [[["normal_left3_1", 0, 0, {}], ["stem_bn1", 0, 0, {}]]], "name": "normal_add_3_1"}, {"class_name": "Add", "config": {"trainable": true, "name": "normal_add_4_1"}, "inbound_nodes": [[["normal_left4_1", 0, 0, {}], ["normal_right4_1", 0, 0, {}]]], "name": "normal_add_4_1"}, {"class_name": "Add", "config": {"trainable": true, "name": "normal_add_5_1"}, "inbound_nodes": [[["separable_conv_2_bn_normal_left5_1", 0, 0, {}], ["normal_bn_1_1", 0, 0, {}]]], "name": "normal_add_5_1"}, {"class_name": "Concatenate", "config": {"axis": -1, "trainable": true, "name": "normal_concat_1"}, "inbound_nodes": [[["stem_bn1", 0, 0, {}], ["normal_add_1_1", 0, 0, {}], ["normal_add_2_1", 0, 0, {}], ["normal_add_3_1", 0, 0, {}], ["normal_add_4_1", 0, 0, {}], ["normal_add_5_1", 0, 0, {}]]], "name": "normal_concat_1"}, {"class_name": "Activation", "config": {"activation": "relu", "trainable": true, "name": "activation_1304"}, "inbound_nodes": [[["normal_concat_0", 0, 0, {}]]], "name": "activation_1304"}, {"class_name": "Activation", "config": {"activation": "relu", "trainable": true, "name": "activation_1305"}, "inbound_nodes": [[["normal_concat_1", 0, 0, {}]]], "name": "activation_1305"}, {"class_name": "Conv2D", "config": {"kernel_size": [1, 1], "dilation_rate": [1, 1], "filters": 32, "padding": "same", "bias_initializer": {"class_name": "Zeros", "config": {}}, "name": "adjust_conv_projection_2", "strides": [1, 1], "kernel_initializer": {"class_name": "VarianceScaling", "config": {"scale": 2.0, "mode": "fan_in", "distribution": "normal", "seed": null}}, "trainable": true, "bias_constraint": null, "data_format": "channels_last", "activation": "linear", "use_bias": false, "kernel_regularizer": {"class_name": "L1L2", "config": {"l1": 0.0, "l2": 0.0005000000237487257}}, "kernel_constraint": null, "bias_regularizer": null, "activity_regularizer": null}, "inbound_nodes": [[["activation_1304", 0, 0, {}]]], "name": "adjust_conv_projection_2"}, {"class_name": "Conv2D", "config": {"kernel_size": [1, 1], "dilation_rate": [1, 1], "filters": 32, "padding": "same", "bias_initializer": {"class_name": "Zeros", "config": {}}, "name": "normal_conv_1_2", "strides": [1, 1], "kernel_initializer": {"class_name": "VarianceScaling", "config": {"scale": 2.0, "mode": "fan_in", "distribution": "normal", "seed": null}}, "trainable": true, "bias_constraint": null, "data_format": "channels_last", "activation": "linear", "use_bias": false, "kernel_regularizer": {"class_name": "L1L2", "config": {"l1": 0.0, "l2": 0.0005000000237487257}}, "kernel_constraint": null, "bias_regularizer": null, "activity_regularizer": null}, "inbound_nodes": [[["activation_1305", 0, 0, {}]]], "name": "normal_conv_1_2"}, {"class_name": "BatchNormalization", "config": {"beta_regularizer": null, "center": true, "trainable": true, "gamma_constraint": null, "axis": -1, "gamma_initializer": {"class_name": "Ones", "config": {}}, "moving_variance_initializer": {"class_name": "Ones", "config": {}}, "moving_mean_initializer": {"class_name": "Zeros", "config": {}}, "epsilon": 1e-05, "gamma_regularizer": null, "scale": true, "beta_constraint": null, "beta_initializer": {"class_name": "Zeros", "config": {}}, "momentum": 0.9, "name": "adjust_bn_2"}, "inbound_nodes": [[["adjust_conv_projection_2", 0, 0, {}]]], "name": "adjust_bn_2"}, {"class_name": "BatchNormalization", "config": {"beta_regularizer": null, "center": true, "trainable": true, "gamma_constraint": null, "axis": -1, "gamma_initializer": {"class_name": "Ones", "config": {}}, "moving_variance_initializer": {"class_name": "Ones", "config": {}}, "moving_mean_initializer": {"class_name": "Zeros", "config": {}}, "epsilon": 1e-05, "gamma_regularizer": null, "scale": true, "beta_constraint": null, "beta_initializer": {"class_name": "Zeros", "config": {}}, "momentum": 0.9, "name": "normal_bn_1_2"}, "inbound_nodes": [[["normal_conv_1_2", 0, 0, {}]]], "name": "normal_bn_1_2"}, {"class_name": "Activation", "config": {"activation": "relu", "trainable": true, "name": "activation_1306"}, "inbound_nodes": [[["normal_bn_1_2", 0, 0, {}]]], "name": "activation_1306"}, {"class_name": "Activation", "config": {"activation": "relu", "trainable": true, "name": "activation_1308"}, "inbound_nodes": [[["adjust_bn_2", 0, 0, {}]]], "name": "activation_1308"}, {"class_name": "Activation", "config": {"activation": "relu", "trainable": true, "name": "activation_1310"}, "inbound_nodes": [[["adjust_bn_2", 0, 0, {}]]], "name": "activation_1310"}, {"class_name": "Activation", "config": {"activation": "relu", "trainable": true, "name": "activation_1312"}, "inbound_nodes": [[["adjust_bn_2", 0, 0, {}]]], "name": "activation_1312"}, {"class_name": "Activation", "config": {"activation": "relu", "trainable": true, "name": "activation_1314"}, "inbound_nodes": [[["normal_bn_1_2", 0, 0, {}]]], "name": "activation_1314"}, {"class_name": "SeparableConv2D", "config": {"kernel_size": [5, 5], "dilation_rate": [1, 1], "filters": 32, "bias_initializer": {"class_name": "Zeros", "config": {}}, "depthwise_regularizer": null, "strides": [1, 1], "data_format": "channels_last", "trainable": true, "bias_constraint": null, "name": "separable_conv_1_normal_left1_2", "depth_multiplier": 1, "pointwise_initializer": {"class_name": "VarianceScaling", "config": {"scale": 1.0, "mode": "fan_avg", "distribution": "uniform", "seed": null}}, "padding": "same", "pointwise_regularizer": null, "bias_regularizer": null, "depthwise_constraint": null, "activation": "linear", "use_bias": false, "pointwise_constraint": null, "depthwise_initializer": {"class_name": "VarianceScaling", "config": {"scale": 1.0, "mode": "fan_avg", "distribution": "uniform", "seed": null}}, "activity_regularizer": null}, "inbound_nodes": [[["activation_1306", 0, 0, {}]]], "name": "separable_conv_1_normal_left1_2"}, {"class_name": "SeparableConv2D", "config": {"kernel_size": [3, 3], "dilation_rate": [1, 1], "filters": 32, "bias_initializer": {"class_name": "Zeros", "config": {}}, "depthwise_regularizer": null, "strides": [1, 1], "data_format": "channels_last", "trainable": true, "bias_constraint": null, "name": "separable_conv_1_normal_right1_2", "depth_multiplier": 1, "pointwise_initializer": {"class_name": "VarianceScaling", "config": {"scale": 1.0, "mode": "fan_avg", "distribution": "uniform", "seed": null}}, "padding": "same", "pointwise_regularizer": null, "bias_regularizer": null, "depthwise_constraint": null, "activation": "linear", "use_bias": false, "pointwise_constraint": null, "depthwise_initializer": {"class_name": "VarianceScaling", "config": {"scale": 1.0, "mode": "fan_avg", "distribution": "uniform", "seed": null}}, "activity_regularizer": null}, "inbound_nodes": [[["activation_1308", 0, 0, {}]]], "name": "separable_conv_1_normal_right1_2"}, {"class_name": "SeparableConv2D", "config": {"kernel_size": [5, 5], "dilation_rate": [1, 1], "filters": 32, "bias_initializer": {"class_name": "Zeros", "config": {}}, "depthwise_regularizer": null, "strides": [1, 1], "data_format": "channels_last", "trainable": true, "bias_constraint": null, "name": "separable_conv_1_normal_left2_2", "depth_multiplier": 1, "pointwise_initializer": {"class_name": "VarianceScaling", "config": {"scale": 1.0, "mode": "fan_avg", "distribution": "uniform", "seed": null}}, "padding": "same", "pointwise_regularizer": null, "bias_regularizer": null, "depthwise_constraint": null, "activation": "linear", "use_bias": false, "pointwise_constraint": null, "depthwise_initializer": {"class_name": "VarianceScaling", "config": {"scale": 1.0, "mode": "fan_avg", "distribution": "uniform", "seed": null}}, "activity_regularizer": null}, "inbound_nodes": [[["activation_1310", 0, 0, {}]]], "name": "separable_conv_1_normal_left2_2"}, {"class_name": "SeparableConv2D", "config": {"kernel_size": [3, 3], "dilation_rate": [1, 1], "filters": 32, "bias_initializer": {"class_name": "Zeros", "config": {}}, "depthwise_regularizer": null, "strides": [1, 1], "data_format": "channels_last", "trainable": true, "bias_constraint": null, "name": "separable_conv_1_normal_right2_2", "depth_multiplier": 1, "pointwise_initializer": {"class_name": "VarianceScaling", "config": {"scale": 1.0, "mode": "fan_avg", "distribution": "uniform", "seed": null}}, "padding": "same", "pointwise_regularizer": null, "bias_regularizer": null, "depthwise_constraint": null, "activation": "linear", "use_bias": false, "pointwise_constraint": null, "depthwise_initializer": {"class_name": "VarianceScaling", "config": {"scale": 1.0, "mode": "fan_avg", "distribution": "uniform", "seed": null}}, "activity_regularizer": null}, "inbound_nodes": [[["activation_1312", 0, 0, {}]]], "name": "separable_conv_1_normal_right2_2"}, {"class_name": "SeparableConv2D", "config": {"kernel_size": [3, 3], "dilation_rate": [1, 1], "filters": 32, "bias_initializer": {"class_name": "Zeros", "config": {}}, "depthwise_regularizer": null, "strides": [1, 1], "data_format": "channels_last", "trainable": true, "bias_constraint": null, "name": "separable_conv_1_normal_left5_2", "depth_multiplier": 1, "pointwise_initializer": {"class_name": "VarianceScaling", "config": {"scale": 1.0, "mode": "fan_avg", "distribution": "uniform", "seed": null}}, "padding": "same", "pointwise_regularizer": null, "bias_regularizer": null, "depthwise_constraint": null, "activation": "linear", "use_bias": false, "pointwise_constraint": null, "depthwise_initializer": {"class_name": "VarianceScaling", "config": {"scale": 1.0, "mode": "fan_avg", "distribution": "uniform", "seed": null}}, "activity_regularizer": null}, "inbound_nodes": [[["activation_1314", 0, 0, {}]]], "name": "separable_conv_1_normal_left5_2"}, {"class_name": "BatchNormalization", "config": {"beta_regularizer": null, "center": true, "trainable": true, "gamma_constraint": null, "axis": -1, "gamma_initializer": {"class_name": "Ones", "config": {}}, "moving_variance_initializer": {"class_name": "Ones", "config": {}}, "moving_mean_initializer": {"class_name": "Zeros", "config": {}}, "epsilon": 1e-05, "gamma_regularizer": null, "scale": true, "beta_constraint": null, "beta_initializer": {"class_name": "Zeros", "config": {}}, "momentum": 0.9, "name": "separable_conv_1_bn_normal_left1_2"}, "inbound_nodes": [[["separable_conv_1_normal_left1_2", 0, 0, {}]]], "name": "separable_conv_1_bn_normal_left1_2"}, {"class_name": "BatchNormalization", "config": {"beta_regularizer": null, "center": true, "trainable": true, "gamma_constraint": null, "axis": -1, "gamma_initializer": {"class_name": "Ones", "config": {}}, "moving_variance_initializer": {"class_name": "Ones", "config": {}}, "moving_mean_initializer": {"class_name": "Zeros", "config": {}}, "epsilon": 1e-05, "gamma_regularizer": null, "scale": true, "beta_constraint": null, "beta_initializer": {"class_name": "Zeros", "config": {}}, "momentum": 0.9, "name": "separable_conv_1_bn_normal_right1_2"}, "inbound_nodes": [[["separable_conv_1_normal_right1_2", 0, 0, {}]]], "name": "separable_conv_1_bn_normal_right1_2"}, {"class_name": "BatchNormalization", "config": {"beta_regularizer": null, "center": true, "trainable": true, "gamma_constraint": null, "axis": -1, "gamma_initializer": {"class_name": "Ones", "config": {}}, "moving_variance_initializer": {"class_name": "Ones", "config": {}}, "moving_mean_initializer": {"class_name": "Zeros", "config": {}}, "epsilon": 1e-05, "gamma_regularizer": null, "scale": true, "beta_constraint": null, "beta_initializer": {"class_name": "Zeros", "config": {}}, "momentum": 0.9, "name": "separable_conv_1_bn_normal_left2_2"}, "inbound_nodes": [[["separable_conv_1_normal_left2_2", 0, 0, {}]]], "name": "separable_conv_1_bn_normal_left2_2"}, {"class_name": "BatchNormalization", "config": {"beta_regularizer": null, "center": true, "trainable": true, "gamma_constraint": null, "axis": -1, "gamma_initializer": {"class_name": "Ones", "config": {}}, "moving_variance_initializer": {"class_name": "Ones", "config": {}}, "moving_mean_initializer": {"class_name": "Zeros", "config": {}}, "epsilon": 1e-05, "gamma_regularizer": null, "scale": true, "beta_constraint": null, "beta_initializer": {"class_name": "Zeros", "config": {}}, "momentum": 0.9, "name": "separable_conv_1_bn_normal_right2_2"}, "inbound_nodes": [[["separable_conv_1_normal_right2_2", 0, 0, {}]]], "name": "separable_conv_1_bn_normal_right2_2"}, {"class_name": "BatchNormalization", "config": {"beta_regularizer": null, "center": true, "trainable": true, "gamma_constraint": null, "axis": -1, "gamma_initializer": {"class_name": "Ones", "config": {}}, "moving_variance_initializer": {"class_name": "Ones", "config": {}}, "moving_mean_initializer": {"class_name": "Zeros", "config": {}}, "epsilon": 1e-05, "gamma_regularizer": null, "scale": true, "beta_constraint": null, "beta_initializer": {"class_name": "Zeros", "config": {}}, "momentum": 0.9, "name": "separable_conv_1_bn_normal_left5_2"}, "inbound_nodes": [[["separable_conv_1_normal_left5_2", 0, 0, {}]]], "name": "separable_conv_1_bn_normal_left5_2"}, {"class_name": "Activation", "config": {"activation": "relu", "trainable": true, "name": "activation_1307"}, "inbound_nodes": [[["separable_conv_1_bn_normal_left1_2", 0, 0, {}]]], "name": "activation_1307"}, {"class_name": "Activation", "config": {"activation": "relu", "trainable": true, "name": "activation_1309"}, "inbound_nodes": [[["separable_conv_1_bn_normal_right1_2", 0, 0, {}]]], "name": "activation_1309"}, {"class_name": "Activation", "config": {"activation": "relu", "trainable": true, "name": "activation_1311"}, "inbound_nodes": [[["separable_conv_1_bn_normal_left2_2", 0, 0, {}]]], "name": "activation_1311"}, {"class_name": "Activation", "config": {"activation": "relu", "trainable": true, "name": "activation_1313"}, "inbound_nodes": [[["separable_conv_1_bn_normal_right2_2", 0, 0, {}]]], "name": "activation_1313"}, {"class_name": "Activation", "config": {"activation": "relu", "trainable": true, "name": "activation_1315"}, "inbound_nodes": [[["separable_conv_1_bn_normal_left5_2", 0, 0, {}]]], "name": "activation_1315"}, {"class_name": "SeparableConv2D", "config": {"kernel_size": [5, 5], "dilation_rate": [1, 1], "filters": 32, "bias_initializer": {"class_name": "Zeros", "config": {}}, "depthwise_regularizer": null, "strides": [1, 1], "data_format": "channels_last", "trainable": true, "bias_constraint": null, "name": "separable_conv_2_normal_left1_2", "depth_multiplier": 1, "pointwise_initializer": {"class_name": "VarianceScaling", "config": {"scale": 1.0, "mode": "fan_avg", "distribution": "uniform", "seed": null}}, "padding": "same", "pointwise_regularizer": null, "bias_regularizer": null, "depthwise_constraint": null, "activation": "linear", "use_bias": false, "pointwise_constraint": null, "depthwise_initializer": {"class_name": "VarianceScaling", "config": {"scale": 1.0, "mode": "fan_avg", "distribution": "uniform", "seed": null}}, "activity_regularizer": null}, "inbound_nodes": [[["activation_1307", 0, 0, {}]]], "name": "separable_conv_2_normal_left1_2"}, {"class_name": "SeparableConv2D", "config": {"kernel_size": [3, 3], "dilation_rate": [1, 1], "filters": 32, "bias_initializer": {"class_name": "Zeros", "config": {}}, "depthwise_regularizer": null, "strides": [1, 1], "data_format": "channels_last", "trainable": true, "bias_constraint": null, "name": "separable_conv_2_normal_right1_2", "depth_multiplier": 1, "pointwise_initializer": {"class_name": "VarianceScaling", "config": {"scale": 1.0, "mode": "fan_avg", "distribution": "uniform", "seed": null}}, "padding": "same", "pointwise_regularizer": null, "bias_regularizer": null, "depthwise_constraint": null, "activation": "linear", "use_bias": false, "pointwise_constraint": null, "depthwise_initializer": {"class_name": "VarianceScaling", "config": {"scale": 1.0, "mode": "fan_avg", "distribution": "uniform", "seed": null}}, "activity_regularizer": null}, "inbound_nodes": [[["activation_1309", 0, 0, {}]]], "name": "separable_conv_2_normal_right1_2"}, {"class_name": "SeparableConv2D", "config": {"kernel_size": [5, 5], "dilation_rate": [1, 1], "filters": 32, "bias_initializer": {"class_name": "Zeros", "config": {}}, "depthwise_regularizer": null, "strides": [1, 1], "data_format": "channels_last", "trainable": true, "bias_constraint": null, "name": "separable_conv_2_normal_left2_2", "depth_multiplier": 1, "pointwise_initializer": {"class_name": "VarianceScaling", "config": {"scale": 1.0, "mode": "fan_avg", "distribution": "uniform", "seed": null}}, "padding": "same", "pointwise_regularizer": null, "bias_regularizer": null, "depthwise_constraint": null, "activation": "linear", "use_bias": false, "pointwise_constraint": null, "depthwise_initializer": {"class_name": "VarianceScaling", "config": {"scale": 1.0, "mode": "fan_avg", "distribution": "uniform", "seed": null}}, "activity_regularizer": null}, "inbound_nodes": [[["activation_1311", 0, 0, {}]]], "name": "separable_conv_2_normal_left2_2"}, {"class_name": "SeparableConv2D", "config": {"kernel_size": [3, 3], "dilation_rate": [1, 1], "filters": 32, "bias_initializer": {"class_name": "Zeros", "config": {}}, "depthwise_regularizer": null, "strides": [1, 1], "data_format": "channels_last", "trainable": true, "bias_constraint": null, "name": "separable_conv_2_normal_right2_2", "depth_multiplier": 1, "pointwise_initializer": {"class_name": "VarianceScaling", "config": {"scale": 1.0, "mode": "fan_avg", "distribution": "uniform", "seed": null}}, "padding": "same", "pointwise_regularizer": null, "bias_regularizer": null, "depthwise_constraint": null, "activation": "linear", "use_bias": false, "pointwise_constraint": null, "depthwise_initializer": {"class_name": "VarianceScaling", "config": {"scale": 1.0, "mode": "fan_avg", "distribution": "uniform", "seed": null}}, "activity_regularizer": null}, "inbound_nodes": [[["activation_1313", 0, 0, {}]]], "name": "separable_conv_2_normal_right2_2"}, {"class_name": "SeparableConv2D", "config": {"kernel_size": [3, 3], "dilation_rate": [1, 1], "filters": 32, "bias_initializer": {"class_name": "Zeros", "config": {}}, "depthwise_regularizer": null, "strides": [1, 1], "data_format": "channels_last", "trainable": true, "bias_constraint": null, "name": "separable_conv_2_normal_left5_2", "depth_multiplier": 1, "pointwise_initializer": {"class_name": "VarianceScaling", "config": {"scale": 1.0, "mode": "fan_avg", "distribution": "uniform", "seed": null}}, "padding": "same", "pointwise_regularizer": null, "bias_regularizer": null, "depthwise_constraint": null, "activation": "linear", "use_bias": false, "pointwise_constraint": null, "depthwise_initializer": {"class_name": "VarianceScaling", "config": {"scale": 1.0, "mode": "fan_avg", "distribution": "uniform", "seed": null}}, "activity_regularizer": null}, "inbound_nodes": [[["activation_1315", 0, 0, {}]]], "name": "separable_conv_2_normal_left5_2"}, {"class_name": "BatchNormalization", "config": {"beta_regularizer": null, "center": true, "trainable": true, "gamma_constraint": null, "axis": -1, "gamma_initializer": {"class_name": "Ones", "config": {}}, "moving_variance_initializer": {"class_name": "Ones", "config": {}}, "moving_mean_initializer": {"class_name": "Zeros", "config": {}}, "epsilon": 1e-05, "gamma_regularizer": null, "scale": true, "beta_constraint": null, "beta_initializer": {"class_name": "Zeros", "config": {}}, "momentum": 0.9, "name": "separable_conv_2_bn_normal_left1_2"}, "inbound_nodes": [[["separable_conv_2_normal_left1_2", 0, 0, {}]]], "name": "separable_conv_2_bn_normal_left1_2"}, {"class_name": "BatchNormalization", "config": {"beta_regularizer": null, "center": true, "trainable": true, "gamma_constraint": null, "axis": -1, "gamma_initializer": {"class_name": "Ones", "config": {}}, "moving_variance_initializer": {"class_name": "Ones", "config": {}}, "moving_mean_initializer": {"class_name": "Zeros", "config": {}}, "epsilon": 1e-05, "gamma_regularizer": null, "scale": true, "beta_constraint": null, "beta_initializer": {"class_name": "Zeros", "config": {}}, "momentum": 0.9, "name": "separable_conv_2_bn_normal_right1_2"}, "inbound_nodes": [[["separable_conv_2_normal_right1_2", 0, 0, {}]]], "name": "separable_conv_2_bn_normal_right1_2"}, {"class_name": "BatchNormalization", "config": {"beta_regularizer": null, "center": true, "trainable": true, "gamma_constraint": null, "axis": -1, "gamma_initializer": {"class_name": "Ones", "config": {}}, "moving_variance_initializer": {"class_name": "Ones", "config": {}}, "moving_mean_initializer": {"class_name": "Zeros", "config": {}}, "epsilon": 1e-05, "gamma_regularizer": null, "scale": true, "beta_constraint": null, "beta_initializer": {"class_name": "Zeros", "config": {}}, "momentum": 0.9, "name": "separable_conv_2_bn_normal_left2_2"}, "inbound_nodes": [[["separable_conv_2_normal_left2_2", 0, 0, {}]]], "name": "separable_conv_2_bn_normal_left2_2"}, {"class_name": "BatchNormalization", "config": {"beta_regularizer": null, "center": true, "trainable": true, "gamma_constraint": null, "axis": -1, "gamma_initializer": {"class_name": "Ones", "config": {}}, "moving_variance_initializer": {"class_name": "Ones", "config": {}}, "moving_mean_initializer": {"class_name": "Zeros", "config": {}}, "epsilon": 1e-05, "gamma_regularizer": null, "scale": true, "beta_constraint": null, "beta_initializer": {"class_name": "Zeros", "config": {}}, "momentum": 0.9, "name": "separable_conv_2_bn_normal_right2_2"}, "inbound_nodes": [[["separable_conv_2_normal_right2_2", 0, 0, {}]]], "name": "separable_conv_2_bn_normal_right2_2"}, {"class_name": "AveragePooling2D", "config": {"padding": "same", "data_format": "channels_last", "pool_size": [3, 3], "trainable": true, "strides": [1, 1], "name": "normal_left3_2"}, "inbound_nodes": [[["normal_bn_1_2", 0, 0, {}]]], "name": "normal_left3_2"}, {"class_name": "AveragePooling2D", "config": {"padding": "same", "data_format": "channels_last", "pool_size": [3, 3], "trainable": true, "strides": [1, 1], "name": "normal_left4_2"}, "inbound_nodes": [[["adjust_bn_2", 0, 0, {}]]], "name": "normal_left4_2"}, {"class_name": "AveragePooling2D", "config": {"padding": "same", "data_format": "channels_last", "pool_size": [3, 3], "trainable": true, "strides": [1, 1], "name": "normal_right4_2"}, "inbound_nodes": [[["adjust_bn_2", 0, 0, {}]]], "name": "normal_right4_2"}, {"class_name": "BatchNormalization", "config": {"beta_regularizer": null, "center": true, "trainable": true, "gamma_constraint": null, "axis": -1, "gamma_initializer": {"class_name": "Ones", "config": {}}, "moving_variance_initializer": {"class_name": "Ones", "config": {}}, "moving_mean_initializer": {"class_name": "Zeros", "config": {}}, "epsilon": 1e-05, "gamma_regularizer": null, "scale": true, "beta_constraint": null, "beta_initializer": {"class_name": "Zeros", "config": {}}, "momentum": 0.9, "name": "separable_conv_2_bn_normal_left5_2"}, "inbound_nodes": [[["separable_conv_2_normal_left5_2", 0, 0, {}]]], "name": "separable_conv_2_bn_normal_left5_2"}, {"class_name": "Add", "config": {"trainable": true, "name": "normal_add_1_2"}, "inbound_nodes": [[["separable_conv_2_bn_normal_left1_2", 0, 0, {}], ["separable_conv_2_bn_normal_right1_2", 0, 0, {}]]], "name": "normal_add_1_2"}, {"class_name": "Add", "config": {"trainable": true, "name": "normal_add_2_2"}, "inbound_nodes": [[["separable_conv_2_bn_normal_left2_2", 0, 0, {}], ["separable_conv_2_bn_normal_right2_2", 0, 0, {}]]], "name": "normal_add_2_2"}, {"class_name": "Add", "config": {"trainable": true, "name": "normal_add_3_2"}, "inbound_nodes": [[["normal_left3_2", 0, 0, {}], ["adjust_bn_2", 0, 0, {}]]], "name": "normal_add_3_2"}, {"class_name": "Add", "config": {"trainable": true, "name": "normal_add_4_2"}, "inbound_nodes": [[["normal_left4_2", 0, 0, {}], ["normal_right4_2", 0, 0, {}]]], "name": "normal_add_4_2"}, {"class_name": "Add", "config": {"trainable": true, "name": "normal_add_5_2"}, "inbound_nodes": [[["separable_conv_2_bn_normal_left5_2", 0, 0, {}], ["normal_bn_1_2", 0, 0, {}]]], "name": "normal_add_5_2"}, {"class_name": "Concatenate", "config": {"axis": -1, "trainable": true, "name": "normal_concat_2"}, "inbound_nodes": [[["adjust_bn_2", 0, 0, {}], ["normal_add_1_2", 0, 0, {}], ["normal_add_2_2", 0, 0, {}], ["normal_add_3_2", 0, 0, {}], ["normal_add_4_2", 0, 0, {}], ["normal_add_5_2", 0, 0, {}]]], "name": "normal_concat_2"}, {"class_name": "Activation", "config": {"activation": "relu", "trainable": true, "name": "activation_1316"}, "inbound_nodes": [[["normal_concat_1", 0, 0, {}]]], "name": "activation_1316"}, {"class_name": "Activation", "config": {"activation": "relu", "trainable": true, "name": "activation_1317"}, "inbound_nodes": [[["normal_concat_2", 0, 0, {}]]], "name": "activation_1317"}, {"class_name": "Conv2D", "config": {"kernel_size": [1, 1], "dilation_rate": [1, 1], "filters": 32, "padding": "same", "bias_initializer": {"class_name": "Zeros", "config": {}}, "name": "adjust_conv_projection_3", "strides": [1, 1], "kernel_initializer": {"class_name": "VarianceScaling", "config": {"scale": 2.0, "mode": "fan_in", "distribution": "normal", "seed": null}}, "trainable": true, "bias_constraint": null, "data_format": "channels_last", "activation": "linear", "use_bias": false, "kernel_regularizer": {"class_name": "L1L2", "config": {"l1": 0.0, "l2": 0.0005000000237487257}}, "kernel_constraint": null, "bias_regularizer": null, "activity_regularizer": null}, "inbound_nodes": [[["activation_1316", 0, 0, {}]]], "name": "adjust_conv_projection_3"}, {"class_name": "Conv2D", "config": {"kernel_size": [1, 1], "dilation_rate": [1, 1], "filters": 32, "padding": "same", "bias_initializer": {"class_name": "Zeros", "config": {}}, "name": "normal_conv_1_3", "strides": [1, 1], "kernel_initializer": {"class_name": "VarianceScaling", "config": {"scale": 2.0, "mode": "fan_in", "distribution": "normal", "seed": null}}, "trainable": true, "bias_constraint": null, "data_format": "channels_last", "activation": "linear", "use_bias": false, "kernel_regularizer": {"class_name": "L1L2", "config": {"l1": 0.0, "l2": 0.0005000000237487257}}, "kernel_constraint": null, "bias_regularizer": null, "activity_regularizer": null}, "inbound_nodes": [[["activation_1317", 0, 0, {}]]], "name": "normal_conv_1_3"}, {"class_name": "BatchNormalization", "config": {"beta_regularizer": null, "center": true, "trainable": true, "gamma_constraint": null, "axis": -1, "gamma_initializer": {"class_name": "Ones", "config": {}}, "moving_variance_initializer": {"class_name": "Ones", "config": {}}, "moving_mean_initializer": {"class_name": "Zeros", "config": {}}, "epsilon": 1e-05, "gamma_regularizer": null, "scale": true, "beta_constraint": null, "beta_initializer": {"class_name": "Zeros", "config": {}}, "momentum": 0.9, "name": "adjust_bn_3"}, "inbound_nodes": [[["adjust_conv_projection_3", 0, 0, {}]]], "name": "adjust_bn_3"}, {"class_name": "BatchNormalization", "config": {"beta_regularizer": null, "center": true, "trainable": true, "gamma_constraint": null, "axis": -1, "gamma_initializer": {"class_name": "Ones", "config": {}}, "moving_variance_initializer": {"class_name": "Ones", "config": {}}, "moving_mean_initializer": {"class_name": "Zeros", "config": {}}, "epsilon": 1e-05, "gamma_regularizer": null, "scale": true, "beta_constraint": null, "beta_initializer": {"class_name": "Zeros", "config": {}}, "momentum": 0.9, "name": "normal_bn_1_3"}, "inbound_nodes": [[["normal_conv_1_3", 0, 0, {}]]], "name": "normal_bn_1_3"}, {"class_name": "Activation", "config": {"activation": "relu", "trainable": true, "name": "activation_1318"}, "inbound_nodes": [[["normal_bn_1_3", 0, 0, {}]]], "name": "activation_1318"}, {"class_name": "Activation", "config": {"activation": "relu", "trainable": true, "name": "activation_1320"}, "inbound_nodes": [[["adjust_bn_3", 0, 0, {}]]], "name": "activation_1320"}, {"class_name": "Activation", "config": {"activation": "relu", "trainable": true, "name": "activation_1322"}, "inbound_nodes": [[["adjust_bn_3", 0, 0, {}]]], "name": "activation_1322"}, {"class_name": "Activation", "config": {"activation": "relu", "trainable": true, "name": "activation_1324"}, "inbound_nodes": [[["adjust_bn_3", 0, 0, {}]]], "name": "activation_1324"}, {"class_name": "Activation", "config": {"activation": "relu", "trainable": true, "name": "activation_1326"}, "inbound_nodes": [[["normal_bn_1_3", 0, 0, {}]]], "name": "activation_1326"}, {"class_name": "SeparableConv2D", "config": {"kernel_size": [5, 5], "dilation_rate": [1, 1], "filters": 32, "bias_initializer": {"class_name": "Zeros", "config": {}}, "depthwise_regularizer": null, "strides": [1, 1], "data_format": "channels_last", "trainable": true, "bias_constraint": null, "name": "separable_conv_1_normal_left1_3", "depth_multiplier": 1, "pointwise_initializer": {"class_name": "VarianceScaling", "config": {"scale": 1.0, "mode": "fan_avg", "distribution": "uniform", "seed": null}}, "padding": "same", "pointwise_regularizer": null, "bias_regularizer": null, "depthwise_constraint": null, "activation": "linear", "use_bias": false, "pointwise_constraint": null, "depthwise_initializer": {"class_name": "VarianceScaling", "config": {"scale": 1.0, "mode": "fan_avg", "distribution": "uniform", "seed": null}}, "activity_regularizer": null}, "inbound_nodes": [[["activation_1318", 0, 0, {}]]], "name": "separable_conv_1_normal_left1_3"}, {"class_name": "SeparableConv2D", "config": {"kernel_size": [3, 3], "dilation_rate": [1, 1], "filters": 32, "bias_initializer": {"class_name": "Zeros", "config": {}}, "depthwise_regularizer": null, "strides": [1, 1], "data_format": "channels_last", "trainable": true, "bias_constraint": null, "name": "separable_conv_1_normal_right1_3", "depth_multiplier": 1, "pointwise_initializer": {"class_name": "VarianceScaling", "config": {"scale": 1.0, "mode": "fan_avg", "distribution": "uniform", "seed": null}}, "padding": "same", "pointwise_regularizer": null, "bias_regularizer": null, "depthwise_constraint": null, "activation": "linear", "use_bias": false, "pointwise_constraint": null, "depthwise_initializer": {"class_name": "VarianceScaling", "config": {"scale": 1.0, "mode": "fan_avg", "distribution": "uniform", "seed": null}}, "activity_regularizer": null}, "inbound_nodes": [[["activation_1320", 0, 0, {}]]], "name": "separable_conv_1_normal_right1_3"}, {"class_name": "SeparableConv2D", "config": {"kernel_size": [5, 5], "dilation_rate": [1, 1], "filters": 32, "bias_initializer": {"class_name": "Zeros", "config": {}}, "depthwise_regularizer": null, "strides": [1, 1], "data_format": "channels_last", "trainable": true, "bias_constraint": null, "name": "separable_conv_1_normal_left2_3", "depth_multiplier": 1, "pointwise_initializer": {"class_name": "VarianceScaling", "config": {"scale": 1.0, "mode": "fan_avg", "distribution": "uniform", "seed": null}}, "padding": "same", "pointwise_regularizer": null, "bias_regularizer": null, "depthwise_constraint": null, "activation": "linear", "use_bias": false, "pointwise_constraint": null, "depthwise_initializer": {"class_name": "VarianceScaling", "config": {"scale": 1.0, "mode": "fan_avg", "distribution": "uniform", "seed": null}}, "activity_regularizer": null}, "inbound_nodes": [[["activation_1322", 0, 0, {}]]], "name": "separable_conv_1_normal_left2_3"}, {"class_name": "SeparableConv2D", "config": {"kernel_size": [3, 3], "dilation_rate": [1, 1], "filters": 32, "bias_initializer": {"class_name": "Zeros", "config": {}}, "depthwise_regularizer": null, "strides": [1, 1], "data_format": "channels_last", "trainable": true, "bias_constraint": null, "name": "separable_conv_1_normal_right2_3", "depth_multiplier": 1, "pointwise_initializer": {"class_name": "VarianceScaling", "config": {"scale": 1.0, "mode": "fan_avg", "distribution": "uniform", "seed": null}}, "padding": "same", "pointwise_regularizer": null, "bias_regularizer": null, "depthwise_constraint": null, "activation": "linear", "use_bias": false, "pointwise_constraint": null, "depthwise_initializer": {"class_name": "VarianceScaling", "config": {"scale": 1.0, "mode": "fan_avg", "distribution": "uniform", "seed": null}}, "activity_regularizer": null}, "inbound_nodes": [[["activation_1324", 0, 0, {}]]], "name": "separable_conv_1_normal_right2_3"}, {"class_name": "SeparableConv2D", "config": {"kernel_size": [3, 3], "dilation_rate": [1, 1], "filters": 32, "bias_initializer": {"class_name": "Zeros", "config": {}}, "depthwise_regularizer": null, "strides": [1, 1], "data_format": "channels_last", "trainable": true, "bias_constraint": null, "name": "separable_conv_1_normal_left5_3", "depth_multiplier": 1, "pointwise_initializer": {"class_name": "VarianceScaling", "config": {"scale": 1.0, "mode": "fan_avg", "distribution": "uniform", "seed": null}}, "padding": "same", "pointwise_regularizer": null, "bias_regularizer": null, "depthwise_constraint": null, "activation": "linear", "use_bias": false, "pointwise_constraint": null, "depthwise_initializer": {"class_name": "VarianceScaling", "config": {"scale": 1.0, "mode": "fan_avg", "distribution": "uniform", "seed": null}}, "activity_regularizer": null}, "inbound_nodes": [[["activation_1326", 0, 0, {}]]], "name": "separable_conv_1_normal_left5_3"}, {"class_name": "BatchNormalization", "config": {"beta_regularizer": null, "center": true, "trainable": true, "gamma_constraint": null, "axis": -1, "gamma_initializer": {"class_name": "Ones", "config": {}}, "moving_variance_initializer": {"class_name": "Ones", "config": {}}, "moving_mean_initializer": {"class_name": "Zeros", "config": {}}, "epsilon": 1e-05, "gamma_regularizer": null, "scale": true, "beta_constraint": null, "beta_initializer": {"class_name": "Zeros", "config": {}}, "momentum": 0.9, "name": "separable_conv_1_bn_normal_left1_3"}, "inbound_nodes": [[["separable_conv_1_normal_left1_3", 0, 0, {}]]], "name": "separable_conv_1_bn_normal_left1_3"}, {"class_name": "BatchNormalization", "config": {"beta_regularizer": null, "center": true, "trainable": true, "gamma_constraint": null, "axis": -1, "gamma_initializer": {"class_name": "Ones", "config": {}}, "moving_variance_initializer": {"class_name": "Ones", "config": {}}, "moving_mean_initializer": {"class_name": "Zeros", "config": {}}, "epsilon": 1e-05, "gamma_regularizer": null, "scale": true, "beta_constraint": null, "beta_initializer": {"class_name": "Zeros", "config": {}}, "momentum": 0.9, "name": "separable_conv_1_bn_normal_right1_3"}, "inbound_nodes": [[["separable_conv_1_normal_right1_3", 0, 0, {}]]], "name": "separable_conv_1_bn_normal_right1_3"}, {"class_name": "BatchNormalization", "config": {"beta_regularizer": null, "center": true, "trainable": true, "gamma_constraint": null, "axis": -1, "gamma_initializer": {"class_name": "Ones", "config": {}}, "moving_variance_initializer": {"class_name": "Ones", "config": {}}, "moving_mean_initializer": {"class_name": "Zeros", "config": {}}, "epsilon": 1e-05, "gamma_regularizer": null, "scale": true, "beta_constraint": null, "beta_initializer": {"class_name": "Zeros", "config": {}}, "momentum": 0.9, "name": "separable_conv_1_bn_normal_left2_3"}, "inbound_nodes": [[["separable_conv_1_normal_left2_3", 0, 0, {}]]], "name": "separable_conv_1_bn_normal_left2_3"}, {"class_name": "BatchNormalization", "config": {"beta_regularizer": null, "center": true, "trainable": true, "gamma_constraint": null, "axis": -1, "gamma_initializer": {"class_name": "Ones", "config": {}}, "moving_variance_initializer": {"class_name": "Ones", "config": {}}, "moving_mean_initializer": {"class_name": "Zeros", "config": {}}, "epsilon": 1e-05, "gamma_regularizer": null, "scale": true, "beta_constraint": null, "beta_initializer": {"class_name": "Zeros", "config": {}}, "momentum": 0.9, "name": "separable_conv_1_bn_normal_right2_3"}, "inbound_nodes": [[["separable_conv_1_normal_right2_3", 0, 0, {}]]], "name": "separable_conv_1_bn_normal_right2_3"}, {"class_name": "BatchNormalization", "config": {"beta_regularizer": null, "center": true, "trainable": true, "gamma_constraint": null, "axis": -1, "gamma_initializer": {"class_name": "Ones", "config": {}}, "moving_variance_initializer": {"class_name": "Ones", "config": {}}, "moving_mean_initializer": {"class_name": "Zeros", "config": {}}, "epsilon": 1e-05, "gamma_regularizer": null, "scale": true, "beta_constraint": null, "beta_initializer": {"class_name": "Zeros", "config": {}}, "momentum": 0.9, "name": "separable_conv_1_bn_normal_left5_3"}, "inbound_nodes": [[["separable_conv_1_normal_left5_3", 0, 0, {}]]], "name": "separable_conv_1_bn_normal_left5_3"}, {"class_name": "Activation", "config": {"activation": "relu", "trainable": true, "name": "activation_1319"}, "inbound_nodes": [[["separable_conv_1_bn_normal_left1_3", 0, 0, {}]]], "name": "activation_1319"}, {"class_name": "Activation", "config": {"activation": "relu", "trainable": true, "name": "activation_1321"}, "inbound_nodes": [[["separable_conv_1_bn_normal_right1_3", 0, 0, {}]]], "name": "activation_1321"}, {"class_name": "Activation", "config": {"activation": "relu", "trainable": true, "name": "activation_1323"}, "inbound_nodes": [[["separable_conv_1_bn_normal_left2_3", 0, 0, {}]]], "name": "activation_1323"}, {"class_name": "Activation", "config": {"activation": "relu", "trainable": true, "name": "activation_1325"}, "inbound_nodes": [[["separable_conv_1_bn_normal_right2_3", 0, 0, {}]]], "name": "activation_1325"}, {"class_name": "Activation", "config": {"activation": "relu", "trainable": true, "name": "activation_1327"}, "inbound_nodes": [[["separable_conv_1_bn_normal_left5_3", 0, 0, {}]]], "name": "activation_1327"}, {"class_name": "SeparableConv2D", "config": {"kernel_size": [5, 5], "dilation_rate": [1, 1], "filters": 32, "bias_initializer": {"class_name": "Zeros", "config": {}}, "depthwise_regularizer": null, "strides": [1, 1], "data_format": "channels_last", "trainable": true, "bias_constraint": null, "name": "separable_conv_2_normal_left1_3", "depth_multiplier": 1, "pointwise_initializer": {"class_name": "VarianceScaling", "config": {"scale": 1.0, "mode": "fan_avg", "distribution": "uniform", "seed": null}}, "padding": "same", "pointwise_regularizer": null, "bias_regularizer": null, "depthwise_constraint": null, "activation": "linear", "use_bias": false, "pointwise_constraint": null, "depthwise_initializer": {"class_name": "VarianceScaling", "config": {"scale": 1.0, "mode": "fan_avg", "distribution": "uniform", "seed": null}}, "activity_regularizer": null}, "inbound_nodes": [[["activation_1319", 0, 0, {}]]], "name": "separable_conv_2_normal_left1_3"}, {"class_name": "SeparableConv2D", "config": {"kernel_size": [3, 3], "dilation_rate": [1, 1], "filters": 32, "bias_initializer": {"class_name": "Zeros", "config": {}}, "depthwise_regularizer": null, "strides": [1, 1], "data_format": "channels_last", "trainable": true, "bias_constraint": null, "name": "separable_conv_2_normal_right1_3", "depth_multiplier": 1, "pointwise_initializer": {"class_name": "VarianceScaling", "config": {"scale": 1.0, "mode": "fan_avg", "distribution": "uniform", "seed": null}}, "padding": "same", "pointwise_regularizer": null, "bias_regularizer": null, "depthwise_constraint": null, "activation": "linear", "use_bias": false, "pointwise_constraint": null, "depthwise_initializer": {"class_name": "VarianceScaling", "config": {"scale": 1.0, "mode": "fan_avg", "distribution": "uniform", "seed": null}}, "activity_regularizer": null}, "inbound_nodes": [[["activation_1321", 0, 0, {}]]], "name": "separable_conv_2_normal_right1_3"}, {"class_name": "SeparableConv2D", "config": {"kernel_size": [5, 5], "dilation_rate": [1, 1], "filters": 32, "bias_initializer": {"class_name": "Zeros", "config": {}}, "depthwise_regularizer": null, "strides": [1, 1], "data_format": "channels_last", "trainable": true, "bias_constraint": null, "name": "separable_conv_2_normal_left2_3", "depth_multiplier": 1, "pointwise_initializer": {"class_name": "VarianceScaling", "config": {"scale": 1.0, "mode": "fan_avg", "distribution": "uniform", "seed": null}}, "padding": "same", "pointwise_regularizer": null, "bias_regularizer": null, "depthwise_constraint": null, "activation": "linear", "use_bias": false, "pointwise_constraint": null, "depthwise_initializer": {"class_name": "VarianceScaling", "config": {"scale": 1.0, "mode": "fan_avg", "distribution": "uniform", "seed": null}}, "activity_regularizer": null}, "inbound_nodes": [[["activation_1323", 0, 0, {}]]], "name": "separable_conv_2_normal_left2_3"}, {"class_name": "SeparableConv2D", "config": {"kernel_size": [3, 3], "dilation_rate": [1, 1], "filters": 32, "bias_initializer": {"class_name": "Zeros", "config": {}}, "depthwise_regularizer": null, "strides": [1, 1], "data_format": "channels_last", "trainable": true, "bias_constraint": null, "name": "separable_conv_2_normal_right2_3", "depth_multiplier": 1, "pointwise_initializer": {"class_name": "VarianceScaling", "config": {"scale": 1.0, "mode": "fan_avg", "distribution": "uniform", "seed": null}}, "padding": "same", "pointwise_regularizer": null, "bias_regularizer": null, "depthwise_constraint": null, "activation": "linear", "use_bias": false, "pointwise_constraint": null, "depthwise_initializer": {"class_name": "VarianceScaling", "config": {"scale": 1.0, "mode": "fan_avg", "distribution": "uniform", "seed": null}}, "activity_regularizer": null}, "inbound_nodes": [[["activation_1325", 0, 0, {}]]], "name": "separable_conv_2_normal_right2_3"}, {"class_name": "SeparableConv2D", "config": {"kernel_size": [3, 3], "dilation_rate": [1, 1], "filters": 32, "bias_initializer": {"class_name": "Zeros", "config": {}}, "depthwise_regularizer": null, "strides": [1, 1], "data_format": "channels_last", "trainable": true, "bias_constraint": null, "name": "separable_conv_2_normal_left5_3", "depth_multiplier": 1, "pointwise_initializer": {"class_name": "VarianceScaling", "config": {"scale": 1.0, "mode": "fan_avg", "distribution": "uniform", "seed": null}}, "padding": "same", "pointwise_regularizer": null, "bias_regularizer": null, "depthwise_constraint": null, "activation": "linear", "use_bias": false, "pointwise_constraint": null, "depthwise_initializer": {"class_name": "VarianceScaling", "config": {"scale": 1.0, "mode": "fan_avg", "distribution": "uniform", "seed": null}}, "activity_regularizer": null}, "inbound_nodes": [[["activation_1327", 0, 0, {}]]], "name": "separable_conv_2_normal_left5_3"}, {"class_name": "BatchNormalization", "config": {"beta_regularizer": null, "center": true, "trainable": true, "gamma_constraint": null, "axis": -1, "gamma_initializer": {"class_name": "Ones", "config": {}}, "moving_variance_initializer": {"class_name": "Ones", "config": {}}, "moving_mean_initializer": {"class_name": "Zeros", "config": {}}, "epsilon": 1e-05, "gamma_regularizer": null, "scale": true, "beta_constraint": null, "beta_initializer": {"class_name": "Zeros", "config": {}}, "momentum": 0.9, "name": "separable_conv_2_bn_normal_left1_3"}, "inbound_nodes": [[["separable_conv_2_normal_left1_3", 0, 0, {}]]], "name": "separable_conv_2_bn_normal_left1_3"}, {"class_name": "BatchNormalization", "config": {"beta_regularizer": null, "center": true, "trainable": true, "gamma_constraint": null, "axis": -1, "gamma_initializer": {"class_name": "Ones", "config": {}}, "moving_variance_initializer": {"class_name": "Ones", "config": {}}, "moving_mean_initializer": {"class_name": "Zeros", "config": {}}, "epsilon": 1e-05, "gamma_regularizer": null, "scale": true, "beta_constraint": null, "beta_initializer": {"class_name": "Zeros", "config": {}}, "momentum": 0.9, "name": "separable_conv_2_bn_normal_right1_3"}, "inbound_nodes": [[["separable_conv_2_normal_right1_3", 0, 0, {}]]], "name": "separable_conv_2_bn_normal_right1_3"}, {"class_name": "BatchNormalization", "config": {"beta_regularizer": null, "center": true, "trainable": true, "gamma_constraint": null, "axis": -1, "gamma_initializer": {"class_name": "Ones", "config": {}}, "moving_variance_initializer": {"class_name": "Ones", "config": {}}, "moving_mean_initializer": {"class_name": "Zeros", "config": {}}, "epsilon": 1e-05, "gamma_regularizer": null, "scale": true, "beta_constraint": null, "beta_initializer": {"class_name": "Zeros", "config": {}}, "momentum": 0.9, "name": "separable_conv_2_bn_normal_left2_3"}, "inbound_nodes": [[["separable_conv_2_normal_left2_3", 0, 0, {}]]], "name": "separable_conv_2_bn_normal_left2_3"}, {"class_name": "BatchNormalization", "config": {"beta_regularizer": null, "center": true, "trainable": true, "gamma_constraint": null, "axis": -1, "gamma_initializer": {"class_name": "Ones", "config": {}}, "moving_variance_initializer": {"class_name": "Ones", "config": {}}, "moving_mean_initializer": {"class_name": "Zeros", "config": {}}, "epsilon": 1e-05, "gamma_regularizer": null, "scale": true, "beta_constraint": null, "beta_initializer": {"class_name": "Zeros", "config": {}}, "momentum": 0.9, "name": "separable_conv_2_bn_normal_right2_3"}, "inbound_nodes": [[["separable_conv_2_normal_right2_3", 0, 0, {}]]], "name": "separable_conv_2_bn_normal_right2_3"}, {"class_name": "AveragePooling2D", "config": {"padding": "same", "data_format": "channels_last", "pool_size": [3, 3], "trainable": true, "strides": [1, 1], "name": "normal_left3_3"}, "inbound_nodes": [[["normal_bn_1_3", 0, 0, {}]]], "name": "normal_left3_3"}, {"class_name": "AveragePooling2D", "config": {"padding": "same", "data_format": "channels_last", "pool_size": [3, 3], "trainable": true, "strides": [1, 1], "name": "normal_left4_3"}, "inbound_nodes": [[["adjust_bn_3", 0, 0, {}]]], "name": "normal_left4_3"}, {"class_name": "AveragePooling2D", "config": {"padding": "same", "data_format": "channels_last", "pool_size": [3, 3], "trainable": true, "strides": [1, 1], "name": "normal_right4_3"}, "inbound_nodes": [[["adjust_bn_3", 0, 0, {}]]], "name": "normal_right4_3"}, {"class_name": "BatchNormalization", "config": {"beta_regularizer": null, "center": true, "trainable": true, "gamma_constraint": null, "axis": -1, "gamma_initializer": {"class_name": "Ones", "config": {}}, "moving_variance_initializer": {"class_name": "Ones", "config": {}}, "moving_mean_initializer": {"class_name": "Zeros", "config": {}}, "epsilon": 1e-05, "gamma_regularizer": null, "scale": true, "beta_constraint": null, "beta_initializer": {"class_name": "Zeros", "config": {}}, "momentum": 0.9, "name": "separable_conv_2_bn_normal_left5_3"}, "inbound_nodes": [[["separable_conv_2_normal_left5_3", 0, 0, {}]]], "name": "separable_conv_2_bn_normal_left5_3"}, {"class_name": "Add", "config": {"trainable": true, "name": "normal_add_1_3"}, "inbound_nodes": [[["separable_conv_2_bn_normal_left1_3", 0, 0, {}], ["separable_conv_2_bn_normal_right1_3", 0, 0, {}]]], "name": "normal_add_1_3"}, {"class_name": "Add", "config": {"trainable": true, "name": "normal_add_2_3"}, "inbound_nodes": [[["separable_conv_2_bn_normal_left2_3", 0, 0, {}], ["separable_conv_2_bn_normal_right2_3", 0, 0, {}]]], "name": "normal_add_2_3"}, {"class_name": "Add", "config": {"trainable": true, "name": "normal_add_3_3"}, "inbound_nodes": [[["normal_left3_3", 0, 0, {}], ["adjust_bn_3", 0, 0, {}]]], "name": "normal_add_3_3"}, {"class_name": "Add", "config": {"trainable": true, "name": "normal_add_4_3"}, "inbound_nodes": [[["normal_left4_3", 0, 0, {}], ["normal_right4_3", 0, 0, {}]]], "name": "normal_add_4_3"}, {"class_name": "Add", "config": {"trainable": true, "name": "normal_add_5_3"}, "inbound_nodes": [[["separable_conv_2_bn_normal_left5_3", 0, 0, {}], ["normal_bn_1_3", 0, 0, {}]]], "name": "normal_add_5_3"}, {"class_name": "Concatenate", "config": {"axis": -1, "trainable": true, "name": "normal_concat_3"}, "inbound_nodes": [[["adjust_bn_3", 0, 0, {}], ["normal_add_1_3", 0, 0, {}], ["normal_add_2_3", 0, 0, {}], ["normal_add_3_3", 0, 0, {}], ["normal_add_4_3", 0, 0, {}], ["normal_add_5_3", 0, 0, {}]]], "name": "normal_concat_3"}, {"class_name": "Activation", "config": {"activation": "relu", "trainable": true, "name": "activation_1328"}, "inbound_nodes": [[["normal_concat_2", 0, 0, {}]]], "name": "activation_1328"}, {"class_name": "Activation", "config": {"activation": "relu", "trainable": true, "name": "activation_1329"}, "inbound_nodes": [[["normal_concat_3", 0, 0, {}]]], "name": "activation_1329"}, {"class_name": "Conv2D", "config": {"kernel_size": [1, 1], "dilation_rate": [1, 1], "filters": 32, "padding": "same", "bias_initializer": {"class_name": "Zeros", "config": {}}, "name": "adjust_conv_projection_4", "strides": [1, 1], "kernel_initializer": {"class_name": "VarianceScaling", "config": {"scale": 2.0, "mode": "fan_in", "distribution": "normal", "seed": null}}, "trainable": true, "bias_constraint": null, "data_format": "channels_last", "activation": "linear", "use_bias": false, "kernel_regularizer": {"class_name": "L1L2", "config": {"l1": 0.0, "l2": 0.0005000000237487257}}, "kernel_constraint": null, "bias_regularizer": null, "activity_regularizer": null}, "inbound_nodes": [[["activation_1328", 0, 0, {}]]], "name": "adjust_conv_projection_4"}, {"class_name": "Conv2D", "config": {"kernel_size": [1, 1], "dilation_rate": [1, 1], "filters": 32, "padding": "same", "bias_initializer": {"class_name": "Zeros", "config": {}}, "name": "normal_conv_1_4", "strides": [1, 1], "kernel_initializer": {"class_name": "VarianceScaling", "config": {"scale": 2.0, "mode": "fan_in", "distribution": "normal", "seed": null}}, "trainable": true, "bias_constraint": null, "data_format": "channels_last", "activation": "linear", "use_bias": false, "kernel_regularizer": {"class_name": "L1L2", "config": {"l1": 0.0, "l2": 0.0005000000237487257}}, "kernel_constraint": null, "bias_regularizer": null, "activity_regularizer": null}, "inbound_nodes": [[["activation_1329", 0, 0, {}]]], "name": "normal_conv_1_4"}, {"class_name": "BatchNormalization", "config": {"beta_regularizer": null, "center": true, "trainable": true, "gamma_constraint": null, "axis": -1, "gamma_initializer": {"class_name": "Ones", "config": {}}, "moving_variance_initializer": {"class_name": "Ones", "config": {}}, "moving_mean_initializer": {"class_name": "Zeros", "config": {}}, "epsilon": 1e-05, "gamma_regularizer": null, "scale": true, "beta_constraint": null, "beta_initializer": {"class_name": "Zeros", "config": {}}, "momentum": 0.9, "name": "adjust_bn_4"}, "inbound_nodes": [[["adjust_conv_projection_4", 0, 0, {}]]], "name": "adjust_bn_4"}, {"class_name": "BatchNormalization", "config": {"beta_regularizer": null, "center": true, "trainable": true, "gamma_constraint": null, "axis": -1, "gamma_initializer": {"class_name": "Ones", "config": {}}, "moving_variance_initializer": {"class_name": "Ones", "config": {}}, "moving_mean_initializer": {"class_name": "Zeros", "config": {}}, "epsilon": 1e-05, "gamma_regularizer": null, "scale": true, "beta_constraint": null, "beta_initializer": {"class_name": "Zeros", "config": {}}, "momentum": 0.9, "name": "normal_bn_1_4"}, "inbound_nodes": [[["normal_conv_1_4", 0, 0, {}]]], "name": "normal_bn_1_4"}, {"class_name": "Activation", "config": {"activation": "relu", "trainable": true, "name": "activation_1330"}, "inbound_nodes": [[["normal_bn_1_4", 0, 0, {}]]], "name": "activation_1330"}, {"class_name": "Activation", "config": {"activation": "relu", "trainable": true, "name": "activation_1332"}, "inbound_nodes": [[["adjust_bn_4", 0, 0, {}]]], "name": "activation_1332"}, {"class_name": "Activation", "config": {"activation": "relu", "trainable": true, "name": "activation_1334"}, "inbound_nodes": [[["adjust_bn_4", 0, 0, {}]]], "name": "activation_1334"}, {"class_name": "Activation", "config": {"activation": "relu", "trainable": true, "name": "activation_1336"}, "inbound_nodes": [[["adjust_bn_4", 0, 0, {}]]], "name": "activation_1336"}, {"class_name": "Activation", "config": {"activation": "relu", "trainable": true, "name": "activation_1338"}, "inbound_nodes": [[["normal_bn_1_4", 0, 0, {}]]], "name": "activation_1338"}, {"class_name": "SeparableConv2D", "config": {"kernel_size": [5, 5], "dilation_rate": [1, 1], "filters": 32, "bias_initializer": {"class_name": "Zeros", "config": {}}, "depthwise_regularizer": null, "strides": [1, 1], "data_format": "channels_last", "trainable": true, "bias_constraint": null, "name": "separable_conv_1_normal_left1_4", "depth_multiplier": 1, "pointwise_initializer": {"class_name": "VarianceScaling", "config": {"scale": 1.0, "mode": "fan_avg", "distribution": "uniform", "seed": null}}, "padding": "same", "pointwise_regularizer": null, "bias_regularizer": null, "depthwise_constraint": null, "activation": "linear", "use_bias": false, "pointwise_constraint": null, "depthwise_initializer": {"class_name": "VarianceScaling", "config": {"scale": 1.0, "mode": "fan_avg", "distribution": "uniform", "seed": null}}, "activity_regularizer": null}, "inbound_nodes": [[["activation_1330", 0, 0, {}]]], "name": "separable_conv_1_normal_left1_4"}, {"class_name": "SeparableConv2D", "config": {"kernel_size": [3, 3], "dilation_rate": [1, 1], "filters": 32, "bias_initializer": {"class_name": "Zeros", "config": {}}, "depthwise_regularizer": null, "strides": [1, 1], "data_format": "channels_last", "trainable": true, "bias_constraint": null, "name": "separable_conv_1_normal_right1_4", "depth_multiplier": 1, "pointwise_initializer": {"class_name": "VarianceScaling", "config": {"scale": 1.0, "mode": "fan_avg", "distribution": "uniform", "seed": null}}, "padding": "same", "pointwise_regularizer": null, "bias_regularizer": null, "depthwise_constraint": null, "activation": "linear", "use_bias": false, "pointwise_constraint": null, "depthwise_initializer": {"class_name": "VarianceScaling", "config": {"scale": 1.0, "mode": "fan_avg", "distribution": "uniform", "seed": null}}, "activity_regularizer": null}, "inbound_nodes": [[["activation_1332", 0, 0, {}]]], "name": "separable_conv_1_normal_right1_4"}, {"class_name": "SeparableConv2D", "config": {"kernel_size": [5, 5], "dilation_rate": [1, 1], "filters": 32, "bias_initializer": {"class_name": "Zeros", "config": {}}, "depthwise_regularizer": null, "strides": [1, 1], "data_format": "channels_last", "trainable": true, "bias_constraint": null, "name": "separable_conv_1_normal_left2_4", "depth_multiplier": 1, "pointwise_initializer": {"class_name": "VarianceScaling", "config": {"scale": 1.0, "mode": "fan_avg", "distribution": "uniform", "seed": null}}, "padding": "same", "pointwise_regularizer": null, "bias_regularizer": null, "depthwise_constraint": null, "activation": "linear", "use_bias": false, "pointwise_constraint": null, "depthwise_initializer": {"class_name": "VarianceScaling", "config": {"scale": 1.0, "mode": "fan_avg", "distribution": "uniform", "seed": null}}, "activity_regularizer": null}, "inbound_nodes": [[["activation_1334", 0, 0, {}]]], "name": "separable_conv_1_normal_left2_4"}, {"class_name": "SeparableConv2D", "config": {"kernel_size": [3, 3], "dilation_rate": [1, 1], "filters": 32, "bias_initializer": {"class_name": "Zeros", "config": {}}, "depthwise_regularizer": null, "strides": [1, 1], "data_format": "channels_last", "trainable": true, "bias_constraint": null, "name": "separable_conv_1_normal_right2_4", "depth_multiplier": 1, "pointwise_initializer": {"class_name": "VarianceScaling", "config": {"scale": 1.0, "mode": "fan_avg", "distribution": "uniform", "seed": null}}, "padding": "same", "pointwise_regularizer": null, "bias_regularizer": null, "depthwise_constraint": null, "activation": "linear", "use_bias": false, "pointwise_constraint": null, "depthwise_initializer": {"class_name": "VarianceScaling", "config": {"scale": 1.0, "mode": "fan_avg", "distribution": "uniform", "seed": null}}, "activity_regularizer": null}, "inbound_nodes": [[["activation_1336", 0, 0, {}]]], "name": "separable_conv_1_normal_right2_4"}, {"class_name": "SeparableConv2D", "config": {"kernel_size": [3, 3], "dilation_rate": [1, 1], "filters": 32, "bias_initializer": {"class_name": "Zeros", "config": {}}, "depthwise_regularizer": null, "strides": [1, 1], "data_format": "channels_last", "trainable": true, "bias_constraint": null, "name": "separable_conv_1_normal_left5_4", "depth_multiplier": 1, "pointwise_initializer": {"class_name": "VarianceScaling", "config": {"scale": 1.0, "mode": "fan_avg", "distribution": "uniform", "seed": null}}, "padding": "same", "pointwise_regularizer": null, "bias_regularizer": null, "depthwise_constraint": null, "activation": "linear", "use_bias": false, "pointwise_constraint": null, "depthwise_initializer": {"class_name": "VarianceScaling", "config": {"scale": 1.0, "mode": "fan_avg", "distribution": "uniform", "seed": null}}, "activity_regularizer": null}, "inbound_nodes": [[["activation_1338", 0, 0, {}]]], "name": "separable_conv_1_normal_left5_4"}, {"class_name": "BatchNormalization", "config": {"beta_regularizer": null, "center": true, "trainable": true, "gamma_constraint": null, "axis": -1, "gamma_initializer": {"class_name": "Ones", "config": {}}, "moving_variance_initializer": {"class_name": "Ones", "config": {}}, "moving_mean_initializer": {"class_name": "Zeros", "config": {}}, "epsilon": 1e-05, "gamma_regularizer": null, "scale": true, "beta_constraint": null, "beta_initializer": {"class_name": "Zeros", "config": {}}, "momentum": 0.9, "name": "separable_conv_1_bn_normal_left1_4"}, "inbound_nodes": [[["separable_conv_1_normal_left1_4", 0, 0, {}]]], "name": "separable_conv_1_bn_normal_left1_4"}, {"class_name": "BatchNormalization", "config": {"beta_regularizer": null, "center": true, "trainable": true, "gamma_constraint": null, "axis": -1, "gamma_initializer": {"class_name": "Ones", "config": {}}, "moving_variance_initializer": {"class_name": "Ones", "config": {}}, "moving_mean_initializer": {"class_name": "Zeros", "config": {}}, "epsilon": 1e-05, "gamma_regularizer": null, "scale": true, "beta_constraint": null, "beta_initializer": {"class_name": "Zeros", "config": {}}, "momentum": 0.9, "name": "separable_conv_1_bn_normal_right1_4"}, "inbound_nodes": [[["separable_conv_1_normal_right1_4", 0, 0, {}]]], "name": "separable_conv_1_bn_normal_right1_4"}, {"class_name": "BatchNormalization", "config": {"beta_regularizer": null, "center": true, "trainable": true, "gamma_constraint": null, "axis": -1, "gamma_initializer": {"class_name": "Ones", "config": {}}, "moving_variance_initializer": {"class_name": "Ones", "config": {}}, "moving_mean_initializer": {"class_name": "Zeros", "config": {}}, "epsilon": 1e-05, "gamma_regularizer": null, "scale": true, "beta_constraint": null, "beta_initializer": {"class_name": "Zeros", "config": {}}, "momentum": 0.9, "name": "separable_conv_1_bn_normal_left2_4"}, "inbound_nodes": [[["separable_conv_1_normal_left2_4", 0, 0, {}]]], "name": "separable_conv_1_bn_normal_left2_4"}, {"class_name": "BatchNormalization", "config": {"beta_regularizer": null, "center": true, "trainable": true, "gamma_constraint": null, "axis": -1, "gamma_initializer": {"class_name": "Ones", "config": {}}, "moving_variance_initializer": {"class_name": "Ones", "config": {}}, "moving_mean_initializer": {"class_name": "Zeros", "config": {}}, "epsilon": 1e-05, "gamma_regularizer": null, "scale": true, "beta_constraint": null, "beta_initializer": {"class_name": "Zeros", "config": {}}, "momentum": 0.9, "name": "separable_conv_1_bn_normal_right2_4"}, "inbound_nodes": [[["separable_conv_1_normal_right2_4", 0, 0, {}]]], "name": "separable_conv_1_bn_normal_right2_4"}, {"class_name": "BatchNormalization", "config": {"beta_regularizer": null, "center": true, "trainable": true, "gamma_constraint": null, "axis": -1, "gamma_initializer": {"class_name": "Ones", "config": {}}, "moving_variance_initializer": {"class_name": "Ones", "config": {}}, "moving_mean_initializer": {"class_name": "Zeros", "config": {}}, "epsilon": 1e-05, "gamma_regularizer": null, "scale": true, "beta_constraint": null, "beta_initializer": {"class_name": "Zeros", "config": {}}, "momentum": 0.9, "name": "separable_conv_1_bn_normal_left5_4"}, "inbound_nodes": [[["separable_conv_1_normal_left5_4", 0, 0, {}]]], "name": "separable_conv_1_bn_normal_left5_4"}, {"class_name": "Activation", "config": {"activation": "relu", "trainable": true, "name": "activation_1331"}, "inbound_nodes": [[["separable_conv_1_bn_normal_left1_4", 0, 0, {}]]], "name": "activation_1331"}, {"class_name": "Activation", "config": {"activation": "relu", "trainable": true, "name": "activation_1333"}, "inbound_nodes": [[["separable_conv_1_bn_normal_right1_4", 0, 0, {}]]], "name": "activation_1333"}, {"class_name": "Activation", "config": {"activation": "relu", "trainable": true, "name": "activation_1335"}, "inbound_nodes": [[["separable_conv_1_bn_normal_left2_4", 0, 0, {}]]], "name": "activation_1335"}, {"class_name": "Activation", "config": {"activation": "relu", "trainable": true, "name": "activation_1337"}, "inbound_nodes": [[["separable_conv_1_bn_normal_right2_4", 0, 0, {}]]], "name": "activation_1337"}, {"class_name": "Activation", "config": {"activation": "relu", "trainable": true, "name": "activation_1339"}, "inbound_nodes": [[["separable_conv_1_bn_normal_left5_4", 0, 0, {}]]], "name": "activation_1339"}, {"class_name": "SeparableConv2D", "config": {"kernel_size": [5, 5], "dilation_rate": [1, 1], "filters": 32, "bias_initializer": {"class_name": "Zeros", "config": {}}, "depthwise_regularizer": null, "strides": [1, 1], "data_format": "channels_last", "trainable": true, "bias_constraint": null, "name": "separable_conv_2_normal_left1_4", "depth_multiplier": 1, "pointwise_initializer": {"class_name": "VarianceScaling", "config": {"scale": 1.0, "mode": "fan_avg", "distribution": "uniform", "seed": null}}, "padding": "same", "pointwise_regularizer": null, "bias_regularizer": null, "depthwise_constraint": null, "activation": "linear", "use_bias": false, "pointwise_constraint": null, "depthwise_initializer": {"class_name": "VarianceScaling", "config": {"scale": 1.0, "mode": "fan_avg", "distribution": "uniform", "seed": null}}, "activity_regularizer": null}, "inbound_nodes": [[["activation_1331", 0, 0, {}]]], "name": "separable_conv_2_normal_left1_4"}, {"class_name": "SeparableConv2D", "config": {"kernel_size": [3, 3], "dilation_rate": [1, 1], "filters": 32, "bias_initializer": {"class_name": "Zeros", "config": {}}, "depthwise_regularizer": null, "strides": [1, 1], "data_format": "channels_last", "trainable": true, "bias_constraint": null, "name": "separable_conv_2_normal_right1_4", "depth_multiplier": 1, "pointwise_initializer": {"class_name": "VarianceScaling", "config": {"scale": 1.0, "mode": "fan_avg", "distribution": "uniform", "seed": null}}, "padding": "same", "pointwise_regularizer": null, "bias_regularizer": null, "depthwise_constraint": null, "activation": "linear", "use_bias": false, "pointwise_constraint": null, "depthwise_initializer": {"class_name": "VarianceScaling", "config": {"scale": 1.0, "mode": "fan_avg", "distribution": "uniform", "seed": null}}, "activity_regularizer": null}, "inbound_nodes": [[["activation_1333", 0, 0, {}]]], "name": "separable_conv_2_normal_right1_4"}, {"class_name": "SeparableConv2D", "config": {"kernel_size": [5, 5], "dilation_rate": [1, 1], "filters": 32, "bias_initializer": {"class_name": "Zeros", "config": {}}, "depthwise_regularizer": null, "strides": [1, 1], "data_format": "channels_last", "trainable": true, "bias_constraint": null, "name": "separable_conv_2_normal_left2_4", "depth_multiplier": 1, "pointwise_initializer": {"class_name": "VarianceScaling", "config": {"scale": 1.0, "mode": "fan_avg", "distribution": "uniform", "seed": null}}, "padding": "same", "pointwise_regularizer": null, "bias_regularizer": null, "depthwise_constraint": null, "activation": "linear", "use_bias": false, "pointwise_constraint": null, "depthwise_initializer": {"class_name": "VarianceScaling", "config": {"scale": 1.0, "mode": "fan_avg", "distribution": "uniform", "seed": null}}, "activity_regularizer": null}, "inbound_nodes": [[["activation_1335", 0, 0, {}]]], "name": "separable_conv_2_normal_left2_4"}, {"class_name": "SeparableConv2D", "config": {"kernel_size": [3, 3], "dilation_rate": [1, 1], "filters": 32, "bias_initializer": {"class_name": "Zeros", "config": {}}, "depthwise_regularizer": null, "strides": [1, 1], "data_format": "channels_last", "trainable": true, "bias_constraint": null, "name": "separable_conv_2_normal_right2_4", "depth_multiplier": 1, "pointwise_initializer": {"class_name": "VarianceScaling", "config": {"scale": 1.0, "mode": "fan_avg", "distribution": "uniform", "seed": null}}, "padding": "same", "pointwise_regularizer": null, "bias_regularizer": null, "depthwise_constraint": null, "activation": "linear", "use_bias": false, "pointwise_constraint": null, "depthwise_initializer": {"class_name": "VarianceScaling", "config": {"scale": 1.0, "mode": "fan_avg", "distribution": "uniform", "seed": null}}, "activity_regularizer": null}, "inbound_nodes": [[["activation_1337", 0, 0, {}]]], "name": "separable_conv_2_normal_right2_4"}, {"class_name": "SeparableConv2D", "config": {"kernel_size": [3, 3], "dilation_rate": [1, 1], "filters": 32, "bias_initializer": {"class_name": "Zeros", "config": {}}, "depthwise_regularizer": null, "strides": [1, 1], "data_format": "channels_last", "trainable": true, "bias_constraint": null, "name": "separable_conv_2_normal_left5_4", "depth_multiplier": 1, "pointwise_initializer": {"class_name": "VarianceScaling", "config": {"scale": 1.0, "mode": "fan_avg", "distribution": "uniform", "seed": null}}, "padding": "same", "pointwise_regularizer": null, "bias_regularizer": null, "depthwise_constraint": null, "activation": "linear", "use_bias": false, "pointwise_constraint": null, "depthwise_initializer": {"class_name": "VarianceScaling", "config": {"scale": 1.0, "mode": "fan_avg", "distribution": "uniform", "seed": null}}, "activity_regularizer": null}, "inbound_nodes": [[["activation_1339", 0, 0, {}]]], "name": "separable_conv_2_normal_left5_4"}, {"class_name": "BatchNormalization", "config": {"beta_regularizer": null, "center": true, "trainable": true, "gamma_constraint": null, "axis": -1, "gamma_initializer": {"class_name": "Ones", "config": {}}, "moving_variance_initializer": {"class_name": "Ones", "config": {}}, "moving_mean_initializer": {"class_name": "Zeros", "config": {}}, "epsilon": 1e-05, "gamma_regularizer": null, "scale": true, "beta_constraint": null, "beta_initializer": {"class_name": "Zeros", "config": {}}, "momentum": 0.9, "name": "separable_conv_2_bn_normal_left1_4"}, "inbound_nodes": [[["separable_conv_2_normal_left1_4", 0, 0, {}]]], "name": "separable_conv_2_bn_normal_left1_4"}, {"class_name": "BatchNormalization", "config": {"beta_regularizer": null, "center": true, "trainable": true, "gamma_constraint": null, "axis": -1, "gamma_initializer": {"class_name": "Ones", "config": {}}, "moving_variance_initializer": {"class_name": "Ones", "config": {}}, "moving_mean_initializer": {"class_name": "Zeros", "config": {}}, "epsilon": 1e-05, "gamma_regularizer": null, "scale": true, "beta_constraint": null, "beta_initializer": {"class_name": "Zeros", "config": {}}, "momentum": 0.9, "name": "separable_conv_2_bn_normal_right1_4"}, "inbound_nodes": [[["separable_conv_2_normal_right1_4", 0, 0, {}]]], "name": "separable_conv_2_bn_normal_right1_4"}, {"class_name": "BatchNormalization", "config": {"beta_regularizer": null, "center": true, "trainable": true, "gamma_constraint": null, "axis": -1, "gamma_initializer": {"class_name": "Ones", "config": {}}, "moving_variance_initializer": {"class_name": "Ones", "config": {}}, "moving_mean_initializer": {"class_name": "Zeros", "config": {}}, "epsilon": 1e-05, "gamma_regularizer": null, "scale": true, "beta_constraint": null, "beta_initializer": {"class_name": "Zeros", "config": {}}, "momentum": 0.9, "name": "separable_conv_2_bn_normal_left2_4"}, "inbound_nodes": [[["separable_conv_2_normal_left2_4", 0, 0, {}]]], "name": "separable_conv_2_bn_normal_left2_4"}, {"class_name": "BatchNormalization", "config": {"beta_regularizer": null, "center": true, "trainable": true, "gamma_constraint": null, "axis": -1, "gamma_initializer": {"class_name": "Ones", "config": {}}, "moving_variance_initializer": {"class_name": "Ones", "config": {}}, "moving_mean_initializer": {"class_name": "Zeros", "config": {}}, "epsilon": 1e-05, "gamma_regularizer": null, "scale": true, "beta_constraint": null, "beta_initializer": {"class_name": "Zeros", "config": {}}, "momentum": 0.9, "name": "separable_conv_2_bn_normal_right2_4"}, "inbound_nodes": [[["separable_conv_2_normal_right2_4", 0, 0, {}]]], "name": "separable_conv_2_bn_normal_right2_4"}, {"class_name": "AveragePooling2D", "config": {"padding": "same", "data_format": "channels_last", "pool_size": [3, 3], "trainable": true, "strides": [1, 1], "name": "normal_left3_4"}, "inbound_nodes": [[["normal_bn_1_4", 0, 0, {}]]], "name": "normal_left3_4"}, {"class_name": "AveragePooling2D", "config": {"padding": "same", "data_format": "channels_last", "pool_size": [3, 3], "trainable": true, "strides": [1, 1], "name": "normal_left4_4"}, "inbound_nodes": [[["adjust_bn_4", 0, 0, {}]]], "name": "normal_left4_4"}, {"class_name": "AveragePooling2D", "config": {"padding": "same", "data_format": "channels_last", "pool_size": [3, 3], "trainable": true, "strides": [1, 1], "name": "normal_right4_4"}, "inbound_nodes": [[["adjust_bn_4", 0, 0, {}]]], "name": "normal_right4_4"}, {"class_name": "BatchNormalization", "config": {"beta_regularizer": null, "center": true, "trainable": true, "gamma_constraint": null, "axis": -1, "gamma_initializer": {"class_name": "Ones", "config": {}}, "moving_variance_initializer": {"class_name": "Ones", "config": {}}, "moving_mean_initializer": {"class_name": "Zeros", "config": {}}, "epsilon": 1e-05, "gamma_regularizer": null, "scale": true, "beta_constraint": null, "beta_initializer": {"class_name": "Zeros", "config": {}}, "momentum": 0.9, "name": "separable_conv_2_bn_normal_left5_4"}, "inbound_nodes": [[["separable_conv_2_normal_left5_4", 0, 0, {}]]], "name": "separable_conv_2_bn_normal_left5_4"}, {"class_name": "Add", "config": {"trainable": true, "name": "normal_add_1_4"}, "inbound_nodes": [[["separable_conv_2_bn_normal_left1_4", 0, 0, {}], ["separable_conv_2_bn_normal_right1_4", 0, 0, {}]]], "name": "normal_add_1_4"}, {"class_name": "Add", "config": {"trainable": true, "name": "normal_add_2_4"}, "inbound_nodes": [[["separable_conv_2_bn_normal_left2_4", 0, 0, {}], ["separable_conv_2_bn_normal_right2_4", 0, 0, {}]]], "name": "normal_add_2_4"}, {"class_name": "Add", "config": {"trainable": true, "name": "normal_add_3_4"}, "inbound_nodes": [[["normal_left3_4", 0, 0, {}], ["adjust_bn_4", 0, 0, {}]]], "name": "normal_add_3_4"}, {"class_name": "Add", "config": {"trainable": true, "name": "normal_add_4_4"}, "inbound_nodes": [[["normal_left4_4", 0, 0, {}], ["normal_right4_4", 0, 0, {}]]], "name": "normal_add_4_4"}, {"class_name": "Add", "config": {"trainable": true, "name": "normal_add_5_4"}, "inbound_nodes": [[["separable_conv_2_bn_normal_left5_4", 0, 0, {}], ["normal_bn_1_4", 0, 0, {}]]], "name": "normal_add_5_4"}, {"class_name": "Concatenate", "config": {"axis": -1, "trainable": true, "name": "normal_concat_4"}, "inbound_nodes": [[["adjust_bn_4", 0, 0, {}], ["normal_add_1_4", 0, 0, {}], ["normal_add_2_4", 0, 0, {}], ["normal_add_3_4", 0, 0, {}], ["normal_add_4_4", 0, 0, {}], ["normal_add_5_4", 0, 0, {}]]], "name": "normal_concat_4"}, {"class_name": "Activation", "config": {"activation": "relu", "trainable": true, "name": "activation_1341"}, "inbound_nodes": [[["normal_concat_4", 0, 0, {}]]], "name": "activation_1341"}, {"class_name": "Activation", "config": {"activation": "relu", "trainable": true, "name": "activation_1340"}, "inbound_nodes": [[["normal_concat_3", 0, 0, {}]]], "name": "activation_1340"}, {"class_name": "Conv2D", "config": {"kernel_size": [1, 1], "dilation_rate": [1, 1], "filters": 64, "padding": "same", "bias_initializer": {"class_name": "Zeros", "config": {}}, "name": "reduction_conv_1_reduce_5", "strides": [1, 1], "kernel_initializer": {"class_name": "VarianceScaling", "config": {"scale": 2.0, "mode": "fan_in", "distribution": "normal", "seed": null}}, "trainable": true, "bias_constraint": null, "data_format": "channels_last", "activation": "linear", "use_bias": false, "kernel_regularizer": {"class_name": "L1L2", "config": {"l1": 0.0, "l2": 0.0005000000237487257}}, "kernel_constraint": null, "bias_regularizer": null, "activity_regularizer": null}, "inbound_nodes": [[["activation_1341", 0, 0, {}]]], "name": "reduction_conv_1_reduce_5"}, {"class_name": "Conv2D", "config": {"kernel_size": [1, 1], "dilation_rate": [1, 1], "filters": 64, "padding": "same", "bias_initializer": {"class_name": "Zeros", "config": {}}, "name": "adjust_conv_projection_reduce_5", "strides": [1, 1], "kernel_initializer": {"class_name": "VarianceScaling", "config": {"scale": 2.0, "mode": "fan_in", "distribution": "normal", "seed": null}}, "trainable": true, "bias_constraint": null, "data_format": "channels_last", "activation": "linear", "use_bias": false, "kernel_regularizer": {"class_name": "L1L2", "config": {"l1": 0.0, "l2": 0.0005000000237487257}}, "kernel_constraint": null, "bias_regularizer": null, "activity_regularizer": null}, "inbound_nodes": [[["activation_1340", 0, 0, {}]]], "name": "adjust_conv_projection_reduce_5"}, {"class_name": "BatchNormalization", "config": {"beta_regularizer": null, "center": true, "trainable": true, "gamma_constraint": null, "axis": -1, "gamma_initializer": {"class_name": "Ones", "config": {}}, "moving_variance_initializer": {"class_name": "Ones", "config": {}}, "moving_mean_initializer": {"class_name": "Zeros", "config": {}}, "epsilon": 1e-05, "gamma_regularizer": null, "scale": true, "beta_constraint": null, "beta_initializer": {"class_name": "Zeros", "config": {}}, "momentum": 0.9, "name": "reduction_bn_1_reduce_5"}, "inbound_nodes": [[["reduction_conv_1_reduce_5", 0, 0, {}]]], "name": "reduction_bn_1_reduce_5"}, {"class_name": "BatchNormalization", "config": {"beta_regularizer": null, "center": true, "trainable": true, "gamma_constraint": null, "axis": -1, "gamma_initializer": {"class_name": "Ones", "config": {}}, "moving_variance_initializer": {"class_name": "Ones", "config": {}}, "moving_mean_initializer": {"class_name": "Zeros", "config": {}}, "epsilon": 1e-05, "gamma_regularizer": null, "scale": true, "beta_constraint": null, "beta_initializer": {"class_name": "Zeros", "config": {}}, "momentum": 0.9, "name": "adjust_bn_reduce_5"}, "inbound_nodes": [[["adjust_conv_projection_reduce_5", 0, 0, {}]]], "name": "adjust_bn_reduce_5"}, {"class_name": "Activation", "config": {"activation": "relu", "trainable": true, "name": "activation_1342"}, "inbound_nodes": [[["reduction_bn_1_reduce_5", 0, 0, {}]]], "name": "activation_1342"}, {"class_name": "Activation", "config": {"activation": "relu", "trainable": true, "name": "activation_1344"}, "inbound_nodes": [[["adjust_bn_reduce_5", 0, 0, {}]]], "name": "activation_1344"}, {"class_name": "SeparableConv2D", "config": {"kernel_size": [5, 5], "dilation_rate": [1, 1], "filters": 64, "bias_initializer": {"class_name": "Zeros", "config": {}}, "depthwise_regularizer": null, "strides": [2, 2], "data_format": "channels_last", "trainable": true, "bias_constraint": null, "name": "separable_conv_1_reduction_left1_reduce_5", "depth_multiplier": 1, "pointwise_initializer": {"class_name": "VarianceScaling", "config": {"scale": 1.0, "mode": "fan_avg", "distribution": "uniform", "seed": null}}, "padding": "same", "pointwise_regularizer": null, "bias_regularizer": null, "depthwise_constraint": null, "activation": "linear", "use_bias": false, "pointwise_constraint": null, "depthwise_initializer": {"class_name": "VarianceScaling", "config": {"scale": 1.0, "mode": "fan_avg", "distribution": "uniform", "seed": null}}, "activity_regularizer": null}, "inbound_nodes": [[["activation_1342", 0, 0, {}]]], "name": "separable_conv_1_reduction_left1_reduce_5"}, {"class_name": "SeparableConv2D", "config": {"kernel_size": [7, 7], "dilation_rate": [1, 1], "filters": 64, "bias_initializer": {"class_name": "Zeros", "config": {}}, "depthwise_regularizer": null, "strides": [2, 2], "data_format": "channels_last", "trainable": true, "bias_constraint": null, "name": "separable_conv_1_reduction_1_reduce_5", "depth_multiplier": 1, "pointwise_initializer": {"class_name": "VarianceScaling", "config": {"scale": 1.0, "mode": "fan_avg", "distribution": "uniform", "seed": null}}, "padding": "same", "pointwise_regularizer": null, "bias_regularizer": null, "depthwise_constraint": null, "activation": "linear", "use_bias": false, "pointwise_constraint": null, "depthwise_initializer": {"class_name": "VarianceScaling", "config": {"scale": 1.0, "mode": "fan_avg", "distribution": "uniform", "seed": null}}, "activity_regularizer": null}, "inbound_nodes": [[["activation_1344", 0, 0, {}]]], "name": "separable_conv_1_reduction_1_reduce_5"}, {"class_name": "BatchNormalization", "config": {"beta_regularizer": null, "center": true, "trainable": true, "gamma_constraint": null, "axis": -1, "gamma_initializer": {"class_name": "Ones", "config": {}}, "moving_variance_initializer": {"class_name": "Ones", "config": {}}, "moving_mean_initializer": {"class_name": "Zeros", "config": {}}, "epsilon": 1e-05, "gamma_regularizer": null, "scale": true, "beta_constraint": null, "beta_initializer": {"class_name": "Zeros", "config": {}}, "momentum": 0.9, "name": "separable_conv_1_bn_reduction_left1_reduce_5"}, "inbound_nodes": [[["separable_conv_1_reduction_left1_reduce_5", 0, 0, {}]]], "name": "separable_conv_1_bn_reduction_left1_reduce_5"}, {"class_name": "BatchNormalization", "config": {"beta_regularizer": null, "center": true, "trainable": true, "gamma_constraint": null, "axis": -1, "gamma_initializer": {"class_name": "Ones", "config": {}}, "moving_variance_initializer": {"class_name": "Ones", "config": {}}, "moving_mean_initializer": {"class_name": "Zeros", "config": {}}, "epsilon": 1e-05, "gamma_regularizer": null, "scale": true, "beta_constraint": null, "beta_initializer": {"class_name": "Zeros", "config": {}}, "momentum": 0.9, "name": "separable_conv_1_bn_reduction_1_reduce_5"}, "inbound_nodes": [[["separable_conv_1_reduction_1_reduce_5", 0, 0, {}]]], "name": "separable_conv_1_bn_reduction_1_reduce_5"}, {"class_name": "Activation", "config": {"activation": "relu", "trainable": true, "name": "activation_1343"}, "inbound_nodes": [[["separable_conv_1_bn_reduction_left1_reduce_5", 0, 0, {}]]], "name": "activation_1343"}, {"class_name": "Activation", "config": {"activation": "relu", "trainable": true, "name": "activation_1345"}, "inbound_nodes": [[["separable_conv_1_bn_reduction_1_reduce_5", 0, 0, {}]]], "name": "activation_1345"}, {"class_name": "SeparableConv2D", "config": {"kernel_size": [5, 5], "dilation_rate": [1, 1], "filters": 64, "bias_initializer": {"class_name": "Zeros", "config": {}}, "depthwise_regularizer": null, "strides": [1, 1], "data_format": "channels_last", "trainable": true, "bias_constraint": null, "name": "separable_conv_2_reduction_left1_reduce_5", "depth_multiplier": 1, "pointwise_initializer": {"class_name": "VarianceScaling", "config": {"scale": 1.0, "mode": "fan_avg", "distribution": "uniform", "seed": null}}, "padding": "same", "pointwise_regularizer": null, "bias_regularizer": null, "depthwise_constraint": null, "activation": "linear", "use_bias": false, "pointwise_constraint": null, "depthwise_initializer": {"class_name": "VarianceScaling", "config": {"scale": 1.0, "mode": "fan_avg", "distribution": "uniform", "seed": null}}, "activity_regularizer": null}, "inbound_nodes": [[["activation_1343", 0, 0, {}]]], "name": "separable_conv_2_reduction_left1_reduce_5"}, {"class_name": "SeparableConv2D", "config": {"kernel_size": [7, 7], "dilation_rate": [1, 1], "filters": 64, "bias_initializer": {"class_name": "Zeros", "config": {}}, "depthwise_regularizer": null, "strides": [1, 1], "data_format": "channels_last", "trainable": true, "bias_constraint": null, "name": "separable_conv_2_reduction_1_reduce_5", "depth_multiplier": 1, "pointwise_initializer": {"class_name": "VarianceScaling", "config": {"scale": 1.0, "mode": "fan_avg", "distribution": "uniform", "seed": null}}, "padding": "same", "pointwise_regularizer": null, "bias_regularizer": null, "depthwise_constraint": null, "activation": "linear", "use_bias": false, "pointwise_constraint": null, "depthwise_initializer": {"class_name": "VarianceScaling", "config": {"scale": 1.0, "mode": "fan_avg", "distribution": "uniform", "seed": null}}, "activity_regularizer": null}, "inbound_nodes": [[["activation_1345", 0, 0, {}]]], "name": "separable_conv_2_reduction_1_reduce_5"}, {"class_name": "BatchNormalization", "config": {"beta_regularizer": null, "center": true, "trainable": true, "gamma_constraint": null, "axis": -1, "gamma_initializer": {"class_name": "Ones", "config": {}}, "moving_variance_initializer": {"class_name": "Ones", "config": {}}, "moving_mean_initializer": {"class_name": "Zeros", "config": {}}, "epsilon": 1e-05, "gamma_regularizer": null, "scale": true, "beta_constraint": null, "beta_initializer": {"class_name": "Zeros", "config": {}}, "momentum": 0.9, "name": "separable_conv_2_bn_reduction_left1_reduce_5"}, "inbound_nodes": [[["separable_conv_2_reduction_left1_reduce_5", 0, 0, {}]]], "name": "separable_conv_2_bn_reduction_left1_reduce_5"}, {"class_name": "BatchNormalization", "config": {"beta_regularizer": null, "center": true, "trainable": true, "gamma_constraint": null, "axis": -1, "gamma_initializer": {"class_name": "Ones", "config": {}}, "moving_variance_initializer": {"class_name": "Ones", "config": {}}, "moving_mean_initializer": {"class_name": "Zeros", "config": {}}, "epsilon": 1e-05, "gamma_regularizer": null, "scale": true, "beta_constraint": null, "beta_initializer": {"class_name": "Zeros", "config": {}}, "momentum": 0.9, "name": "separable_conv_2_bn_reduction_1_reduce_5"}, "inbound_nodes": [[["separable_conv_2_reduction_1_reduce_5", 0, 0, {}]]], "name": "separable_conv_2_bn_reduction_1_reduce_5"}, {"class_name": "Activation", "config": {"activation": "relu", "trainable": true, "name": "activation_1346"}, "inbound_nodes": [[["adjust_bn_reduce_5", 0, 0, {}]]], "name": "activation_1346"}, {"class_name": "Add", "config": {"trainable": true, "name": "reduction_add_1_reduce_5"}, "inbound_nodes": [[["separable_conv_2_bn_reduction_left1_reduce_5", 0, 0, {}], ["separable_conv_2_bn_reduction_1_reduce_5", 0, 0, {}]]], "name": "reduction_add_1_reduce_5"}, {"class_name": "SeparableConv2D", "config": {"kernel_size": [7, 7], "dilation_rate": [1, 1], "filters": 64, "bias_initializer": {"class_name": "Zeros", "config": {}}, "depthwise_regularizer": null, "strides": [2, 2], "data_format": "channels_last", "trainable": true, "bias_constraint": null, "name": "separable_conv_1_reduction_right2_reduce_5", "depth_multiplier": 1, "pointwise_initializer": {"class_name": "VarianceScaling", "config": {"scale": 1.0, "mode": "fan_avg", "distribution": "uniform", "seed": null}}, "padding": "same", "pointwise_regularizer": null, "bias_regularizer": null, "depthwise_constraint": null, "activation": "linear", "use_bias": false, "pointwise_constraint": null, "depthwise_initializer": {"class_name": "VarianceScaling", "config": {"scale": 1.0, "mode": "fan_avg", "distribution": "uniform", "seed": null}}, "activity_regularizer": null}, "inbound_nodes": [[["activation_1346", 0, 0, {}]]], "name": "separable_conv_1_reduction_right2_reduce_5"}, {"class_name": "Activation", "config": {"activation": "relu", "trainable": true, "name": "activation_1348"}, "inbound_nodes": [[["adjust_bn_reduce_5", 0, 0, {}]]], "name": "activation_1348"}, {"class_name": "Activation", "config": {"activation": "relu", "trainable": true, "name": "activation_1350"}, "inbound_nodes": [[["reduction_add_1_reduce_5", 0, 0, {}]]], "name": "activation_1350"}, {"class_name": "BatchNormalization", "config": {"beta_regularizer": null, "center": true, "trainable": true, "gamma_constraint": null, "axis": -1, "gamma_initializer": {"class_name": "Ones", "config": {}}, "moving_variance_initializer": {"class_name": "Ones", "config": {}}, "moving_mean_initializer": {"class_name": "Zeros", "config": {}}, "epsilon": 1e-05, "gamma_regularizer": null, "scale": true, "beta_constraint": null, "beta_initializer": {"class_name": "Zeros", "config": {}}, "momentum": 0.9, "name": "separable_conv_1_bn_reduction_right2_reduce_5"}, "inbound_nodes": [[["separable_conv_1_reduction_right2_reduce_5", 0, 0, {}]]], "name": "separable_conv_1_bn_reduction_right2_reduce_5"}, {"class_name": "SeparableConv2D", "config": {"kernel_size": [5, 5], "dilation_rate": [1, 1], "filters": 64, "bias_initializer": {"class_name": "Zeros", "config": {}}, "depthwise_regularizer": null, "strides": [2, 2], "data_format": "channels_last", "trainable": true, "bias_constraint": null, "name": "separable_conv_1_reduction_right3_reduce_5", "depth_multiplier": 1, "pointwise_initializer": {"class_name": "VarianceScaling", "config": {"scale": 1.0, "mode": "fan_avg", "distribution": "uniform", "seed": null}}, "padding": "same", "pointwise_regularizer": null, "bias_regularizer": null, "depthwise_constraint": null, "activation": "linear", "use_bias": false, "pointwise_constraint": null, "depthwise_initializer": {"class_name": "VarianceScaling", "config": {"scale": 1.0, "mode": "fan_avg", "distribution": "uniform", "seed": null}}, "activity_regularizer": null}, "inbound_nodes": [[["activation_1348", 0, 0, {}]]], "name": "separable_conv_1_reduction_right3_reduce_5"}, {"class_name": "SeparableConv2D", "config": {"kernel_size": [3, 3], "dilation_rate": [1, 1], "filters": 64, "bias_initializer": {"class_name": "Zeros", "config": {}}, "depthwise_regularizer": null, "strides": [1, 1], "data_format": "channels_last", "trainable": true, "bias_constraint": null, "name": "separable_conv_1_reduction_left4_reduce_5", "depth_multiplier": 1, "pointwise_initializer": {"class_name": "VarianceScaling", "config": {"scale": 1.0, "mode": "fan_avg", "distribution": "uniform", "seed": null}}, "padding": "same", "pointwise_regularizer": null, "bias_regularizer": null, "depthwise_constraint": null, "activation": "linear", "use_bias": false, "pointwise_constraint": null, "depthwise_initializer": {"class_name": "VarianceScaling", "config": {"scale": 1.0, "mode": "fan_avg", "distribution": "uniform", "seed": null}}, "activity_regularizer": null}, "inbound_nodes": [[["activation_1350", 0, 0, {}]]], "name": "separable_conv_1_reduction_left4_reduce_5"}, {"class_name": "Activation", "config": {"activation": "relu", "trainable": true, "name": "activation_1347"}, "inbound_nodes": [[["separable_conv_1_bn_reduction_right2_reduce_5", 0, 0, {}]]], "name": "activation_1347"}, {"class_name": "BatchNormalization", "config": {"beta_regularizer": null, "center": true, "trainable": true, "gamma_constraint": null, "axis": -1, "gamma_initializer": {"class_name": "Ones", "config": {}}, "moving_variance_initializer": {"class_name": "Ones", "config": {}}, "moving_mean_initializer": {"class_name": "Zeros", "config": {}}, "epsilon": 1e-05, "gamma_regularizer": null, "scale": true, "beta_constraint": null, "beta_initializer": {"class_name": "Zeros", "config": {}}, "momentum": 0.9, "name": "separable_conv_1_bn_reduction_right3_reduce_5"}, "inbound_nodes": [[["separable_conv_1_reduction_right3_reduce_5", 0, 0, {}]]], "name": "separable_conv_1_bn_reduction_right3_reduce_5"}, {"class_name": "BatchNormalization", "config": {"beta_regularizer": null, "center": true, "trainable": true, "gamma_constraint": null, "axis": -1, "gamma_initializer": {"class_name": "Ones", "config": {}}, "moving_variance_initializer": {"class_name": "Ones", "config": {}}, "moving_mean_initializer": {"class_name": "Zeros", "config": {}}, "epsilon": 1e-05, "gamma_regularizer": null, "scale": true, "beta_constraint": null, "beta_initializer": {"class_name": "Zeros", "config": {}}, "momentum": 0.9, "name": "separable_conv_1_bn_reduction_left4_reduce_5"}, "inbound_nodes": [[["separable_conv_1_reduction_left4_reduce_5", 0, 0, {}]]], "name": "separable_conv_1_bn_reduction_left4_reduce_5"}, {"class_name": "SeparableConv2D", "config": {"kernel_size": [7, 7], "dilation_rate": [1, 1], "filters": 64, "bias_initializer": {"class_name": "Zeros", "config": {}}, "depthwise_regularizer": null, "strides": [1, 1], "data_format": "channels_last", "trainable": true, "bias_constraint": null, "name": "separable_conv_2_reduction_right2_reduce_5", "depth_multiplier": 1, "pointwise_initializer": {"class_name": "VarianceScaling", "config": {"scale": 1.0, "mode": "fan_avg", "distribution": "uniform", "seed": null}}, "padding": "same", "pointwise_regularizer": null, "bias_regularizer": null, "depthwise_constraint": null, "activation": "linear", "use_bias": false, "pointwise_constraint": null, "depthwise_initializer": {"class_name": "VarianceScaling", "config": {"scale": 1.0, "mode": "fan_avg", "distribution": "uniform", "seed": null}}, "activity_regularizer": null}, "inbound_nodes": [[["activation_1347", 0, 0, {}]]], "name": "separable_conv_2_reduction_right2_reduce_5"}, {"class_name": "Activation", "config": {"activation": "relu", "trainable": true, "name": "activation_1349"}, "inbound_nodes": [[["separable_conv_1_bn_reduction_right3_reduce_5", 0, 0, {}]]], "name": "activation_1349"}, {"class_name": "Activation", "config": {"activation": "relu", "trainable": true, "name": "activation_1351"}, "inbound_nodes": [[["separable_conv_1_bn_reduction_left4_reduce_5", 0, 0, {}]]], "name": "activation_1351"}, {"class_name": "MaxPooling2D", "config": {"padding": "same", "data_format": "channels_last", "pool_size": [3, 3], "trainable": true, "strides": [2, 2], "name": "reduction_left2_reduce_5"}, "inbound_nodes": [[["reduction_bn_1_reduce_5", 0, 0, {}]]], "name": "reduction_left2_reduce_5"}, {"class_name": "BatchNormalization", "config": {"beta_regularizer": null, "center": true, "trainable": true, "gamma_constraint": null, "axis": -1, "gamma_initializer": {"class_name": "Ones", "config": {}}, "moving_variance_initializer": {"class_name": "Ones", "config": {}}, "moving_mean_initializer": {"class_name": "Zeros", "config": {}}, "epsilon": 1e-05, "gamma_regularizer": null, "scale": true, "beta_constraint": null, "beta_initializer": {"class_name": "Zeros", "config": {}}, "momentum": 0.9, "name": "separable_conv_2_bn_reduction_right2_reduce_5"}, "inbound_nodes": [[["separable_conv_2_reduction_right2_reduce_5", 0, 0, {}]]], "name": "separable_conv_2_bn_reduction_right2_reduce_5"}, {"class_name": "SeparableConv2D", "config": {"kernel_size": [5, 5], "dilation_rate": [1, 1], "filters": 64, "bias_initializer": {"class_name": "Zeros", "config": {}}, "depthwise_regularizer": null, "strides": [1, 1], "data_format": "channels_last", "trainable": true, "bias_constraint": null, "name": "separable_conv_2_reduction_right3_reduce_5", "depth_multiplier": 1, "pointwise_initializer": {"class_name": "VarianceScaling", "config": {"scale": 1.0, "mode": "fan_avg", "distribution": "uniform", "seed": null}}, "padding": "same", "pointwise_regularizer": null, "bias_regularizer": null, "depthwise_constraint": null, "activation": "linear", "use_bias": false, "pointwise_constraint": null, "depthwise_initializer": {"class_name": "VarianceScaling", "config": {"scale": 1.0, "mode": "fan_avg", "distribution": "uniform", "seed": null}}, "activity_regularizer": null}, "inbound_nodes": [[["activation_1349", 0, 0, {}]]], "name": "separable_conv_2_reduction_right3_reduce_5"}, {"class_name": "SeparableConv2D", "config": {"kernel_size": [3, 3], "dilation_rate": [1, 1], "filters": 64, "bias_initializer": {"class_name": "Zeros", "config": {}}, "depthwise_regularizer": null, "strides": [1, 1], "data_format": "channels_last", "trainable": true, "bias_constraint": null, "name": "separable_conv_2_reduction_left4_reduce_5", "depth_multiplier": 1, "pointwise_initializer": {"class_name": "VarianceScaling", "config": {"scale": 1.0, "mode": "fan_avg", "distribution": "uniform", "seed": null}}, "padding": "same", "pointwise_regularizer": null, "bias_regularizer": null, "depthwise_constraint": null, "activation": "linear", "use_bias": false, "pointwise_constraint": null, "depthwise_initializer": {"class_name": "VarianceScaling", "config": {"scale": 1.0, "mode": "fan_avg", "distribution": "uniform", "seed": null}}, "activity_regularizer": null}, "inbound_nodes": [[["activation_1351", 0, 0, {}]]], "name": "separable_conv_2_reduction_left4_reduce_5"}, {"class_name": "Activation", "config": {"activation": "relu", "trainable": true, "name": "adjust_relu_1_6"}, "inbound_nodes": [[["normal_concat_4", 0, 0, {}]]], "name": "adjust_relu_1_6"}, {"class_name": "Add", "config": {"trainable": true, "name": "reduction_add_2_reduce_5"}, "inbound_nodes": [[["reduction_left2_reduce_5", 0, 0, {}], ["separable_conv_2_bn_reduction_right2_reduce_5", 0, 0, {}]]], "name": "reduction_add_2_reduce_5"}, {"class_name": "AveragePooling2D", "config": {"padding": "same", "data_format": "channels_last", "pool_size": [3, 3], "trainable": true, "strides": [2, 2], "name": "reduction_left3_reduce_5"}, "inbound_nodes": [[["reduction_bn_1_reduce_5", 0, 0, {}]]], "name": "reduction_left3_reduce_5"}, {"class_name": "BatchNormalization", "config": {"beta_regularizer": null, "center": true, "trainable": true, "gamma_constraint": null, "axis": -1, "gamma_initializer": {"class_name": "Ones", "config": {}}, "moving_variance_initializer": {"class_name": "Ones", "config": {}}, "moving_mean_initializer": {"class_name": "Zeros", "config": {}}, "epsilon": 1e-05, "gamma_regularizer": null, "scale": true, "beta_constraint": null, "beta_initializer": {"class_name": "Zeros", "config": {}}, "momentum": 0.9, "name": "separable_conv_2_bn_reduction_right3_reduce_5"}, "inbound_nodes": [[["separable_conv_2_reduction_right3_reduce_5", 0, 0, {}]]], "name": "separable_conv_2_bn_reduction_right3_reduce_5"}, {"class_name": "AveragePooling2D", "config": {"padding": "same", "data_format": "channels_last", "pool_size": [3, 3], "trainable": true, "strides": [1, 1], "name": "reduction_left4_reduce_5"}, "inbound_nodes": [[["reduction_add_1_reduce_5", 0, 0, {}]]], "name": "reduction_left4_reduce_5"}, {"class_name": "BatchNormalization", "config": {"beta_regularizer": null, "center": true, "trainable": true, "gamma_constraint": null, "axis": -1, "gamma_initializer": {"class_name": "Ones", "config": {}}, "moving_variance_initializer": {"class_name": "Ones", "config": {}}, "moving_mean_initializer": {"class_name": "Zeros", "config": {}}, "epsilon": 1e-05, "gamma_regularizer": null, "scale": true, "beta_constraint": null, "beta_initializer": {"class_name": "Zeros", "config": {}}, "momentum": 0.9, "name": "separable_conv_2_bn_reduction_left4_reduce_5"}, "inbound_nodes": [[["separable_conv_2_reduction_left4_reduce_5", 0, 0, {}]]], "name": "separable_conv_2_bn_reduction_left4_reduce_5"}, {"class_name": "MaxPooling2D", "config": {"padding": "same", "data_format": "channels_last", "pool_size": [3, 3], "trainable": true, "strides": [2, 2], "name": "reduction_right5_reduce_5"}, "inbound_nodes": [[["reduction_bn_1_reduce_5", 0, 0, {}]]], "name": "reduction_right5_reduce_5"}, {"class_name": "ZeroPadding2D", "config": {"name": "zero_padding2d_19", "trainable": true, "padding": [[0, 1], [0, 1]], "data_format": "channels_last"}, "inbound_nodes": [[["adjust_relu_1_6", 0, 0, {}]]], "name": "zero_padding2d_19"}, {"class_name": "Add", "config": {"trainable": true, "name": "reduction_add3_reduce_5"}, "inbound_nodes": [[["reduction_left3_reduce_5", 0, 0, {}], ["separable_conv_2_bn_reduction_right3_reduce_5", 0, 0, {}]]], "name": "reduction_add3_reduce_5"}, {"class_name": "Add", "config": {"trainable": true, "name": "add_19"}, "inbound_nodes": [[["reduction_add_2_reduce_5", 0, 0, {}], ["reduction_left4_reduce_5", 0, 0, {}]]], "name": "add_19"}, {"class_name": "Add", "config": {"trainable": true, "name": "reduction_add4_reduce_5"}, "inbound_nodes": [[["separable_conv_2_bn_reduction_left4_reduce_5", 0, 0, {}], ["reduction_right5_reduce_5", 0, 0, {}]]], "name": "reduction_add4_reduce_5"}, {"class_name": "Cropping2D", "config": {"name": "cropping2d_19", "trainable": true, "cropping": [[1, 0], [1, 0]], "data_format": "channels_last"}, "inbound_nodes": [[["zero_padding2d_19", 0, 0, {}]]], "name": "cropping2d_19"}, {"class_name": "Concatenate", "config": {"axis": -1, "trainable": true, "name": "reduction_concat_reduce_5"}, "inbound_nodes": [[["reduction_add_2_reduce_5", 0, 0, {}], ["reduction_add3_reduce_5", 0, 0, {}], ["add_19", 0, 0, {}], ["reduction_add4_reduce_5", 0, 0, {}]]], "name": "reduction_concat_reduce_5"}, {"class_name": "AveragePooling2D", "config": {"padding": "valid", "data_format": "channels_last", "pool_size": [1, 1], "trainable": true, "strides": [2, 2], "name": "adjust_avg_pool_1_6"}, "inbound_nodes": [[["adjust_relu_1_6", 0, 0, {}]]], "name": "adjust_avg_pool_1_6"}, {"class_name": "AveragePooling2D", "config": {"padding": "valid", "data_format": "channels_last", "pool_size": [1, 1], "trainable": true, "strides": [2, 2], "name": "adjust_avg_pool_2_6"}, "inbound_nodes": [[["cropping2d_19", 0, 0, {}]]], "name": "adjust_avg_pool_2_6"}, {"class_name": "Conv2D", "config": {"kernel_size": [1, 1], "dilation_rate": [1, 1], "filters": 32, "padding": "same", "bias_initializer": {"class_name": "Zeros", "config": {}}, "name": "adjust_conv_1_6", "strides": [1, 1], "kernel_initializer": {"class_name": "VarianceScaling", "config": {"scale": 2.0, "mode": "fan_in", "distribution": "normal", "seed": null}}, "trainable": true, "bias_constraint": null, "data_format": "channels_last", "activation": "linear", "use_bias": false, "kernel_regularizer": {"class_name": "L1L2", "config": {"l1": 0.0, "l2": 0.0005000000237487257}}, "kernel_constraint": null, "bias_regularizer": null, "activity_regularizer": null}, "inbound_nodes": [[["adjust_avg_pool_1_6", 0, 0, {}]]], "name": "adjust_conv_1_6"}, {"class_name": "Conv2D", "config": {"kernel_size": [1, 1], "dilation_rate": [1, 1], "filters": 32, "padding": "same", "bias_initializer": {"class_name": "Zeros", "config": {}}, "name": "adjust_conv_2_6", "strides": [1, 1], "kernel_initializer": {"class_name": "VarianceScaling", "config": {"scale": 2.0, "mode": "fan_in", "distribution": "normal", "seed": null}}, "trainable": true, "bias_constraint": null, "data_format": "channels_last", "activation": "linear", "use_bias": false, "kernel_regularizer": {"class_name": "L1L2", "config": {"l1": 0.0, "l2": 0.0005000000237487257}}, "kernel_constraint": null, "bias_regularizer": null, "activity_regularizer": null}, "inbound_nodes": [[["adjust_avg_pool_2_6", 0, 0, {}]]], "name": "adjust_conv_2_6"}, {"class_name": "Activation", "config": {"activation": "relu", "trainable": true, "name": "activation_1352"}, "inbound_nodes": [[["reduction_concat_reduce_5", 0, 0, {}]]], "name": "activation_1352"}, {"class_name": "Concatenate", "config": {"axis": -1, "trainable": true, "name": "concatenate_19"}, "inbound_nodes": [[["adjust_conv_1_6", 0, 0, {}], ["adjust_conv_2_6", 0, 0, {}]]], "name": "concatenate_19"}, {"class_name": "Conv2D", "config": {"kernel_size": [1, 1], "dilation_rate": [1, 1], "filters": 64, "padding": "same", "bias_initializer": {"class_name": "Zeros", "config": {}}, "name": "normal_conv_1_6", "strides": [1, 1], "kernel_initializer": {"class_name": "VarianceScaling", "config": {"scale": 2.0, "mode": "fan_in", "distribution": "normal", "seed": null}}, "trainable": true, "bias_constraint": null, "data_format": "channels_last", "activation": "linear", "use_bias": false, "kernel_regularizer": {"class_name": "L1L2", "config": {"l1": 0.0, "l2": 0.0005000000237487257}}, "kernel_constraint": null, "bias_regularizer": null, "activity_regularizer": null}, "inbound_nodes": [[["activation_1352", 0, 0, {}]]], "name": "normal_conv_1_6"}, {"class_name": "BatchNormalization", "config": {"beta_regularizer": null, "center": true, "trainable": true, "gamma_constraint": null, "axis": -1, "gamma_initializer": {"class_name": "Ones", "config": {}}, "moving_variance_initializer": {"class_name": "Ones", "config": {}}, "moving_mean_initializer": {"class_name": "Zeros", "config": {}}, "epsilon": 1e-05, "gamma_regularizer": null, "scale": true, "beta_constraint": null, "beta_initializer": {"class_name": "Zeros", "config": {}}, "momentum": 0.9, "name": "adjust_bn_6"}, "inbound_nodes": [[["concatenate_19", 0, 0, {}]]], "name": "adjust_bn_6"}, {"class_name": "BatchNormalization", "config": {"beta_regularizer": null, "center": true, "trainable": true, "gamma_constraint": null, "axis": -1, "gamma_initializer": {"class_name": "Ones", "config": {}}, "moving_variance_initializer": {"class_name": "Ones", "config": {}}, "moving_mean_initializer": {"class_name": "Zeros", "config": {}}, "epsilon": 1e-05, "gamma_regularizer": null, "scale": true, "beta_constraint": null, "beta_initializer": {"class_name": "Zeros", "config": {}}, "momentum": 0.9, "name": "normal_bn_1_6"}, "inbound_nodes": [[["normal_conv_1_6", 0, 0, {}]]], "name": "normal_bn_1_6"}, {"class_name": "Activation", "config": {"activation": "relu", "trainable": true, "name": "activation_1353"}, "inbound_nodes": [[["normal_bn_1_6", 0, 0, {}]]], "name": "activation_1353"}, {"class_name": "Activation", "config": {"activation": "relu", "trainable": true, "name": "activation_1355"}, "inbound_nodes": [[["adjust_bn_6", 0, 0, {}]]], "name": "activation_1355"}, {"class_name": "Activation", "config": {"activation": "relu", "trainable": true, "name": "activation_1357"}, "inbound_nodes": [[["adjust_bn_6", 0, 0, {}]]], "name": "activation_1357"}, {"class_name": "Activation", "config": {"activation": "relu", "trainable": true, "name": "activation_1359"}, "inbound_nodes": [[["adjust_bn_6", 0, 0, {}]]], "name": "activation_1359"}, {"class_name": "Activation", "config": {"activation": "relu", "trainable": true, "name": "activation_1361"}, "inbound_nodes": [[["normal_bn_1_6", 0, 0, {}]]], "name": "activation_1361"}, {"class_name": "SeparableConv2D", "config": {"kernel_size": [5, 5], "dilation_rate": [1, 1], "filters": 64, "bias_initializer": {"class_name": "Zeros", "config": {}}, "depthwise_regularizer": null, "strides": [1, 1], "data_format": "channels_last", "trainable": true, "bias_constraint": null, "name": "separable_conv_1_normal_left1_6", "depth_multiplier": 1, "pointwise_initializer": {"class_name": "VarianceScaling", "config": {"scale": 1.0, "mode": "fan_avg", "distribution": "uniform", "seed": null}}, "padding": "same", "pointwise_regularizer": null, "bias_regularizer": null, "depthwise_constraint": null, "activation": "linear", "use_bias": false, "pointwise_constraint": null, "depthwise_initializer": {"class_name": "VarianceScaling", "config": {"scale": 1.0, "mode": "fan_avg", "distribution": "uniform", "seed": null}}, "activity_regularizer": null}, "inbound_nodes": [[["activation_1353", 0, 0, {}]]], "name": "separable_conv_1_normal_left1_6"}, {"class_name": "SeparableConv2D", "config": {"kernel_size": [3, 3], "dilation_rate": [1, 1], "filters": 64, "bias_initializer": {"class_name": "Zeros", "config": {}}, "depthwise_regularizer": null, "strides": [1, 1], "data_format": "channels_last", "trainable": true, "bias_constraint": null, "name": "separable_conv_1_normal_right1_6", "depth_multiplier": 1, "pointwise_initializer": {"class_name": "VarianceScaling", "config": {"scale": 1.0, "mode": "fan_avg", "distribution": "uniform", "seed": null}}, "padding": "same", "pointwise_regularizer": null, "bias_regularizer": null, "depthwise_constraint": null, "activation": "linear", "use_bias": false, "pointwise_constraint": null, "depthwise_initializer": {"class_name": "VarianceScaling", "config": {"scale": 1.0, "mode": "fan_avg", "distribution": "uniform", "seed": null}}, "activity_regularizer": null}, "inbound_nodes": [[["activation_1355", 0, 0, {}]]], "name": "separable_conv_1_normal_right1_6"}, {"class_name": "SeparableConv2D", "config": {"kernel_size": [5, 5], "dilation_rate": [1, 1], "filters": 64, "bias_initializer": {"class_name": "Zeros", "config": {}}, "depthwise_regularizer": null, "strides": [1, 1], "data_format": "channels_last", "trainable": true, "bias_constraint": null, "name": "separable_conv_1_normal_left2_6", "depth_multiplier": 1, "pointwise_initializer": {"class_name": "VarianceScaling", "config": {"scale": 1.0, "mode": "fan_avg", "distribution": "uniform", "seed": null}}, "padding": "same", "pointwise_regularizer": null, "bias_regularizer": null, "depthwise_constraint": null, "activation": "linear", "use_bias": false, "pointwise_constraint": null, "depthwise_initializer": {"class_name": "VarianceScaling", "config": {"scale": 1.0, "mode": "fan_avg", "distribution": "uniform", "seed": null}}, "activity_regularizer": null}, "inbound_nodes": [[["activation_1357", 0, 0, {}]]], "name": "separable_conv_1_normal_left2_6"}, {"class_name": "SeparableConv2D", "config": {"kernel_size": [3, 3], "dilation_rate": [1, 1], "filters": 64, "bias_initializer": {"class_name": "Zeros", "config": {}}, "depthwise_regularizer": null, "strides": [1, 1], "data_format": "channels_last", "trainable": true, "bias_constraint": null, "name": "separable_conv_1_normal_right2_6", "depth_multiplier": 1, "pointwise_initializer": {"class_name": "VarianceScaling", "config": {"scale": 1.0, "mode": "fan_avg", "distribution": "uniform", "seed": null}}, "padding": "same", "pointwise_regularizer": null, "bias_regularizer": null, "depthwise_constraint": null, "activation": "linear", "use_bias": false, "pointwise_constraint": null, "depthwise_initializer": {"class_name": "VarianceScaling", "config": {"scale": 1.0, "mode": "fan_avg", "distribution": "uniform", "seed": null}}, "activity_regularizer": null}, "inbound_n…
"momentum": 0.9, "name": "separable_conv_2_bn_normal_left5_11"}, "inbound_nodes": [[["separable_conv_2_normal_left5_11", 0, 0, {}]]], "name": "separable_conv_2_bn_normal_left5_11"}, {"class_name": "Add", "config": {"trainable": true, "name": "normal_add_1_11"}, "inbound_nodes": [[["separable_conv_2_bn_normal_left1_11", 0, 0, {}], ["separable_conv_2_bn_normal_right1_11", 0, 0, {}]]], "name": "normal_add_1_11"}, {"class_name": "Add", "config": {"trainable": true, "name": "normal_add_2_11"}, "inbound_nodes": [[["separable_conv_2_bn_normal_left2_11", 0, 0, {}], ["separable_conv_2_bn_normal_right2_11", 0, 0, {}]]], "name": "normal_add_2_11"}, {"class_name": "Add", "config": {"trainable": true, "name": "normal_add_3_11"}, "inbound_nodes": [[["normal_left3_11", 0, 0, {}], ["adjust_bn_11", 0, 0, {}]]], "name": "normal_add_3_11"}, {"class_name": "Add", "config": {"trainable": true, "name": "normal_add_4_11"}, "inbound_nodes": [[["normal_left4_11", 0, 0, {}], ["normal_right4_11", 0, 0, {}]]], "name": "normal_add_4_11"}, {"class_name": "Add", "config": {"trainable": true, "name": "normal_add_5_11"}, "inbound_nodes": [[["separable_conv_2_bn_normal_left5_11", 0, 0, {}], ["normal_bn_1_11", 0, 0, {}]]], "name": "normal_add_5_11"}, {"class_name": "Concatenate", "config": {"axis": -1, "trainable": true, "name": "normal_concat_11"}, "inbound_nodes": [[["adjust_bn_11", 0, 0, {}], ["normal_add_1_11", 0, 0, {}], ["normal_add_2_11", 0, 0, {}], ["normal_add_3_11", 0, 0, {}], ["normal_add_4_11", 0, 0, {}], ["normal_add_5_11", 0, 0, {}]]], "name": "normal_concat_11"}, {"class_name": "Activation", "config": {"activation": "relu", "trainable": true, "name": "activation_1434"}, "inbound_nodes": [[["normal_concat_10", 0, 0, {}]]], "name": "activation_1434"}, {"class_name": "Activation", "config": {"activation": "relu", "trainable": true, "name": "activation_1435"}, "inbound_nodes": [[["normal_concat_11", 0, 0, {}]]], "name": "activation_1435"}, {"class_name": "Conv2D", "config": {"kernel_size": [1, 1], "dilation_rate": [1, 1], "filters": 128, "padding": "same", "bias_initializer": {"class_name": "Zeros", "config": {}}, "name": "adjust_conv_projection_12", "strides": [1, 1], "kernel_initializer": {"class_name": "VarianceScaling", "config": {"scale": 2.0, "mode": "fan_in", "distribution": "normal", "seed": null}}, "trainable": true, "bias_constraint": null, "data_format": "channels_last", "activation": "linear", "use_bias": false, "kernel_regularizer": {"class_name": "L1L2", "config": {"l1": 0.0, "l2": 0.0005000000237487257}}, "kernel_constraint": null, "bias_regularizer": null, "activity_regularizer": null}, "inbound_nodes": [[["activation_1434", 0, 0, {}]]], "name": "adjust_conv_projection_12"}, {"class_name": "Conv2D", "config": {"kernel_size": [1, 1], "dilation_rate": [1, 1], "filters": 128, "padding": "same", "bias_initializer": {"class_name": "Zeros", "config": {}}, "name": "normal_conv_1_12", "strides": [1, 1], "kernel_initializer": {"class_name": "VarianceScaling", "config": {"scale": 2.0, "mode": "fan_in", "distribution": "normal", "seed": null}}, "trainable": true, "bias_constraint": null, "data_format": "channels_last", "activation": "linear", "use_bias": false, "kernel_regularizer": {"class_name": "L1L2", "config": {"l1": 0.0, "l2": 0.0005000000237487257}}, "kernel_constraint": null, "bias_regularizer": null, "activity_regularizer": null}, "inbound_nodes": [[["activation_1435", 0, 0, {}]]], "name": "normal_conv_1_12"}, {"class_name": "BatchNormalization", "config": {"beta_regularizer": null, "center": true, "trainable": true, "gamma_constraint": null, "axis": -1, "gamma_initializer": {"class_name": "Ones", "config": {}}, "moving_variance_initializer": {"class_name": "Ones", "config": {}}, "moving_mean_initializer": {"class_name": "Zeros", "config": {}}, "epsilon": 1e-05, "gamma_regularizer": null, "scale": true, "beta_constraint": null, "beta_initializer": {"class_name": "Zeros", "config": {}}, "momentum": 0.9, "name": "adjust_bn_12"}, "inbound_nodes": [[["adjust_conv_projection_12", 0, 0, {}]]], "name": "adjust_bn_12"}, {"class_name": "BatchNormalization", "config": {"beta_regularizer": null, "center": true, "trainable": true, "gamma_constraint": null, "axis": -1, "gamma_initializer": {"class_name": "Ones", "config": {}}, "moving_variance_initializer": {"class_name": "Ones", "config": {}}, "moving_mean_initializer": {"class_name": "Zeros", "config": {}}, "epsilon": 1e-05, "gamma_regularizer": null, "scale": true, "beta_constraint": null, "beta_initializer": {"class_name": "Zeros", "config": {}}, "momentum": 0.9, "name": "normal_bn_1_12"}, "inbound_nodes": [[["normal_conv_1_12", 0, 0, {}]]], "name": "normal_bn_1_12"}, {"class_name": "Activation", "config": {"activation": "relu", "trainable": true, "name": "activation_1436"}, "inbound_nodes": [[["normal_bn_1_12", 0, 0, {}]]], "name": "activation_1436"}, {"class_name": "Activation", "config": {"activation": "relu", "trainable": true, "name": "activation_1438"}, "inbound_nodes": [[["adjust_bn_12", 0, 0, {}]]], "name": "activation_1438"}, {"class_name": "Activation", "config": {"activation": "relu", "trainable": true, "name": "activation_1440"}, "inbound_nodes": [[["adjust_bn_12", 0, 0, {}]]], "name": "activation_1440"}, {"class_name": "Activation", "config": {"activation": "relu", "trainable": true, "name": "activation_1442"}, "inbound_nodes": [[["adjust_bn_12", 0, 0, {}]]], "name": "activation_1442"}, {"class_name": "Activation", "config": {"activation": "relu", "trainable": true, "name": "activation_1444"}, "inbound_nodes": [[["normal_bn_1_12", 0, 0, {}]]], "name": "activation_1444"}, {"class_name": "SeparableConv2D", "config": {"kernel_size": [5, 5], "dilation_rate": [1, 1], "filters": 128, "bias_initializer": {"class_name": "Zeros", "config": {}}, "depthwise_regularizer": null, "strides": [1, 1], "data_format": "channels_last", "trainable": true, "bias_constraint": null, "name": "separable_conv_1_normal_left1_12", "depth_multiplier": 1, "pointwise_initializer": {"class_name": "VarianceScaling", "config": {"scale": 1.0, "mode": "fan_avg", "distribution": "uniform", "seed": null}}, "padding": "same", "pointwise_regularizer": null, "bias_regularizer": null, "depthwise_constraint": null, "activation": "linear", "use_bias": false, "pointwise_constraint": null, "depthwise_initializer": {"class_name": "VarianceScaling", "config": {"scale": 1.0, "mode": "fan_avg", "distribution": "uniform", "seed": null}}, "activity_regularizer": null}, "inbound_nodes": [[["activation_1436", 0, 0, {}]]], "name": "separable_conv_1_normal_left1_12"}, {"class_name": "SeparableConv2D", "config": {"kernel_size": [3, 3], "dilation_rate": [1, 1], "filters": 128, "bias_initializer": {"class_name": "Zeros", "config": {}}, "depthwise_regularizer": null, "strides": [1, 1], "data_format": "channels_last", "trainable": true, "bias_constraint": null, "name": "separable_conv_1_normal_right1_12", "depth_multiplier": 1, "pointwise_initializer": {"class_name": "VarianceScaling", "config": {"scale": 1.0, "mode": "fan_avg", "distribution": "uniform", "seed": null}}, "padding": "same", "pointwise_regularizer": null, "bias_regularizer": null, "depthwise_constraint": null, "activation": "linear", "use_bias": false, "pointwise_constraint": null, "depthwise_initializer": {"class_name": "VarianceScaling", "config": {"scale": 1.0, "mode": "fan_avg", "distribution": "uniform", "seed": null}}, "activity_regularizer": null}, "inbound_nodes": [[["activation_1438", 0, 0, {}]]], "name": "separable_conv_1_normal_right1_12"}, {"class_name": "SeparableConv2D", "config": {"kernel_size": [5, 5], "dilation_rate": [1, 1], "filters": 128, "bias_initializer": {"class_name": "Zeros", "config": {}}, "depthwise_regularizer": null, "strides": [1, 1], "data_format": "channels_last", "trainable": true, "bias_constraint": null, "name": "separable_conv_1_normal_left2_12", "depth_multiplier": 1, "pointwise_initializer": {"class_name": "VarianceScaling", "config": {"scale": 1.0, "mode": "fan_avg", "distribution": "uniform", "seed": null}}, "padding": "same", "pointwise_regularizer": null, "bias_regularizer": null, "depthwise_constraint": null, "activation": "linear", "use_bias": false, "pointwise_constraint": null, "depthwise_initializer": {"class_name": "VarianceScaling", "config": {"scale": 1.0, "mode": "fan_avg", "distribution": "uniform", "seed": null}}, "activity_regularizer": null}, "inbound_nodes": [[["activation_1440", 0, 0, {}]]], "name": "separable_conv_1_normal_left2_12"}, {"class_name": "SeparableConv2D", "config": {"kernel_size": [3, 3], "dilation_rate": [1, 1], "filters": 128, "bias_initializer": {"class_name": "Zeros", "config": {}}, "depthwise_regularizer": null, "strides": [1, 1], "data_format": "channels_last", "trainable": true, "bias_constraint": null, "name": "separable_conv_1_normal_right2_12", "depth_multiplier": 1, "pointwise_initializer": {"class_name": "VarianceScaling", "config": {"scale": 1.0, "mode": "fan_avg", "distribution": "uniform", "seed": null}}, "padding": "same", "pointwise_regularizer": null, "bias_regularizer": null, "depthwise_constraint": null, "activation": "linear", "use_bias": false, "pointwise_constraint": null, "depthwise_initializer": {"class_name": "VarianceScaling", "config": {"scale": 1.0, "mode": "fan_avg", "distribution": "uniform", "seed": null}}, "activity_regularizer": null}, "inbound_nodes": [[["activation_1442", 0, 0, {}]]], "name": "separable_conv_1_normal_right2_12"}, {"class_name": "SeparableConv2D", "config": {"kernel_size": [3, 3], "dilation_rate": [1, 1], "filters": 128, "bias_initializer": {"class_name": "Zeros", "config": {}}, "depthwise_regularizer": null, "strides": [1, 1], "data_format": "channels_last", "trainable": true, "bias_constraint": null, "name": "separable_conv_1_normal_left5_12", "depth_multiplier": 1, "pointwise_initializer": {"class_name": "VarianceScaling", "config": {"scale": 1.0, "mode": "fan_avg", "distribution": "uniform", "seed": null}}, "padding": "same", "pointwise_regularizer": null, "bias_regularizer": null, "depthwise_constraint": null, "activation": "linear", "use_bias": false, "pointwise_constraint": null, "depthwise_initializer": {"class_name": "VarianceScaling", "config": {"scale": 1.0, "mode": "fan_avg", "distribution": "uniform", "seed": null}}, "activity_regularizer": null}, "inbound_nodes": [[["activation_1444", 0, 0, {}]]], "name": "separable_conv_1_normal_left5_12"}, {"class_name": "BatchNormalization", "config": {"beta_regularizer": null, "center": true, "trainable": true, "gamma_constraint": null, "axis": -1, "gamma_initializer": {"class_name": "Ones", "config": {}}, "moving_variance_initializer": {"class_name": "Ones", "config": {}}, "moving_mean_initializer": {"class_name": "Zeros", "config": {}}, "epsilon": 1e-05, "gamma_regularizer": null, "scale": true, "beta_constraint": null, "beta_initializer": {"class_name": "Zeros", "config": {}}, "momentum": 0.9, "name": "separable_conv_1_bn_normal_left1_12"}, "inbound_nodes": [[["separable_conv_1_normal_left1_12", 0, 0, {}]]], "name": "separable_conv_1_bn_normal_left1_12"}, {"class_name": "BatchNormalization", "config": {"beta_regularizer": null, "center": true, "trainable": true, "gamma_constraint": null, "axis": -1, "gamma_initializer": {"class_name": "Ones", "config": {}}, "moving_variance_initializer": {"class_name": "Ones", "config": {}}, "moving_mean_initializer": {"class_name": "Zeros", "config": {}}, "epsilon": 1e-05, "gamma_regularizer": null, "scale": true, "beta_constraint": null, "beta_initializer": {"class_name": "Zeros", "config": {}}, "momentum": 0.9, "name": "separable_conv_1_bn_normal_right1_12"}, "inbound_nodes": [[["separable_conv_1_normal_right1_12", 0, 0, {}]]], "name": "separable_conv_1_bn_normal_right1_12"}, {"class_name": "BatchNormalization", "config": {"beta_regularizer": null, "center": true, "trainable": true, "gamma_constraint": null, "axis": -1, "gamma_initializer": {"class_name": "Ones", "config": {}}, "moving_variance_initializer": {"class_name": "Ones", "config": {}}, "moving_mean_initializer": {"class_name": "Zeros", "config": {}}, "epsilon": 1e-05, "gamma_regularizer": null, "scale": true, "beta_constraint": null, "beta_initializer": {"class_name": "Zeros", "config": {}}, "momentum": 0.9, "name": "separable_conv_1_bn_normal_left2_12"}, "inbound_nodes": [[["separable_conv_1_normal_left2_12", 0, 0, {}]]], "name": "separable_conv_1_bn_normal_left2_12"}, {"class_name": "BatchNormalization", "config": {"beta_regularizer": null, "center": true, "trainable": true, "gamma_constraint": null, "axis": -1, "gamma_initializer": {"class_name": "Ones", "config": {}}, "moving_variance_initializer": {"class_name": "Ones", "config": {}}, "moving_mean_initializer": {"class_name": "Zeros", "config": {}}, "epsilon": 1e-05, "gamma_regularizer": null, "scale": true, "beta_constraint": null, "beta_initializer": {"class_name": "Zeros", "config": {}}, "momentum": 0.9, "name": "separable_conv_1_bn_normal_right2_12"}, "inbound_nodes": [[["separable_conv_1_normal_right2_12", 0, 0, {}]]], "name": "separable_conv_1_bn_normal_right2_12"}, {"class_name": "BatchNormalization", "config": {"beta_regularizer": null, "center": true, "trainable": true, "gamma_constraint": null, "axis": -1, "gamma_initializer": {"class_name": "Ones", "config": {}}, "moving_variance_initializer": {"class_name": "Ones", "config": {}}, "moving_mean_initializer": {"class_name": "Zeros", "config": {}}, "epsilon": 1e-05, "gamma_regularizer": null, "scale": true, "beta_constraint": null, "beta_initializer": {"class_name": "Zeros", "config": {}}, "momentum": 0.9, "name": "separable_conv_1_bn_normal_left5_12"}, "inbound_nodes": [[["separable_conv_1_normal_left5_12", 0, 0, {}]]], "name": "separable_conv_1_bn_normal_left5_12"}, {"class_name": "Activation", "config": {"activation": "relu", "trainable": true, "name": "activation_1437"}, "inbound_nodes": [[["separable_conv_1_bn_normal_left1_12", 0, 0, {}]]], "name": "activation_1437"}, {"class_name": "Activation", "config": {"activation": "relu", "trainable": true, "name": "activation_1439"}, "inbound_nodes": [[["separable_conv_1_bn_normal_right1_12", 0, 0, {}]]], "name": "activation_1439"}, {"class_name": "Activation", "config": {"activation": "relu", "trainable": true, "name": "activation_1441"}, "inbound_nodes": [[["separable_conv_1_bn_normal_left2_12", 0, 0, {}]]], "name": "activation_1441"}, {"class_name": "Activation", "config": {"activation": "relu", "trainable": true, "name": "activation_1443"}, "inbound_nodes": [[["separable_conv_1_bn_normal_right2_12", 0, 0, {}]]], "name": "activation_1443"}, {"class_name": "Activation", "config": {"activation": "relu", "trainable": true, "name": "activation_1445"}, "inbound_nodes": [[["separable_conv_1_bn_normal_left5_12", 0, 0, {}]]], "name": "activation_1445"}, {"class_name": "SeparableConv2D", "config": {"kernel_size": [5, 5], "dilation_rate": [1, 1], "filters": 128, "bias_initializer": {"class_name": "Zeros", "config": {}}, "depthwise_regularizer": null, "strides": [1, 1], "data_format": "channels_last", "trainable": true, "bias_constraint": null, "name": "separable_conv_2_normal_left1_12", "depth_multiplier": 1, "pointwise_initializer": {"class_name": "VarianceScaling", "config": {"scale": 1.0, "mode": "fan_avg", "distribution": "uniform", "seed": null}}, "padding": "same", "pointwise_regularizer": null, "bias_regularizer": null, "depthwise_constraint": null, "activation": "linear", "use_bias": false, "pointwise_constraint": null, "depthwise_initializer": {"class_name": "VarianceScaling", "config": {"scale": 1.0, "mode": "fan_avg", "distribution": "uniform", "seed": null}}, "activity_regularizer": null}, "inbound_nodes": [[["activation_1437", 0, 0, {}]]], "name": "separable_conv_2_normal_left1_12"}, {"class_name": "SeparableConv2D", "config": {"kernel_size": [3, 3], "dilation_rate": [1, 1], "filters": 128, "bias_initializer": {"class_name": "Zeros", "config": {}}, "depthwise_regularizer": null, "strides": [1, 1], "data_format": "channels_last", "trainable": true, "bias_constraint": null, "name": "separable_conv_2_normal_right1_12", "depth_multiplier": 1, "pointwise_initializer": {"class_name": "VarianceScaling", "config": {"scale": 1.0, "mode": "fan_avg", "distribution": "uniform", "seed": null}}, "padding": "same", "pointwise_regularizer": null, "bias_regularizer": null, "depthwise_constraint": null, "activation": "linear", "use_bias": false, "pointwise_constraint": null, "depthwise_initializer": {"class_name": "VarianceScaling", "config": {"scale": 1.0, "mode": "fan_avg", "distribution": "uniform", "seed": null}}, "activity_regularizer": null}, "inbound_nodes": [[["activation_1439", 0, 0, {}]]], "name": "separable_conv_2_normal_right1_12"}, {"class_name": "SeparableConv2D", "config": {"kernel_size": [5, 5], "dilation_rate": [1, 1], "filters": 128, "bias_initializer": {"class_name": "Zeros", "config": {}}, "depthwise_regularizer": null, "strides": [1, 1], "data_format": "channels_last", "trainable": true, "bias_constraint": null, "name": "separable_conv_2_normal_left2_12", "depth_multiplier": 1, "pointwise_initializer": {"class_name": "VarianceScaling", "config": {"scale": 1.0, "mode": "fan_avg", "distribution": "uniform", "seed": null}}, "padding": "same", "pointwise_regularizer": null, "bias_regularizer": null, "depthwise_constraint": null, "activation": "linear", "use_bias": false, "pointwise_constraint": null, "depthwise_initializer": {"class_name": "VarianceScaling", "config": {"scale": 1.0, "mode": "fan_avg", "distribution": "uniform", "seed": null}}, "activity_regularizer": null}, "inbound_nodes": [[["activation_1441", 0, 0, {}]]], "name": "separable_conv_2_normal_left2_12"}, {"class_name": "SeparableConv2D", "config": {"kernel_size": [3, 3], "dilation_rate": [1, 1], "filters": 128, "bias_initializer": {"class_name": "Zeros", "config": {}}, "depthwise_regularizer": null, "strides": [1, 1], "data_format": "channels_last", "trainable": true, "bias_constraint": null, "name": "separable_conv_2_normal_right2_12", "depth_multiplier": 1, "pointwise_initializer": {"class_name": "VarianceScaling", "config": {"scale": 1.0, "mode": "fan_avg", "distribution": "uniform", "seed": null}}, "padding": "same", "pointwise_regularizer": null, "bias_regularizer": null, "depthwise_constraint": null, "activation": "linear", "use_bias": false, "pointwise_constraint": null, "depthwise_initializer": {"class_name": "VarianceScaling", "config": {"scale": 1.0, "mode": "fan_avg", "distribution": "uniform", "seed": null}}, "activity_regularizer": null}, "inbound_nodes": [[["activation_1443", 0, 0, {}]]], "name": "separable_conv_2_normal_right2_12"}, {"class_name": "SeparableConv2D", "config": {"kernel_size": [3, 3], "dilation_rate": [1, 1], "filters": 128, "bias_initializer": {"class_name": "Zeros", "config": {}}, "depthwise_regularizer": null, "strides": [1, 1], "data_format": "channels_last", "trainable": true, "bias_constraint": null, "name": "separable_conv_2_normal_left5_12", "depth_multiplier": 1, "pointwise_initializer": {"class_name": "VarianceScaling", "config": {"scale": 1.0, "mode": "fan_avg", "distribution": "uniform", "seed": null}}, "padding": "same", "pointwise_regularizer": null, "bias_regularizer": null, "depthwise_constraint": null, "activation": "linear", "use_bias": false, "pointwise_constraint": null, "depthwise_initializer": {"class_name": "VarianceScaling", "config": {"scale": 1.0, "mode": "fan_avg", "distribution": "uniform", "seed": null}}, "activity_regularizer": null}, "inbound_nodes": [[["activation_1445", 0, 0, {}]]], "name": "separable_conv_2_normal_left5_12"}, {"class_name": "BatchNormalization", "config": {"beta_regularizer": null, "center": true, "trainable": true, "gamma_constraint": null, "axis": -1, "gamma_initializer": {"class_name": "Ones", "config": {}}, "moving_variance_initializer": {"class_name": "Ones", "config": {}}, "moving_mean_initializer": {"class_name": "Zeros", "config": {}}, "epsilon": 1e-05, "gamma_regularizer": null, "scale": true, "beta_constraint": null, "beta_initializer": {"class_name": "Zeros", "config": {}}, "momentum": 0.9, "name": "separable_conv_2_bn_normal_left1_12"}, "inbound_nodes": [[["separable_conv_2_normal_left1_12", 0, 0, {}]]], "name": "separable_conv_2_bn_normal_left1_12"}, {"class_name": "BatchNormalization", "config": {"beta_regularizer": null, "center": true, "trainable": true, "gamma_constraint": null, "axis": -1, "gamma_initializer": {"class_name": "Ones", "config": {}}, "moving_variance_initializer": {"class_name": "Ones", "config": {}}, "moving_mean_initializer": {"class_name": "Zeros", "config": {}}, "epsilon": 1e-05, "gamma_regularizer": null, "scale": true, "beta_constraint": null, "beta_initializer": {"class_name": "Zeros", "config": {}}, "momentum": 0.9, "name": "separable_conv_2_bn_normal_right1_12"}, "inbound_nodes": [[["separable_conv_2_normal_right1_12", 0, 0, {}]]], "name": "separable_conv_2_bn_normal_right1_12"}, {"class_name": "BatchNormalization", "config": {"beta_regularizer": null, "center": true, "trainable": true, "gamma_constraint": null, "axis": -1, "gamma_initializer": {"class_name": "Ones", "config": {}}, "moving_variance_initializer": {"class_name": "Ones", "config": {}}, "moving_mean_initializer": {"class_name": "Zeros", "config": {}}, "epsilon": 1e-05, "gamma_regularizer": null, "scale": true, "beta_constraint": null, "beta_initializer": {"class_name": "Zeros", "config": {}}, "momentum": 0.9, "name": "separable_conv_2_bn_normal_left2_12"}, "inbound_nodes": [[["separable_conv_2_normal_left2_12", 0, 0, {}]]], "name": "separable_conv_2_bn_normal_left2_12"}, {"class_name": "BatchNormalization", "config": {"beta_regularizer": null, "center": true, "trainable": true, "gamma_constraint": null, "axis": -1, "gamma_initializer": {"class_name": "Ones", "config": {}}, "moving_variance_initializer": {"class_name": "Ones", "config": {}}, "moving_mean_initializer": {"class_name": "Zeros", "config": {}}, "epsilon": 1e-05, "gamma_regularizer": null, "scale": true, "beta_constraint": null, "beta_initializer": {"class_name": "Zeros", "config": {}}, "momentum": 0.9, "name": "separable_conv_2_bn_normal_right2_12"}, "inbound_nodes": [[["separable_conv_2_normal_right2_12", 0, 0, {}]]], "name": "separable_conv_2_bn_normal_right2_12"}, {"class_name": "AveragePooling2D", "config": {"padding": "same", "data_format": "channels_last", "pool_size": [3, 3], "trainable": true, "strides": [1, 1], "name": "normal_left3_12"}, "inbound_nodes": [[["normal_bn_1_12", 0, 0, {}]]], "name": "normal_left3_12"}, {"class_name": "AveragePooling2D", "config": {"padding": "same", "data_format": "channels_last", "pool_size": [3, 3], "trainable": true, "strides": [1, 1], "name": "normal_left4_12"}, "inbound_nodes": [[["adjust_bn_12", 0, 0, {}]]], "name": "normal_left4_12"}, {"class_name": "AveragePooling2D", "config": {"padding": "same", "data_format": "channels_last", "pool_size": [3, 3], "trainable": true, "strides": [1, 1], "name": "normal_right4_12"}, "inbound_nodes": [[["adjust_bn_12", 0, 0, {}]]], "name": "normal_right4_12"}, {"class_name": "BatchNormalization", "config": {"beta_regularizer": null, "center": true, "trainable": true, "gamma_constraint": null, "axis": -1, "gamma_initializer": {"class_name": "Ones", "config": {}}, "moving_variance_initializer": {"class_name": "Ones", "config": {}}, "moving_mean_initializer": {"class_name": "Zeros", "config": {}}, "epsilon": 1e-05, "gamma_regularizer": null, "scale": true, "beta_constraint": null, "beta_initializer": {"class_name": "Zeros", "config": {}}, "momentum": 0.9, "name": "separable_conv_2_bn_normal_left5_12"}, "inbound_nodes": [[["separable_conv_2_normal_left5_12", 0, 0, {}]]], "name": "separable_conv_2_bn_normal_left5_12"}, {"class_name": "Add", "config": {"trainable": true, "name": "normal_add_1_12"}, "inbound_nodes": [[["separable_conv_2_bn_normal_left1_12", 0, 0, {}], ["separable_conv_2_bn_normal_right1_12", 0, 0, {}]]], "name": "normal_add_1_12"}, {"class_name": "Add", "config": {"trainable": true, "name": "normal_add_2_12"}, "inbound_nodes": [[["separable_conv_2_bn_normal_left2_12", 0, 0, {}], ["separable_conv_2_bn_normal_right2_12", 0, 0, {}]]], "name": "normal_add_2_12"}, {"class_name": "Add", "config": {"trainable": true, "name": "normal_add_3_12"}, "inbound_nodes": [[["normal_left3_12", 0, 0, {}], ["adjust_bn_12", 0, 0, {}]]], "name": "normal_add_3_12"}, {"class_name": "Add", "config": {"trainable": true, "name": "normal_add_4_12"}, "inbound_nodes": [[["normal_left4_12", 0, 0, {}], ["normal_right4_12", 0, 0, {}]]], "name": "normal_add_4_12"}, {"class_name": "Add", "config": {"trainable": true, "name": "normal_add_5_12"}, "inbound_nodes": [[["separable_conv_2_bn_normal_left5_12", 0, 0, {}], ["normal_bn_1_12", 0, 0, {}]]], "name": "normal_add_5_12"}, {"class_name": "Concatenate", "config": {"axis": -1, "trainable": true, "name": "normal_concat_12"}, "inbound_nodes": [[["adjust_bn_12", 0, 0, {}], ["normal_add_1_12", 0, 0, {}], ["normal_add_2_12", 0, 0, {}], ["normal_add_3_12", 0, 0, {}], ["normal_add_4_12", 0, 0, {}], ["normal_add_5_12", 0, 0, {}]]], "name": "normal_concat_12"}, {"class_name": "Activation", "config": {"activation": "relu", "trainable": true, "name": "activation_1446"}, "inbound_nodes": [[["normal_concat_11", 0, 0, {}]]], "name": "activation_1446"}, {"class_name": "Activation", "config": {"activation": "relu", "trainable": true, "name": "activation_1447"}, "inbound_nodes": [[["normal_concat_12", 0, 0, {}]]], "name": "activation_1447"}, {"class_name": "Conv2D", "config": {"kernel_size": [1, 1], "dilation_rate": [1, 1], "filters": 128, "padding": "same", "bias_initializer": {"class_name": "Zeros", "config": {}}, "name": "adjust_conv_projection_13", "strides": [1, 1], "kernel_initializer": {"class_name": "VarianceScaling", "config": {"scale": 2.0, "mode": "fan_in", "distribution": "normal", "seed": null}}, "trainable": true, "bias_constraint": null, "data_format": "channels_last", "activation": "linear", "use_bias": false, "kernel_regularizer": {"class_name": "L1L2", "config": {"l1": 0.0, "l2": 0.0005000000237487257}}, "kernel_constraint": null, "bias_regularizer": null, "activity_regularizer": null}, "inbound_nodes": [[["activation_1446", 0, 0, {}]]], "name": "adjust_conv_projection_13"}, {"class_name": "Conv2D", "config": {"kernel_size": [1, 1], "dilation_rate": [1, 1], "filters": 128, "padding": "same", "bias_initializer": {"class_name": "Zeros", "config": {}}, "name": "normal_conv_1_13", "strides": [1, 1], "kernel_initializer": {"class_name": "VarianceScaling", "config": {"scale": 2.0, "mode": "fan_in", "distribution": "normal", "seed": null}}, "trainable": true, "bias_constraint": null, "data_format": "channels_last", "activation": "linear", "use_bias": false, "kernel_regularizer": {"class_name": "L1L2", "config": {"l1": 0.0, "l2": 0.0005000000237487257}}, "kernel_constraint": null, "bias_regularizer": null, "activity_regularizer": null}, "inbound_nodes": [[["activation_1447", 0, 0, {}]]], "name": "normal_conv_1_13"}, {"class_name": "BatchNormalization", "config": {"beta_regularizer": null, "center": true, "trainable": true, "gamma_constraint": null, "axis": -1, "gamma_initializer": {"class_name": "Ones", "config": {}}, "moving_variance_initializer": {"class_name": "Ones", "config": {}}, "moving_mean_initializer": {"class_name": "Zeros", "config": {}}, "epsilon": 1e-05, "gamma_regularizer": null, "scale": true, "beta_constraint": null, "beta_initializer": {"class_name": "Zeros", "config": {}}, "momentum": 0.9, "name": "adjust_bn_13"}, "inbound_nodes": [[["adjust_conv_projection_13", 0, 0, {}]]], "name": "adjust_bn_13"}, {"class_name": "BatchNormalization", "config": {"beta_regularizer": null, "center": true, "trainable": true, "gamma_constraint": null, "axis": -1, "gamma_initializer": {"class_name": "Ones", "config": {}}, "moving_variance_initializer": {"class_name": "Ones", "config": {}}, "moving_mean_initializer": {"class_name": "Zeros", "config": {}}, "epsilon": 1e-05, "gamma_regularizer": null, "scale": true, "beta_constraint": null, "beta_initializer": {"class_name": "Zeros", "config": {}}, "momentum": 0.9, "name": "normal_bn_1_13"}, "inbound_nodes": [[["normal_conv_1_13", 0, 0, {}]]], "name": "normal_bn_1_13"}, {"class_name": "Activation", "config": {"activation": "relu", "trainable": true, "name": "activation_1448"}, "inbound_nodes": [[["normal_bn_1_13", 0, 0, {}]]], "name": "activation_1448"}, {"class_name": "Activation", "config": {"activation": "relu", "trainable": true, "name": "activation_1450"}, "inbound_nodes": [[["adjust_bn_13", 0, 0, {}]]], "name": "activation_1450"}, {"class_name": "Activation", "config": {"activation": "relu", "trainable": true, "name": "activation_1452"}, "inbound_nodes": [[["adjust_bn_13", 0, 0, {}]]], "name": "activation_1452"}, {"class_name": "Activation", "config": {"activation": "relu", "trainable": true, "name": "activation_1454"}, "inbound_nodes": [[["adjust_bn_13", 0, 0, {}]]], "name": "activation_1454"}, {"class_name": "Activation", "config": {"activation": "relu", "trainable": true, "name": "activation_1456"}, "inbound_nodes": [[["normal_bn_1_13", 0, 0, {}]]], "name": "activation_1456"}, {"class_name": "SeparableConv2D", "config": {"kernel_size": [5, 5], "dilation_rate": [1, 1], "filters": 128, "bias_initializer": {"class_name": "Zeros", "config": {}}, "depthwise_regularizer": null, "strides": [1, 1], "data_format": "channels_last", "trainable": true, "bias_constraint": null, "name": "separable_conv_1_normal_left1_13", "depth_multiplier": 1, "pointwise_initializer": {"class_name": "VarianceScaling", "config": {"scale": 1.0, "mode": "fan_avg", "distribution": "uniform", "seed": null}}, "padding": "same", "pointwise_regularizer": null, "bias_regularizer": null, "depthwise_constraint": null, "activation": "linear", "use_bias": false, "pointwise_constraint": null, "depthwise_initializer": {"class_name": "VarianceScaling", "config": {"scale": 1.0, "mode": "fan_avg", "distribution": "uniform", "seed": null}}, "activity_regularizer": null}, "inbound_nodes": [[["activation_1448", 0, 0, {}]]], "name": "separable_conv_1_normal_left1_13"}, {"class_name": "SeparableConv2D", "config": {"kernel_size": [3, 3], "dilation_rate": [1, 1], "filters": 128, "bias_initializer": {"class_name": "Zeros", "config": {}}, "depthwise_regularizer": null, "strides": [1, 1], "data_format": "channels_last", "trainable": true, "bias_constraint": null, "name": "separable_conv_1_normal_right1_13", "depth_multiplier": 1, "pointwise_initializer": {"class_name": "VarianceScaling", "config": {"scale": 1.0, "mode": "fan_avg", "distribution": "uniform", "seed": null}}, "padding": "same", "pointwise_regularizer": null, "bias_regularizer": null, "depthwise_constraint": null, "activation": "linear", "use_bias": false, "pointwise_constraint": null, "depthwise_initializer": {"class_name": "VarianceScaling", "config": {"scale": 1.0, "mode": "fan_avg", "distribution": "uniform", "seed": null}}, "activity_regularizer": null}, "inbound_nodes": [[["activation_1450", 0, 0, {}]]], "name": "separable_conv_1_normal_right1_13"}, {"class_name": "SeparableConv2D", "config": {"kernel_size": [5, 5], "dilation_rate": [1, 1], "filters": 128, "bias_initializer": {"class_name": "Zeros", "config": {}}, "depthwise_regularizer": null, "strides": [1, 1], "data_format": "channels_last", "trainable": true, "bias_constraint": null, "name": "separable_conv_1_normal_left2_13", "depth_multiplier": 1, "pointwise_initializer": {"class_name": "VarianceScaling", "config": {"scale": 1.0, "mode": "fan_avg", "distribution": "uniform", "seed": null}}, "padding": "same", "pointwise_regularizer": null, "bias_regularizer": null, "depthwise_constraint": null, "activation": "linear", "use_bias": false, "pointwise_constraint": null, "depthwise_initializer": {"class_name": "VarianceScaling", "config": {"scale": 1.0, "mode": "fan_avg", "distribution": "uniform", "seed": null}}, "activity_regularizer": null}, "inbound_nodes": [[["activation_1452", 0, 0, {}]]], "name": "separable_conv_1_normal_left2_13"}, {"class_name": "SeparableConv2D", "config": {"kernel_size": [3, 3], "dilation_rate": [1, 1], "filters": 128, "bias_initializer": {"class_name": "Zeros", "config": {}}, "depthwise_regularizer": null, "strides": [1, 1], "data_format": "channels_last", "trainable": true, "bias_constraint": null, "name": "separable_conv_1_normal_right2_13", "depth_multiplier": 1, "pointwise_initializer": {"class_name": "VarianceScaling", "config": {"scale": 1.0, "mode": "fan_avg", "distribution": "uniform", "seed": null}}, "padding": "same", "pointwise_regularizer": null, "bias_regularizer": null, "depthwise_constraint": null, "activation": "linear", "use_bias": false, "pointwise_constraint": null, "depthwise_initializer": {"class_name": "VarianceScaling", "config": {"scale": 1.0, "mode": "fan_avg", "distribution": "uniform", "seed": null}}, "activity_regularizer": null}, "inbound_nodes": [[["activation_1454", 0, 0, {}]]], "name": "separable_conv_1_normal_right2_13"}, {"class_name": "SeparableConv2D", "config": {"kernel_size": [3, 3], "dilation_rate": [1, 1], "filters": 128, "bias_initializer": {"class_name": "Zeros", "config": {}}, "depthwise_regularizer": null, "strides": [1, 1], "data_format": "channels_last", "trainable": true, "bias_constraint": null, "name": "separable_conv_1_normal_left5_13", "depth_multiplier": 1, "pointwise_initializer": {"class_name": "VarianceScaling", "config": {"scale": 1.0, "mode": "fan_avg", "distribution": "uniform", "seed": null}}, "padding": "same", "pointwise_regularizer": null, "bias_regularizer": null, "depthwise_constraint": null, "activation": "linear", "use_bias": false, "pointwise_constraint": null, "depthwise_initializer": {"class_name": "VarianceScaling", "config": {"scale": 1.0, "mode": "fan_avg", "distribution": "uniform", "seed": null}}, "activity_regularizer": null}, "inbound_nodes": [[["activation_1456", 0, 0, {}]]], "name": "separable_conv_1_normal_left5_13"}, {"class_name": "BatchNormalization", "config": {"beta_regularizer": null, "center": true, "trainable": true, "gamma_constraint": null, "axis": -1, "gamma_initializer": {"class_name": "Ones", "config": {}}, "moving_variance_initializer": {"class_name": "Ones", "config": {}}, "moving_mean_initializer": {"class_name": "Zeros", "config": {}}, "epsilon": 1e-05, "gamma_regularizer": null, "scale": true, "beta_constraint": null, "beta_initializer": {"class_name": "Zeros", "config": {}}, "momentum": 0.9, "name": "separable_conv_1_bn_normal_left1_13"}, "inbound_nodes": [[["separable_conv_1_normal_left1_13", 0, 0, {}]]], "name": "separable_conv_1_bn_normal_left1_13"}, {"class_name": "BatchNormalization", "config": {"beta_regularizer": null, "center": true, "trainable": true, "gamma_constraint": null, "axis": -1, "gamma_initializer": {"class_name": "Ones", "config": {}}, "moving_variance_initializer": {"class_name": "Ones", "config": {}}, "moving_mean_initializer": {"class_name": "Zeros", "config": {}}, "epsilon": 1e-05, "gamma_regularizer": null, "scale": true, "beta_constraint": null, "beta_initializer": {"class_name": "Zeros", "config": {}}, "momentum": 0.9, "name": "separable_conv_1_bn_normal_right1_13"}, "inbound_nodes": [[["separable_conv_1_normal_right1_13", 0, 0, {}]]], "name": "separable_conv_1_bn_normal_right1_13"}, {"class_name": "BatchNormalization", "config": {"beta_regularizer": null, "center": true, "trainable": true, "gamma_constraint": null, "axis": -1, "gamma_initializer": {"class_name": "Ones", "config": {}}, "moving_variance_initializer": {"class_name": "Ones", "config": {}}, "moving_mean_initializer": {"class_name": "Zeros", "config": {}}, "epsilon": 1e-05, "gamma_regularizer": null, "scale": true, "beta_constraint": null, "beta_initializer": {"class_name": "Zeros", "config": {}}, "momentum": 0.9, "name": "separable_conv_1_bn_normal_left2_13"}, "inbound_nodes": [[["separable_conv_1_normal_left2_13", 0, 0, {}]]], "name": "separable_conv_1_bn_normal_left2_13"}, {"class_name": "BatchNormalization", "config": {"beta_regularizer": null, "center": true, "trainable": true, "gamma_constraint": null, "axis": -1, "gamma_initializer": {"class_name": "Ones", "config": {}}, "moving_variance_initializer": {"class_name": "Ones", "config": {}}, "moving_mean_initializer": {"class_name": "Zeros", "config": {}}, "epsilon": 1e-05, "gamma_regularizer": null, "scale": true, "beta_constraint": null, "beta_initializer": {"class_name": "Zeros", "config": {}}, "momentum": 0.9, "name": "separable_conv_1_bn_normal_right2_13"}, "inbound_nodes": [[["separable_conv_1_normal_right2_13", 0, 0, {}]]], "name": "separable_conv_1_bn_normal_right2_13"}, {"class_name": "BatchNormalization", "config": {"beta_regularizer": null, "center": true, "trainable": true, "gamma_constraint": null, "axis": -1, "gamma_initializer": {"class_name": "Ones", "config": {}}, "moving_variance_initializer": {"class_name": "Ones", "config": {}}, "moving_mean_initializer": {"class_name": "Zeros", "config": {}}, "epsilon": 1e-05, "gamma_regularizer": null, "scale": true, "beta_constraint": null, "beta_initializer": {"class_name": "Zeros", "config": {}}, "momentum": 0.9, "name": "separable_conv_1_bn_normal_left5_13"}, "inbound_nodes": [[["separable_conv_1_normal_left5_13", 0, 0, {}]]], "name": "separable_conv_1_bn_normal_left5_13"}, {"class_name": "Activation", "config": {"activation": "relu", "trainable": true, "name": "activation_1449"}, "inbound_nodes": [[["separable_conv_1_bn_normal_left1_13", 0, 0, {}]]], "name": "activation_1449"}, {"class_name": "Activation", "config": {"activation": "relu", "trainable": true, "name": "activation_1451"}, "inbound_nodes": [[["separable_conv_1_bn_normal_right1_13", 0, 0, {}]]], "name": "activation_1451"}, {"class_name": "Activation", "config": {"activation": "relu", "trainable": true, "name": "activation_1453"}, "inbound_nodes": [[["separable_conv_1_bn_normal_left2_13", 0, 0, {}]]], "name": "activation_1453"}, {"class_name": "Activation", "config": {"activation": "relu", "trainable": true, "name": "activation_1455"}, "inbound_nodes": [[["separable_conv_1_bn_normal_right2_13", 0, 0, {}]]], "name": "activation_1455"}, {"class_name": "Activation", "config": {"activation": "relu", "trainable": true, "name": "activation_1457"}, "inbound_nodes": [[["separable_conv_1_bn_normal_left5_13", 0, 0, {}]]], "name": "activation_1457"}, {"class_name": "SeparableConv2D", "config": {"kernel_size": [5, 5], "dilation_rate": [1, 1], "filters": 128, "bias_initializer": {"class_name": "Zeros", "config": {}}, "depthwise_regularizer": null, "strides": [1, 1], "data_format": "channels_last", "trainable": true, "bias_constraint": null, "name": "separable_conv_2_normal_left1_13", "depth_multiplier": 1, "pointwise_initializer": {"class_name": "VarianceScaling", "config": {"scale": 1.0, "mode": "fan_avg", "distribution": "uniform", "seed": null}}, "padding": "same", "pointwise_regularizer": null, "bias_regularizer": null, "depthwise_constraint": null, "activation": "linear", "use_bias": false, "pointwise_constraint": null, "depthwise_initializer": {"class_name": "VarianceScaling", "config": {"scale": 1.0, "mode": "fan_avg", "distribution": "uniform", "seed": null}}, "activity_regularizer": null}, "inbound_nodes": [[["activation_1449", 0, 0, {}]]], "name": "separable_conv_2_normal_left1_13"}, {"class_name": "SeparableConv2D", "config": {"kernel_size": [3, 3], "dilation_rate": [1, 1], "filters": 128, "bias_initializer": {"class_name": "Zeros", "config": {}}, "depthwise_regularizer": null, "strides": [1, 1], "data_format": "channels_last", "trainable": true, "bias_constraint": null, "name": "separable_conv_2_normal_right1_13", "depth_multiplier": 1, "pointwise_initializer": {"class_name": "VarianceScaling", "config": {"scale": 1.0, "mode": "fan_avg", "distribution": "uniform", "seed": null}}, "padding": "same", "pointwise_regularizer": null, "bias_regularizer": null, "depthwise_constraint": null, "activation": "linear", "use_bias": false, "pointwise_constraint": null, "depthwise_initializer": {"class_name": "VarianceScaling", "config": {"scale": 1.0, "mode": "fan_avg", "distribution": "uniform", "seed": null}}, "activity_regularizer": null}, "inbound_nodes": [[["activation_1451", 0, 0, {}]]], "name": "separable_conv_2_normal_right1_13"}, {"class_name": "SeparableConv2D", "config": {"kernel_size": [5, 5], "dilation_rate": [1, 1], "filters": 128, "bias_initializer": {"class_name": "Zeros", "config": {}}, "depthwise_regularizer": null, "strides": [1, 1], "data_format": "channels_last", "trainable": true, "bias_constraint": null, "name": "separable_conv_2_normal_left2_13", "depth_multiplier": 1, "pointwise_initializer": {"class_name": "VarianceScaling", "config": {"scale": 1.0, "mode": "fan_avg", "distribution": "uniform", "seed": null}}, "padding": "same", "pointwise_regularizer": null, "bias_regularizer": null, "depthwise_constraint": null, "activation": "linear", "use_bias": false, "pointwise_constraint": null, "depthwise_initializer": {"class_name": "VarianceScaling", "config": {"scale": 1.0, "mode": "fan_avg", "distribution": "uniform", "seed": null}}, "activity_regularizer": null}, "inbound_nodes": [[["activation_1453", 0, 0, {}]]], "name": "separable_conv_2_normal_left2_13"}, {"class_name": "SeparableConv2D", "config": {"kernel_size": [3, 3], "dilation_rate": [1, 1], "filters": 128, "bias_initializer": {"class_name": "Zeros", "config": {}}, "depthwise_regularizer": null, "strides": [1, 1], "data_format": "channels_last", "trainable": true, "bias_constraint": null, "name": "separable_conv_2_normal_right2_13", "depth_multiplier": 1, "pointwise_initializer": {"class_name": "VarianceScaling", "config": {"scale": 1.0, "mode": "fan_avg", "distribution": "uniform", "seed": null}}, "padding": "same", "pointwise_regularizer": null, "bias_regularizer": null, "depthwise_constraint": null, "activation": "linear", "use_bias": false, "pointwise_constraint": null, "depthwise_initializer": {"class_name": "VarianceScaling", "config": {"scale": 1.0, "mode": "fan_avg", "distribution": "uniform", "seed": null}}, "activity_regularizer": null}, "inbound_nodes": [[["activation_1455", 0, 0, {}]]], "name": "separable_conv_2_normal_right2_13"}, {"class_name": "SeparableConv2D", "config": {"kernel_size": [3, 3], "dilation_rate": [1, 1], "filters": 128, "bias_initializer": {"class_name": "Zeros", "config": {}}, "depthwise_regularizer": null, "strides": [1, 1], "data_format": "channels_last", "trainable": true, "bias_constraint": null, "name": "separable_conv_2_normal_left5_13", "depth_multiplier": 1, "pointwise_initializer": {"class_name": "VarianceScaling", "config": {"scale": 1.0, "mode": "fan_avg", "distribution": "uniform", "seed": null}}, "padding": "same", "pointwise_regularizer": null, "bias_regularizer": null, "depthwise_constraint": null, "activation": "linear", "use_bias": false, "pointwise_constraint": null, "depthwise_initializer": {"class_name": "VarianceScaling", "config": {"scale": 1.0, "mode": "fan_avg", "distribution": "uniform", "seed": null}}, "activity_regularizer": null}, "inbound_nodes": [[["activation_1457", 0, 0, {}]]], "name": "separable_conv_2_normal_left5_13"}, {"class_name": "BatchNormalization", "config": {"beta_regularizer": null, "center": true, "trainable": true, "gamma_constraint": null, "axis": -1, "gamma_initializer": {"class_name": "Ones", "config": {}}, "moving_variance_initializer": {"class_name": "Ones", "config": {}}, "moving_mean_initializer": {"class_name": "Zeros", "config": {}}, "epsilon": 1e-05, "gamma_regularizer": null, "scale": true, "beta_constraint": null, "beta_initializer": {"class_name": "Zeros", "config": {}}, "momentum": 0.9, "name": "separable_conv_2_bn_normal_left1_13"}, "inbound_nodes": [[["separable_conv_2_normal_left1_13", 0, 0, {}]]], "name": "separable_conv_2_bn_normal_left1_13"}, {"class_name": "BatchNormalization", "config": {"beta_regularizer": null, "center": true, "trainable": true, "gamma_constraint": null, "axis": -1, "gamma_initializer": {"class_name": "Ones", "config": {}}, "moving_variance_initializer": {"class_name": "Ones", "config": {}}, "moving_mean_initializer": {"class_name": "Zeros", "config": {}}, "epsilon": 1e-05, "gamma_regularizer": null, "scale": true, "beta_constraint": null, "beta_initializer": {"class_name": "Zeros", "config": {}}, "momentum": 0.9, "name": "separable_conv_2_bn_normal_right1_13"}, "inbound_nodes": [[["separable_conv_2_normal_right1_13", 0, 0, {}]]], "name": "separable_conv_2_bn_normal_right1_13"}, {"class_name": "BatchNormalization", "config": {"beta_regularizer": null, "center": true, "trainable": true, "gamma_constraint": null, "axis": -1, "gamma_initializer": {"class_name": "Ones", "config": {}}, "moving_variance_initializer": {"class_name": "Ones", "config": {}}, "moving_mean_initializer": {"class_name": "Zeros", "config": {}}, "epsilon": 1e-05, "gamma_regularizer": null, "scale": true, "beta_constraint": null, "beta_initializer": {"class_name": "Zeros", "config": {}}, "momentum": 0.9, "name": "separable_conv_2_bn_normal_left2_13"}, "inbound_nodes": [[["separable_conv_2_normal_left2_13", 0, 0, {}]]], "name": "separable_conv_2_bn_normal_left2_13"}, {"class_name": "BatchNormalization", "config": {"beta_regularizer": null, "center": true, "trainable": true, "gamma_constraint": null, "axis": -1, "gamma_initializer": {"class_name": "Ones", "config": {}}, "moving_variance_initializer": {"class_name": "Ones", "config": {}}, "moving_mean_initializer": {"class_name": "Zeros", "config": {}}, "epsilon": 1e-05, "gamma_regularizer": null, "scale": true, "beta_constraint": null, "beta_initializer": {"class_name": "Zeros", "config": {}}, "momentum": 0.9, "name": "separable_conv_2_bn_normal_right2_13"}, "inbound_nodes": [[["separable_conv_2_normal_right2_13", 0, 0, {}]]], "name": "separable_conv_2_bn_normal_right2_13"}, {"class_name": "AveragePooling2D", "config": {"padding": "same", "data_format": "channels_last", "pool_size": [3, 3], "trainable": true, "strides": [1, 1], "name": "normal_left3_13"}, "inbound_nodes": [[["normal_bn_1_13", 0, 0, {}]]], "name": "normal_left3_13"}, {"class_name": "AveragePooling2D", "config": {"padding": "same", "data_format": "channels_last", "pool_size": [3, 3], "trainable": true, "strides": [1, 1], "name": "normal_left4_13"}, "inbound_nodes": [[["adjust_bn_13", 0, 0, {}]]], "name": "normal_left4_13"}, {"class_name": "AveragePooling2D", "config": {"padding": "same", "data_format": "channels_last", "pool_size": [3, 3], "trainable": true, "strides": [1, 1], "name": "normal_right4_13"}, "inbound_nodes": [[["adjust_bn_13", 0, 0, {}]]], "name": "normal_right4_13"}, {"class_name": "BatchNormalization", "config": {"beta_regularizer": null, "center": true, "trainable": true, "gamma_constraint": null, "axis": -1, "gamma_initializer": {"class_name": "Ones", "config": {}}, "moving_variance_initializer": {"class_name": "Ones", "config": {}}, "moving_mean_initializer": {"class_name": "Zeros", "config": {}}, "epsilon": 1e-05, "gamma_regularizer": null, "scale": true, "beta_constraint": null, "beta_initializer": {"class_name": "Zeros", "config": {}}, "momentum": 0.9, "name": "separable_conv_2_bn_normal_left5_13"}, "inbound_nodes": [[["separable_conv_2_normal_left5_13", 0, 0, {}]]], "name": "separable_conv_2_bn_normal_left5_13"}, {"class_name": "Add", "config": {"trainable": true, "name": "normal_add_1_13"}, "inbound_nodes": [[["separable_conv_2_bn_normal_left1_13", 0, 0, {}], ["separable_conv_2_bn_normal_right1_13", 0, 0, {}]]], "name": "normal_add_1_13"}, {"class_name": "Add", "config": {"trainable": true, "name": "normal_add_2_13"}, "inbound_nodes": [[["separable_conv_2_bn_normal_left2_13", 0, 0, {}], ["separable_conv_2_bn_normal_right2_13", 0, 0, {}]]], "name": "normal_add_2_13"}, {"class_name": "Add", "config": {"trainable": true, "name": "normal_add_3_13"}, "inbound_nodes": [[["normal_left3_13", 0, 0, {}], ["adjust_bn_13", 0, 0, {}]]], "name": "normal_add_3_13"}, {"class_name": "Add", "config": {"trainable": true, "name": "normal_add_4_13"}, "inbound_nodes": [[["normal_left4_13", 0, 0, {}], ["normal_right4_13", 0, 0, {}]]], "name": "normal_add_4_13"}, {"class_name": "Add", "config": {"trainable": true, "name": "normal_add_5_13"}, "inbound_nodes": [[["separable_conv_2_bn_normal_left5_13", 0, 0, {}], ["normal_bn_1_13", 0, 0, {}]]], "name": "normal_add_5_13"}, {"class_name": "Concatenate", "config": {"axis": -1, "trainable": true, "name": "normal_concat_13"}, "inbound_nodes": [[["adjust_bn_13", 0, 0, {}], ["normal_add_1_13", 0, 0, {}], ["normal_add_2_13", 0, 0, {}], ["normal_add_3_13", 0, 0, {}], ["normal_add_4_13", 0, 0, {}], ["normal_add_5_13", 0, 0, {}]]], "name": "normal_concat_13"}, {"class_name": "Activation", "config": {"activation": "relu", "trainable": true, "name": "activation_1458"}, "inbound_nodes": [[["normal_concat_13", 0, 0, {}]]], "name": "activation_1458"}, {"class_name": "GlobalAveragePooling2D", "config": {"name": "global_average_pooling2d_10", "trainable": true, "data_format": "channels_last"}, "inbound_nodes": [[["activation_1458", 0, 0, {}]]], "name": "global_average_pooling2d_10"}, {"class_name": "Dropout", "config": {"rate": 0.0, "noise_shape": null, "trainable": true, "seed": null, "name": "dropout_10"}, "inbound_nodes": [[["global_average_pooling2d_10", 0, 0, {}]]], "name": "dropout_10"}, {"class_name": "Dense", "config": {"bias_constraint": null, "bias_initializer": {"class_name": "Zeros", "config": {}}, "bias_regularizer": null, "name": "predictions", "trainable": true, "units": 10, "kernel_initializer": {"class_name": "VarianceScaling", "config": {"scale": 1.0, "mode": "fan_avg", "distribution": "uniform", "seed": null}}, "activation": "softmax", "use_bias": true, "kernel_regularizer": {"class_name": "L1L2", "config": {"l1": 0.0, "l2": 0.0005000000237487257}}, "kernel_constraint": null, "activity_regularizer": null}, "inbound_nodes": [[["dropout_10", 0, 0, {}]]], "name": "predictions"}]}, "backend": "tensorflow", "keras_version": "2.1.2"}